abc_env_raw/saved_models/phi_only_0.9.pt (torch, 72199 bytes, 12 tensors)

input_layer.weight f4 [64, 3]
000000 ec 26 bd be fe e3 81 3c 3a a1 d7 be a7 fc b1 3e
       -0.36943758 0.015855785 -0.42115194 0.3476307
000010 fd e2 3d 3e c7 a7 96 3e 0c 4f 67 bc ee 2e 09 3f
       0.1854362 0.2942488 -0.014117967 0.53587234
000020 60 fa 0d bf b3 65 d3 bb 5e 1d a8 bd 39 e4 81 3e
       -0.55460167 -0.0064513325 -0.08208726 0.25369433
000030 c0 69 ad bd 1a e2 ee be 2e 89 06 3e b2 b7 9d 3d
       -0.08467436 -0.46656877 0.13138267 0.07701053
000040 4b 71 fb be 8f bf e1 3e ce 9a 94 3e 93 8b e2 bc
       -0.49109873 0.4409146 0.29024357 -0.027654445
000050 79 f7 ec 3e 08 e9 c2 be 1d 9a 7f be 49 7b ac be
       0.46282557 -0.38068414 -0.24961133 -0.3368781
000060 6e 00 bb 3e 05 8a ea be 24 0e fe 3e 27 60 ad be
       0.36523765 -0.45808426 0.49620163 -0.3386242
000070 81 fc 04 bf d7 7b 41 3e 3d e3 a8 bc 29 2e c5 3e
       -0.5194779 0.18894897 -0.020616168 0.3851178
000080 08 4e a3 3e f3 10 90 3e f5 01 14 bd a9 0a da 3d
       0.3189547 0.2813793 -0.03613468 0.106465645
000090 3b 31 fb be c0 5b 60 3e 0d 3e 4a be 88 29 99 bc
       -0.49060997 0.2191 -0.19750233 -0.018696561
0000a0 e0 c9 3c 3e 55 84 c2 bb ee 9b aa 3e 01 18 b3 be
       0.18436384 -0.0059361854 0.3332209 -0.3497925
0000b0 76 92 f9 be bf 23 01 3f 45 15 03 3f c9 d0 2b be
       -0.48744553 0.5044517 0.5120433 -0.16778864
0000c0 46 ad 42 bd 1e 54 a4 3e 91 45 b0 be 77 b0 6f 3e
       -0.047528528 0.32095426 -0.34428075 0.2340716
0000d0 ef ab 87 be ee b3 3f 3e ab a5 37 be 86 bf 95 3e
       -0.26498362 0.18720981 -0.17934291 0.29247683
0000e0 72 8d 82 be d3 59 ef be 8c d0 ff 3e 4d c6 3b 3d
       -0.2549854 -0.46748218 0.49963796 0.04584341
0000f0 3b 8d 49 3e d9 a4 2d be 81 08 ff be 85 2d c9 be
       0.19682781 -0.16957416 -0.49811175 -0.3929254
000100 d3 57 c9 3e b2 ac c1 be 1d 88 e0 3d 6a 89 91 bd
       0.39324817 -0.3782707 0.109634615 -0.07106288
000110 4e 4f 3f 3e ca 11 83 be 0a f1 48 3d f9 81 eb be
       0.18682596 -0.2559951 0.049057998 -0.459976
000120 4c dd 27 3e f8 9e 49 3d 33 fa 19 be f4 2d cb bd
       0.16393012 0.04922387 -0.1503685 -0.09920874
000130 1b e0 d2 be 6b 74 b5 3d 3f 9b 6e 3c 4e 22 8d be
       -0.41186604 0.088600956 0.014563381 -0.27565235
000140 d3 63 05 3f de 06 de 3e c6 6a 06 bf c4 be 99 3e
       0.52105445 0.43364614 -0.52506673 0.30028355
000150 21 58 0c 3e 72 e7 a8 be 08 e9 2f 3e 03 51 1f bd
       0.13705494 -0.3298908 0.17178738 -0.03889562
000160 20 ba ba 3d 6d 13 0f bf 3b 94 6f 3d 69 60 19 3e
       0.09117532 -0.55889016 0.058490973 0.14978184
000170 d8 0d 0d 3f 96 12 5e be cb 8a a2 3e 3c eb 8b be
       0.5509925 -0.21686777 0.31746516 -0.27327907
000180 ad 2d 1b be 25 c0 26 3e 68 40 2f be 83 8f 8f bd
       -0.15154143 0.16284235 -0.17114413 -0.070097946
000190 02 25 77 bd 73 98 4c bd cd d7 dd be d6 67 86 be
       -0.060338028 -0.049950074 -0.43328705 -0.26251096
0001a0 d1 87 87 3e 07 a0 f7 be 73 3b 7a be 33 7f 17 bd
       0.26470807 -0.4836428 -0.2443674 -0.03698654
0001b0 78 b3 04 be 65 04 8b 3e a5 0e ce 3d 47 91 ad 3d
       -0.12959087 0.2715179 0.10061387 0.08474975
0001c0 c5 2d 8f be d6 d8 e4 be 4c 8a ac 3d 31 86 1f be
       -0.27964607 -0.44696683 0.084248155 -0.15578534
0001d0 3e bb ae 3e e2 7f 0f 3e 57 3c 00 3e d1 7d 0b 3f
       0.3412723 0.14013627 0.12523018 0.54488856
0001e0 4b 93 b1 be b4 ac e3 3e af 3a 0e 3e c7 c0 91 be
       -0.34682688 0.444677 0.13889574 -0.2846739
0001f0 43 cb da be ac 12 25 bd cc ac 60 3e 76 bd f5 bd
       -0.427332 -0.04030101 0.21940917 -0.119990274
000200 21 f9 b7 be f2 e7 c6 bd 10 18 55 bd f1 e2 3b 3e
       -0.35932258 -0.09712209 -0.0520249 0.1834829
000210 f7 9c 0c bf 48 1e 02 3e 0b 2f aa be aa b9 62 be
       -0.5492701 0.12706864 -0.33239016 -0.22141138
000220 60 4f 67 bd e7 2f 16 bf 7f 93 89 3e d3 09 82 be
       -0.056472182 -0.58666843 0.26870343 -0.2539812
000230 53 69 99 3e 34 0a 0a 3f 31 6b 89 be 57 df da 3d
       0.29963169 0.5392182 -0.26839593 0.1068713
000240 2b dd 65 be 08 07 d8 be 23 11 c5 be 49 eb 64 3e
       -0.2244765 -0.42192864 -0.38489637 0.22355379
000250 d4 45 91 3c a2 30 04 bf 77 73 cc bc c6 5b 1c be
       0.017733492 -0.5163671 -0.024957402 -0.15269384
000260 e6 48 9d 3e 06 18 b7 be ed 14 89 be 34 74 b5 bd
       0.3071968 -0.35760516 -0.26773778 -0.088600546
000270 d5 a2 32 be 9e f8 db 3e 71 ce 07 3b c9 06 8d 3b
       -0.17444928 0.42963117 0.0020722414 0.0043037874
000280 c6 1f e0 3e 30 00 f4 be 58 1a ec 3d ad b3 94 3e
       0.4377424 -0.47656393 0.11528462 0.29043332
000290 86 09 02 3f a8 55 00 3f 68 7e 01 bf 7d a7 82 3d
       0.5079578 0.501307 -0.50583506 0.06379602
0002a0 81 4b df 3d 49 b6 0a be 0b 71 07 bf 74 8e da 3e
       0.10903073 -0.13546099 -0.52906865 0.42686808
0002b0 d8 0d a3 be 94 a5 ec bc f6 b4 a6 bd e9 e6 f6 3d
       -0.318465 -0.028887548 -0.08139984 0.12055761
0002c0 10 ef 83 3e 35 b2 b1 be 0a 64 61 3e 9f 6f ff be
       0.25768328 -0.34706274 0.22010818 -0.49889848
0002d0 80 f7 5e 3d db 1b 01 3f 15 51 c8 be 44 d9 00 3f
       0.054435253 0.5043313 -0.3912436 0.5033152
0002e0 0b d5 a7 3d a7 ce 8f be 62 9a b6 3e 4d ac de be
       0.081949316 -0.2808735 0.3566466 -0.4349083
0002f0 67 02 26 be c8 28 fb 3e e9 16 61 3e a6 55 7c bb
       -0.16211854 0.4905455 0.21981396 -0.00385032

input_layer.bias f4 [64]
000000 bf 42 b2 3c a2 ed 72 3e 14 63 04 3f 62 1b 43 be
       0.021760343 0.23723462 0.5171368 -0.19053414
000010 0d 88 00 bf 07 04 19 3f 17 82 02 3e 46 fa e5 3e
       -0.50207597 0.5977177 0.12744938 0.44917506
000020 2d b2 f8 be 06 a3 b2 3d 09 f0 f3 be 2c 5c 0d be
       -0.48573437 0.087225005 -0.4764407 -0.13804692
000030 eb 45 b3 3e 2b 9b 45 3e 06 a1 68 3e 73 be 0c 3f
       0.3501428 0.19297473 0.22717676 0.549781
000040 32 35 22 bc d0 16 f9 be 4f b7 ab bd 37 f4 46 bd
       -0.009900378 -0.48650217 -0.08384573 -0.048572745
000050 5c a5 d7 3e f7 e1 c7 be 9c c7 05 3f 7f f6 04 bf
       0.42118347 -0.39039585 0.52257705 -0.51938623
000060 29 da 9f be 64 e6 f0 be 35 bf a3 3e 4e 48 f1 3e
       -0.3122113 -0.47050774 0.31981817 0.47125477
000070 7f 33 09 be e6 29 2b be 5c 42 bf be bd fe 01 bf
       -0.1339855 -0.16715202 -0.37355316 -0.50779325
000080 1e 11 8d 3d 29 a6 a6 be 13 61 cd bd fd b4 08 bf
       0.068880305 -0.32548645 -0.10028281 -0.53401166
000090 eb a9 69 be 5b fd 8d 3e 30 26 36 be 84 72 ad 3d
       -0.22818725 0.27732357 -0.17788005 0.08469108
0000a0 9b 68 b8 3e 78 49 1b 3f 4d 15 97 3d 3f 37 ea 3e
       0.36017308 0.6065898 0.0737711 0.45745274
0000b0 bb 5d de bd 1e 49 b6 3d 1b 6f 73 be 2b 31 98 3d
       -0.108577214 0.08900665 -0.23772852 0.07431253
0000c0 b5 89 a7 be 85 f2 09 3f d3 88 b4 3e 68 bc 0e 3c
       -0.3272225 0.5388568 0.3526064 0.008711912
0000d0 2a 11 79 bd cf 6b c4 3e 11 b5 f5 be 46 92 e9 3e
       -0.060807385 0.383635 -0.47989705 0.4561941
0000e0 45 98 c4 be 38 b0 25 3e a6 54 0e 3f e1 7d d8 3e
       -0.38397422 0.16180503 0.55597913 0.42283538
0000f0 37 f6 d3 be c6 b9 31 be 65 c3 e8 3e 2d c3 0f 3f
       -0.41398785 -0.17356023 0.45461574 0.5615719

hidden_layers.0.weight f4 [64, 64]
000000 ca 50 e0 3d 0a 5d fc bd 42 5a b7 bd 9a c8 fc bd
       0.10952909 -0.12322433 -0.08952762 -0.12342949
000010 68 d2 e7 bd 46 c8 eb bd 20 38 d6 3d 4b 3d 9e bd
       -0.11319429 -0.115128085 0.10459924 -0.077265345
000020 f2 97 ff bd d7 9a ce bd 14 a6 9f 3d e0 e9 ff 3d
       -0.12480153 -0.10088127 0.07795349 0.1249578
000030 7d f2 8e 3c e9 49 0f bd 21 39 a9 bd 1c f0 5c bd
       0.017449612 -0.034982596 -0.082628496 -0.053939924
000040 0c 17 c5 3d fe e0 a3 bd 41 01 2a 3d 8a 12 0c 3d
       0.096235365 -0.08001898 0.041505102 0.034197368
000050 c6 8e 9c 3d 24 a6 d9 3d ca 5a 5a 3d 13 b3 b6 3c
       0.07644419 0.10627392 0.05330924 0.022302186
000060 40 b9 99 bd 30 6c 88 bc 80 52 fb bb da 7e 9a bd
       -0.07506037 -0.01665315 -0.007669747 -0.07543726
000070 40 24 7d bc ac c2 29 bc 5a 4a f3 3d 4f e4 5f bd
       -0.015450537 -0.010361355 0.11879416 -0.05466109
000080 4b 43 a2 3c 1e 5c b3 bd 04 07 e8 3b de ca 8b bd
       0.019807478 -0.08757804 0.0070809145 -0.06825803
000090 42 fd f9 bd 78 c7 ac 3d 24 1c 12 3d b0 e0 70 bc
       -0.12206508 0.08436483 0.03567137 -0.014702007
0000a0 52 5c fe 3c d8 28 65 3d 50 57 57 bd ae 1a c0 bd
       0.031049881 0.055947155 -0.052573502 -0.09380089
0000b0 40 b9 8b bd 39 b9 ca 3d 20 bf bf 3c 78 76 83 bd
       -0.06822443 0.0989861 0.023406565 -0.064190805
0000c0 96 5e c6 bd 50 3a 81 bd b3 9c e4 bd 1b b4 09 bd
       -0.096860096 -0.0630995 -0.111627005 -0.033619028
0000d0 c7 89 a2 bd f7 d7 8e bd 2c 42 8e 3d b8 6d 81 3c
       -0.07936435 -0.06974786 0.06946215 0.015799388
0000e0 41 6f b6 bd 90 02 34 bd 42 d4 b9 bc 08 c5 ac 3c
       -0.08907939 -0.043947756 -0.02268422 0.021090046
0000f0 af d3 01 be 08 30 08 bd 63 50 bf bd e0 ff 97 bd
       -0.12678407 -0.03324893 -0.093415044 -0.07421851
000100 8c 59 da 3c 22 90 99 3c 86 2a f7 3c 31 3a 3a 3d
       0.026654027 0.018745486 0.030171644 0.045465652
000110 93 02 6b bd 6c 1c b8 3d a1 bd 65 3d 24 f4 8b bc
       -0.0573755 0.08989796 0.056089047 -0.017084189
000120 a6 ea 9e 3a b0 77 04 3e e0 79 18 3d 1b 0d e6 3d
       0.0012124374 0.12936282 0.037225604 0.112329684
000130 31 77 0a 3c f5 2c b0 3c 3a f9 07 bc 21 d9 af 3c
       0.008451269 0.021505812 -0.008299166 0.02146584
000140 c5 4e a9 3d 57 3f b5 3d 77 54 f4 bc 1a 73 ee 3d
       0.08266977 0.08849972 -0.029825432 0.11643048
000150 a1 4d 93 3d f7 ff d3 bd 95 4e 0d 3e 20 8d b9 bc
       0.07192541 -0.10351556 0.13799508 -0.022650301
000160 14 08 cb 3d 5e 6a ae 3c 60 b3 d3 3c 48 e8 80 3d
       0.0991365 0.021290954 0.025842369 0.06294304
000170 86 a8 fc bc f2 34 e0 3d 97 67 3d 3d 28 80 32 3d
       -0.030842077 0.109475985 0.04624137 0.04357925
000180 a5 82 ae 3d b0 02 2c bc 76 26 e9 3b f8 52 86 bd
       0.08521012 -0.010498688 0.0071151806 -0.06558794
000190 6a 99 d2 3c e0 3a 26 bd 19 64 d6 ba 06 4c 3d bd
       0.02570792 -0.04058349 -0.0016356736 -0.04621508
0001a0 25 6a df b7 b7 15 1b 3e 43 e1 d1 bd e2 48 e4 bc
       -2.6633099e-05 0.15145002 -0.102480434 -0.027866784
0001b0 d2 d7 ea bd 95 db f8 bc c0 d3 48 bb b3 3a da bc
       -0.11466946 -0.030378142 -0.003064379 -0.026639318
0001c0 45 ae 9d 3d e8 14 56 bd 69 11 cc bd c2 58 3a 3d
       0.07699255 -0.05226603 -0.09964258 0.045494802
0001d0 09 27 c4 bd af 4d 60 3d 52 75 aa bd b4 cf fd 3c
       -0.09577758 0.054761585 -0.08323158 0.03098283
0001e0 aa f3 0e bd 14 1a e6 3c 5a c8 0b 3e 0b 19 1c bc
       -0.034900345 0.028088607 0.13650647 -0.009527455
0001f0 80 1b 45 bc 33 f1 5d bc d3 7c 00 3e 90 7b ab 3c
       -0.012030482 -0.013546276 0.12547617 0.020932943
000200 aa 24 01 bc 2e aa 17 3d 14 30 d4 3d ab 43 dd bd
       -0.007882277 0.03702753 0.10360733 -0.10803922
000210 85 d7 c6 3d c6 02 df 3d 9b a2 b6 bd 06 fb 17 3d
       0.09709076 0.10889201 -0.08917733 0.03710463
000220 80 97 62 3c a7 da 90 3d 32 02 23 bc 66 04 f2 3d
       0.013830066 0.070729546 -0.009949254 0.11817245
000230 fe af b7 bc a8 d2 2b bd 21 53 a5 3c b0 77 ff bd
       -0.022422787 -0.041948944 0.02018124 -0.124740005
000240 b4 d1 a9 3c b1 a6 b7 bd 0b e1 8a 3c 35 df 8f 3d
       0.020729877 -0.08967341 0.016953012 0.07024995
000250 cc 69 82 3d b4 55 44 3d 4d dd f8 bd 50 4d 7b 3d
       0.063678354 0.047933295 -0.12151585 0.061353028
000260 75 37 6a bc 1b dd c9 3d fa c3 a5 3d e6 ee 22 bd
       -0.014295449 0.09856626 0.0809402 -0.039778613
000270 c3 1e 8a 3d 88 62 37 3c 84 c2 bf bd 0b 91 64 bd
       0.067441486 0.011192925 -0.09363273 -0.055802386
000280 f3 44 c2 3d 49 bb 87 bd 46 ea c8 bd a6 80 f7 bd
       0.09485807 -0.06627519 -0.09810309 -0.120850846
000290 da b1 43 bd d7 92 89 3c c2 e8 ea 3d 95 1f 93 bd
       -0.047777034 0.016793652 0.11470176 -0.07183758
0002a0 80 df ee bc 6b 78 d0 bc 19 74 2e bd 37 0e 9b bc
       -0.029159307 -0.025448045 -0.042591188 -0.018927677
0002b0 87 c0 f6 39 1b f7 f0 3d f2 fe af bc 4b 1e cf bd
       0.0004706422 0.11765882 -0.021483872 -0.101132
0002c0 15 8e 81 bc 2e 58 87 3c d5 2b ab bc 1c 2a f3 3d
       -0.01581482 0.01652154 -0.020894924 0.11873266
0002d0 a9 96 80 bd cb 9d c7 3d 66 42 14 bc 2e 38 94 3d
       -0.06278736 0.097468935 -0.009049034 0.07237278
0002e0 f0 6a c7 3c f4 e0 58 bd 1a c4 b1 3d 66 81 39 3d
       0.024342984 -0.052948907 0.086799815 0.04528942
0002f0 3f 05 69 3d e3 19 c9 bd ed 62 cc bd f0 5f 34 3d
       0.05688977 -0.098193906 -0.09979806 0.044036806
000300 f2 31 df bc 38 2a 47 bd f9 6c a5 ba 5f 56 09 3d
       -0.027245495 -0.048624247 -0.0012620977 0.033529636
000310 61 f7 df bd 0a 3f 0a 3e 07 46 31 bd af ed 74 3d
       -0.10935856 0.1350061 -0.043279674 0.059796985
000320 b6 25 f2 3b 4d 04 a6 3d ab 70 e1 bc e8 5b df 3c
       0.0073897494 0.08106289 -0.027519545 0.027265504
000330 fa 73 75 bd 06 db d1 3d 10 0a 4c bd f6 ab 97 3d
       -0.059925057 0.102468535 -0.049814284 0.07405846
000340 5e 6e bc bd aa 38 6c bd a7 bf 4c bd a4 ca c1 3d
       -0.09200738 -0.057671227 -0.04998746 0.09462479
000350 0e fd 21 bd f6 84 b7 bd df d4 94 3c e7 d2 5d 3d
       -0.039547972 -0.08960907 0.018167911 0.05415621
000360 5f d1 b9 bb a0 cb 7d 3d 8a 20 0c 3e 1e 07 89 3c
       -0.005670711 0.06196177 0.13684288 0.016727027
000370 b7 76 61 3d ec 43 8e 3d 18 5e cb bd 0f 12 93 bc
       0.055044856 0.06946549 -0.09930056 -0.017952947
000380 5c 50 cc bb 74 c9 6f bd 16 a9 08 3e c8 1e a5 3d
       -0.0062351655 -0.05854173 0.13345751 0.08062512
000390 4d 5f cc 3d c8 13 cf 3d 85 cf 7c 3c fe 9e fb 3d
       0.09979115 0.10111195 0.015430336 0.12286185
0003a0 8d f0 7e 3d a4 a0 62 3d 88 02 5d bc 7a 49 27 3e
       0.062241126 0.05532898 -0.013489373 0.16336623
0003b0 d3 14 31 bc 38 8c e2 bc e1 8f b2 bd 76 d5 9b 3d
       -0.010808188 -0.027654752 -0.08718849 0.07609074
0003c0 00 ff 60 3d fe 47 08 3e 52 4c b2 3d 9d aa 23 3d
       0.054930687 0.13308713 0.08705963 0.03995763
0003d0 1b 8c 78 bd 1d 6c 2d bd 6a 6b ae 3d f2 13 c3 3d
       -0.06068049 -0.042339433 0.08516581 0.09525289
0003e0 93 3f 81 ba cd 53 16 3e 80 e1 ff 3d 6c a1 06 3e
       -0.0009860866 0.14680405 0.124941826 0.13147515
0003f0 85 31 05 3e 65 92 e4 3c e8 70 7c bc 22 b6 21 3e
       0.13007171 0.027901838 -0.015407778 0.15792134

hidden_layers.0.bias f4 [64]
000000 8a c2 73 3d 1c d0 19 bd a9 aa fc bd cc b3 25 bd
       0.0595117 -0.037551984 -0.12337238 -0.04045467
000010 f2 e9 e6 bd 5e 3f 93 3d 38 fb dc bd c0 eb cf bd
       -0.1127509 0.07189821 -0.10790104 -0.101523876
000020 37 c4 49 bd 9a 26 1c 3e 61 7f ad bc 7e 4c 81 3d
       -0.04925939 0.152491 -0.021178903 0.06313418
000030 75 88 7c 3d 84 13 99 3c 88 e8 22 3e c7 ca c9 bc
       0.061653573 0.018686064 0.15909016 -0.024632825
000040 9c bc c7 3d fa a5 9f 3d b4 78 e5 bd 82 75 cf 3d
       0.09752771 0.077953294 -0.11204663 0.10129835
000050 00 83 d9 bc 30 9c e9 bd cc f1 29 bc 48 7d 9a 3d
       -0.026551723 -0.114067435 -0.01037259 0.07543427
000060 8c 61 db bd d9 f2 c5 3d 3a 58 28 3e 1f 37 87 bd
       -0.10711965 0.0966546 0.16439906 -0.066023104
000070 de 56 db 3c d7 4a 00 3c a2 55 80 bc ce 8f 78 bc
       0.02677482 0.007830343 -0.015665833 -0.015171004
000080 35 df e6 3d 6c dc c3 3d cd bb d8 bc ac 53 1b bd
       0.11273042 0.095635265 -0.026456738 -0.037921593
000090 f6 72 e5 3d fd 3b a0 bd 09 a3 a6 3d 7e cf 96 3c
       0.11203568 -0.07823942 0.08136565 0.018409487
0000a0 83 ac e9 bc d3 14 96 bc fa 8a 19 3e d6 73 c5 3d
       -0.028524643 -0.018320477 0.14994422 0.096412346
0000b0 75 d6 32 3c 90 21 88 3d bb 05 6a 3d f3 29 9f bd
       0.010915388 0.066470265 0.05713437 -0.07771673
0000c0 36 08 d7 bd 26 28 48 3c a8 c3 27 3e 34 fc 08 3e
       -0.10499613 0.012216603 0.1638323 0.13377458
0000d0 4e 53 23 3e 5c 02 05 3e 6e 0a 11 3e 25 f1 b9 3d
       0.15949747 0.12989181 0.14164135 0.09079198
0000e0 7d 7e 9a 3d d8 dd b5 bd 4c 10 02 3e 8c 8b d0 3d
       0.07543657 -0.08880204 0.1270153 0.101828665
0000f0 e7 a3 04 3b 56 89 f8 3d 33 27 fe bc 35 70 1a 3e
       0.0020239295 0.1213557 -0.031024551 0.15081866

hidden_layers.1.weight f4 [64, 64]
000000 70 87 d3 bd 55 fd 23 3d 02 6e bc bb 54 3e 1f bd
       -0.10328567 0.040036518 -0.0057504186 -0.0388778
000010 3c e0 d1 3d e0 07 bc bc 08 6b c8 bc 64 31 9d 3d
       0.102478474 -0.022952974 -0.024465099 0.07675436
000020 1b c1 d6 bd 3a c2 0f 3c c1 c0 ae 3d 1d a2 eb bd
       -0.10486051 0.008774335 0.08532859 -0.1150553
000030 d9 56 db 3c f1 ee 32 3c a1 a9 cc 3d fc 0d 12 3c
       0.02677481 0.010921226 0.09993292 0.008914467
000040 02 04 d0 bd 72 ff 65 3d 73 dd 9c bd 1b 05 14 3c
       -0.101570144 0.056151815 -0.076594256 0.00903442
000050 fe 98 9a 3d 38 57 81 bd e9 2a df 3d 45 b3 d1 bc
       0.07548712 -0.06315464 0.10896856 -0.025598178
000060 34 4e 85 3d be 24 ef bc 46 9a fb 3d 32 66 c4 3d
       0.06509057 -0.029192325 0.12285285 0.09589805
000070 8c 03 08 bc 79 14 6e bd 3e 79 00 3e 98 68 ac 3d
       -0.008301627 -0.058124993 0.1254625 0.08418387
000080 a2 15 e2 3d 9d 6e cc bd 91 8c 98 3d b8 0c 17 3d
       0.110392824 -0.09982035 0.07448686 0.036877364
000090 4b 31 5b 3d 90 d4 0f 3e 54 20 f8 bc f4 2c 05 3e
       0.053513806 0.1404593 -0.030288853 0.1300543
0000a0 af d6 03 3e 2d 1b 42 bc 25 2f ca 3d 98 c0 18 bc
       0.12874864 -0.0118472995 0.09872273 -0.009323262
0000b0 47 d3 e8 bc 7d 22 b0 3d 97 78 33 bd a6 d2 db 3d
       -0.028421057 0.08600328 -0.043816175 0.107335374
0000c0 f9 1a 7b bd 18 bd a2 bb 4f db 52 bc 80 dc 95 3d
       -0.06130502 -0.0049663894 -0.01286967 0.07317448
0000d0 05 c3 9b 3c e0 e3 df 3d 03 2b 64 bd a6 e0 0e 3d
       0.019013891 0.109321356 -0.05570508 0.03488221
0000e0 81 b7 de bd 2c c1 99 3d b7 30 c9 bc cc 4e 82 3d
       -0.10874844 0.07507548 -0.024559362 0.063626856
0000f0 69 fa 33 bd b5 c4 a2 3d 06 b5 d0 bd b5 8c 9c 3c
       -0.04393998 0.07947675 -0.101907775 0.019110063
000100 e9 ee 4f bd ca c8 4a bc 1e 26 63 bd 0a 52 a9 3d
       -0.05076495 -0.012376973 -0.055456273 0.08267601
000110 a5 f3 20 3d 97 ab d0 3c 3c 19 5e 3d 92 21 f1 3c
       0.039294858 0.025472445 0.054223284 0.029434953
000120 3d 73 e8 bd 40 bc 1b 3e a1 d6 94 bd a6 c5 a5 bd
       -0.11350105 0.1520853 -0.072675 -0.08094339
000130 2f be 96 bd 40 47 e6 3d 84 bc 7b bd 10 1f cc 3d
       -0.073604934 0.112440586 -0.06145908 0.09966862
000140 f0 63 88 3d cc 47 f0 3d b8 bc 3d bd ed 23 a6 3d
       0.066596866 0.11732444 -0.046322554 0.08112321
000150 d9 e1 21 3e 9e 63 ba bd 14 49 a3 bd 12 9e 6f ba
       0.1580881 -0.09101032 -0.07972923 -0.0009140681
000160 c0 4a 82 3c 9e 17 49 3c b4 b4 1f 3e 4e 21 73 3d
       0.015904784 0.012273697 0.15596277 0.059357934
000170 f5 94 af 3c 22 98 d2 bc 7c 98 d7 3d 26 43 2d bc
       0.021433333 -0.025707308 0.10527131 -0.0105750915
000180 6d 6e 32 3e a5 f4 66 3c 0a c3 9b 3d e5 af c7 3d
       0.17424937 0.014096414 0.0760556 0.09750346
000190 27 76 b3 bd 72 34 6e bd 1a 24 e9 3d 36 ef 39 3e
       -0.0876277 -0.058155484 0.11383839 0.18157658
0001a0 e9 9e 35 3d 85 5d 27 bd 6f 99 83 3d 95 a4 b2 3c
       0.044341 -0.04086067 0.064257495 0.021806994
0001b0 0d ea 62 3c dd d2 1b 3e 2a f1 ee 3d 39 ac c3 3c
       0.013849747 0.15217157 0.11667092 0.023885833
0001c0 75 c7 99 3d c5 49 40 bc 95 36 5b 3d ba 48 05 3e
       0.075087465 -0.011736338 0.05351885 0.13016024
0001d0 fe 74 ca 3d 1f 4b 93 3c e5 db 89 3d 7c 63 af 3d
       0.09885596 0.017980156 0.06731395 0.08563897
0001e0 4a c0 87 3d d5 33 4f bd 2a 59 97 bd 1a b0 ff 3a
       0.06628473 -0.05058654 -0.073900536 0.0019507438
0001f0 58 50 65 3d 34 3f 0f 3e e5 55 9e 3d d0 f4 42 3b
       0.055984825 0.13988954 0.07731227 0.002974797
000200 bf ca f3 3c c2 25 f2 3d 64 e3 a4 bc cb 71 aa 3d
       0.029759763 0.11823608 -0.02012796 0.083224855
000210 25 ca 7d bb 69 70 8b bd c0 6c cf 3b a0 db 84 3d
       -0.0038725224 -0.0680855 0.0063301027 0.06487203
000220 81 3d d4 bd b9 0b 9b 3d 2e 84 2f 3d 08 e6 95 bd
       -0.103632934 0.07570595 0.042850666 -0.073192656
000230 f7 de 88 3d 90 61 0c 3e 89 4e b7 3d ad 1c 03 3d
       0.06683152 0.13709092 0.08950526 0.03200977
000240 c4 de 25 bd 89 92 09 bd 9f a6 cf 3d b9 73 9e 3a
       -0.04049565 -0.033587012 0.10139202 0.0012088931
000250 02 f1 aa bc b0 f0 e2 3c 85 af 03 3e 76 dd f4 3d
       -0.020866875 0.02770266 0.12859924 0.11956303
000260 ca a2 ed 3d 1b 9d d8 bc 7f de 13 3e 96 50 f7 3d
       0.11603315 -0.026442101 0.14440344 0.120759174
000270 58 5c 22 3e b8 01 bb 3d 79 75 98 bd 5c c5 97 3d
       0.15855539 0.09131187 -0.07444281 0.0741069
000280 10 74 29 3d fd 23 8c bc 38 f6 ee 3d 83 98 f0 3d
       0.04137045 -0.017107004 0.11668056 0.11747839
000290 c5 56 9e bd db 0a 04 bd 0e 66 cf 3c a9 d5 07 3e
       -0.07731394 -0.032236915 0.025317218 0.13265099
0002a0 53 0d de 3d 6f 13 16 bd 76 b7 c4 3d b2 bb 6d 3d
       0.10842385 -0.036639627 0.09605305 0.05804033
0002b0 a7 0a d8 3c 77 31 00 3e bd 80 79 3d 49 26 a7 bd
       0.026372267 0.1251887 0.06091379 -0.08161599
0002c0 3c 66 82 3d 2f ad 61 3c 86 94 9a 3d ab 0a fa bc
       0.06367156 0.0137742 0.0754786 -0.030522665
0002d0 74 71 93 3d 15 2a 1b bd c4 e9 d8 3d 91 ff e9 bd
       0.07199374 -0.03788193 0.10591462 -0.114256985
0002e0 f1 ef 44 3d 54 67 b8 3d 33 d6 94 3d 6b 85 06 3e
       0.04808039 0.09004083 0.07267418 0.13136832
0002f0 97 30 48 bd d7 07 83 bd 89 d8 c3 bd 90 aa 99 bd
       -0.048874464 -0.0639798 -0.09562785 -0.07503235
000300 f0 10 a3 bd 55 ad 54 3c 4e e9 25 3d be 90 8f bd
       -0.07962215 0.012980779 0.0405057 -0.07010029
000310 d9 a5 74 bd 07 a2 8f 3b f8 c4 08 3d 8a 23 f2 bb
       -0.059728477 0.004383329 0.03339097 -0.0073894905
000320 db b3 92 3d 46 d4 99 3d 9b f3 ea 3d 90 36 34 3d
       0.07163211 0.07511191 0.11472245 0.043997347
000330 99 61 cf bc 12 ec 1a 3e 42 2d f5 3d 81 06 38 3c
       -0.025315093 0.15129116 0.11971523 0.011232019
000340 00 46 26 bd 68 78 96 3d 30 a0 03 bd cf c3 85 3b
       -0.0405941 0.073471844 -0.03213519 0.00408218
000350 f8 76 cd 3c 10 e1 d3 bc 6d 74 0f 3d 63 cb 14 3d
       0.025081143 -0.025864154 0.03502314 0.036326777
000360 80 f1 b0 ba 8c c0 16 3e 66 17 cf 3c f3 86 fd bc
       -0.0013499707 0.14721888 0.025279712 -0.030948138
000370 87 91 f9 3c 95 1c 6e bd 91 ad d3 3d 7a c2 57 3c
       0.0304649 -0.058132727 0.103358395 0.013168925
000380 19 a6 3f 3d 26 89 77 3d 49 ff b1 bd 86 df 95 3c
       0.046789262 0.06043353 -0.0869127 0.01829506
000390 b4 66 31 3d 41 99 c8 3d b6 24 6c 3d ee 05 65 3d
       0.043310836 0.09794856 0.057652198 0.055913858
0003a0 f2 e1 b8 3d 3f e8 84 3d fd 67 f9 3c f9 27 1f 3e
       0.09027471 0.0648961 0.030445093 0.15542592
0003b0 cd 08 0b 3e 5e 78 c0 3d 73 e7 90 bc b3 cc 97 bd
       0.13577576 0.09397958 -0.017688489 -0.0741209
0003c0 0d 3d 72 bd ae 55 1b 3e 4d c4 9c bd 53 04 06 3e
       -0.059140254 0.15169403 -0.07654629 0.13087587
0003d0 68 bb 40 bb dc 94 15 3d 93 f8 27 3e c6 48 30 3d
       -0.0029408578 0.036518916 0.16403417 0.043038152
0003e0 80 fb c4 3d 0b a7 b6 bd c9 6f 94 3c 60 62 35 3c
       0.09618282 -0.0891858 0.01811971 0.011070818
0003f0 03 35 62 bd 8c 52 07 3c c0 5e e8 bd 3b 6c 36 3e
       -0.055226337 0.008259427 -0.11346197 0.17814724

hidden_layers.1.bias f4 [64]
000000 af c8 e0 3c 0f 6d 0b 3c 37 c8 54 3c 36 ba ba 3d
       0.027439443 0.008509888 0.012987188 0.09117548
000010 65 a9 78 3d d9 e5 56 bd 62 54 71 3d 8b 9a d2 bc
       0.060708422 -0.052465294 0.058918364 -0.025708457
000020 cc 49 df 3c ee 08 af bd 12 32 44 bd 6b f8 1f 3d
       0.027256869 -0.08546625 -0.047899313 0.03905527
000030 77 24 02 3e a8 0d 5a bd 88 88 d0 3c d4 12 d7 3d
       0.12709223 -0.05323568 0.025455728 0.10501638
000040 cf 2b 24 bd 42 ef e0 bc c0 e2 4b 3d 5e 5d f7 3d
       -0.04008084 -0.027457837 0.049776793 0.12078355
000050 4c 94 04 3e 73 85 11 3e 78 79 63 3d c3 1b ee 3d
       0.12947196 0.14211063 0.055535764 0.11626389
000060 3f c7 da 3d 14 37 4a 3d b5 05 b7 bd 09 2d c1 bd
       0.106825344 0.049368933 -0.089366354 -0.09432418
000070 80 f2 fa 3c 38 0d 2b bd dc 9f 4f 3b 61 aa ae bd
       0.030633211 -0.041760653 0.0031680977 -0.08528591
000080 88 37 a6 3c bc 66 b9 bd 24 03 b7 bd f4 a8 dc bd
       0.020290151 -0.09052798 -0.08936146 -0.10774413
000090 14 81 0f 3e 51 ab 54 3b 67 a7 f5 3c 40 cd 95 3c
       0.14014083 0.0032450745 0.02998705 0.018286347
0000a0 8b 1a 61 bd 32 35 e5 bd 89 69 27 bd 0e a6 24 bd
       -0.054956954 -0.11191787 -0.04087213 -0.040197425
0000b0 bb ed 1c 3e f8 87 c8 bd f0 3c 2b bd 12 5f 1d bd
       0.15325062 -0.09791559 -0.04180616 -0.038420744
0000c0 25 f5 db 3d 43 b3 f7 3d 38 01 80 bd d0 51 1e 3e
       0.10740117 0.12094738 -0.062502325 0.15460896
0000d0 7b 0c bf bd ee ab ad bc 30 89 6b 3d 18 f7 de bc
       -0.09328552 -0.021200147 0.05750388 -0.027217433
0000e0 d2 01 a8 3d 3f 96 7d bd a5 0f 0d 3e 54 77 b6 3d
       0.08203472 -0.061910864 0.13775499 0.08909479
0000f0 5a 7b 28 3d 63 40 d0 3d 2d 4b 47 3d 91 48 95 bd
       0.041133262 0.10168531 0.048655678 -0.072892316

hidden_layers.2.weight f4 [64, 64]
000000 59 55 b5 3d 78 ca b0 bd e9 40 36 bd e8 77 90 3d
       0.088541694 -0.08632368 -0.044495497 0.0705412
000010 e2 36 86 3d 2f e6 e7 bd e7 9f e8 bc c3 04 08 bb
       0.06553437 -0.11323201 -0.02839656 -0.0020754791
000020 0d fd 0b 3e 17 04 ca 3d 83 19 38 3c 76 72 dc 3d
       0.1367075 0.09864061 0.011236551 0.10764019
000030 a3 54 c5 bb 7c fe 9b 3d 50 a9 9f 3b 74 84 15 3d
       -0.0060220524 0.076168984 0.0048724785 0.03650327
000040 2c 33 1d bc b7 17 0e 3d 40 dc 48 bd e1 2f 68 3d
       -0.00959472 0.034690585 -0.04903817 0.056686286
000050 19 54 97 3d 00 74 fe 3d bd cd a9 bd d8 a4 00 3e
       0.07389087 0.12424469 -0.082911946 0.12562883
000060 58 8d 2b bd 37 fe 77 bd 84 a0 a6 3d 21 80 f8 bd
       -0.041882843 -0.060545173 0.08136085 -0.12133814
000070 e1 6e 0d 3d c1 51 6e bd aa 3b bb bd 2b 04 e5 3d
       0.03452957 -0.058183435 -0.091422394 0.111824356
000080 66 e3 a9 bd 88 4e 8b 3c 60 ff d6 bd f0 05 af 3c
       -0.08295326 0.01700522 -0.10497928 0.021365136
000090 d8 03 10 3e ea 83 75 bc 73 6e 2f bc f7 4c af 3c
       0.14063966 -0.014985064 -0.0107074855 0.021399004
0000a0 1c b5 19 3e f8 01 be bc 69 b7 59 3d 2c f2 d0 bc
       0.15010494 -0.023194298 0.05315343 -0.025506102
0000b0 ab 80 4f bd 48 b5 c6 bd f0 cb f3 3d fe 57 87 3d
       -0.050659817 -0.097025454 0.11904132 0.0660858
0000c0 15 4f a9 3d fe b5 2b 3d 4c 00 ab 3d 12 21 eb 3d
       0.08267037 0.04192161 0.08349666 0.11480917
0000d0 f3 73 e2 3d bc 32 66 bc d8 ef 06 3d 38 dd fe 3d
       0.11057272 -0.014050182 0.032943577 0.12444538
0000e0 c3 26 0e 3e f6 de fb 3d ba f5 e4 bc 75 55 68 3d
       0.13881974 0.12298386 -0.027949203 0.056722123
0000f0 0f 73 0e 3d 16 a1 da bc 9b 21 28 3e ad 97 0f 3b
       0.034777697 -0.02668814 0.1641907 0.0021910474
000100 9a d5 8c 3d d3 ac 00 3e 0e 33 80 3d c7 7c 07 3d
       0.06876679 0.12565927 0.06259738 0.03307798
000110 30 7f 26 bd 18 84 bc 3d 4d e0 f4 3c f8 a6 ba bd
       -0.04064864 0.092048824 0.029892111 -0.09113878
000120 e7 35 6d 3c 4b 60 2d bd a9 2c 9c 3d 22 7b df 3c
       0.014478183 -0.04232816 0.07625706 0.027280394
000130 f4 26 88 3d ac bc c7 bd b6 22 d8 3d a3 48 cf 3d
       0.06648055 -0.09752783 0.105534956 0.10121276
000140 e7 82 c9 bd 1f f0 22 bd 8f 34 9c bd da b8 03 3e
       -0.09839421 -0.03977978 -0.07627212 0.12863484
000150 69 9f ce 3b c0 d7 4b bd 1b 32 fe b9 c0 58 f8 3b
       0.0063056243 -0.049766302 -0.00048483987 0.007578939
000160 d6 6b 8d bd 9d 7c 7e 3d f9 3d b7 bd b4 a6 a0 3d
       -0.06905334 0.06213056 -0.08947367 0.07844296
000170 70 00 8e 3d 76 18 0c 3e 72 d4 41 bc 34 7e 08 bd
       0.06933677 0.13681206 -0.011830436 -0.03332348
000180 00 ea e3 3a a8 04 da bd 80 08 26 bb a0 32 43 bd
       0.0017388463 -0.10645419 -0.0025334656 -0.0476557
000190 f7 32 04 3d bc 59 0c 3e 57 5c 02 3d 1f da c3 3d
       0.032275166 0.13706106 0.031826343 0.09563088
0001a0 a9 2b e3 3d 18 ac 2c bd 4f b5 8f 3c cb 58 eb bd
       0.11092312 -0.04215631 0.01754251 -0.11491545
0001b0 6a a0 af bd 28 bc 97 3d 78 5d 46 3d e1 a2 90 3d
       -0.085755184 0.07408935 0.048428982 0.07062317
0001c0 16 aa c5 3d 23 42 17 bd c0 d7 08 bd b8 7b c0 3d
       0.09651582 -0.036928307 -0.03340888 0.093985975
0001d0 a7 30 08 bd bb 81 30 3d 85 3f 4b 3d 32 f3 df bd
       -0.033249523 0.04309247 0.049621124 -0.10935058
0001e0 bc 38 85 3d 7c 7a 97 bd 1e 82 ad bd 9d 9a d6 3c
       0.06504962 -0.07396409 -0.084720835 0.026196772
0001f0 3b cf 11 3e 51 04 a6 bd 60 26 3a 3e f3 0d aa bd
       0.14239208 -0.08106292 0.18178701 -0.08303442
000200 db 67 0b bd 6d 14 f5 3c cb 81 4f bc ca 3d fe 3d
       -0.03403459 0.029916966 -0.012665222 0.12414129
000210 c0 12 f0 bc 75 dd 91 bc 30 9f fd bc 53 42 d1 3c
       -0.029305816 -0.017805794 -0.030959696 0.025544321
000220 ce 6f 0e 3e 22 26 8a 3d 8f a8 1c 3e 08 43 81 bd
       0.13909838 0.067455545 0.15298675 -0.06311613
000230 bd fc 4f bd 0e d7 e7 3d e5 01 d0 bd 9a 2d f7 3d
       -0.05077814 0.11320315 -0.10156611 0.12069245
000240 fb fd 25 bb 9a 9f c1 3d ea 89 55 bd f7 7b f3 bc
       -0.0025328386 0.0945427 -0.05213348 -0.029722197
000250 a4 e0 0f 3c 7b 86 bf 3d 48 0a 01 3e 8c 05 fe 3d
       0.008781586 0.09351822 0.12601578 0.12403402
000260 72 d8 55 bd 3b 6d 37 3c 0e d9 99 3d 80 98 03 3b
       -0.05220837 0.011195476 0.07512103 0.002007991
000270 c3 7d fe bc 8c e6 bf 3d 89 31 78 3c 4c 0d 05 bd
       -0.031065827 0.09370145 0.015148529 -0.032483384
000280 ae 40 ab bd 14 f1 50 3d 26 2d cc 3d 76 d3 b3 3d
       -0.08361946 0.05101116 0.09969549 0.08780567
000290 d4 0d 3d 3c b4 86 5d 3c 79 df 00 3e 5c ee ad 3d
       0.011538941 0.013520885 0.12585248 0.08492729
0002a0 f2 b5 42 3d 20 c5 ab 3b a9 71 28 bd e2 65 9f 3d
       0.047536798 0.005242005 -0.04112402 0.077831045
0002b0 9c cf f1 3d 68 fa c8 3c a0 45 cc bd 0c f9 11 bd
       0.118071765 0.024533466 -0.099742174 -0.0356379
0002c0 89 09 77 bc fd 29 0a bb 90 3f 00 bc a0 82 34 bb
       -0.015077957 -0.0021082156 -0.0078276545 -0.002754368
0002d0 95 a0 35 3d d1 63 65 bd 3b 03 96 3d 82 de a7 3d
       0.044342596 -0.056003395 0.07324835 0.08196737
0002e0 ec 1b 15 bd ba 9b ec 3c 57 3a 0c 3d 3a b2 c6 3d
       -0.03640358 0.02888285 0.034235325 0.09701963
0002f0 d3 3c 3f bd f3 11 d1 bd 89 c0 3c 3e 62 e1 19 bd
       -0.046688866 -0.10208502 0.18432821 -0.037568457
000300 ce 08 59 3c 7a 8f 49 3d 3c 11 95 3d 05 44 d8 3d
       0.013246728 0.049209096 0.07278678 0.10559849
000310 62 91 37 3d 0d 87 e4 3c 6f e3 0c 3c f0 59 18 3d
       0.044816382 0.027896428 0.008599146 0.037195146
000320 18 17 f4 bd e7 9b 96 ba 95 b5 cb 3d cb 7f 1d 3d
       -0.11918467 -0.0011490554 0.099467434 0.03845195
000330 ac 41 95 bc 86 b3 b5 3d d5 de be bd 6b 36 a5 bd
       -0.018219791 0.08872132 -0.093198456 -0.0806702
000340 aa 6a 24 3d 06 6d a2 3d 7b b0 c8 3d 40 93 f2 bd
       0.040140785 0.07930951 0.09799286 -0.11844492
000350 f7 1f 50 3c e1 c6 9f bd 26 0a df 3d 43 a3 0c be
       0.0127029335 -0.07801605 0.108906075 -0.13734154
000360 0e b0 99 3c ba 07 80 bd 2b 88 ea 3d f5 5d 4d bd
       0.018760707 -0.06251474 0.11451753 -0.050138433
000370 1d 7e be 3d c3 6f 0f be 2e 95 f0 3c d9 6b a7 bd
       0.09301398 -0.14007477 0.02936801 -0.08174867
000380 b8 ae 48 bd c0 b6 99 bd ce fb f9 3d 2a 1a ac bd
       -0.04899475 -0.0750556 0.12206231 -0.08403428
000390 68 18 24 3c 6a d8 a2 bd 9a 50 4a bc 88 eb 19 bd
       0.0100155845 -0.07951434 -0.0123483185 -0.037578136
0003a0 71 31 e1 3d aa 43 e8 bd 8e 50 ea bc 2a 6e c6 bd
       0.10995758 -0.11341031 -0.028602865 -0.09688981
0003b0 20 d0 c2 3d b0 05 14 3d c8 f5 a0 bc 3c 12 00 bc
       0.09512353 0.036138237 -0.019648448 -0.007816847
0003c0 72 58 d5 bb 03 98 4c 3c 34 01 c3 3d 3f d5 48 3c
       -0.0065107876 0.012487414 0.09521714 0.012257873
0003d0 54 ee 04 bd 6b fe 92 3d 45 2b 2f 3d 58 a8 52 bd
       -0.03245385 0.071774326 0.042765874 -0.051430076
0003e0 39 dd 95 bc 60 d4 14 bd fd a2 af bd 18 85 dd bd
       -0.018293964 -0.03633535 -0.085760094 -0.10816401
0003f0 4f 0e c5 3d 11 dd 0b 3c 56 9c 72 bc 2c 95 b6 bd
       0.0962187 0.008536593 -0.014807781 -0.08915171

hidden_layers.2.bias f4 [64]
000000 25 0d a1 3c 64 f2 f8 3d 8c a3 ee 3d 28 92 11 bd
       0.019659588 0.12155607 0.11652288 -0.035539776
000010 ab ad 39 bd 12 59 8a 3d a9 87 97 bb ca cc 28 3d
       -0.04533164 0.0675527 -0.0046243262 0.041210927
000020 dd 9d a8 bc ef e5 18 3e b5 0d aa 3c a0 50 bb bd
       -0.020583088 0.14931463 0.02075849 -0.091462374
000030 17 0a 8c bd d1 67 83 bd f6 bf a1 3d f4 a6 4a bd
       -0.06837862 -0.06416286 0.07897942 -0.049475625
000040 5a dc e5 bd 00 7c 0f 3a d3 65 7c bd 2c b9 f2 3d
       -0.11223669 0.00054734945 -0.061620545 0.11851725
000050 a5 ed a8 3d 56 85 dc bd 3d 67 bf bd 6f 8a 13 3d
       0.08248452 -0.10767619 -0.09345863 0.036020692
000060 aa e4 e9 bd 95 e0 12 3d 2a 38 ec bd 20 fe 32 bc
       -0.11420567 0.03585871 -0.1153415 -0.010924846
000070 fa 32 a3 bd 76 ef 62 bd 56 5c ca 3d fd 77 c1 bd
       -0.079687074 -0.05540415 0.09880893 -0.09446714
000080 1b c6 a6 3c 51 86 d0 bd 11 17 0e 3e d4 6d 22 bd
       0.020358136 -0.10181869 0.13875987 -0.03965552
000090 c7 40 e1 3c ff bd 94 3d f8 b1 e7 3d 38 2f e1 3c
       0.027496709 0.072628014 0.11313242 0.027488336
0000a0 49 05 ac 3d cf e8 35 3c b8 78 1b bd 94 55 fc bd
       0.083994456 0.011102869 -0.037956923 -0.1232101
0000b0 92 cc a8 3d 24 53 36 bd 0f 1c 53 bd b1 ee ee 3d
       0.08242144 -0.044512883 -0.05154043 0.116666205
0000c0 84 cd 0f 3e 55 c4 71 3c 87 41 97 3d 42 ef 8a bd
       0.14043242 0.014756282 0.07385545 -0.06783916
0000d0 b4 d3 30 bc 73 29 a2 bc 91 97 46 3d bd 1a 87 3d
       -0.010792661 -0.019795155 0.04848439 0.06596897
0000e0 19 cc 21 3d 20 91 bf bd de 22 b3 3d 88 9b 84 3d
       0.039501283 -0.09353852 0.08746885 0.06474978
0000f0 cb 5f 0a 3e 6c be ea 3c b9 e8 9a bd f0 ca c2 bd
       0.13513105 0.028655253 -0.075639196 -0.095113635

hidden_layers.3.weight f4 [64, 64]
000000 e1 2e 8f 3b f5 e9 0c 3e 3d 3d 0c 3e 3f ae 25 3c
       0.004369602 0.13761123 0.13695236 0.010112344
000010 ae 62 76 bc a0 8a 80 bb d6 b6 d3 3d f7 af 1f bb
       -0.0150381755 -0.0039227754 0.103376076 -0.0024366358
000020 0c 6c ff 3d f4 3e 96 bd 03 2a e5 3d ef 17 41 3d
       0.1247178 -0.07336226 0.11189654 0.047141965
000030 de 4a 73 3c 3e f6 fe 3d b1 af 6c bd 1e fe 9a 3d
       0.014849393 0.12449311 -0.05778474 0.07568
000040 54 9c a0 3d 60 86 0e bd 4f 7e fc 3d 9a fc 15 bc
       0.07842317 -0.03479612 0.12328779 -0.009154463
000050 db 8a b4 3c ea 0b fd 3d 96 11 55 3a da bc 5b 3d
       0.022038868 0.12355788 0.00081279257 0.0536469
000060 17 ae 02 3e fa 13 d0 3d 67 75 b6 bd 9e 29 9e bd
       0.12761723 0.1016006 -0.089091115 -0.077227816
000070 fe b3 d4 bd 2f d6 a5 3d 6d 53 89 bd 4d 45 65 3d
       -0.10385893 0.08097493 -0.06705365 0.055974294
000080 1a e0 23 3d 01 fa 52 3d fd 5d fa 3d e0 a4 98 bd
       0.04000864 0.051507954 0.12224958 -0.074533224
000090 7f b0 69 bd b1 73 cb 3d 8f 31 61 3d 21 d4 04 3e
       -0.057053085 0.09934176 0.054978903 0.12971546
0000a0 4b 6f 8f bd 9b 2d 91 3d 08 ac 6b 3d d8 e9 ae 3c
       -0.07003649 0.07088777 0.05753711 0.02135174
0000b0 5a 6f bb bc 4e e0 14 bc 84 dd c5 3d 07 1d 29 bd
       -0.022880245 -0.0090866815 0.096613914 -0.04128745
0000c0 3a ae d8 bc 78 45 61 3c b6 24 98 3d 92 50 9c 3d
       -0.026450265 0.013749473 0.07428877 0.07632555
0000d0 72 be 04 3d bc fb d4 3d 8d 40 b2 3d be c6 ef 3d
       0.032408185 0.10399577 0.08703718 0.11707829
0000e0 9b 6a a3 3d 60 35 3d 3d f7 3d f6 3d 22 29 13 3d
       0.07979318 0.04619348 0.120235376 0.0359279
0000f0 0e dd ab 3d 87 7d de bd fd cf b5 bd 16 bd b5 bd
       0.08391772 -0.10863786 -0.08877561 -0.08873956
000100 54 1f 30 bd 10 42 87 3c b8 31 a8 bc 70 66 9b bd
       -0.042998627 0.016510993 -0.02053152 -0.07587898
000110 66 3a d8 bd 80 76 f5 3a 50 b1 49 3d 0c 49 ca 3d
       -0.105580136 0.0018727332 0.049241364 0.09877214
000120 10 1c b6 3c fc c0 bc bd 2c 71 75 bd 6a ca c5 bd
       0.022230178 -0.09216496 -0.059922382 -0.09657748
000130 a8 80 95 3d 90 67 27 bc 10 bc c2 3d 34 f0 25 bd
       0.0729993 -0.010217562 0.09508526 -0.04051228
000140 34 a3 c3 3d 58 e1 cf bc 84 75 f0 3d 20 04 1d bc
       0.09552613 -0.025376007 0.11741164 -0.009583503
000150 00 47 21 bd 8a a9 ac 3d 68 73 86 3c a8 45 8c bd
       -0.03937435 0.084307745 0.016412452 -0.068492234
000160 ca 1a 9c bd 98 65 f4 bc 5c f3 65 3d a4 3c 8a bd
       -0.07622297 -0.0298336 0.05614029 -0.067498475
000170 dc c3 4e bd 54 7e 8c bd 7c f7 fe 3d b4 a4 27 bd
       -0.050479755 -0.06860033 0.12449548 -0.040928558
000180 2a 1b d7 bd 1c 77 17 bd 00 e1 f4 3b 68 e7 11 bd
       -0.10503228 -0.036978826 0.007473111 -0.035621077
000190 5e c1 90 3d 80 73 d5 bc fa 7d 93 bd a8 12 e1 bc
       0.07068132 -0.026056051 -0.072017625 -0.027474716
0001a0 48 e6 12 bd a0 98 40 bd 76 56 f0 3d 06 b2 8b 3d
       -0.035864145 -0.047020555 0.11735241 0.06821065
0001b0 1e 97 a1 bd f0 04 00 3d e2 90 b4 3d d2 d9 ab bd
       -0.078901514 0.03125471 0.08816697 -0.08391155
0001c0 ca c6 d3 bd e8 80 a4 3c 98 1f 45 bd c4 07 f3 3d
       -0.103406504 0.020080999 -0.048125833 0.118667156
0001d0 6e 88 d3 bd 50 be e9 bc 32 6f e0 3d 34 3d 23 bd
       -0.10328756 -0.02853313 0.10958709 -0.03985329
0001e0 70 bc 6b 3c d0 d4 16 bc 00 e3 04 3c 40 20 da 3c
       0.014388189 -0.009206012 0.008110762 0.026626706
0001f0 ec af ad bd 00 53 ae 3b 8a eb ec 3d 90 7d b1 bc
       -0.0848082 0.005319953 0.11568363 -0.021666318
000200 b4 9e b8 bc da 2c d2 3d c7 52 d6 3d 4c 46 e5 bd
       -0.022536613 0.10262461 0.10465007 -0.11195049
000210 ff 9d d0 bd a4 71 4c 3d de a7 1f 3d f0 66 65 3d
       -0.10186385 0.049913064 0.03897845 0.056006372
000220 e5 1e 24 3e d8 02 25 3e 2b 7e 51 bd 23 ae 68 3d
       0.1602741 0.16114366 -0.051145714 0.056806695
000230 40 76 2a 3d 71 9e f4 3d ef 5f 4c 3c af 76 cb bd
       0.04161668 0.11944283 0.012474044 -0.099347465
000240 68 20 cf 3d b4 5f 19 3d c8 ab 41 3b 1b 3f 4e bd
       0.10113603 0.037444785 0.0029551852 -0.05035315
000250 c7 8e 2e 3d d0 79 61 3c 08 5b d1 3d 98 7e e2 bd
       0.04261663 0.0137619525 0.10222441 -0.11059302
000260 06 44 4c 3d 8f 23 61 bd 17 99 26 3d b1 b7 a5 bd
       0.04986956 -0.054965552 0.04067334 -0.08091677
000270 86 7b f5 3d 26 6f 6c 3d 7a 88 df bc 08 54 84 bc
       0.11986451 0.057723187 -0.027286757 -0.01615335
000280 e3 56 a7 3d bf 7a 20 3d 32 50 b4 3b 70 75 1d bc
       0.08170869 0.03917956 0.005502724 -0.009610519
000290 04 f3 86 bd ec 6d f1 3d cc 1e fd 3d 4b 34 12 3d
       -0.0658932 0.11788544 0.1235939 0.0356944
0002a0 40 85 18 3d 6c 5a ef 3d 90 fd 75 3d 0c 7d bf bd
       0.037236452 0.116871685 0.06005627 -0.09350023
0002b0 ff 50 1a 3e 08 6c 8f bc 8e 16 98 3d 57 3e 93 3d
       0.1506996 -0.017507568 0.07426177 0.07189625
0002c0 16 f2 a2 3d cd 17 57 3c d3 e5 71 3d 86 97 80 bd
       0.079563305 0.013128233 0.059057068 -0.06278901
0002d0 f0 24 22 3e 32 e6 13 bd 3b 87 3a bd 10 66 5e 3b
       0.15834403 -0.036108203 -0.045539122 0.0033935346
0002e0 b2 93 9a 3d 41 26 a2 3d f9 13 43 3b 5f cc c7 bc
       0.07547702 0.079174526 0.0029766543 -0.024389444
0002f0 97 97 fb 3d ac 94 e8 b9 49 f3 09 bd d9 64 6e 3c
       0.12284773 -0.00044361257 -0.03367928 0.014550411
000300 c4 4e 2c bd 18 bb 1f bd e4 e8 50 bd 56 f2 df 3d
       -0.042067304 -0.038996786 -0.05100335 0.10934894
000310 fc 41 90 3d b0 5c f6 3c 74 39 2c 3d 80 5e 98 3a
       0.070438355 0.030073494 0.04204698 0.0011624843
000320 46 6b ff 3d 50 cd 57 3c 3c 23 40 bd 86 19 8f bd
       0.12471633 0.013171509 -0.046908602 -0.0698729
000330 cc b4 73 bd 3c 3d 34 3d 50 15 5c bd b8 13 4c bd
       -0.059498593 0.04400371 -0.053731263 -0.049823493
000340 0a 55 ea bd 26 f1 f5 bd 84 74 ec bd e0 03 f2 bb
       -0.11442001 -0.12008886 -0.11545661 -0.007385716
000350 8c 4e 88 3d ec 86 7d bd b4 7e a4 3d 50 b2 f9 bc
       0.066556066 -0.06189625 0.08031979 -0.030480534
000360 a8 5f a0 bc a0 c6 d1 bc be 99 97 3d c0 f7 11 bb
       -0.019576862 -0.025607407 0.07402371 -0.0022272915
000370 56 ce f8 bd f2 28 cf bd 88 ac b4 bd f8 2a 4c bd
       -0.121487305 -0.101152316 -0.0882197 -0.049845666
000380 de 91 aa bd 48 a1 9b 3d b6 84 d4 3d dc 16 65 3d
       -0.08328603 0.07599121 0.10376875 0.055930004
000390 74 47 85 3d 20 7a 82 bb 5a 0b f7 bd 60 21 3f 3c
       0.06507769 -0.0039818436 -0.12062712 0.011665672
0003a0 70 5b e2 bc 58 a3 85 3d 80 1e ea 3c 14 e7 ed bd
       -0.027631491 0.06525296 0.028578997 -0.1161634
0003b0 10 ad 8e 3c d4 28 df bd 9e 4a fc bd 86 1a d4 bd
       0.017416507 -0.10896459 -0.123189196 -0.103566214
0003c0 c8 eb ca bc 7c 23 71 bd cc ee 50 bd e8 2e f0 3d
       -0.024770632 -0.05887173 -0.051008984 0.11727697
0003d0 fa 52 96 3d 2c 2b 3e 3d e2 35 92 bd 62 c2 c9 3d
       0.07340045 0.04642789 -0.071391836 0.09851529
0003e0 b0 0f e8 3d 30 c2 5b bc fa 18 f9 3d 80 0a bc 3b
       0.11331117 -0.013412997 0.12162967 0.0057385564
0003f0 60 47 dc bc 48 b8 83 bd e2 85 ba 3d 72 23 ec 3d
       -0.026889503 -0.06431633 0.09107567 0.11530198

hidden_layers.3.bias f4 [64]
000000 5f d2 87 3c 8a 81 ee bd 1a b1 34 3d 3c 0d 16 bd
       0.016579805 -0.11645801 0.04411421 -0.036633715
000010 9a 2e 4d 3d 10 64 7f 3d 15 5a 04 3d f8 b0 a0 bc
       0.05009327 0.062351286 0.03231247 -0.019615635
000020 67 d1 a0 3a 1c c6 b5 3d 8c 21 c7 bc b4 93 40 bd
       0.0012269438 0.08875677 -0.024307989 -0.04701586
000030 a1 64 00 bd 50 dd 33 bd 30 7e 23 3c 24 4c 71 3d
       -0.031345967 -0.043912232 0.009978816 0.058910504
000040 0c 14 0d bd 62 27 81 3d 80 22 d2 bb d5 0a c3 bb
       -0.034442946 0.0630634 -0.006412804 -0.005952219
000050 41 6d 8f 3d 50 cb 88 bd 02 8c bf bd 6e 7f d7 3d
       0.070032604 -0.06679404 -0.09352876 0.10522352
000060 ee 35 9c 3d c4 80 a9 3d f2 ed 40 bd 85 f6 65 3d
       0.07627474 0.08276513 -0.047101922 0.056143302
000070 d2 6e 9f 3d 9d 2e 82 bd b1 8d a0 3d ca e0 c2 3b
       0.07784809 -0.06356547 0.078395255 0.005947207
000080 13 a3 af bd 05 25 01 3e 4e ad 96 3d b4 04 93 bd
       -0.08576026 0.12611778 0.07357274 -0.071786314
000090 8c f9 f1 bd 88 e8 cb bc a7 81 20 3e fa 1d 1d 3c
       -0.118151754 -0.024891153 0.15674458 0.0095896665
0000a0 7f d9 5c 3d d0 dd 2e 3c 8c e9 d7 bd 63 06 f0 3d
       0.053918358 0.010673001 -0.105425924 0.11719968
0000b0 cc cc 7d bd 20 36 de bd 6b b7 9c 3d 8d 05 8b 3d
       -0.061962888 -0.10850167 0.07652172 0.06788168
0000c0 da 8d d7 bd 90 70 9c bd 86 68 d8 bd 68 89 e7 3d
       -0.10525103 -0.07638657 -0.10566811 0.11305505
0000d0 93 64 38 3c 4e da 0a 3d e0 47 a9 bb 29 e7 33 bd
       0.0112544475 0.033899598 -0.005166039 -0.043921623
0000e0 81 21 e4 3d 8b de dd bc fe f3 8f 3b 78 51 b5 3d
       0.11139203 -0.027083656 0.0043931 0.088534296
0000f0 99 41 f7 bc fc 18 d1 3d 6e d9 d0 bd 0d b7 e9 3d
       -0.030182647 0.102098435 -0.101977214 0.11411867

output_layer.weight f4 [2, 64]
000000 dc cb 65 3d 98 da 8d bc 1f 06 c9 3d b4 93 04 bd
       0.05610262 -0.017316148 0.09815621 -0.032367423
000010 db 0b 3c bd 62 e1 f7 3c 70 a2 36 bd 92 48 97 3d
       -0.045909744 0.030258838 -0.044588506 0.073868886
000020 97 6e 69 bc 4f 54 dc 3a 09 c8 a0 bc de 38 e1 bd
       -0.014247558 0.0016809794 -0.019626634 -0.10997175
000030 6f 96 c9 3d 49 3d e8 bd 96 07 d6 3d 41 a5 03 3d
       0.09843146 -0.11339814 0.10450666 0.03214002
000040 68 4b 07 3d 73 32 bf bd 3a 4b b4 3d 40 04 6f 3d
       0.033030897 -0.09335794 0.08803411 0.058353662
000050 87 50 b5 bd b7 71 17 3e 94 00 08 3d cb bb 0d 3e
       -0.0885325 0.14789473 0.033203676 0.13841169
000060 db 35 4b 3d 6f 5c 3a bd 26 5f e1 3d 01 25 8e 3d
       0.049611907 -0.045498308 0.11004476 0.06940652
000070 ed 1e ec 3d 65 4f b9 3d ca 75 04 bc 1e ca 8b bd
       0.11529336 0.090483464 -0.008084724 -0.0682566
000080 f1 ab 6f bd 90 b2 1d 3e b4 95 25 bd ff 3e b6 bc
       -0.058513585 0.15400147 -0.04042597 -0.022246836
000090 6c 0f 1e bd e8 ac e0 3c aa 9e 1b 3e 00 31 05 3e
       -0.038588926 0.027426198 0.15197244 0.13006973
0000a0 9b 65 d8 bd 60 e6 24 bd 1c 37 54 bd 51 0a 8a bc
       -0.10566255 -0.040258765 -0.05181037 -0.016850622
0000b0 10 8a d0 3d 68 22 9e bc 73 f8 96 bd e9 40 b2 3d
       0.10182583 -0.019303516 -0.07371607 0.08703787
0000c0 c8 b9 b4 bc 9f 9c 75 bd 9a 65 9b bd ea 29 ab 3d
       -0.022061244 -0.05996382 -0.07587738 0.08357604
0000d0 d9 b5 1e bd 0b 16 1b bd 78 94 6a 3d 38 b5 bc 3d
       -0.038747642 -0.03786282 0.057270497 0.09214252
0000e0 79 47 72 bd 4c d6 a5 bd 27 61 94 bb 03 bd 84 bd
       -0.059150193 -0.080975145 -0.004528183 -0.064813636
0000f0 90 30 5e bd ba a3 52 bd ae bb d0 bd 6e 25 01 3e
       -0.05424553 -0.051425673 -0.10192047 0.12611935
000100 38 81 56 3d 00 6a 3a 3d 3a fe c6 bc 40 83 54 bd
       0.052369326 0.045511246 -0.024291147 -0.051882982
000110 a5 65 e3 bd a8 a1 bf bd 51 9c 54 3d bc 50 6c 3d
       -0.111033715 -0.09357005 0.051906887 0.05769418
000120 44 fe 3b 3d 2f 97 4c bd 89 e1 b6 bd 8c 67 35 bd
       0.045896783 -0.049948867 -0.08929736 -0.044288203
000130 ff ea a2 3d 8c cf 03 be 48 1a ed bb 7b ba 5d 3d
       0.07954978 -0.12872142 -0.007235799 0.05413292
000140 32 85 d5 bd 47 18 76 bd 30 49 11 3d b9 57 e4 3c
       -0.104257956 -0.060081746 0.035470188 0.02787386
000150 8d 08 b8 bb 4f 26 82 3d bc 9b b0 3d 5b a1 77 bd
       -0.0056162537 0.06354963 0.08623454 -0.060456615
000160 ec 65 34 bb 09 9c 58 bd be 11 10 ba bd 11 f1 3d
       -0.002752657 -0.05288318 -0.0005495808 0.117709614
000170 5c 0b f4 bd 98 45 64 bd 27 33 00 be 48 e1 25 3d
       -0.11916229 -0.055730432 -0.12519513 0.040498048
000180 f3 0e df 3c c8 0f f1 3d 6c 6e a1 bd ae 2f ab bb
       0.027228808 0.11770588 -0.078823894 -0.0052241897
000190 40 eb 4a bb d0 b0 aa bd 2d 53 c1 bd 56 83 cd 3d
       -0.0030962974 -0.083345056 -0.09439693 0.10034816
0001a0 5f d4 6c bc 58 82 8e 3d 46 de ba bd 27 05 00 be
       -0.01445493 0.06958455 -0.091244265 -0.12501965
0001b0 94 a7 ad bd c2 1b e9 bd 03 76 9f bd 51 d4 96 3d
       -0.084792286 -0.113822475 -0.07786181 0.07364715
0001c0 28 a6 e6 3d 01 1d 07 3d ae 48 ea bd d0 25 17 bc
       0.112621605 0.032986645 -0.11439644 -0.009225324
0001d0 6b 69 c6 3d c0 7f ae 3d 60 4c c1 bc f6 3f 41 bc
       0.09688076 0.0852046 -0.023595989 -0.011795035
0001e0 cd 3a f4 3c 95 22 ba bd bf d5 ad bd 26 78 e1 3d
       0.029813195 -0.09088627 -0.084880345 0.110092446
0001f0 f7 6a d4 bc 1b 53 40 3d c0 7f 51 3d 02 66 a3 bd
       -0.025929911 0.046954256 0.051147223 -0.07978441

output_layer.bias f4 [2]
000000 31 9f 5d 3c 5a 1e 7e bd
       0.013526724 -0.062040664
