abc_env_raw/saved_models/phi_only_0.8.pt (torch, 72199 bytes, 12 tensors)

input_layer.weight f4 [64, 3]
00000000: d8aa 52bd 1283 fbbd 3bbf 373e 8b7b cf3e
00000010: 160e 5ebe 89af 98bc a3c9 bdbd a3bc c7be
00000020: 3839 e73e 75dc f1be 4057 b03c 8f83 ab3e
00000030: e158 8ebd 2a8a c83e eead 563e 6c3d 3bbe
00000040: e0fe d93e c37d 5bbe f703 13be 35d4 42be
00000050: 110c 11be ae03 39be 1c74 09bf eba1 13bf
00000060: f047 c0be 12bf 9cbd 98e9 a23d 8d0e 7ebe
00000070: 9d52 393e f89f 153f b50f 2bbe f901 bbbe
00000080: 2789 8f3e dfea 4abd d6c1 0a3e dbe3 e63e
00000090: 5be8 173e da63 9abe c3fc fabd 5fef 863e
000000a0: 302a de3e 94fb 0c3f 507f df3e 79c6 e7be
000000b0: eafa fcbe 0e94 f13d 683e 76be dc6c 353e
000000c0: aa76 8abe 63b0 043f 39db 103f 01c2 743e
000000d0: 3094 893e 3bd9 eabe a3d7 a43e 1aaf c03e
000000e0: 710c e53e 3a1f 763e 7db3 45be 549b a4be
000000f0: b23f afbe 1f70 0b3f 5062 bcbe d1b4 ecbd
00000100: abdf 0c3f c676 443e 4427 98be c353 a13e
00000110: 2a75 f53e 446a 1c3e 43a2 d8be dbf3 3abe
00000120: 34d8 c43e 26ed 0e3f 3851 39be 5a4c 39be
00000130: ce83 b03e 64e6 babe 3273 9abd 4363 c3be
00000140: bf3e 333e 03ed 973d 9c9c 59be 6fbd 79be
00000150: 6ff5 303d 1b26 0a3f e5d4 53be d45b a63e
00000160: c9cb c23e 47d4 00be 45a0 bb3e 4b1b 9bbe
00000170: 0cd7 ccbe e10e 94be e066 88be 54d2 febe
00000180: 37ca 35be 85a8 c93e aba1 f23e 2e18 d33e
00000190: d9fa c4be a1e6 0c3e 175b d3be 4401 0c3e
000001a0: 2b7c 1a3e 0883 06bf b2c9 c13e 4648 913e
000001b0: d76e 123e 42da a03d d90b e33e 3069 a53e
000001c0: a369 08be bfe1 c8be 869b a23e cc8a 7fbe
000001d0: d6b7 823e 81f6 e53d 275d 10bf 40cf abbe
000001e0: eed1 86bd b1f6 363e bac7 f53d ddef eebe
000001f0: d229 123f 0262 613e 0666 bc3e 68c3 663d
00000200: 45f3 f23d c4b4 7e3e bdef eebe 72ff a6be
00000210: ac0c c63e 4930 8abe e3e9 a5be eb91 05bf
00000220: a4d6 62be 71cb 253e 2606 51be 8c51 f2bd
00000230: f6ee f5bd 35fa 883e 318d 4c3d 0708 253e
00000240: 56d6 b7be 5d01 e43e d3a8 113e 02bc 913e
00000250: f1b0 11bf 21d1 e53d 89c1 58bb 3dda 21be
00000260: 6531 c03e 2705 993e 989f c6be 76dd a73e
00000270: 4523 fd3e f679 f2bd 5df9 e23d cef8 83bc
00000280: c7e5 be3e f213 e43e 3151 bcbd e6b5 d1be
00000290: 3912 e33d 8065 2fbd 50b7 19be f70c 0f3f
000002a0: d786 c2be ad31 b33e ed4d 0dbf eaa8 2cbe
000002b0: ff51 943e 0582 cfbe fa45 4ebe 21da 22be
000002c0: 8f94 3cbe c1a5 fb3e bcef 863e 6534 043f
000002d0: eb05 043e f4b9 8ebe 97c4 52bd b901 173e
000002e0: adc0 5f3d 323d b43d 8a1b e13e b00f a9be
000002f0: eb4b 8abe 9c7f b13e 4564 e4be b84e 73be
-0.05143246 -0.12280859 0.17944042 0.40523943 -0.21685061 -0.01863839 -0.09266975 -0.39011106
0.45160842 -0.47238508 0.021525979 0.3349881 -0.06950546 0.3916791 0.20964786 -0.1828515
0.42577267 -0.21434693 -0.14356981 -0.19026263 -0.14164759 -0.1806781 -0.53692794 -0.5766894
-0.37554884 -0.07653631 0.07954711 -0.24810238 0.1809792 0.5844722 -0.1670521 -0.36524943
0.28034326 -0.049540397 0.13550505 0.45095715 0.1483473 -0.30154306 -0.12255242 0.263545
0.43391562 0.5507138 0.4365182 -0.4526861 -0.49410182 0.11795817 -0.24047244 0.17717308
-0.27043658 0.51831645 0.5658451 0.23902132 0.2687087 -0.4586886 0.32195768 0.37633592
0.44736055 0.2403535 -0.1930675 -0.32149756 -0.34228283 0.5446796 -0.36793756 -0.115579255
0.5502879 0.19185933 -0.29717457 0.31509218 0.47940952 0.15274912 -0.42311296 -0.18257086
0.384462 0.5583061 -0.18097389 -0.18095532 0.3447556 -0.365039 -0.07541503 -0.38161668
0.17504404 0.07418253 -0.21251148 -0.2438867 0.043202814 0.53964394 -0.20686682 0.32491934
0.380461 -0.12580977 0.36645713 -0.3029426 -0.40007818 -0.28917602 -0.26640987 -0.49769843
-0.1775292 0.39386383 0.47388968 0.41229385 -0.38472632 0.13759853 -0.41280434 0.13672358
0.15086429 -0.5254369 0.37849194 0.28375453 0.14300095 0.078541294 0.44344977 0.32306814
-0.13321547 -0.3923473 0.3175928 -0.2495529 0.2553088 0.112286575 -0.5639214 -0.33556557
-0.0658301 0.17867543 0.120009854 -0.46667376 0.5709506 0.22010043 0.36796588 0.056338698
0.11862806 0.24873644 -0.4666728 -0.32616764 0.38681543 -0.26989964 -0.32405004 -0.5217578
-0.22152191 0.16190888 -0.20412502 -0.1183196 -0.12008469 0.26753393 0.049939338 0.16116343
-0.35905713 0.4453229 0.14224558 0.2846375 -0.56910616 0.11221529 -0.003307434 -0.15805908
0.37537685 0.29886743 -0.38793635 0.3278615 0.4944097 -0.118396685 0.110827185 -0.01610985
0.3728468 0.44546467 -0.091951735 -0.4095909 0.1108746 -0.042821407 -0.15011334 0.5587916
-0.379935 0.34998837 -0.5519703 -0.1686131 0.28968808 -0.40528885 -0.20143881 -0.15903522
-0.18416046 0.49149898 0.26354778 0.5164245 0.12892883 -0.27876246 -0.051457014 0.14746751
0.05462711 0.088007346 0.43966323 -0.3301978 -0.27011046 0.3466767 -0.4460775 -0.23760498

input_layer.bias f4 [64]
00000000: 90bd b4be 85c4 a73e c22e 33be 1153 7f3e
00000010: 31d2 ed3e 01e8 cd3e 5322 f1be bcfc 7d3e
00000020: 106a 723e 25ac 89bc 431b 673e 46d3 0cbf
00000030: 1cda e6be 2a3a 0e3f e5ec 963e 0b27 04bf
00000040: b883 4d3e 824f 76bd bde7 a8bd cb6b a9be
00000050: 9b15 9ebe 14f0 e6be 1462 ae3e db5a 1e3e
00000060: 410d 883a 391a 0e3f 6898 b13e a21b 3ebd
00000070: 4aa9 cfbe 5a57 1a3e 4cd4 eebe 0dab f8be
00000080: 06ea d63e 964d f53e 448d 85be 8c48 0a3f
00000090: 86f9 353e 8da8 d3be 7334 0c3e 6bfa 7f3e
000000a0: 0142 df3e ee50 003f 1588 b4be af80 b2be
000000b0: a315 ee3e dc51 43be 57ea 5ebd c392 26be
000000c0: 06b1 98be 46a3 ca3e 23c4 1c3f e0ba a33e
000000d0: 5732 5ebd 6649 13bf 7cfa ddbe e300 113e
000000e0: be4f fe3d 0f0d 12be 8221 c23e 7aca 5bbe
000000f0: d6d4 89be e3a5 6ebe 2f84 713e a114 ee3e
-0.35300875 0.3276712 -0.17498305 0.24934031 0.46449426 0.40216067 -0.470965 0.24803442
0.23673272 -0.016805718 0.22568993 -0.5500988 -0.4508828 0.555575 0.2947761 -0.51622075
0.20069778 -0.06013442 -0.082473256 -0.33090052 -0.3087586 -0.4510504 0.34059203 0.15464346
0.0010379927 0.5550876 0.3468659 -0.04641307 -0.40558845 0.15072384 -0.46646345 -0.48568
0.4197542 0.47910756 -0.2608434 0.5401695 0.17770967 -0.41339532 0.13691883 0.2499787
0.43605044 0.5012349 -0.35260072 -0.34863803 0.46500883 -0.19074196 -0.054422703 -0.16266923
-0.29822558 0.39577693 0.6123678 0.31978512 -0.054247227 -0.5753387 -0.43355167 0.14160495
0.12417553 -0.14262794 0.3791619 -0.21463957 -0.26920193 -0.23305468 0.2358558 0.46500114

hidden_layers.0.weight f4 [64, 64]
00000000: 70f0 5c3c 98ff 613d 7709 4ebd 434e 7a3d
00000010: 5c6c 8abc 0c8d b63d be84 d2bd 1ebb 9ebd
00000020: d8b7 263e 13cd 953c 5a2e 4e3d 608e a9bc
00000030: 43af 22bd 6c5d f53d 65ad 1e3d 6029 f43d
00000040: aa15 82bd 6cc0 503d 4b03 c8bd 4cd8 313c
00000050: 3407 d1bc 5d0e d93d 1db7 b03d dc70 f53d
00000060: 00ce bebd 7b32 b93c ca21 16bc 4e96 933c
00000070: 230f ec3d 7545 5c3b 8573 253d d297 9f3d
00000080: 57a5 69bd 8cb6 1e3e 01a7 38bd 14d6 ae3b
00000090: 241b 083e b61b a0bd 906f 73ba 54ad 033e
000000a0: 26db 0a3b 4fee b03d 9e1d cdbd f440 b13d
000000b0: 486e ef3d 4f49 90bb f56c 69bd 763a 563d
000000c0: 652e 4cbd c10a 853d f4dc 203e e614 c53d
000000d0: c847 f73d a09c 023d 9883 29bc d42a 31ba
000000e0: cf0c 82bd 5f9d a8bd 88d7 0e3d 3e03 3e3d
000000f0: 3a41 243d 7825 23bd 5cd5 eb3d 532e bc3d
00000100: ef83 88bb 6d7d 213e 03ff 1b3d c335 0a3e
00000110: 9ce9 92bc 8bab 893d 609f 74bc ac6c 983d
00000120: 1432 59bc 14e8 c2bc 2adf 1c3e 7c6c 4cbd
00000130: 99c6 913d 3dde 23bd 8465 10bd 82f7 93bd
00000140: a571 f2bc 8f02 e33d 6f58 af3d bb2f fa39
00000150: 6dd4 9e3d 5d4c 253d 1ebf ff3c 6d59 0a3d
00000160: f881 213d 6bba ab3d d925 8dbd 4e90 6abd
00000170: 0415 8d3d 58a1 cb3d 6083 72bd 8fc9 82bc
00000180: 78b3 46bd 785b a73d f998 bfbb b1f9 663d
00000190: 9d9c ea3d 4490 acbc 2264 a0bd 9774 263d
000001a0: c482 223d 1c26 6d3d 131b 97bb ffc8 51bd
000001b0: 7098 98bd 40ef 0cbd edb1 97bc 8b44 c0bd
000001c0: cdfa c4bc e0bf 1e3d 4a4a 36bd 8420 ef3d
000001d0: 5fba fe3d a82f 373d 07c8 fd3d c648 02bc
000001e0: 6878 b5bd 48f8 1dbd c938 2c3e cbbb 6abd
000001f0: b392 9c3d baae b93d 6aaa aa3d f115 213e
00000200: 7830 933d 6b8e 91bd 25ac a83c 468a 71bd
00000210: 2648 9e3c 3c9c d63d 54e6 2abd 68a1 74bd
00000220: bb4c 1b3e 2b3c 063b ed3b 943d 12f5 d5bd
00000230: 2792 a23d ccb8 2a3e 3b74 4d3c e914 7bbd
00000240: 69b8 eebc 7ddd bc3b f50d 663d a965 fe3d
00000250: 0808 22bb b7d5 0dbd 2a17 243a 35cf 393d
00000260: cfdd 0ebd 0938 cfbc 8b1a 983c 8442 833c
00000270: a9f0 e9bd 733e f6bb df31 ce3d 6758 36bd
00000280: d0e4 f43d 41fb d73d b96b 043e 62dd 233e
00000290: 9b63 45bc a466 f3bd d948 753d bf18 103e
000002a0: b13d 743d e680 dc3c e285 e8bd 9ea8 993d
000002b0: a52b c13d b39c 053e 8100 86bc 06f4 4dbd
000002c0: f33d 2e3b 0f0a d33d ed02 153d aa22 0d3e
000002d0: a917 093e 9a35 b9bd 0d17 e03c 1bc8 aa3d
000002e0: 2efe 55bc 2a44 a73d 5089 273e 319a 05bc
000002f0: 57b9 a5bd fad7 e23d e9c6 d33d 41ae 4fbb
00000300: 3eb9 4bbc c2d6 123d e8ad b8bd 0cb8 e63d
00000310: 7aa2 1b3e d022 203e 787b 3cbd 9156 093d
00000320: 631a 253d e0c0 a3bd 6ea1 153e 1494 6c3d
00000330: b88c 883d 56bb b93d 633d 133d 5ca5 d3bd
00000340: 8c19 a6bd 0284 e33d 8842 09bc 790d d7bc
00000350: 264a 403a 163d d2bd 64a6 bcbb 2b02 de3d
00000360: 310d 113e 41f5 f93d 9680 81bc 6a6f 43bd
00000370: 6047 f439 8980 b43d eee9 cc3c 3873 d43d
00000380: 18e2 193e 204f ca3d 7db2 e2bd d69e 643b
00000390: 8ef4 143e 6ccb d6bd 2349 c83c a3f7 b73b
000003a0: 83e9 19bd f3d9 dfbc f436 a83d c086 61bd
000003b0: b1e9 453c a022 e43d 9201 973d f8ba 123d
000003c0: 0fda da3d ac4b 4abc 87c1 d93a dc94 df3d
000003d0: b470 9b3d 42b1 afbd 06da 0f3d ef52 db3c
000003e0: 93fb 453d 05d7 6bbc e483 023e a174 063c
000003f0: e850 f03d 3be0 e83d 1b9c 043d b31e 8ebd
0.013485059 0.055175394 -0.050301995 0.061109792 -0.016897373 0.08913621 -0.10279225 -0.077505335
0.16281068 0.018286264 0.050337173 -0.020697773 -0.039717924 0.119807094 0.03873958 0.11921954
-0.06351788 0.050964758 -0.09766253 0.010854792 -0.02551613 0.10598443 0.08628676 0.11984417
-0.09316635 0.022607079 -0.009163329 0.018016007 0.115263246 0.0033610736 0.04039337 0.07792629
-0.057042446 0.15499324 -0.045081142 0.0053355787 0.13291603 -0.078177854 -0.00092863385 0.12859088
0.0021187752 0.08639204 -0.10015415 0.08654967 0.11690956 -0.0044032703 -0.056988675 0.052301846
-0.049848933 0.06496192 0.15709287 0.09623127 0.12074238 0.03188765 -0.010346316 -0.0006758396
-0.06350099 -0.08233141 0.034873515 0.04638981 0.040101267 -0.039830655 0.115153044 0.09188523
-0.0041661183 0.15770502 0.038084995 0.13497071 -0.01793366 0.06722172 -0.014930576 0.074426025
-0.013256568 -0.023792304 0.15319505 -0.049908146 0.071179576 -0.040006865 -0.035253063 -0.07224943
-0.029595206 0.110844724 0.08561789 0.00047719278 0.07755361 0.04035603 0.031219061 0.03377669
0.03943059 0.08385166 -0.068919845 -0.057266526 0.06888774 0.09942883 -0.05920732 -0.015965251
-0.048511 0.08171743 -0.005847093 0.056390468 0.11455653 -0.021064885 -0.07831599 0.040638532
0.03967549 0.057897672 -0.004611382 -0.051217075 -0.0745095 -0.034407854 -0.018517459 -0.093880735
-0.024045372 0.038757205 -0.04450444 0.11676124 0.12437891 0.044723183 0.12391668 -0.007951921
-0.08860856 -0.038566858 0.16818537 -0.057308 0.07645168 0.090665296 0.08333285 0.15731026
0.07186979 -0.07107242 0.020589897 -0.05896976 0.019321512 0.10479018 -0.041723564 -0.05972424
0.15165989 0.002048264 0.072379924 -0.10447134 0.079380326 0.16672057 0.012539919 -0.06129924
-0.029140668 0.005763708 0.056165654 0.12421734 -0.0024724025 -0.034627642 0.0006259555 0.045363624
-0.034879502 -0.025295274 0.018567344 0.016022928 -0.114228554 -0.0075147687 0.10068106 -0.0445179
0.11957705 0.1054597 0.12931718 0.1600242 -0.012047674 -0.118848115 0.059883926 0.1407194
0.059629146 0.026916932 -0.11353661 0.07502864 0.09432153 0.13048057 -0.016357662 -0.050281547
0.0026587218 0.10304653 0.036379743 0.13782755 0.13387932 -0.09043427 0.027354741 0.08338948
-0.013061089 0.08167298 0.16360974 -0.008154438 -0.080919914 0.110763505 0.103406735 -0.0031689557
-0.012434302 0.03584934 -0.09017545 0.11265573 0.15198699 0.1563828 -0.046016186 0.03352982
0.040308367 -0.07995772 0.14612362 0.057758406 0.06667465 0.090689346 0.035947215 -0.10334274
-0.081103414 0.11109163 -0.008377679 -0.026251541 0.0007335268 -0.102655575 -0.00575714 0.10840257
0.14165188 0.122049816 -0.015808385 -0.047713675 0.00046592485 0.08813579 0.02501389 0.10373539
0.15027654 0.09878373 -0.110692 0.0034884713 0.14546415 -0.104880184 0.024448937 0.0056142374
-0.03757621 -0.027325606 0.082136065 -0.05506015 0.012079642 0.11139417 0.073733464 0.03582284
0.106861226 -0.012347143 0.0016613462 0.109170645 0.07589856 -0.08578731 0.035120033 0.026772944
0.048335623 -0.014394526 0.12745625 0.008206517 0.11734182 0.113708936 0.032375436 -0.06939449

hidden_layers.0.bias f4 [64]
00000000: 5204 8f3d bbf5 543d b2fe 063e 7d60 213e
00000010: c0b6 dd3d e1d0 d9bc df39 223e 451a 5fbc
00000020: 136d 143e 8c1d ad3c 5c3b 813d 8418 123e
00000030: ded6 8a3c 108d 293c a6fe 96bd efd7 ab3d
00000040: 0c50 b3bd 5d54 b33d 0973 c0bc dc49 403d
00000050: 177c ddbd b06f 2b3d 7630 f7bd 2f61 e53d
00000060: 40b6 45bd 10fd f03d ed2b b4bd 0ac1 163e
00000070: 4f48 c9bd 50d1 42bc 7b9d 303e 2080 593d
00000080: 1c5b 0c3e de14 773a 4e7c ffbd a580 793d
00000090: b4c6 d03c b83e 913d d8dc 62bc b423 d13d
000000a0: 62d4 0cbd 1d8e 2d3e ab4b d4bc c069 c53c
000000b0: 7c73 47bd 7d3e 0fbd dd2c 41bd d4a2 243d
000000c0: 0519 92bb a3cd 50bd c340 b93c 0fbe 8ebd
000000d0: dae6 10bd de29 a73d 707c 643c 8292 fabd
000000e0: 6db2 11bd ce0e dcbd e171 ec3d c5a9 513d
000000f0: 109a 253e 4440 ccbd 6022 b53d a44c b1bd
0.06983246 0.05199216 0.13183096 0.15759464 0.108258724 -0.026588859 0.15842389 -0.013617103
0.14494734 0.021132253 0.0631015 0.14267164 0.01694816 0.010348573 -0.07372789 0.083907954
-0.08755502 0.087563254 -0.023492353 0.046945438 -0.10814684 0.04185456 -0.1206979 0.11200177
-0.04826951 0.11767018 -0.08797441 0.14722076 -0.09828245 -0.011890724 0.17247574 0.053100705
0.1370663 0.00094254117 -0.12474881 0.0609137 0.025485374 0.07092041 -0.013846599 0.10211888
-0.03438223 0.16948743 -0.025914988 0.024098277 -0.04869412 -0.034971703 -0.047161926 0.040194348
-0.004458549 -0.05097736 0.022613889 -0.069698445 -0.035376407 0.081622824 0.013945684 -0.122349754
-0.03557055 -0.10745011 0.11545158 0.051187295 0.16172051 -0.09973195 0.08844447 -0.08657196

hidden_layers.1.weight f4 [64, 64]
00000000: e410 ae3c 2db1 4cbc 3564 953d 3279 edbd
00000010: ce6b 943d 46b7 bbbd 53b1 8d3d 470f 96bc
00000020: aef0 253d 908b 94bd d8db e7bd 9259 abbd
00000030: 7f1f 05be 4569 06be dcf6 ef3d 3788 f0bc
00000040: 92b8 90bd bf68 943d 8209 86ba 0140 bbbd
00000050: 9a48 893c f0e6 8fbc d6c7 adbd 2b32 e23d
00000060: 86ae 89bd 8018 b9bd eb91 e93d a906 8f3d
00000070: 3295 8a3b 920c b7bc 3627 d33c 7422 413d
00000080: 2708 be3d c5a5 983d b094 743d ac4c 0cbc
00000090: c47b ffbd e92f b7bd 0c35 4dbd 7e27 3cbb
000000a0: 7767 c03d bcbb 16bc b09b ebbd 4075 ffbd
000000b0: ceb5 6cbb d707 0eb9 82c8 54bd 7225 c03d
000000c0: e84d 953c 74d7 b3bc f0e9 343b f435 9cbd
000000d0: 60ac 0abe b1df b53c ec34 65bd 8093 753d
000000e0: c34b 273b 3a88 c6bd df5a 01be 9dbd af3c
000000f0: c0cf fe3b 7c48 6d3c 8ac8 b73d 640b cc3d
00000100: a0ce 883d f1a0 03bd 909e e13c 8ba2 74bd
00000110: 76f0 e8bb 7e77 c93d 29d7 573d 1713 803c
00000120: 19e3 bcba f0f4 d6bd 40c3 a53d 6c3b 8bbd
00000130: 9f5b 9f3d 2833 65bb 43af ba3d 5d3c dbbd
00000140: 0bc6 05bc 0681 003d f1d2 513d c0cc bc3d
00000150: dd83 1d3d 00c3 22ba 7a08 f6bd 208d 363d
00000160: e8c9 76bd 798d 963d 1878 1b3d 012c c03d
00000170: 126c 983d c718 5cbd 76d1 f5bd da49 da3d
00000180: 4773 27bd 9ff4 983d 1435 c73c d53a edbc
00000190: d4b8 81bd c9a4 c03d 134f 82bd 7538 9cbd
000001a0: a0b0 be3d 9864 afbd 98e6 8abd 2c33 813d
000001b0: cfbb 5bbc 2de7 e0bd 4d57 c83d f344 4a3d
000001c0: 1cfe 3cbd 675a cb3d df35 7b3c 6727 e23c
000001d0: b8ad 543d cd05 cf3d 20ad 37bc 2639 863d
000001e0: bb3b 413d 3f54 2c3c c994 5c3c 8dc6 97bd
000001f0: f22c cc3d 5a8d a83d aaa9 8fbc 767e 16bc
00000200: 9d3e 1a3e 8d31 8abd 4a2f 87bc 27f6 cbbc
00000210: 7635 263d caa5 b3bd 9bd7 333e 517f 2a3e
00000220: c6db 0e3e 247e 9abd 0c60 7bbd 5aea c43d
00000230: 8742 2b3e 8425 fb3d bb75 5fbd f8a9 9c3c
00000240: fb2e 913d 4384 c53d f99d 3f3d 00e0 ca3c
00000250: dc99 36bd f8ce 943d 341b a5bd 4688 1e3e
00000260: 80a6 b0ba 2558 a83d 1a74 9abd 1ce5 833d
00000270: 4fa9 89bd 51ec b7bc c7ef 913d 6057 03bc
00000280: 081a 9ebd 8c8c a4bd 1a3f 23bd a6d1 c73c
00000290: 7867 193e cc26 f8bc d742 253e 91d0 79bd
000002a0: 5d51 4abd b0f5 203e 950a d4bd 9a2e 333d
000002b0: c57f 893c ca40 82bd e474 d63d 54a7 ae3d
000002c0: e352 85bd ef1c ab3d e37e f93d b36e 283e
000002d0: d37e 123e eb57 f43d 3055 46bc 504d c13d
000002e0: 373b cdbd 6503 36bc c3fe 5b3d 9b11 9f3c
000002f0: 62a8 10bd 909c ad3d 5c7b cd3d 6942 ed3d
00000300: ba26 38bd 5c83 f33d 19c6 e4bd 006e 11bd
00000310: d9f6 8d3c 3983 b4bd 946b 4b3d 1e30 053a
00000320: 969e 9abd a009 eb3b a0e5 953d 870d 87bd
00000330: 2fe9 a93d 49b3 91bd e9b3 46bc dd27 6cbd
00000340: b123 023e 0ec1 c9bd db33 d33c 4995 d3bc
00000350: c26f f93d e6b0 943d 981a 953c 9a5c 673d
00000360: a034 0bbc 1b86 af3d 604d f9bb aa1f 39bd
00000370: fadc 913d 476f 8f3d b053 58bd 006e 573c
00000380: 8455 a2bd 35b5 97bd 3a5f e1bd d34c a03d
00000390: 4a8e 773d c595 b93b cf26 dabd bb78 f7bb
000003a0: ea81 99bd 8147 be3d b0ad 683c cbf5 7f3d
000003b0: a74d 403d acbe 09bd e688 7b3d 9313 a9bd
000003c0: 718c 9d3d a389 b4bc 026a c03d ac16 c9bd
000003d0: dd75 99bd e65e 85bd 74b2 8c3d 469c ebbd
000003e0: a06b dc3c b8f5 7ebd d2b2 05bd 4cf3 5bbd
000003f0: 7c6c 8d3d 896d f7bd 9502 d13d 1484 9f3d
0.021248288 -0.012493414 0.072945036 -0.11595382 0.072471246 -0.09165816 0.069185875 -0.018317832
0.040512733 -0.07253182 -0.11321229 -0.083666936 -0.13000296 -0.13126095 0.117170066 -0.029361827
-0.07066454 0.07246541 -0.0010226222 -0.09143067 0.016758252 -0.017566174 -0.08485381 0.11044725
-0.06722741 -0.09037876 0.11404785 0.06983692 0.0042292112 -0.022344861 0.025775533 0.047151998
0.09278899 0.07453493 0.059712112 -0.008563202 -0.12474778 -0.08944685 -0.050099418 -0.0028710063
0.09394734 -0.009200033 -0.115043044 -0.124735355 -0.0036119106 -0.00013545096 -0.05194903 0.09382142
0.018225625 -0.021953322 0.0027605258 -0.07627478 -0.13542318 0.022201391 -0.055958673 0.05995512
0.0025527335 -0.09693952 -0.12632321 0.02145272 0.0077762306 0.014482614 0.08973797 0.0996311
0.066800356 -0.032135908 0.027541429 -0.059725326 -0.0071087433 0.098372445 0.052695427 0.015634103
-0.0014410942 -0.10495937 0.080938816 -0.06798443 0.07781147 -0.0034973118 0.0911546 -0.10704873
-0.008164893 0.031373046 0.05122656 0.092187405 0.038455833 -0.0006208867 -0.120133355 0.04456818
-0.060251147 0.073512025 0.037956327 0.09383393 0.07442488 -0.053734567 -0.12002842 0.10658617
-0.04088142 0.07468533 0.024317302 -0.028958717 -0.06334081 0.0940643 -0.063627385 -0.07627956
0.09311032 -0.085641086 -0.067822635 0.063085884 -0.013411476 -0.10981593 0.09782276 0.04938216
-0.046140775 0.09929352 0.015332668 0.02760668 0.051923484 0.10108528 -0.01121071 0.06553869
0.047176104 0.010518133 0.0134632075 -0.074109174 0.0996951 0.08230086 -0.017536957 -0.009185424
0.15062948 -0.06747732 -0.016502041 -0.024897648 0.040578328 -0.08771856 0.17562716 0.1665013
0.13951024 -0.07543591 -0.061370894 0.096150115 0.16724597 0.12263015 -0.054555636 0.019124016
0.07089039 0.096443675 0.046781514 0.024765015 -0.044580325 0.07266039 -0.08061829 0.15481672
-0.0013477355 0.08219937 -0.07541676 0.064401835 -0.06721746 -0.022451552 0.07125812 -0.008016437
-0.07719809 -0.0803462 -0.0398551 0.02439196 0.14980876 -0.030291937 0.16138779 -0.06098992
-0.049394 0.15718722 -0.10353581 0.043745615 0.016784558 -0.06360014 0.10471514 0.08528009
-0.0650995 0.08355128 0.12182405 0.16448478 0.14306192 0.119308315 -0.012105271 0.09438574
-0.1002106 -0.011109208 0.053709757 0.019417575 -0.035316832 0.084771276 0.100332946 0.11584932
-0.044958808 0.11890289 -0.11170597 -0.035505295 0.01732962 -0.08814091 0.04966314 0.00050807174
-0.07549779 0.0071727782 0.07319188 -0.06594377 0.08296429 -0.07114274 -0.012127855 -0.057655204
0.12708928 -0.098512754 0.025781563 -0.02582802 0.12179519 0.07260303 0.018201157 0.056484796
-0.0084964335 0.085705005 -0.007608101 -0.045196213 0.07122226 0.07003646 -0.052814186 0.013148785
-0.07926467 -0.074076094 -0.11004491 0.07827153 0.06043843 0.005663606 -0.106519334 -0.007552234
-0.07495482 0.09290982 0.014201567 0.062490266 0.046949055 -0.033629104 0.061409853 -0.082556866
0.07692803 -0.022038287 0.093952194 -0.098187774 -0.07493184 -0.06512241 0.06869975 -0.11504416
0.026906788 -0.062246054 -0.03264124 -0.053698823 0.069054574 -0.12081439 0.102055706 0.07788864

hidden_layers.1.bias f4 [64]
00000000: cd44 cd3b 444a b03c 1edc 1ebc 19d3 313d
00000010: 320b 15ba 1bdb 273e 1efa 153d 1d30 acbb
00000020: 8054 d93d fdfa bf3d 8eed d5bd 47c1 f43d
00000030: 5bca 363d 0805 c33d 09e1 c3bd 7ec2 dcbd
00000040: 0c85 8ebd b2a7 dfbd 1a22 973d 6097 9ebd
00000050: 8845 e43d a9cf 07bd d881 cabd 55b2 253d
00000060: dad4 45bc c003 5e3d 1269 df3b 06fa d0bd
00000070: 2e19 efbd 409d 933d aaff ed3d b3e5 5ebd
00000080: eeb9 243e 004a bbbd 536e d0bc f22f 193d
00000090: dc86 9c3d 10a2 e4bd fd61 8ab9 d295 d0bd
000000a0: ddf4 e53d f224 803c 5293 833d e41e 1dbd
000000b0: 3e85 afbd 2f21 ec3d 1c42 0fbd 4522 53bd
000000c0: 8d3d c3bd 359e 293d f9b6 a73d 74e8 8f3c
000000d0: c03c 58bd 612c 803d fc9a 223e aa3d be3d
000000e0: 6131 cabd 79ba 1e3e 4bb6 af3d 2d65 113d
000000f0: 733f d43c c519 483d 8038 8bbc 2cba 803d
0.006264305 0.021519788 -0.009696035 0.04341421 -0.0005685567 0.16392176 0.036615483 -0.005254759
0.1061182 0.09374044 -0.104457006 0.11950927 0.044626575 0.09522444 -0.095644064 -0.10779284
-0.069589704 -0.10920657 0.07379551 -0.07743716 0.111460745 -0.033157025 -0.09888047 0.040453274
-0.012074674 0.054202795 0.0068179453 -0.10203938 -0.116747245 0.072077274 0.1162103 -0.054418277
0.16086552 -0.09144974 -0.025443232 0.03739924 0.0764291 -0.111637235 -0.00026394418 -0.10184826
0.112283446 0.015642617 0.064245835 -0.038359538 -0.08570336 0.11529767 -0.034975156 -0.051546354
-0.09533224 0.041410644 0.08189196 0.017566897 -0.05279231 0.062584646 0.15879434 0.09289105
-0.098726995 0.15500821 0.085796915 0.03549688 0.025909161 0.0488527 -0.016994715 0.062855095

hidden_layers.2.weight f4 [64, 64]
00000000: 8cb7 15bd b08c 91bd 6a4d cd3d bc3e 9f3c
00000010: a617 573d 574d 193e 2fc3 203e 17b4 de3c
00000020: 6679 0a3e 49bc c3bd de57 ac3d 100c 97bd
00000030: 46f7 273e ecc4 22bd e724 84bd e0ef 96bc
00000040: dc64 33bd 387c d9bc c018 c33d 12b8 0c3e
00000050: 2438 86bd 0a3e 8fbd 3002 3b3c e4e4 013d
00000060: 41c6 6b3d 9a98 99bd 4598 013e e87f 32bd
00000070: b2cc b43d 5aff 193e fde6 48bd 6373 d23d
00000080: fef1 483c 4a5f ddbd b468 143d 3bc3 2e3e
00000090: abfe 163e 8899 d6bd e44a 793d 8cab 2b3d
000000a0: c10c 0d3e 99f9 19bd 8b45 70bd b85f aebd
000000b0: c8ca 803d 7c10 933d c629 95bd d10a da3d
000000c0: af8c f5bd f8af 09bd 5a78 e93c 937a e13d
000000d0: ccd3 223d 89d2 2d3e 045e 0a3e 1fbc c73d
000000e0: 5f77 9f3d 530b 6fbd 7bde 0fbd 14bd 263e
000000f0: a94c 153e cbc0 2b3d 80ea d73b 62bc 2b3d
00000100: 1013 46bd a8e5 e93d 64a1 aa3d 80ed 7f3b
00000110: d05f b93d 005d 19bb 30d2 56bd b45b c6bd
00000120: a41e 61bd 7015 5f3c 6404 3d3d a291 f5bd
00000130: a4e7 123d 00ba 11ba 688a 28bd 000d 143c
00000140: 5643 833d 6c40 0cbd ceb4 ad3d 9cce b4bd
00000150: 6467 fc3d 1e16 c23d ca3a d53d f88b c13c
00000160: 24c5 3bbd 4c76 3f3d 5a1e ad3d 40a8 d6bb
00000170: 2695 a23d 385b eebd f059 c4bd f43f 083d
00000180: 0e6a f5bd dc92 cd3d 7445 033d c8f7 793d
00000190: d4ff 56bd 50e8 babd 9241 d53d 00f5 5bbb
000001a0: 3827 aa3d 7cad 163d 564b 973d 801d 12bb
000001b0: 3e0d cdbd 22ec efbd 60e7 973c 2242 a5bd
000001c0: a04a 55bd 48c2 8f3d 8cc5 723d a0c5 063c
000001d0: 08c3 fe3c a46d 94bd 6ef0 9fbd d04a 1a3d
000001e0: a423 55bd a03c d53b 9025 f8bc 68f0 57bd
000001f0: 0290 e8bd c0b4 91bd 14f9 b3bd 783d 893d
00000200: ec8d 3dbc 54af 93bd 7ce4 bc3c 7029 cf3c
00000210: 5971 033e 8501 733d 18db 6e3d b780 87bb
00000220: 8f49 f13d 3b6b 44bd 2440 e3bd 7470 133e
00000230: 6cd5 013e b257 a2bd 653c 8b3d e88e 423d
00000240: 9292 f2bd 8049 76bb d2b3 c5bd 5eea 003c
00000250: 1599 153e d4c0 073d a05d bc3b a293 e7bc
00000260: 84bd d23d 1ed6 c33d e3e0 cdbd ee6f a33d
00000270: a0a1 f7bd 69ca f63d 84b4 a4bd 4a3f e13d
00000280: cf14 e7bc 7147 bd3d e1f2 d8bd 69bc 093e
00000290: 4eeb 913d cab0 d53d dd36 61bd b865 013d
000002a0: c219 c93d 0a65 9dbc a765 273e a3fc 28bd
000002b0: 02d3 a53d acdc 113e 221c 853d cb3b 493d
000002c0: a596 1ebd ba89 cd3d 9c26 743d 4c12 9d3d
000002d0: 6ce6 f23d db46 103e 7f9b 693d 24b3 c43d
000002e0: eeda c93d 4283 043e 5c3b eb3d 8c63 4e3d
000002f0: 7230 053e d141 303e 9aa1 b9bd f759 823d
00000300: afea b0bd ccf6 9a3d eacf 1d3e 47ab db3d
00000310: cc9a 8abd d358 5abd 4aa4 213e 949e 43bd
00000320: f991 a53d 8001 073e 802e 9abc 27e4 b1bc
00000330: 8e38 9cbd fa17 85bd 4e83 85bb 7a10 d3bd
00000340: a422 953d 1c72 b83d ac43 ef3c 233f 1c3e
00000350: ba1c a83c db0b 033d d40a 54bd 86da 103e
00000360: b27b d23d 50db 3ebc 7442 03bc d4bb 7b3d
00000370: eca9 7abd e3ee 173e 5979 2fbd f26a de3c
00000380: 02f2 d33c 9fd6 9a3d 894e 403d f669 95bd
00000390: be59 a0bc 3828 e8bd ae5e 9bbd 1c0b fa3d
000003a0: 577e 123d 3974 4a3b 7ebd 11bc 6d9b 433c
000003b0: 006c b8bd d7c0 de3c 202e a5bd 3fa5 f8bc
000003c0: 4312 cf3d de44 7fbd f6dc 1f3e 6eee a73d
000003d0: a8d3 ed3d c422 82bb 8594 d9bc aecf 88bd
000003e0: 8355 6fbd f8f2 113e 3ec4 233e c19a 03bd
000003f0: 5611 3abd 7023 2d3e 9a66 823d e9f8 143e
-0.036551997 -0.07106912 0.10024531 0.019439094 0.052512787 0.14970909 0.15699457 0.027185483
0.13522872 -0.09557397 0.08415197 -0.073753476 0.16402921 -0.03973858 -0.06452351 -0.018424928
-0.04379736 -0.02654849 0.09526205 0.13742092 -0.06553677 -0.06994255 0.011414096 0.031712428
0.057562117 -0.074998096 0.12655742 -0.043579012 0.08828105 0.15038815 -0.049048413 0.102759145
0.012264727 -0.108091906 0.036232665 0.17066662 0.14745586 -0.104785025 0.060862437 0.041911647
0.13774396 -0.03759155 -0.05866007 -0.08514351 0.062886775 0.071808785 -0.07283358 0.10646594
-0.11989724 -0.033615083 0.02849977 0.11009707 0.039752766 0.16974844 0.13512427 0.09752678
0.0778644 -0.05836041 -0.035124283 0.16283065 0.14580025 0.04193191 0.006589234 0.041927703
-0.048358023 0.114207566 0.08331564 0.0039051473 0.09051478 -0.002340138 -0.052446544 -0.0968546
-0.05496086 0.013615951 0.046146765 -0.11990668 0.03586544 -0.0005559027 -0.04114762 0.009036303
0.06409328 -0.034241125 0.084817514 -0.0882847 0.12324408 0.09476875 0.10411604 0.023626313
-0.045842305 0.046743676 0.08453055 -0.0065508187 0.07938604 -0.11638492 -0.09587467 0.033264115
-0.11983119 0.10037777 0.032048658 0.06102732 -0.05249007 -0.09126341 0.10412897 -0.003356278
0.08308262 0.03678654 0.07387416 -0.0022295415 -0.10012291 -0.11714961 0.018542945 -0.080692545
-0.05207312 0.07019478 0.059270427 0.008225828 0.031098858 -0.07247475 -0.0780953 0.037669003
-0.052035943 0.006507471 -0.030291349 -0.052719504 -0.11355592 -0.071145535 -0.08787742 0.06701177
-0.011569481 -0.072111756 0.023058169 0.025288314 0.12836207 0.05932762 0.058314413 -0.004135217
0.11781608 -0.047953825 -0.11096218 0.14398366 0.1267907 -0.07926883 0.06798629 0.047499567
-0.11844362 -0.003758043 -0.09653439 0.0078683775 0.14609177 0.03314288 0.0057484657 -0.028268639
0.102900535 0.09562324 -0.10052659 0.07980333 -0.120913744 0.120503254 -0.08042243 0.109983996
-0.028208164 0.09242142 -0.105932005 0.13450779 0.07124959 0.104341105 -0.054983962 0.031591147
0.09819366 -0.019213218 0.16347371 -0.04125656 0.08096887 0.14244336 0.064995065 0.04912929
-0.038717885 0.10036035 0.059607133 0.076695055 0.11860356 0.14089529 0.05703306 0.09604481
0.09856211 0.12940696 0.11485931 0.050387904 0.13006762 0.17212607 -0.09064026 0.06364816
-0.08638512 0.07566604 0.15411344 0.10726028 -0.067678064 -0.053307366 0.15785328 -0.047758654
0.08084483 0.13184166 -0.018821001 -0.021715237 -0.076279745 -0.06498714 -0.0040744906 -0.10305877
0.07281998 0.0900614 0.029207073 0.1525846 0.02052151 0.031993728 -0.05176814 0.1414586
0.10277499 -0.011648968 -0.008011449 0.061458424 -0.061197206 0.14837222 -0.042840336 0.027150605
0.025872234 0.07560467 0.046949897 -0.07295601 -0.019574042 -0.11335796 -0.07586418 0.1220915
0.03576502 0.0030892028 -0.008895276 0.011938912 -0.09004974 0.027191563 -0.08065438 -0.030352233
0.10110905 -0.062321536 0.15611634 0.08199774 0.11612636 -0.0039714295 -0.026560077 -0.06680237
-0.05843116 0.14252841 0.15992829 -0.032130007 -0.04542669 0.1690805 0.06367226 0.14548077

hidden_layers.2.bias f4 [64]
00000000: d2aa a6bc 903e c1bc 2fa3 0b3e 4693 aa3d
00000010: 3731 0f3e fc33 82bd 491f dcbc 4842 bcbc
00000020: 4d11 2f3d 52a1 f93d 4266 b8bd 6fd4 7fbd
00000030: 71b8 9c3d b940 bfbd 001a 9a3d fd06 1a3b
00000040: f8e7 c6bd 7f7c 523d 93a0 b63d dd70 03bd
00000050: 75cc 183e a814 5abd 30fd afbd 947f 1fbc
00000060: b8b2 68bd e6d0 bb3d 0004 94bb 2fba cfbc
00000070: 7eb5 d73d a4ce ca3d 50de a9bd 656e 763d
00000080: 7e56 9b3c 163f ecbd f8ef e53c 4dd6 4fbd
00000090: 0a48 97ba 1575 d23d 6e16 23bd a061 753d
000000a0: 075e e23d 1bb5 d73d f009 1d3e 494d 243c
000000b0: 158d 1f3a 5877 a63d 5c80 e7bd fe0b ea3d
000000c0: e135 613d 2940 ea3d f374 c23d 0ead ecbd
000000d0: 13e5 813d 345e d2bd 2c0c ebbd 284f c3bd
000000e0: 8eb5 c2bd 0311 0f3e 286d bb3d 0769 09bc
000000f0: 5f7f 80bd 169b 253d c0ca 063e 6a58 6b3d
-0.020345125 -0.023589402 0.13636468 0.083288714 0.13983618 -0.063575715 -0.026870387 -0.022980824
0.04274111 0.121889725 -0.09003879 -0.06245845 0.07652367 -0.09338517 0.0752449 0.00235027
-0.09712213 0.05138826 0.08917346 -0.032090057 0.14921744 -0.053242356 -0.085932136 -0.009735007
-0.056811064 0.091707036 -0.0045170784 -0.025357334 0.10532664 0.09902695 -0.08294356 0.060163874
0.018962141 -0.1153547 0.028068528 -0.050741483 -0.0011541855 0.10276238 -0.039816312 0.059907556
0.110530905 0.1053259 0.15335822 0.010028192 0.00060863915 0.08128232 -0.113037795 0.114280686
0.054983024 0.11438019 0.094949625 -0.11556445 0.063425206 -0.10271874 -0.11476931 -0.09536582
-0.09507285 0.13971333 0.09151679 -0.008386857 -0.06274294 0.040431105 0.1316328 0.057457365

hidden_layers.3.weight f4 [64, 64]
00000000: 94c4 433d 42e3 933d 8476 9cbd 6288 f0bd
00000010: 4c15 36bd ee11 f43d 720d fa3d a8f2 513d
00000020: 848d 68bd 7070 79bd 2c5e 083d 6050 8fbd
00000030: bc38 26bd 5a1f 8f3d b629 d43d 1ab8 a7bd
00000040: 30d8 87bc 808e 1abc 1004 503c d8da dbbc
00000050: 4a45 dabd ea32 dbbd c6f4 b83d 547a abbd
00000060: 4865 d43c 8e77 d4bd c2f9 d4bd 367a ca3d
00000070: b897 a9bd 0438 b4bd 00a9 8aba 6809 eebc
00000080: 1a72 903d 3022 20bd 8c90 0d3d a05c a53c
00000090: ace0 053d dc93 21bd c4bc f73d 3880 9abc
000000a0: 14f1 a4bd 288f 793d 9070 a4bc 9053 76bc
000000b0: 5c0a b23d 7850 d9bd dc5e 743d b80b b0bd
000000c0: c011 54bc 2a83 bd3d c0f6 433b d0f3 2e3d
000000d0: 40c7 abbc c037 ee3c c4fe d53d a660 adbd
000000e0: 78e0 c33d b0d1 4fbd 0091 7dbc 2832 3d3d
000000f0: 2a85 a33d a4d9 2dbd f819 79bd 0038 bcbc
00000100: 5461 063d 3235 d03d 60c9 5bbd 18ed 68bd
00000110: c0d3 8e3b e6a9 9fbd ce78 8bbd ee0d f9bd
00000120: 5022 1d3c e0fd 69bd 4cec f23d 6215 aabd
00000130: 8412 fb3d 6c3e 2d3d 0c6a 253d c008 3c3b
00000140: 48e9 8dbd 542f ec3d 745e 453d c8c1 febc
00000150: a4d8 17bd 0078 69b9 4884 01bd 2c75 e23d
00000160: 50fa 52bd 12cf f3bd dcaa 683d 069c b13d
00000170: baa4 f73d 0c64 acbd b05b 633d 9897 503d
00000180: 1cff a4bd 80c0 c6ba 00af 913d 1454 763d
00000190: acd7 f4bd 9064 f23c 70f3 c53d f042 323c
000001a0: 7c6e 6abd 3063 7cbc 8801 95bd 883b cbbd
000001b0: 7071 3dbd 4abd e3bd f0d5 c4bc 74dd 02bd
000001c0: e401 573d 8870 e4bd e0fd 3abc 0001 bdba
000001d0: 9897 ddbc a0d9 d03c 727f d43d f04e e6bd
000001e0: cc14 883d a8b5 003d a8b1 71bd 38ce 173d
000001f0: 2029 e83d aeb5 c3bd 208b c5bd 6e09 8b3d
00000200: f4a9 073d b4bd 223d 4802 efbc 6c24 fc3d
00000210: 3868 e93d 4614 ca3d fc85 693d 404b 19bb
00000220: 0838 d6bd 80a7 bbbb 30da e9bd a8bf 7abd
00000230: e85f 213d c0d1 5cbd 1ece 89bd d263 c3bd
00000240: d868 21bd 8cc6 9ebd e0ae bb3c 442a 3a3d
00000250: 18fe ff3d 50c0 8f3d 9cdf 843d 70ae 0ebd
00000260: e8c9 923c 5e1e b4bd a0d7 fb3c 2092 aa3c
00000270: 00ab 10bc da1d 903d 00f3 c4bd d030 bcbd
00000280: 72b1 edbd b468 49bd 001b d53d 3805 6fbd
00000290: f0c3 66bd c0b2 193d 50e7 453c a82d 1f3d
000002a0: 1e49 873d 4840 b6bc a036 de3b 6039 a43c
000002b0: b058 7ebd 32ef a03d b0f6 da3c 60d7 adbd
000002c0: 5aa0 ed3d 1ec6 863d b6a8 953d 96bb ecbd
000002d0: f2cd f3bd 92be e5bd b0c7 75bc 843e 79bd
000002e0: 2016 8ebd dcad 6cbd 68ec aabd d436 cb3d
000002f0: 9c1a b5bd 3408 873d 88ea 903d 40fd 22bd
00000300: 4bb0 a83d 4a8a f4bd 7ea2 1e3e edb7 293e
00000310: b447 213d 847f 77bb 2707 913d 1c7c 093d
00000320: fb4c 4dbd 2b0e 01bb b204 fcbd 1c23 71bd
00000330: 7b1c 153e 8528 eabb b1c5 023e 778a 79bc
00000340: 8019 a3bb 658d f03d 69e2 703c f64c 603c
00000350: 90c8 023e 9cd2 db3d e0f6 2fbc a312 013e
00000360: 0223 a73d b603 a93d b439 6bbd 2edc 393b
00000370: 4044 ca3d 6022 183e de02 013e ea91 983d
00000380: aaca 003e 5c92 5f3d 9e3a 8bbd 4caf 053d
00000390: 0ee5 513d 1abd ea3d 6342 183e 05d5 123e
000003a0: 9feb 093e 598c 233e 35d8 5f3d a257 513d
000003b0: e820 103c 98af a93d b6fe ad3d bfb5 5fbc
000003c0: c0a0 3dbd dfa2 9bbd 0406 923d 98ab b4bd
000003d0: 9111 f13d f9f6 dcbd 872d 0bbd 964a 9b3d
000003e0: 40bc 9f3b 7deb 3f3d 7c0f a7bd 54b0 0dbd
000003f0: 18f1 45bd d345 66bd 7c7f 46bd 571c 1d3e
0.047794893 0.0722108 -0.076397926 -0.11744763 -0.044453904 0.11917482 0.12209596 0.051256806
-0.056775585 -0.060898244 0.033292934 -0.06997752 -0.04058145 0.06988402 0.10359518 -0.081894115
-0.016582578 -0.009433389 0.012696281 -0.026837751 -0.10657747 -0.107030705 0.09031062 -0.083729416
0.0259272 -0.10374366 -0.103992 0.09886591 -0.08280891 -0.08799747 -0.001057893 -0.02905722
0.07053013 -0.039095104 0.03456168 0.020185769 0.032684967 -0.03944765 0.12096551 -0.018859968
-0.080537945 0.06092754 -0.020073205 -0.015034571 0.08693382 -0.10611051 0.059660777 -0.08595985
-0.012943685 0.09253533 0.0029901713 0.042712986 -0.020969033 0.029079318 0.10448983 -0.084657
0.095642984 -0.050737083 -0.015476465 0.04619041 0.079843834 -0.042443886 -0.06081578 -0.022975922
0.032807663 0.10166396 -0.053658843 -0.056866735 0.0043587387 -0.077960774 -0.06810151 -0.1216086
0.0095907 -0.05712688 0.11861476 -0.0830486 0.12259391 0.04229586 0.040384337 0.002869174
-0.069292605 0.115324646 0.04818578 -0.031098261 -0.03707184 -0.00022265315 -0.031620294 0.11057505
-0.051508248 -0.1190473 0.05680357 0.08672337 0.12091966 -0.0841752 0.055507362 0.05092582
-0.08056471 -0.0015163571 0.07113457 0.060138777 -0.11955199 0.029588968 0.09665573 0.010880217
-0.057234272 -0.0154045075 -0.07275683 -0.09923464 -0.04625076 -0.111200884 -0.024027795 -0.031949475
0.052492037 -0.11154276 -0.011413068 -0.0014419854 -0.027049825 0.025494397 0.10375871 -0.11245525
0.06644592 0.03142324 -0.059007317 0.0370619 0.11335969 -0.09556137 -0.096456766 0.06788908
0.033121064 0.039731696 -0.029175892 0.123116344 0.11396831 0.09867148 0.057012543 -0.00233908
-0.10459906 -0.0057267547 -0.11418569 -0.061217934 0.039398104 -0.05391097 -0.06728767 -0.095405236
-0.039406627 -0.077527136 0.022910535 0.045450464 0.124996364 0.070191026 0.064879626 -0.034834325
0.017918542 -0.087948546 0.030742466 0.020821631 -0.008829832 0.07036944 -0.09616661 -0.09188998
-0.11606111 -0.04917212 0.104055405 -0.058354586 -0.056339204 0.037523985 0.012079075 0.0388619
0.06605743 -0.022247449 0.006781414 0.02004689 -0.062096298 0.07858123 0.026728958 -0.08488345
0.1160285 0.065807566 0.0730757 -0.11559217 -0.11904515 -0.11217989 -0.0150012225 -0.060850635
-0.06937814 -0.057782993 -0.08345872 0.09922567 -0.08842966 0.065933615 0.07075983 -0.0397923
0.0823675 -0.11940439 0.15491673 0.16574068 0.039375022 -0.0037765214 0.07081442 0.033565626
-0.050122242 -0.0019692283 -0.12305583 -0.058871374 0.14561646 -0.0071459436 0.12770726 -0.0152307665
-0.004977405 0.11745719 0.014702418 0.013690224 0.12771821 0.1073353 -0.010740012 0.12604766
0.08160974 0.08252661 -0.057428077 0.0028359997 0.09876299 0.14856863 0.1259875 0.07449706
0.1257731 0.05458294 -0.0679829 0.03263788 0.051243834 0.114618495 0.14869075 0.14339073
0.13468789 0.15971507 0.05464955 0.051108964 0.008796908 0.08285445 0.08495848 -0.0136541715
-0.04629588 -0.075994246 0.07130054 -0.088217914 0.11770929 -0.10789294 -0.033978965 0.075825855
0.004874736 0.04685544 -0.0815725 -0.034591988 -0.048325628 -0.056218933 -0.048461422 0.15342842

hidden_layers.3.bias f4 [64]
00000000: 1419 bbbd 6276 b0bd 10d9 e5bd 928b 7cbd
00000010: 8064 83bd e81c a23d 2580 bf3c 9f67 213d
00000020: 24d6 c1bd 0e3b bbbd a45f a4bd 2c75 083e
00000030: 8dce b63c a02e a13b d542 cf3d 7898 8fbc
00000040: 7617 d3bd bce3 103d c807 b03d eeb0 b6bd
00000050: 1e20 11bd 1e7c 223d 5007 a9bd 1411 98bd
00000060: ed20 06be 5f2a 303c 61b2 c83c f2bf b4bd
00000070: acb4 26bd 9ae8 e43d ec92 dfbd cae1 c43c
00000080: ba52 bfbd 1a35 b7bd 02bd c2bd f4e4 ee3d
00000090: 520b 273d 0286 fcbc 0036 163b a4db 423d
000000a0: 0ea2 b03d 7498 593d 981c f3bd a975 503d
000000b0: d067 e53d e09e 19bd b530 32bc 2e6b d1bd
000000c0: bee5 c7bd ab8c 173e 659e 693d a546 403d
000000d0: 2231 263d c85b 2dbd 1603 753d 8275 f4bd
000000e0: 245e b9bd 002b f7bd 47b8 093c 9b48 04bd
000000f0: 6c38 d03d 9740 9c3d 36f6 88bc 08b0 713d
-0.09135643 -0.0861633 -0.11223042 -0.061656542 -0.06415653 0.0791567 0.023376534 0.03940546
-0.09464672 -0.09142123 -0.080260545 0.13325948 0.022315288 0.004918888 0.10120169 -0.017528757
-0.10307209 0.035373434 0.08595234 -0.089204654 -0.03543102 0.03966915 -0.08253348 -0.074251324
-0.13098498 0.01075229 0.02449912 -0.08825673 -0.040699646 0.11177178 -0.10916695 0.024033446
-0.09341951 -0.08945675 -0.09508707 0.11664763 0.04078228 -0.030825619 0.002292037 0.047572747
0.086246595 0.053123906 -0.11870688 0.05089346 0.11201441 -0.03750503 -0.0108758705 -0.10225521
-0.09760617 0.14799754 0.057035822 0.046942372 0.0405742 -0.042323858 0.059817396 -0.11936475
-0.09051159 -0.120687485 0.008405752 -0.032295804 0.101670116 0.07629507 -0.016718965 0.059005767

output_layer.weight f4 [2, 64]
00000000: 683b 71bd 7ab4 b63d c84c 963d c5d4 f53d
00000010: 168f 953d a962 30bd 6f2c ed3d 1cf5 433d
00000020: fac1 443d 94ea 993d 2d3d 153d 47f4 173e
00000030: 9d13 133e c0ad a23c a324 c93d b887 0f3d
00000040: 8c43 d3bb 50c0 c93d e59a 9bbd c3eb b7bb
00000050: 53e1 06bd b7cc 0ebd f8f0 cf3c a015 883b
00000060: 401c ccbc b60c 013e ec27 123e d629 bfbd
00000070: f4bd 023e 910c 073e 4883 a7bd 5f3d f83d
00000080: 7873 63bd 8def 86bc ce33 f43d c607 cc3d
00000090: 38e7 2d3e 2f5f 16bd b6d5 ca3d 4084 4b3c
000000a0: 9e30 473a 0091 c7bd d011 a5bc 37f8 943d
000000b0: 6af9 863c d8c0 8bbd 78b2 e0bd 1654 dbbd
000000c0: f856 c63b 26d7 0c3e 68ad 603c a1ec 2c3e
000000d0: b42d 4c3d bcd9 70bd c056 74bd c02f 73bb
000000e0: ab2d 393d 107d 8ebd 1dae f0b9 c36a 833c
000000f0: 11a8 163e 48de de3d 827e 653d ad69 963d
00000100: de07 97bd 70a7 b7bc 86c1 e0bd 37bb edbd
00000110: 1002 2cbc efd6 e43d 08a6 6b3d cf1c cabc
00000120: 8e75 2a3c 8c5d 4cbd eb20 a73c e4f4 e73d
00000130: 6cad 98bd d20d dd3d ba0f e93d 0095 b2bb
00000140: 5fd8 dabd 6804 5bbd 0ec5 fe3c 9ef0 0abe
00000150: c39b e1bd 7fc5 c63d f434 f8bd d4cc 7c3d
00000160: 4801 32bd fe58 f9bd 35d8 c4bd d96e 923c
00000170: fa6d 87bb 2a61 f6bc 44b8 213d 5de1 63bd
00000180: f897 173d 0bff d53d d441 613d c782 ad3d
00000190: be73 803d 839a a13c 0cd1 b9bd 58e9 9f3c
000001a0: db4f ff3d 5679 ff3c 0c60 db3d 3f3d dcbd
000001b0: d173 d53d 706a dabc 38fb ebba c86b 93bc
000001c0: 0062 05be 67f2 14bb 4236 553d 2366 99bc
000001d0: 801b e7bd f803 e83c d683 5c3d 0847 cb3c
000001e0: a49f 053c f0eb fbbd 5fb0 f5bd 841b 6d3d
000001f0: 6b7f 71bd bbc5 b63c ccc4 aa3d fca1 4ebd
-0.058894545 0.08921142 0.073388636 0.12003473 0.07302682 -0.04306284 0.11580741 0.047841176
0.048036553 0.07515445 0.036435295 0.14839278 0.1436295 0.019858241 0.09821441 0.03504154
-0.006447261 0.09851134 -0.07597903 -0.005612822 -0.03292973 -0.0348632 0.025383458 0.0041529685
-0.024915814 0.12602505 0.14273041 -0.093341514 0.12767774 0.13188387 -0.08179337 0.121210806
-0.05553004 -0.016471649 0.119239435 0.0996242 0.16982734 -0.036711868 0.099040434 0.012421668
0.0007598492 -0.097444534 -0.020150095 0.07273906 0.016476352 -0.068238914 -0.1097154 -0.107093975
0.006052848 0.13753948 0.013713218 0.16887142 0.049848273 -0.058801398 -0.059653044 -0.0037107319
0.045209568 -0.069574475 -0.00045906092 0.016042119 0.1471255 0.108822405 0.05602885 0.07344375
-0.073745474 -0.022418708 -0.10974412 -0.11607974 -0.010498539 0.11173808 0.057531387 -0.02467194
0.010404004 -0.0498939 0.020401439 0.11326006 -0.074549526 0.10793652 0.11379953 -0.005449891
-0.10685801 -0.053471 0.031099822 -0.1356835 -0.11016037 0.09705638 -0.12119475 0.061718777
-0.043458253 -0.12175177 -0.09611551 0.017875122 -0.0041329833 -0.030075628 0.03948237 -0.055634845
0.037010163 0.10449036 0.05499442 0.084722094 0.06272076 0.019726997 -0.09073076 0.019520447
0.12466403 0.031185787 0.10711679 -0.10753869 0.10422481 -0.026662081 -0.0018003946 -0.01799573
-0.13025665 -0.002272749 0.052053697 -0.01872546 -0.11284542 0.028322205 0.053836666 0.024814144
0.008155737 -0.12300861 -0.11996531 0.05788757 -0.058959406 0.022311082 0.08338317 -0.05044745

output_layer.bias f4 [2]
00000000: 50e2 a53c 50b6 963d
0.020249516 0.07358992
