abc_env_raw/saved_models/phi_only_0.5_oct26.pt (torch, 16963 bytes, 10 tensors)

input_layer.weight f4 [32, 3]
-0.36362618 0.37342015 0.42090055 -0.08272672 -0.16450447 -0.34627986 0.5111669 -0.066418566
0.45837593 0.48920837 0.36356035 -0.040642407 0.43240494 0.39066246 0.19331467 0.5557037
-0.4817718 0.0761451 -0.14070222 0.39333192 -0.008128578 -0.45730168 -0.26447716 0.025040712
0.20269172 -0.34355032 0.50497305 -0.017913008 0.1767732 -0.4609242 0.19015905 -0.3529146
-0.48995307 -0.28259575 -0.5560092 -0.5618833 0.32064268 0.29886344 0.40355244 -0.10325344
0.56463575 -0.20771217 -0.38655522 -0.31278116 0.4426705 0.51390463 -0.16803005 0.40333647
-0.5333292 -0.34231314 -0.47572154 -0.41630164 0.26709154 0.5618449 -0.35824692 -0.51094884
-0.10641856 -0.4169663 -0.55778366 -0.5538707 -0.2754372 0.009784488 -0.16786104 -0.41363
0.29636228 0.24748853 0.21522926 0.017486902 0.01753565 -0.48448643 -0.38397405 0.12341287
-0.31044063 0.028716695 -0.33379883 -0.121913224 0.18796213 -0.5040865 0.4386641 -0.028150462
0.29058567 -0.025224483 -0.030437395 0.5362011 -0.1616167 -0.40460783 -0.22775096 -0.39098057
0.5231083 0.2875874 -0.26463965 -0.30802134 -0.025349636 -0.5282805 -0.10316123 -0.08830908
00000000: 362d babe ed30 bf3e 4780 d73e a06c a9bd
00000010: dc73 28be 984b b1be d5db 023f 7506 88bd
00000020: 40b0 ea3e 8579 fa3e 9524 ba3e a778 26bd
00000030: 2e64 dd3e e904 c83e 48f4 453e 9942 0e3f
00000040: cbaa f6be f6f1 9b3d 3e14 10be cd62 c93e
00000050: ba2d 05bc 7223 eabe 8d69 87be 2e22 cd3c
00000060: 6b8e 4f3e d4e5 afbe ea45 013f 4dbe 92bc
00000070: 0904 353e 42fe ebbe 0eb9 423e 39b1 b4be
00000080: 21db fabe 64b0 90be 9e56 0ebf 95d7 0fbf
00000090: 472b a43e a104 993e 6d9e ce3e 8a76 d3bd
000000a0: f88b 103f 80b2 54be 91ea c5be da24 a0be
000000b0: b5a5 e23e 418f 033f 1210 2cbe 1e82 ce3e
000000c0: 4388 08bf ab43 afbe c691 f3be 7d25 d5be
000000d0: 39c0 883e 11d5 0f3f 246c b7be 8bcd 02bf
000000e0: f9f1 d9bd 9b7c d5be e9ca 0ebf 78ca 0dbf
000000f0: 1b06 8dbe 1e4f 203c c4e3 2bbe 50c7 d3be
00000100: ccbc 973e a26d 7d3e 0f65 5c3e b140 8f3c
00000110: eca6 8f3c 9b0e f8be 3f98 c4be e3bf fc3d
00000120: 13f2 9ebe 463f eb3c aee7 aabe a4ad f9bd
00000130: 2579 403e d00b 01bf 9598 e03e cc9b e6bc
00000140: a5c7 943e 93a3 cebc d857 f9bc 7a44 093f
00000150: d97e 25be c228 cfbe 8c37 69be 9b2e c8be
00000160: 6dea 053f a83e 933e d97e 87be f9b4 9dbe
00000170: 0aaa cfbc 643d 07bf 3246 d3bd 64db b4bd

input_layer.bias f4 [32]
-0.1883574 -0.1382054 0.108440764 0.3299421 -0.20847201 -0.18269233 -0.33301044 0.20796868
0.6165012 -0.2748411 0.046636555 0.38566533 -0.054978643 0.16325615 -0.28110155 0.09937227
0.4607469 -0.19293104 -0.5003889 0.49952778 0.19430049 0.38986558 0.07833168 0.206044
-0.56549674 0.39302826 -0.38916945 -0.38757548 0.43118718 -0.022636319 0.1306063 -0.4914208
00000000: c3e0 40be b785 0dbe 3116 de3d 2cee a83e
00000010: b079 55be b313 3bbe 5880 aabe bef5 543e
00000020: 06d3 1d3f f9b7 8cbe f905 3f3d ed75 c53e
00000030: 4931 61bd 9f2c 273e 8bec 8fbe b083 cb3d
00000040: 05e7 eb3e b78f 45be 7d19 00bf 1bc2 ff3e
00000050: b5f6 463e 769c c73e 5c6c a03d 33fd 523e
00000060: 65c4 10bf 003b c93e 3841 c7be 4b70 c6be
00000070: 91c4 dc3e cd6f b9bc a8bd 053e 829b fbbe

hidden_layers.0.weight f4 [32, 32]
0.054538716 -0.09852249 -0.056236938 -0.13694465 -0.11495772 0.007833012 0.0052969735 -0.036793903
0.13942906 0.036420334 -0.15013315 -0.044573896 -0.1318527 -0.0061401427 -0.04444016 -0.11185422
-0.13290232 -0.13669938 0.14817455 -0.080034465 -0.13162404 -0.12877734 0.11411459 0.13540244
-0.1544712 0.15526566 0.0044115107 -0.16925782 -0.03816888 0.15930545 0.050954673 0.008754174
0.1493087 -0.1603551 0.15106173 0.17441091 0.15088965 -0.0047195656 0.052905288 0.12293162
0.18134758 0.16681263 -0.017635262 0.22189055 0.016589329 -0.03743643 0.07788049 0.1687938
0.03428581 0.12636101 0.072688036 -0.090683356 -0.09376475 0.21971706 0.24602824 0.1891339
0.0007134829 0.0828859 -0.15773416 0.16146766 -0.08027383 -0.120360374 0.106683955 -0.049746916
-0.039739568 0.066526525 -0.114348315 -0.17139758 0.045373842 -0.0052168947 -0.064986706 -0.11247761
-0.0659878 0.10577643 0.08631257 -0.06847459 -0.11066671 0.08414544 0.016549507 -0.15431595
-0.1563194 -0.008951759 0.17495437 0.0639967 0.10010058 0.114966445 0.068323135 -0.001057633
0.06977685 -0.010895276 0.0386137 -0.1635929 -0.08387526 -0.08659811 0.1370766 -0.16621497
-0.13541904 -0.16608615 -0.17517684 0.05607119 0.07546073 -0.077658415 -0.049869075 0.119759716
-0.14952162 0.14869308 0.14246172 -0.14424394 -0.0831701 0.10278606 -0.1210198 -0.073011555
0.006684901 -0.08134178 0.13037817 0.12490167 -0.062183928 0.13669144 0.10371933 -0.0029953553
0.09043833 -0.04531792 -0.03335746 -0.036087584 -0.11053025 -0.16436404 -0.12371023 0.113960095
-0.036467586 0.12754768 -0.014929781 -0.018446691 -0.15550739 -0.035119228 0.022852518 -0.07033067
0.21291304 -0.066524416 0.03429068 -0.0031067547 -0.1002468 -0.08069388 0.13399763 0.20280531
0.2041099 -0.08054011 0.0049132686 0.18343157 -0.005921836 0.16321215 -0.049751494 0.039071925
-0.14601459 -0.0054742456 -0.09222021 0.09731065 -0.010583541 -0.14361069 -0.0774393 -0.16272506
0.011135923 -0.10187528 0.10046388 0.049817875 -0.05070435 -0.15338221 0.017219502 -0.12517498
-0.056439348 -0.07999254 -0.03113568 -0.011501279 0.053135183 -0.032435946 -0.037181344 -0.089210406
-0.033579085 -0.057866804 -0.013090832 0.092782825 0.044073153 0.022637224 -0.12094787 -0.14928101
0.14752054 0.16273005 0.11722442 0.045520198 0.1781571 0.13366015 0.016430678 -0.12684467
-0.016390128 0.17016876 0.14511496 -0.011484208 0.093599774 -0.057129048 -0.116302714 0.08815394
0.21381944 -0.1666594 0.20570089 0.21344809 -0.087900594 0.029979862 -0.036178816 0.22487895
0.19519825 0.028257955 -0.08734776 -0.06562843 0.07000387 -0.0060217488 0.19975357 -0.012985604
-0.024653543 -0.025207996 -0.08176236 0.117884904 0.03262191 -0.0071743475 0.016513119 0.018785996
-0.072495505 -0.014357442 0.03726756 0.14387348 0.09404393 0.080586605 0.048951164 -0.16943793
-0.08828871 -0.01650733 0.006543858 0.04524855 0.12802252 0.13046706 -0.11791757 -0.15892313
-0.14542851 -0.14009325 -0.062604316 0.0032798864 -0.08825333 0.07537906 0.15682583 -0.0060020178
0.17153218 0.062376507 -0.00048224424 0.12601133 -0.03910899 0.106922664 0.085137315 -0.111237176
00000000: fd63 5f3d 29c6 c9bd b458 66bd 383b 0cbe
00000010: f46e ebbd 0956 003c 3c92 ad3b 34b5 16bd
00000020: 7ec6 0e3e 7d2d 153d 81bc 19be 1e93 36bd
00000030: 6504 07be 4033 c9bb e306 36bd d313 e5bd
00000040: 8c17 08be ecfa 0bbe 12bb 173e 1ce9 a3bd
00000050: 74c8 06be 35de 03be e9b4 e93d f0a6 0a3e
00000060: b32d 1ebe f6fd 1e3e 6f8e 903b ec51 2dbe
00000070: f956 1cbd f820 233e d9b5 503d ab6d 0f3c
00000080: 61e4 183e 2134 24be edaf 1a3e c698 323e
00000090: d182 1a3e 96a6 9abb 37b3 583d 93c3 fb3d
000000a0: 2eb3 393e eed0 2a3e d377 90bc 4737 633e
000000b0: 58e6 873c f156 19bd ce7f 9f3d 48d8 2c3e
000000c0: 476f 0c3d c864 013e 77dd 943d 32b8 b9bd
000000d0: bc07 c0bd 82fd 603e d4ee 7b3e 51ac 413e
000000e0: 0709 3b3a 15c0 a93d 1085 21be c757 253e
000000f0: 9b66 a4bd 807f f6bd 1e7d da3d 6cc3 4bbd
00000100: f5c5 22bd 0f3f 883d 732f eabd d982 2fbe
00000110: ecd9 393d 7cf2 aabb c017 85bd a95a e6bd
00000120: 9d24 87bd 50a1 d83d a5c4 b03d 683c 8cbd
00000130: 3aa5 e2bd 7254 ac3d d592 873c 0005 1ebe
00000140: 3112 20be 66aa 12bc 3d27 333e b410 833d
00000150: 8801 cd3d 8773 eb3d 00ed 8b3d 46a0 8aba
00000160: 2ae7 8e3d 1a82 32bc 6629 1e3d e684 27be
00000170: cbc6 abbd 5a5a b1bd cf5d 0c3e 4234 2abe
00000180: 4aab 0abe 7d12 2abe 8f61 33be e7aa 653d
00000190: 288b 9a3d 600b 9fbd 8443 4cbd 9544 f53d
000001a0: 321c 19be 0043 183e 7ce1 113e afb4 13be
000001b0: 1655 aabd 7f81 d23d 3bd9 f7bd 1587 95bd
000001c0: 040d db3b 8596 a6bd db81 053e 72cc ff3d
000001d0: 93b4 7ebd d7f8 0b3e cd6a d43d b94d 44bb
000001e0: bb37 b93d 499f 39bd d5a1 08bd 93d0 13bd
000001f0: af5d e2bd 0c4f 28be ca5b fdbd e963 e93d
00000200: 095f 15bd dc9b 023e 0a9c 74bc 841d 97bc
00000210: 543d 1fbe 2ed9 0fbd 3435 bb3c 8709 90bd
00000220: e005 5a3e f43d 88bd 6274 0c3d b29a 4bbb
00000230: 324e cdbd d542 a5bd ad36 093e 32ac 4f3e
00000240: 3002 513e 37f2 a4bd 7cff a03b 7cd5 3b3e
00000250: f60b c2bb 1621 273e 39c8 4bbd e209 203d
00000260: d984 15be 4d61 b3bb f3dd bcbd ce4a c73d
00000270: 9766 2dbc ae0e 13be 7f98 9ebd 66a1 26be
00000280: 7273 363c fda3 d0bd 02c0 cd3d d40d 4c3d
00000290: 5daf 4fbd 3a10 1dbe ea0f 8d3c df2d 00be
000002a0: f22c 67bd 21d3 a3bd 4110 ffbc dc6f 3cbc
000002b0: 47a4 593d 8edb 04bd 774b 18bd f2b3 b6bd
000002c0: 398a 09bd be05 6dbd ee7a 56bc ec04 be3d
000002d0: 0d86 343d b371 b93c 84b3 f7bd 1fdd 18be
000002e0: a00f 173e b5a2 263e 5b13 f03d 6373 3a3d
000002f0: d16e 363e 35de 083e a199 863c 92e3 01be
00000300: 9744 86bc b840 2e3e 0499 143e 4228 3cbc
00000310: 3db1 bf3d 2600 6abd 1e30 eebd 0e8a b43d
00000320: 7cf3 5a3e c3a8 2abe 41a3 523e 2392 5a3e
00000330: 3a05 b4bd 5498 f53c 3d30 14bd ab46 663e
00000340: 0de2 473e 3a7d e73c 62e3 b2bd 3368 86bd
00000350: 305e 8f3d 1752 c5bb 338c 4c3e 92c1 54bc
00000360: 3af6 c9bc 0081 cebc 0673 a7bd a46d f13d
00000370: 8d9e 053d ca16 ebbb 8546 873c 17e5 993c
00000380: 8678 94bd 7a3b 6bbc dea5 183d 9253 133e
00000390: 1b9a c03d 970a a53d 0481 483d 2381 2dbe
000003a0: b6d0 b4bd 613a 87bc dc6d d63b 8b56 393d
000003b0: 5618 033e 2899 053e c47e f1bd bfbc 22be
000003c0: 36eb 14be 9b74 0fbe b136 80bd 5df3 563b
000003d0: 29be b4bd 5660 9a3d f396 203e 93ac c4bb
000003e0: 22a6 2f3e 827e 7f3d bad5 fcb9 1d09 013e
000003f0: c030 20bd 45fa da3d 795c ae3d 51d0 e3bd

hidden_layers.0.bias f4 [32]
-0.008634857 0.21077742 -0.047722496 0.033932313 0.21728493 0.19214422 0.17882295 -0.0641675
0.15563323 -0.14230622 0.024701335 0.2395612 -0.063228786 0.09975172 0.1498573 0.17470165
0.031399522 -0.17464611 0.11379137 0.23169272 0.19378358 -0.10214556 0.077206776 0.10000452
-0.053106245 0.14875041 0.04422985 -0.07186168 0.061888948 -0.08179517 -0.08483188 -0.07818429
00000000: 3779 0dbc 09d6 573e aa78 43bd 9cfc 0a3d
00000010: f17f 5e3e 74c1 443e 5d1d 373e 406a 83bd
00000020: 515e 1f3e b9b8 11be 745a ca3c 884f 753e
00000030: 187e 81bd a14a cc3d 3174 193e fde4 323e
00000040: c99c 003d 6ed6 32be 730b e93d db40 6d3e
00000050: 346f 463e b131 d1bd 961e 9e3d 2bcf cc3d
00000060: ef85 59bd 0752 183e 5c2a 353d 372c 93bd
00000070: 447f 7d3d 3a84 a7bd 56bc adbd 161f a0bd

hidden_layers.1.weight f4 [32, 32]
-0.032931123 -0.11005621 0.0960293 0.12682094 -0.011713178 0.14723055 -0.09828584 -0.12800476
-0.07429783 0.07525676 -0.03352006 -0.08926382 -0.15806368 -0.058241654 0.09404768 -0.16600852
-0.048236836 0.0048456653 0.17588413 -0.04488711 -0.14046255 -0.058147393 -0.0887283 0.021171248
0.09620058 -0.008868476 -0.062421106 -0.16686207 0.0007570838 0.06329732 0.14451744 -0.021678673
0.08435047 0.09245717 0.08732886 -0.045061976 0.17767836 0.1859111 -0.088631555 -0.15733631
0.21153946 -0.17553005 0.121927254 0.18143763 0.1334308 0.05518049 0.14889176 0.13692032
0.064486906 -0.13668486 -0.07617373 0.14147186 0.05838535 -0.05613368 0.07548794 0.1842241
-0.16039121 -0.005099136 0.092256285 -0.11786311 0.029046386 -0.10046047 -0.14006828 -0.043362826
-0.066010326 -0.0874255 -0.0019433912 -0.034311138 -0.15457766 -0.113105744 -0.08358988 0.17495757
0.027341777 0.14175488 0.033040073 -0.088739134 -0.07685122 0.0032418934 0.020311346 0.037630327
0.06927819 0.14317717 0.0066223866 -0.117819004 -0.09838832 0.10595859 -0.09653984 0.09122639
0.10648981 -0.16337618 -0.13918787 0.13390268 -0.15355104 0.10887041 -0.008307586 0.0718213
-0.16229144 -0.06163383 -0.09031086 0.13548584 0.21974626 0.11746202 -0.048869558 0.045347888
0.14116704 -0.061293487 0.2532455 0.24175331 -0.062864184 -0.036033645 0.1872739 0.093043245
0.055421047 -0.040243857 0.059722427 0.24879299 0.18672676 -0.040147316 0.10598013 0.10278109
-0.10315643 0.0019021708 0.1476159 -0.16728123 0.027408723 -0.06610864 -0.14541319 0.12363288
-0.08300879 0.19948332 0.17234354 -0.060768116 0.08385828 0.071017444 0.15515023 0.13414708
-0.04999759 -0.10776041 0.056984767 0.030329678 -0.015950292 0.14620934 0.11181999 0.20718391
-0.021750178 -0.014347001 0.16631718 0.17943415 0.06966976 0.16727118 0.024783568 0.14500414
-0.17226985 -0.03644968 -0.09292573 -0.046816565 -0.057284873 -0.0926786 -0.13448685 -0.105627716
-0.1290563 0.0004902943 -0.17674325 -0.021424254 0.06726374 -0.12586594 -0.052483384 0.08669095
-0.12271255 0.05153626 0.013165115 0.13009447 0.13965501 -0.11202832 -0.12634535 -0.11380129
-0.1506378 0.07474031 -0.079728626 -0.030123616 0.117388494 0.0633206 0.016028678 0.0851541
-0.083710365 0.03716041 0.082911514 0.11647637 -0.06431181 -0.06675317 -0.06995706 -0.14908777
-0.05233338 0.13703422 -0.14551242 -0.017946338 0.11854081 -0.025067301 -0.14009278 -0.12230141
-0.091327116 0.078691706 -0.14363302 -0.053511135 -0.08074485 0.07424372 0.040823944 0.08037214
0.018035816 -0.17393479 -0.14217 -0.13513984 -0.12829643 -0.13144639 -0.093444936 0.13666835
-0.15134297 0.14750579 0.073217444 0.019491378 -0.12592289 0.10208226 -0.16229439 0.17253427
-0.0035586902 -0.023046486 0.06268945 0.12360857 0.13752468 -0.14327902 -0.013210487 -0.022516975
-0.15031826 -0.06805382 0.05236122 0.009975 0.07819714 0.124576874 -0.07419742 -0.08397618
-0.032644987 -0.06530924 -0.124008186 -0.11274345 0.15970457 -0.058115 0.10762233 -0.17623527
0.1162726 0.08527875 -0.17011304 0.056256097 0.0013789816 0.0861966 -0.13231263 -0.08026627
00000000: c9e2 06bd 2665 e1bd 02ab c43d 59dd 013e
00000010: a1e8 3fbc 9bc3 163e 164a c9bd ae13 03be
00000020: 7629 98bd 3720 9a3d 554c 09bd f3cf b6bd
00000030: 72db 21be cd8e 6ebd 129c c03d 23fe 29be
00000040: fd93 45bd 63c8 9e3b f81a 343e 8cdb 37bd
00000050: 6ad5 0fbe f62b 6ebd 2fb7 b5bd 536f ad3c
00000060: cf04 c53d 164d 11bc 46ad 7fbd e4dd 2abe
00000070: 0977 463a 06a2 813d 61fc 133e 7997 b1bc
00000080: f0bf ac3d 2f5a bd3d 79d9 b23d e892 38bd
00000090: 51f1 353e 7b5f 3e3e 7684 b5bd c51c 21be
000000a0: cd9d 583e 26be 33be ffb4 f93d c9ca 393e
000000b0: 15a2 083e f004 623d 1577 183e d734 0c3e
000000c0: b611 843d 1ef7 0bbe f900 9cbd 00de 103e
000000d0: 7a25 6f3d 6eec 65bd 6c99 9a3d 3ea5 3c3e
000000e0: 983d 24be a716 a7bb ddf0 bc3d 3762 f1bd
000000f0: b0f2 ed3c 38be cdbd 0f6e 0fbe 389d 31bd
00000100: 6c30 87bd 240c b3bd 63b9 feba d689 0cbd
00000110: 9b49 1ebe fca3 e7bd 2c31 abbd 1428 333e
00000120: ddfb df3c 3128 113e 0755 073d ddbc b5bd
00000130: 2c64 9dbd f275 543b fb63 a63c 4222 1a3d
00000140: b9e1 8d3d 099d 123e 9b00 d93b 174b f1bd
00000150: d17f c9bd d100 d93d aeb6 c5bd e7d4 ba3d
00000160: 5417 da3d 164c 27be 4487 0ebe c91d 093e
00000170: 7c3c 1dbe 73f7 de3d 8b1c 08bc 0c17 933d
00000180: ba2f 26be c173 7cbd e6f4 b8bd cdbc 0a3e
00000190: 2a05 613e ed8f f03d 722b 48bd b5be 393d
000001a0: 188e 103e e10e 7bbd 65a9 813e 2e8e 773e
000001b0: f0be 80bd 0498 13bd bbc4 3f3e 758d be3d
000001c0: 2e01 633d bed6 24bd 819f 743d 97c3 7e3e
000001d0: 4d35 3f3e 8371 24bd 1c0c d93d e47e d23d
000001e0: ae43 d3bd 4352 f93a 9f28 173e c54b 2bbe
000001f0: 4288 e03c f763 87bd 32e7 14be 3c33 fd3d
00000200: 8300 aabd 5b45 4c3e d37a 303e fde7 78bd
00000210: e4bd ab3d 9871 913d b4df 1e3e da5d 093e
00000220: 46ca 4cbd 7db1 dcbd dc68 693d f275 f83c
00000230: 30aa 82bc e7b7 153e e101 e53d 0528 543e
00000240: 6e2d b2bc af0f 6bbc 0d4f 2a3e 96bd 373e
00000250: 05af 8e3d 2349 2b3e e906 cb3c f77b 143e
00000260: 8267 30be 424c 15bd d84f bebd bac2 3fbd
00000270: 8ba3 6abd 47ce bdbd ecb6 09be 5853 d8bd
00000280: 5627 04be 1887 003a 2ffc 34be eb81 afbc
00000290: 92c1 893d 00e3 00be d1f8 56bd 068b b13d
000002a0: b850 fbbd af17 533d 7fb2 573c 7c37 053e
000002b0: b901 0f3e 1b6f e5bd ad60 01be a710 e9bd
000002c0: cc40 1abe 7311 993d c348 a3bd cdc5 f6bc
000002d0: 6169 f03d 3bae 813d 934e 833c 4665 ae3d
000002e0: 5770 abbd 8435 183d 83cd a93d 2a8b ee3d
000002f0: e9b5 83bd e3b5 88bd a645 8fbd 77aa 18be
00000300: 875b 56bd b352 0c3e 3501 15be 3304 93bc
00000310: 86c5 f23d f159 cdbc 7b74 0fbe 2979 fabd
00000320: b609 bbbd 1e29 a13d 8914 13be 7e2e 5bbd
00000330: 8e5d a5bd 170d 983d 0237 273d 269a a43d
00000340: d9bf 933c f61b 32be 0395 11be 1962 0abe
00000350: 2460 03be e299 06be 0f60 bfbd caf2 0b3e
00000360: a7f9 1abe c20b 173e 07f3 953d 62ac 9f3c
00000370: eef1 00be 8110 d13d 8030 26be d3ac 303e
00000380: ea38 69bb fccb bcbc 5463 803d 7d26 fd3d
00000390: 45d3 0c3e bcb7 12be cc70 58bc 8575 b8bc
000003a0: 08ed 19be cd5f 8bbd b878 563d 2f6e 233c
000003b0: d225 a03d 2922 ff3d d1f4 97bd b4fb abbd
000003c0: c0b6 05bd dac0 85bd 01f8 fdbd 0ae6 e6bd
000003d0: 9889 233e ff09 6ebd 1969 dc3d 0577 34be
000003e0: 5420 ee3d a0a6 ae3d 1d32 2ebe cb6c 663d
000003f0: f2be b43a d887 b03d f67c 07be a462 a4bd

hidden_layers.1.bias f4 [32]
-0.09247197 -0.036634285 -0.11922129 0.018925821 -0.013894019 -0.12244772 -0.07907457 -0.07783895
-0.023524998 -0.12656699 0.1163433 0.11624286 -0.08210615 -0.059353128 -0.019529281 0.14027864
0.042689785 0.15609992 0.18009935 0.2078336 -0.10864634 -0.007830746 0.2375274 0.10996733
-0.12213354 0.13150454 0.11084971 -0.006815946 0.12668797 -0.105544746 0.10578471 0.14494637
00000000: f261 bdbd d50d 16bd 4b2a f4bd 530a 9b3c
00000010: bda3 63bc dfc5 fabd d9f1 a1bd 076a 9fbd
00000020: 7fb7 c0bc c79a 01be 6545 ee3d bd10 ee3d
00000030: 4527 a8bd 441c 73bd dffb 9fbc 34a5 0f3e
00000040: 7cdb 2e3d a8d8 1f3e f76b 383e 55d2 543e
00000050: f981 debd 874c 00bc 623a 733e 8d36 e13d
00000060: 2621 fabd 20a9 063e 2c05 e33d 4d58 dfbb
00000070: 7eba 013e d827 d8bd a7a5 d83d d26c 143e

hidden_layers.2.weight f4 [32, 32]
-0.13390549 0.11065444 -0.053818215 -0.10174761 0.054030254 -0.054099925 0.16255178 0.0049363864
-0.16086896 0.019787755 0.0024025277 0.108125076 -0.13103166 0.092287965 -0.040079292 0.021746837
-0.03208029 -0.1309925 0.1466187 -0.15909982 0.16364412 0.07151885 0.0017186612 0.06853798
-0.062494755 -0.11334541 0.080470026 -0.14382528 0.14261375 0.11360166 0.08410793 -0.091788955
0.09962419 -0.09107131 -0.08120364 -0.062242147 0.114826344 -0.022636272 -0.16436303 -0.031741
-0.17016533 -0.07106342 -0.14534914 0.14055417 0.059055552 -0.1358116 -0.14991161 -0.02721142
0.16665077 -0.03357093 0.14014086 0.08089018 0.010520022 0.109965116 -0.13065171 0.008672467
0.05297688 0.0158746 -0.020696519 -0.091329984 0.08658805 -0.01786275 0.14042145 -0.11495792
0.030626029 -0.007944365 -0.0012829711 0.034725547 -0.09296857 -0.014227743 0.021601966 -0.1671593
0.12779702 0.011808746 0.003576708 -0.023459082 0.05838999 0.13117777 -0.07166155 -0.066262685
0.13515955 -0.003138739 0.12724878 -0.04749802 -0.026086813 0.034933943 -0.09128986 -0.0019473741
0.012793086 -0.10772214 -0.13220485 0.13515493 -0.17663118 0.08162022 0.16512507 0.0034511737
0.040225815 0.07533444 -0.16826883 0.037840776 0.09764586 0.12833199 0.114930555 -0.17318079
0.16050912 0.12457902 0.17342728 0.17185627 -0.13360684 -0.066737786 0.022922369 -0.030189794
0.16099812 0.23321865 0.10539076 0.21984518 0.06153777 0.13562256 -0.0032978023 -0.07624558
-0.1070092 -0.051499225 0.18021533 -0.16858077 0.1542097 -0.007881054 -0.0705247 -0.06325913
0.045385264 0.0961724 -0.1249661 -0.15436065 0.028253645 0.16301598 -0.046713606 0.06599119
0.119932815 -0.002085815 0.20473199 -0.116918586 0.115665175 -0.035242118 0.056283038 0.16849427
0.097844064 -0.065228716 0.19628307 -0.10649415 -0.07950491 0.1833575 0.06504417 -0.060843132
-0.17388497 0.1380331 -0.08492498 -0.15153839 0.12658532 0.15444796 0.19141245 -0.010477835
-0.08544528 -0.088544965 0.1637612 0.051302448 -0.1249748 -0.042594194 -0.1480536 -0.055155303
0.17115365 -0.15409583 0.12452887 -0.08662722 -0.16571945 0.13719007 0.049283322 -0.12799989
-0.07649527 -0.15143089 0.07860627 0.061666593 -0.121711165 0.14820823 0.016928956 -0.06040562
0.14137627 -0.0018296369 0.0015080775 -0.0011048164 0.0470182 -0.098966025 0.13333836 0.11343666
-0.15102261 -0.13693374 0.037668027 0.14542268 0.13035528 0.13613501 0.1334048 -0.11447716
-0.16636762 0.016938953 0.06522638 -0.04942348 -0.080404766 -0.08069429 -0.0024773509 0.022602085
-0.16177355 -0.13657679 -0.13652368 -0.13252078 -0.16237748 0.067281194 0.16075134 0.1352541
-0.06463019 0.026416147 -0.0257575 -0.0848011 -0.10372148 -0.16239806 0.079917 0.10665487
-0.054900736 0.041291922 0.14796111 0.0015691909 0.079083614 -0.00839502 0.14641629 0.107656665
0.10301275 0.011055939 -0.050646037 0.22182824 -0.17495863 -0.15682623 0.034056533 -0.0013992556
0.08602414 -0.004807032 0.20867908 0.09689144 0.051256143 0.10279603 0.12918359 0.052213266
-0.04908951 0.05345519 0.07224517 -0.023877243 0.17335795 -0.01000743 0.019554013 -0.060025252
00000000: 851e 09be cc9e e23d 7d70 5cbd 0d61 d0bd
00000010: d44e 5d3d e297 5dbd f973 263e 69c1 a13b
00000020: d5ba 24be ee19 a23c ba73 1d3b ae70 dd3d
00000030: 2a2d 06be 7901 bd3d 2f2a 24bd 6c26 b23c
00000040: 9f66 03bd e622 06be 3623 163e 10eb 22be
00000050: 5392 273e 7a78 923d b344 e13a a45d 8c3d
00000060: 80fa 7fbd a321 e8bd 78cd a43d ef46 13be
00000070: 5709 123e fda7 e83d c740 ac3d d9fb bbbd
00000080: c407 cc3d 9883 babd 184e a6bd 9ff1 7ebd
00000090: 132a eb3d b46f b9bc c84e 28be da02 02bd
000000a0: d23f 2ebe b389 91bd 68d6 14be 6fed 0f3e
000000b0: 3ce4 713d 3212 0bbe 6e82 19be 7cea debc
000000c0: 80a6 2a3e ac81 09bd 1681 0f3e c0a9 a53d
000000d0: 2c5c 2c3c 6435 e13d 90c9 05be f716 0e3c
000000e0: 49fe 583d 730b 823c bf8b a9bc 370b bbbd
000000f0: 1355 b13d e754 92bc a4ca 0f3e 0f6f ebbd
00000100: 70e3 fa3c 1529 02bc 5e29 a8ba 603c 0e3d
00000110: 4e66 bebd 7b1b 69bc 9bf6 b03c cf2b 2bbe
00000120: 39dd 023e 7879 413c 3467 6a3b 432d c0bc
00000130: 582a 6f3d 7753 063e 4ac3 92bd bbb4 87bd
00000140: 4467 0a3e 4db3 4dbb 814d 023e 498d 42bd
00000150: 03b4 d5bc e516 0f3d 2ef6 babd 083f ffba
00000160: 179a 513c 6d9d dcbd b560 07be 0e66 0a3e
00000170: cede 34be 8028 a73d 8c16 293e 162d 623b
00000180: d3c3 243d f148 9a3d aa4e 2cbe eefe 1a3d
00000190: 8dfa c73d 7669 033e b660 eb3d 4e56 31be
000001a0: 815c 243e 4923 ff3d ec96 313e 17fb 2f3e
000001b0: 3bd0 08be d2ad 88bd b1c7 bb3c 9650 f7bc
000001c0: b1dc 243e dfd0 6e3e 1cd7 d73d 181f 613e
000001d0: 070f 7c3d a4e0 0a3e f11f 58bb a526 9cbd
000001e0: a427 dbbd daf0 52bd 5e8a 383e 70a0 2cbe
000001f0: 26e9 1d3e 891f 01bc 416f 90bd 018e 81bd
00000200: e6e5 393d 09f6 c43d 3aee ffbd b810 1ebe
00000210: 3074 e73c a9ed 263e c456 3fbd 6426 873d
00000220: 569f f53d 2bb2 08bb 43a5 513e 0373 efbd
00000230: dde1 ec3d 0a5a 10bd 0b89 663d c389 2c3e
00000240: 7862 c83d a296 85bd 6efe 483e 9b19 dabd
00000250: 78d3 a2bd 12c2 3b3e e135 853d a636 79bd
00000260: e70e 32be 8d58 0d3e 26ed adbd e12c 1bbe
00000270: 959f 013e 9b27 1e3e a001 443e 3aab 2bbc
00000280: effd aebd 1057 b5bd 04b1 273e 8422 523d
00000290: caf2 ffbd 4077 2ebd 5d9b 17be 87ea 61bd
000002a0: e742 2f3e 4ccb 1dbe fe08 ff3d 9d69 b1bd
000002b0: 5cb2 29be 8e7b 0c3e 4fdd 493d 6712 03be
000002c0: 8da9 9cbd b310 1bbe 53fc a03d 1c96 7c3d
000002d0: b443 f9bd e6c3 173e 98ae 8a3c e26b 77bd
000002e0: f1c4 103e 6dd0 efba afaa c53a 7dcf 90ba
000002f0: 2896 403d b3ae cabd da89 083e 7b51 e83d
00000300: aca5 1abe 5c38 0cbe ca49 1a3d afe9 143e
00000310: db7b 053e fa66 0b3e 459b 083e 0073 eabd
00000320: 465c 2abe 8fc3 8a3c 6995 853d 4670 4abd
00000330: 41ab a4bd 0c43 a5bd 0d5b 22bb 0228 b93c
00000340: f7a7 25be c9da 0bbe ddcc 0bbe 87b3 07be
00000350: 4846 26be b9ca 893d 009c 243e 0d80 0a3e
00000360: d55c 84bd ad66 d83c 6501 d3bc 33ac adbd
00000370: ed6b d4bd ad4b 26be 86ab a33d de6d da3d
00000380: 98df 60bd b821 293d 1e83 173e 4fad cd3a
00000390: 97f6 a13d 448b 09bc 27ee 153e 197b dc3d
000003a0: 59f8 d23d f823 353c 3872 4fbd f126 633e
000003b0: 5b28 33be 0e97 20be dd7e 0b3d 3a67 b7ba
000003c0: 6d2d b03d 4f84 9dbb f8af 553e 056f c63d
000003d0: f6f1 513d ba86 d23d b448 043e 94dd 553d
000003e0: 1512 49bd d4f3 5a3d 47f5 933d 359a c3bc
000003f0: bf84 313e 34f6 23bc bd2f a03c 0add 75bd

hidden_layers.2.bias f4 [32]
-0.17455421 -0.06981411 -0.05728039 0.16061997 0.119202934 -0.15463382 0.14796327 -0.05949047
0.05002098 0.021098457 0.10736526 0.043919202 0.054500617 0.06108078 0.13004053 -0.018452397
0.26844093 -0.0952528 0.06553609 -0.08683287 0.21256937 -0.020890387 -0.06443671 0.051763613
0.122651435 0.032406673 -0.16099954 -0.052067414 0.12343612 -0.04586399 0.10308691 0.045255795
00000000: 57be 32be b3fa 8ebd d89e 6abd 9079 243e
00000010: ab20 f43d 5458 1ebe af83 173e 47ac 73bd
00000020: cde2 4c3d acd6 ac3c 51e2 db3d 9fe4 333d
00000030: 0a3c 5f3d d72f 7a3d 5829 053e 7b29 97bc
00000040: 1771 893e e613 c3bd c937 863d 6fd5 b1bd
00000050: c9ab 593e 5122 abbc 65f7 83bd 1506 543d
00000060: ad30 fb3d dcbc 043d 10dd 24be a444 55bd
00000070: 14cc fc3d e1db 3bbd 3b1f d33d 245e 393d

output_layer.weight f4 [2, 32]
0.01839089 0.14482829 0.13109022 0.109750055 0.17153415 -0.11295459 0.17521332 0.17335047
0.1394761 -0.13602038 0.047801055 0.023135254 -0.14630167 0.23525305 0.07868903 -0.010901472
0.033791237 0.18219657 0.15842919 -0.1613696 0.04074798 0.011056681 -0.019198036 0.1505826
0.15053266 -0.14923228 0.16763662 0.016457586 -0.050068285 -0.16367254 -0.095294215 -0.06609226
0.04170043 0.13975476 -0.041882038 -0.058363184 0.027553353 -0.040656704 0.075341605 -0.122221366
-0.03346059 0.04856899 -0.20050924 -0.21355471 -0.14452904 0.018591003 -0.15450442 0.05028222
-0.21293442 -0.031310372 -0.007971749 -0.2155343 -0.152401 0.16712438 -0.103496976 -0.1866427
-0.20534629 -0.03186799 0.0050810934 -0.01743065 0.050499216 -0.12553567 0.15033026 -0.11793795
00000000: 7ea8 963c de4d 143e 843c 063e a3c4 e03d
00000010: a6a6 2f3e bc54 e7bd 1f6b 333e c982 313e
00000020: d3d2 0e3e ed48 0bbe 0acb 433d 2586 bd3c
00000030: 1bd0 15be 2de6 703e b727 a13d 169c 32bc
00000040: ae68 0a3d bd91 3a3e 433b 223e 133e 25be
00000050: 5be7 263d 1527 353c 3345 9dbc 5332 1a3e
00000060: 3c25 1a3e 59d0 18be efa8 2b3e 0fd2 863c
00000070: 6714 4dbd c699 27be 9d29 c3bd 615b 87bd
00000080: 12ce 2a3d df1b 0f3e 808c 2bbd 3c0e 6fbd
00000090: 92b7 e13c a587 26bd b34c 9a3d 324f fabd
000000a0: f90d 09bd 47f0 463d 4b52 4dbe 16ae 5abe
000000b0: 6cff 13be 294c 983c 6836 1ebe bbf4 4d3d
000000c0: 7b0b 5abe 4e3f 00bd f09b 02bc 06b5 5cbe
000000d0: 020f 1cbe a722 2b3e 39f6 d3bd 441f 3fbe
000000e0: 4c46 52be 0288 02bd 4d7f a63b b9ca 8ebc
000000f0: 44d8 4e3d 6c8c 00be 2df0 193e 7489 f1bd

output_layer.bias f4 [2]
-0.030840172 -0.25736853
00000000: 87a4 fcbc cfc5 83be
