abc_env_raw/saved_models/phi_only_1.5.pt (torch, 72199 bytes, 12 tensors)

input_layer.weight f4 [64, 3]
000000 0a 59 f4 be df ed e0 3e 2b 40 00 be 1d 3f 0b 3e
       -0.4772418 0.4393148 -0.12524478 0.13598295
000010 d8 3a 65 be 4f 1e da be 78 cd d5 3e c1 e5 a7 3e
       -0.22385728 -0.4260125 0.41758323 0.32792476
000020 91 b2 0e 3e 9b 4c 93 3e 44 5b f0 be 32 2b 42 be
       0.13935305 0.28769383 -0.4694463 -0.1896179
000030 28 53 7f 3e 37 f1 0d bf 0b 50 8f 3e 1c 4b 29 3e
       0.24934065 -0.5544619 0.27990755 0.16532558
000040 5a f2 55 be b6 01 13 3f 71 96 e1 bd 1b a0 6c be
       -0.20893231 0.57424486 -0.110150225 -0.2310795
000050 ea 75 a3 be 16 74 03 3f 77 7b a3 3e 58 1d 9b be
       -0.319259 0.5134901 0.31930134 -0.30295825
000060 3e 38 a1 be 26 10 a5 3e ee 24 c8 3e 0f 66 f6 3e
       -0.31488222 0.32238883 0.39090675 0.4812474
000070 fc 5b 5f bc f8 fe 11 3f 0e 4c 77 be da 50 6b 3e
       -0.013632771 0.57029676 -0.24150106 0.22980061
000080 f5 a2 18 be 2b da 04 3f 37 53 44 3e dd db 09 bf
       -0.14905913 0.518954 0.19172369 -0.5385111
000090 1c 96 31 be 29 d9 95 3e 3a d0 05 be 03 b7 10 3f
       -0.17342418 0.29267243 -0.13067713 0.56529254
0000a0 17 36 be 3e 0e c2 eb 3e 3f 5b c3 3e 70 6b 94 3e
       0.37150642 0.4604649 0.38155553 0.28988218
0000b0 7b 1b ac be 54 1f 0f bf bf 43 04 3e 46 83 ab be
       -0.33614716 -0.5590718 0.12916468 -0.3349859
0000c0 0e f2 d3 3d ee 9d 00 3f be cc 4b be d6 8a d3 be
       0.10348903 0.5024098 -0.19902322 -0.4131686
0000d0 a8 c1 10 bd dd 31 a2 3e 3d e7 39 be 3a 9a c5 be
       -0.035340935 0.31678668 -0.18154617 -0.38594228
0000e0 47 47 28 3e 9a 0f 9f bd 68 da 42 3d 36 00 00 3d
       0.1643344 -0.07766648 0.04757157 0.0312502
0000f0 5c 9a 65 3e 9f 3f 57 3d d4 0f 31 bd 05 63 fd bc
       0.22422165 0.05255091 -0.043227986 -0.030931005
000100 ce 1a f9 be 77 fd c0 be 3b 85 82 3e 50 96 c7 3e
       -0.48653263 -0.37693378 0.25492272 0.38981867
000110 21 e2 28 bc 34 37 f5 3e 5a 3f 07 be 3b b9 3f be
       -0.01030782 0.4789368 -0.1320776 -0.18723004
000120 a1 38 b9 bd 63 5b 30 be 69 78 cc 3b 58 ac a2 3e
       -0.09044004 -0.17222361 0.00623994 0.31772113
000130 ca 0c 3f bd b3 3c c8 3d 14 d3 70 3e a5 53 bc bd
       -0.046643056 0.097772025 0.2351802 -0.091956414
000140 aa f2 82 3e 5a fe b0 bd dd 85 fc be 75 8b e2 be
       0.25575763 -0.08642264 -0.4932088 -0.44247022
000150 8e cc c3 be f1 cb 60 be 1e ab 5b 3e dd bb 8b be
       -0.38242 -0.21952797 0.21451995 -0.27291766
000160 61 b7 08 3e a2 8e 74 3d 11 e2 a0 be 01 86 04 bd
       0.13351204 0.059706338 -0.31422475 -0.03235436
000170 60 34 73 3d d6 bd 9d bd f9 81 f7 be a2 1c bd 3e
       0.05937612 -0.07702224 -0.4834135 0.36935908
000180 af 1f 06 3f d6 98 ce 3e d8 d9 c8 be a6 d9 dd 3e
       0.52392095 0.4035098 -0.39228702 0.43330115
000190 4f e1 81 3b af b5 b9 3e 96 c2 a9 be c3 05 05 3f
       0.0039636265 0.36271426 -0.3315627 0.51961917
0001a0 74 0f 72 3e c5 70 58 be 09 8d b0 be 86 e6 be 3c
       0.23638707 -0.21136768 -0.344826 0.023303282
0001b0 a2 6e e6 3c b2 d2 8e 3e 9d 87 14 3e c2 c4 06 3f
       0.028128926 0.27895123 0.14504857 0.5264398
0001c0 c0 05 bd be b8 e5 c9 3e fc 64 eb be c7 7d dc 3e
       -0.3691845 0.39433074 -0.45975482 0.4306471
0001d0 89 53 e2 be 68 bc 80 be b2 55 03 bf a6 21 ed be
       -0.44204357 -0.25143743 -0.51302636 -0.46314734
0001e0 9a c8 97 3e 2f b3 7c bd b7 8f 96 bc 5f 3b 0e 3f
       0.29645234 -0.06169432 -0.018379075 0.55559343
0001f0 8e 68 96 be cc b4 af bd cd 43 5a bd 99 b2 d6 3e
       -0.29376644 -0.08579406 -0.053287316 0.41933134
000200 76 df a1 be 9f e1 e0 be 96 f8 92 be 5b c2 a3 3c
       -0.316158 -0.43922135 -0.2870528 0.019990137
000210 60 f8 b5 3e 6b 65 0a 3f e0 51 e1 be 9f d1 b3 3e
       0.35541058 0.54061 -0.44007778 0.35120866
000220 03 d9 79 3e f1 c0 11 3f 6a e0 3d bb 17 5f d5 3d
       0.2439919 0.5693503 -0.0028972873 0.104185276
000230 8c b3 35 be 62 cd 3d be 5c 41 7b bd c8 e2 06 3f
       -0.17744273 -0.18535379 -0.06134163 0.5268979
000240 76 3a e8 3e 0a 2e da 3e 59 a9 b4 3e 3d d6 6b 3d
       0.45357102 0.4261325 0.35285452 0.05757736
000250 89 6c 8c 3e 03 ea e0 3e 19 56 11 3f 5e 4a f6 3e
       0.27426556 0.43928537 0.56772 0.48103613
000260 50 86 a9 be 0e 00 81 3d de 30 91 3e 87 09 00 be
       -0.33110285 0.062988386 0.28357595 -0.12503634
000270 97 57 a8 bd 06 ce fb be 08 af a4 bd 94 df 09 be
       -0.082198314 -0.4918062 -0.08041197 -0.13464195
000280 67 74 f9 3e 02 0a a4 3d 56 1c ca 3e 01 2d ab be
       0.4872162 0.08009721 0.39474744 -0.33432773
000290 36 93 2d be 05 13 57 3e 91 45 11 3f 4e 0a 7d be
       -0.16950688 0.21003349 0.56746775 -0.24710962
0002a0 37 72 b3 3e 4a 2b 9f be e6 cd ad 3e 98 32 60 be
       0.35048077 -0.31087714 0.3394615 -0.218943
0002b0 ac 9e 08 3f 95 6b 0e bf 65 95 b1 3e 98 00 6f 3e
       0.53367114 -0.5563291 0.3468429 0.2334007
0002c0 9e f0 46 3e 58 07 8c 3c b2 a3 99 3e 80 b4 e2 be
       0.19427726 0.017093346 0.30007702 -0.44278336
0002d0 e1 46 b5 3e 8d 75 bb be 78 89 0e bf 1b c0 7c be
       0.3540564 -0.36613122 -0.5567851 -0.24682657
0002e0 40 30 fd bd 5a fd 77 3e 08 2d c1 be c2 8d d1 3d
       -0.123627186 0.2421774 -0.3772967 0.10232116
0002f0 ee aa 86 be bd aa 77 3e 12 3a da 3e e8 9b d2 be
       -0.26302284 0.24186225 0.4262243 -0.41134572

input_layer.bias f4 [64]
000000 1e 80 00 3f df 8a 85 3d 19 20 bc 3e 09 40 b7 be
       0.5019549 0.06520628 0.3674324 -0.35791042
000010 fa f0 da be 30 bb 19 3f 06 1f bc 3e ff 34 ff 3e
       -0.42761976 0.6005125 0.3674242 0.4984512
000020 4c 66 d6 be 16 8f 07 3f f0 f0 c7 be 7e f4 4b 3e
       -0.4187492 0.52952707 -0.39051008 0.19917485
000030 22 ab 0b 3f 39 2b 84 3e 0e 40 2b 3e d7 4c cb be
       0.54558 0.25814226 0.16723654 -0.39707062
000040 20 f5 a4 3b 22 ac 14 3f d0 53 fc b9 6d da a9 3e
       0.005034104 0.58075154 -0.0004812763 0.33174458
000050 7a c9 0b bf 75 32 a9 bd e4 46 e7 3e d7 52 09 3f
       -0.54604304 -0.08261577 0.45171273 0.5364203
000060 f2 26 9a 3e 33 9a 35 bd 26 4a a4 3d 82 34 2f be
       0.30107838 -0.04433651 0.08021955 -0.17109874
000070 bb ae 83 3e b9 6f fb be 41 aa 06 bf d0 85 3c be
       0.25719246 -0.49108675 -0.52603537 -0.1841042
000080 be 12 6b 3e ab 02 f8 be f9 1a bf 3d 10 37 84 be
       0.22956368 -0.48439535 0.093313165 -0.2582326
000090 fe 16 2f 3e 33 e6 09 3f 4e 16 73 be 76 57 81 bb
       0.17098615 0.5386688 -0.23738977 -0.0039471937
0000a0 a0 a8 86 3e e6 75 90 3e c4 f2 5c 3e b7 73 7e 3b
       0.26300526 0.2821495 0.21576983 0.0038826296
0000b0 8a 9d 65 bd 14 da e9 3e 55 46 c5 be ba 93 41 3d
       -0.056058444 0.45674193 -0.38530222 0.047260024
0000c0 63 4a ff be f3 5e af 3e 99 47 78 3d d9 03 a3 be
       -0.4986144 0.34252128 0.060615156 -0.31838873
0000d0 51 6d c9 be 04 f4 0a be c9 f4 dc be 5b 7b df be
       -0.39341214 -0.13569647 -0.43155506 -0.436488
0000e0 ca ad 07 bf a3 16 fd bd c5 be e6 3e d0 7e d9 be
       -0.52999556 -0.12357833 0.4506742 -0.42479563
0000f0 ee cf 07 bf 53 a9 0b bf 05 7f e4 3e 49 3d 0b 3f
       -0.5305165 -0.54555243 0.44628158 0.5439039

hidden_layers.0.weight f4 [64, 64]
000000 16 21 80 bd 7b b5 61 3d 0b dc 9c bd 6a 60 04 bc
       -0.06256311 0.055104714 -0.07659157 -0.0080796275
000010 63 9b a8 bb 30 76 2e 3d 6b a6 39 3d 66 06 b8 bc
       -0.0051454767 0.04259318 0.045324724 -0.022463989
000020 42 89 64 bd cb 8c 13 3e d0 e0 48 3d 29 17 ec 3c
       -0.05579496 0.14409177 0.049042523 0.028819637
000030 c6 fa 11 3e 28 d9 18 3e 79 6b be 3d bb 0b f0 3d
       0.14255819 0.14926589 0.092978425 0.117209874
000040 ec b8 09 3e 16 dd 7f 3d 19 bd a3 3d f8 2f 29 3e
       0.13449448 0.062466703 0.07995052 0.16522205
000050 f4 d4 a7 bd 15 77 47 bd dd 6f bb 3c 7f 24 b6 3d
       -0.081949145 -0.04869755 0.022880489 0.0889368
000060 80 d6 36 bc de ed 90 3d 99 f3 19 bd d9 dd 93 3d
       -0.011159539 0.070766196 -0.03758583 0.072200485
000070 34 5f 92 bb b6 6a ce 3d 11 36 71 3d cb 87 1d 3c
       -0.0044669155 0.10078947 0.058889452 0.009614895
000080 6d d4 aa bc b3 e2 2f 3d 91 b9 dd 3d 20 46 64 3b
       -0.020853246 0.042940807 0.108264096 0.0034831837
000090 d9 05 1b 3e d0 25 9a bc 6e 34 30 bd 8c 94 5a bd
       0.1513895 -0.018816859 -0.04301875 -0.05336432
0000a0 97 e8 c7 3d 3b da 2a 3d c6 57 54 3a ee 71 eb 3d
       0.0976116 0.041712027 0.00081002375 0.1149634
0000b0 b8 9b 51 3d 60 8a 05 bc d5 5b 7f 3d 45 b9 d9 bc
       0.051173896 -0.008150667 0.062343437 -0.026577601
0000c0 62 8d 43 3d 2b f1 c7 bc b0 83 80 bc 1c 74 95 3b
       0.047742255 -0.02440699 -0.015687793 0.0045609605
0000d0 04 2f c6 3d c8 ae 80 3d 80 06 e9 bd b1 2a cc bd
       0.09676936 0.06283337 -0.11378193 -0.0996908
0000e0 26 3b 3b bd 9b b7 a2 3d dc 78 89 3c 2e 09 a7 3d
       -0.045710705 0.07945176 0.016781263 0.08156048
0000f0 65 ec b6 3d 25 91 ef 3d 5f 68 ea 3d 2c 31 1a 3e
       0.089318074 0.11697606 0.114456885 0.1505782
000100 ec 52 10 bd e8 55 a9 3d 59 d6 1d 3e f2 60 c2 3d
       -0.03523533 0.082683384 0.15413798 0.09491147
000110 e8 cb 55 bc 64 85 56 3d 15 d5 5a bd 6b 7d 2b 3e
       -0.013049103 0.052373305 -0.053425867 0.16747062
000120 d0 98 1c 3d 24 7f db 3d d0 ce 23 3d 47 f5 28 3e
       0.03823167 0.107176095 0.039992154 0.16499816
000130 46 67 43 bd 2f 3a cf bc 5a 2d 82 bc 5b d6 2a bd
       -0.04770591 -0.025296299 -0.015890766 -0.04170833
000140 a9 99 be bd e8 8a e2 3d 44 86 96 3c ec 7d 2f 3e
       -0.09306652 0.110616505 0.01837457 0.17137879
000150 49 b8 03 bd 69 de dc 3d 2f ed a9 3c 60 4c 21 3e
       -0.03215817 0.10784609 0.02074298 0.15751791
000160 be 53 08 3e a7 40 9b 3d d9 13 7b bd 29 a2 a2 3c
       0.13313195 0.07580691 -0.061298225 0.019852715
000170 fd c0 72 bd 8f e8 d5 bc 70 04 24 bd 79 a6 93 3d
       -0.05926608 -0.02611187 -0.040043294 0.072094865
000180 3d 47 67 3c 63 91 d1 3b 20 8e bb 3d b9 6f 57 bd
       0.014116106 0.0063955053 0.091579676 -0.05259678
000190 5a 85 8f 3d bf 6f 41 3c 2f bc 6a bd 03 64 0b 3d
       0.07007857 0.0118064275 -0.057308372 0.034030925
0001a0 ea 59 c5 bc 14 7b b2 bd 18 34 23 bd 59 f2 a5 bd
       -0.024090726 -0.087148815 -0.039844602 -0.08102865
0001b0 76 f4 68 3d f2 4b 77 3d c0 24 11 3d dd 99 b1 3c
       0.05687376 0.06037516 0.03543544 0.021679813
0001c0 f3 f4 9a bd d1 18 c9 bc b7 39 9f bd 1d 07 83 bd
       -0.075662516 -0.024547966 -0.0777468 -0.06397841
0001d0 61 08 db 3c 25 83 a4 3d c7 af 5c bb 4f c2 0c 3d
       0.026737394 0.08032826 -0.0033674107 0.034364995
0001e0 97 51 a3 bd 04 4e c7 3d 5c af 17 3e 32 42 1e 3d
       -0.079745464 0.09731677 0.14812988 0.038637348
0001f0 37 f1 e0 bc 05 d3 8f bd 60 a1 e3 bc be 9e e7 3d
       -0.02745877 -0.07022671 -0.02778691 0.113095745
000200 37 f2 61 3d 8f dd c3 bc b5 61 98 bd e7 f7 cd bc
       0.055162635 -0.023909358 -0.07440511 -0.025142623
000210 82 fa 94 3d 03 17 15 3e 61 62 11 3e 3c f7 13 3e
       0.07274343 0.1455956 0.14197685 0.14449781
000220 e0 34 d2 bd 38 54 81 bc 37 ce e6 3b 3c d9 0f 3e
       -0.10263991 -0.015787229 0.0070436257 0.14047712
000230 a2 fe 05 3e a3 bc 0b 3e 07 d1 fe bc bc 42 e0 3d
       0.13085416 0.13646178 -0.031105531 0.109502286
000240 87 96 94 3c 5f cd 2e 3d 1c 4b d4 bd a2 9f db 3d
       0.018138183 0.042676326 -0.103658885 0.10723807
000250 81 4a 1e bd 52 a0 61 3c fc 28 2f 3e 22 7c 56 3d
       -0.03864527 0.0137711335 0.17105478 0.052364476
000260 6b 7b 69 3d 07 46 d5 bd d1 e4 07 3e 9b 87 3d bd
       0.057002466 -0.10413747 0.1327088 -0.0462719
000270 12 60 99 3c ad 01 ab bb 95 99 aa 3b 98 50 93 3d
       0.018722568 -0.0052187056 0.0052062967 0.071931064
000280 73 6a 0d 3e e7 29 98 bc 33 7c 2e bc d1 f6 a4 3c
       0.13810138 -0.018574668 -0.010649729 0.020137222
000290 5e 48 21 bd 05 66 fe 3d 24 fe 1e 3c 11 6d 23 bc
       -0.039375655 0.124218024 0.0097041465 -0.009974734
0002a0 d0 d1 11 3e fa 0f 76 3b e8 06 d1 3d a0 71 a3 bd
       0.14240193 0.0037546144 0.102063954 -0.079806566
0002b0 57 82 5b 3d d0 04 7c bd 9b 93 22 bc 53 bc a6 bd
       0.0535911 -0.061528027 -0.009922887 -0.08141389
0002c0 ba 01 c2 bc 55 4b 82 3d 40 ef 48 bd 9b 6a 8c 3c
       -0.023682464 0.06362025 -0.04905629 0.017140677
0002d0 c5 9d be 3c fc a8 a9 bd ef dd 9e 3c 3e 74 05 3e
       0.02326859 -0.08284184 0.019392936 0.13032624
0002e0 39 80 86 bd f7 a4 ca 3b f6 d8 1c 3e fb fd c8 bc
       -0.06567425 0.006184216 0.15317139 -0.02453517
0002f0 48 0a da 3d 88 e9 e0 3d 8d ef d7 3d 8e 79 4c 3c
       0.10646492 0.109820426 0.105437376 0.012480153
000300 d1 f7 d5 3d c3 ea d4 bc 2a f6 00 3d e7 78 a7 bd
       0.10447658 -0.02599085 0.03148476 -0.08177357
000310 10 fa b1 3d f4 fb 0e 3e 7a 25 59 3c 46 78 16 bc
       0.08690274 0.139633 0.013253564 -0.009183949
000320 83 d7 91 3d e0 8e 92 3d 99 bb 4f 3d 22 b9 00 3e
       0.07121184 0.071561575 0.050716016 0.12570623
000330 08 65 b5 3d 51 ab f5 3d 3c 3a 81 bc 25 11 5e 3d
       0.08857161 0.11995567 -0.015774839 0.05421557
000340 9d b9 9e bd 15 09 e8 3d a8 ca ad bd 64 ac 93 3d
       -0.07750247 0.11329857 -0.08485919 0.07210615
000350 0f 78 f6 3d 04 ce 5f bd 65 a5 82 3d 33 ef ff 3d
       0.12034618 -0.05463983 0.06379203 0.124967955
000360 1c 50 23 3c cc 02 57 3d 4d 83 40 3c 74 ed 9f bd
       0.00996783 0.0524929 0.011750055 -0.078089625
000370 30 54 99 3d 84 5a 69 3d ca c7 d4 3d ac 3f 92 bc
       0.074867606 0.056971088 0.10389669 -0.017852627
000380 70 25 d4 3d 8a 5f f6 bb c6 24 99 bd 02 d1 ad 3d
       0.10358703 -0.0075187134 -0.07477717 0.08487131
000390 13 73 8d bc 7b bf 63 3d 39 0d d5 bd 4b 5c 8c bd
       -0.017266786 0.055602532 -0.10402913 -0.06853541
0003a0 cf 17 35 bd 13 ef 44 bc 3f bb 89 3b 99 ab df 3d
       -0.04421216 -0.01201989 0.0042032297 0.109214015
0003b0 c4 59 c6 bd 89 1a 21 3e 81 57 d5 bd 32 42 11 bd
       -0.0968509 0.15732779 -0.10417081 -0.03546352
0003c0 32 f5 da bd f7 9a 8f bd f0 4b b8 3d 57 04 96 3c
       -0.106912985 -0.07011979 0.08998859 0.018312616
0003d0 f8 b6 43 bd e3 f9 4b bc 20 9f 98 3b e2 e9 f5 3d
       -0.047781914 -0.012449714 0.004657641 0.120075
0003e0 72 84 72 3d dd 25 08 3e b3 03 01 3e 5b bc a5 bd
       0.05920834 0.13295694 0.12599067 -0.080925666
0003f0 5c 3f c6 bc 08 6a a0 bd 8d 36 cd bc 35 3e ad 3d
       -0.024200134 -0.07832724 -0.025050426 0.08459131

hidden_layers.0.bias f4 [64]
000000 09 7c 07 3e 42 04 74 3d c3 08 5e bc 05 e7 1e 3d
       0.1323091 0.059574373 -0.013551894 0.038794536
000010 7f c3 9c bc dd 15 31 3c 1d ba 11 3e cd a0 74 3d
       -0.019136189 0.010808435 0.14231153 0.059723664
000020 b2 0c 54 bc e2 34 a2 bd 66 ed 49 bd 4e 4b 59 3d
       -0.01294248 -0.07920243 -0.049298666 0.05305033
000030 98 0d 99 3d 5d bb 1f 3e 0a 1f 7e 3d 67 b2 0f 3d
       0.07473296 0.15598817 0.06204132 0.035082247
000040 22 12 f9 bd 45 7d fa 3d 3d 8a 9a bc 5f a6 08 3e
       -0.12161662 0.122309245 -0.018864745 0.13344716
000050 82 d9 1e bd 39 aa b0 bd 89 f5 ab 3d 47 73 0f 3d
       -0.03878165 -0.086262174 0.083964415 0.035022046
000060 33 70 34 3e 44 99 28 3b e9 a4 17 3e cc 37 d3 bd
       0.17620926 0.002572612 0.14809002 -0.10313377
000070 ab fa 1b 3e b6 e3 01 3d fb 1a c2 bc 53 4f 21 3e
       0.15232341 0.031711303 -0.023694506 0.15752916
000080 69 8c 8b bd e7 40 33 bd c4 d9 c4 bd 0f 60 ee 3d
       -0.068138905 -0.043763068 -0.09611848 0.116394155
000090 ad c0 e4 3d ab f2 72 bc 89 61 81 bd 0c bd 38 3d
       0.111695625 -0.014828364 -0.063174315 0.045102164
0000a0 d9 93 be 3d 58 d0 f8 3d 1a 5b 12 3d 10 63 aa bd
       0.093055435 0.121491134 0.035731412 -0.08319676
0000b0 4b 54 1c bd de a1 af 3c af 27 27 3d a7 47 1e bd
       -0.038166326 0.021439489 0.04080933 -0.03864255
0000c0 86 db f0 3d 57 1d 19 3e 62 cc cb bb 97 92 68 bc
       0.11760621 0.14952599 -0.0062194327 -0.014195106
0000d0 8c 11 84 bd 0a f5 e8 3d f1 16 6f bd 46 1e da 3d
       -0.06448659 0.113748625 -0.058371488 0.106503054
0000e0 f3 b3 fc 3c d9 a3 1a 3d fc 5b 7b bd 81 4b 3b 3c
       0.030847525 0.037753914 -0.06136702 0.011431576
0000f0 76 7f 21 3e 4a ea d9 bc 3e 74 a1 3d 01 90 28 3e
       0.15771279 -0.026600976 0.078834996 0.16461183

hidden_layers.1.weight f4 [64, 64]
000000 8e dc 2b 3d 31 9c 75 bc ca f0 4c bd 5a f7 76 bd
       0.041958384 -0.014990852 -0.05003432 -0.060294487
000010 a5 5d 1a bd e5 80 c9 3b 2d 50 9f bd 00 f2 4d 3b
       -0.037686963 0.0061493986 -0.07778964 0.003142476
000020 e8 39 4a 3d 4a 90 ba bd f7 24 65 3d 99 34 92 3d
       0.04937163 -0.09109552 0.055943456 0.071389385
000030 3c 51 7a bd 7c ec 19 bd 3c 69 2b 3e 8b 68 1c 3e
       -0.061112627 -0.037579045 0.16739362 0.15274255
000040 a0 b4 91 3d 6c 3a f3 3d 46 20 24 3e a9 af c4 3c
       0.071145296 0.118763775 0.16027936 0.024009543
000050 5c 76 23 bb 69 63 07 3e 99 88 10 3d 07 a7 17 3c
       -0.0024942374 0.13221516 0.03528652 0.009256131
000060 03 b3 2e 3e b2 f1 7a 3d a9 e1 cc 3d 1e 71 d7 3d
       0.17060475 0.061265655 0.10003979 0.10519622
000070 11 1b 3f bd ae 8f ba 3d c8 4b 75 3d 00 70 0c 3d
       -0.046656672 0.09109436 0.059886724 0.0342865
000080 bd 3d b7 bb f7 4e 5e 3c 58 b7 10 bd a9 b1 c0 bc
       -0.0055920766 0.013568631 -0.0353311 -0.023522215
000090 91 6d c4 bc 40 68 c3 3d b8 27 d1 bd f8 05 89 bd
       -0.023978027 0.095413685 -0.10212654 -0.066905916
0000a0 71 99 d6 3d 02 ca 8d 3d 2e 9b 1d 3e 36 b3 db bd
       0.104784854 0.069232956 0.15391228 -0.10727541
0000b0 29 f8 13 bd b9 17 25 3e 35 0d 85 bd dc d1 f5 bd
       -0.036125336 0.1612233 -0.0649666 -0.12002918
0000c0 6f 46 23 3e 48 26 11 3e e7 a3 b5 3d 05 b3 f8 3d
       0.15944837 0.1417476 0.088691525 0.1214352
0000d0 6e bf d8 3c a3 4e 0e 3e 30 70 18 bd 30 ba fb ba
       0.026458468 0.13897185 -0.037216365 -0.0019205268
0000e0 fc 0f 21 bb 61 dc 5b 3d 95 f4 9e 3c 1a d8 9b 3d
       -0.0024576178 0.053676967 0.019403735 0.076095775
0000f0 a7 32 6f 3d e5 2f 8d 3d b5 8d 87 bd 94 d4 db 3d
       0.058397915 0.06893901 -0.06618825 0.107339054
000100 d6 51 7d 3c e3 b0 b1 bd 52 f3 47 3d e8 07 da 3d
       0.015461406 -0.086763166 0.048816033 0.10646039
000110 1a 83 34 3d d5 54 68 3d 97 54 60 3d 98 22 2a 3c
       0.04407034 0.056721527 0.05476817 0.010384224
000120 69 59 83 3d 8e 1f cb bd d2 2a cf bd 8f b6 e3 3d
       0.06413538 -0.09918128 -0.10115589 0.11118805
000130 ac 31 3e 3d 0e 97 94 3d 1a e7 33 bd 64 de 08 3e
       0.04643409 0.07255374 -0.043921567 0.13366085
000140 00 ee 0d bd ab 4d d4 3d 37 05 0f 3e f3 1f ae bd
       -0.034650803 0.103663765 0.13966833 -0.085021876
000150 93 fd 54 bd a6 19 80 bc 25 3e a1 bb 86 f8 c8 bd
       -0.05199964 -0.01563723 -0.0049207383 -0.09813027
000160 90 a5 4a 3c 7c d5 98 3d ce 38 e6 bc 2c c6 10 3d
       0.012368575 0.07462594 -0.028103258 0.03534524
000170 b5 6f e8 3b ff 1c b5 3d 81 b0 1d bd de 7f 3b 3d
       0.0070933946 0.08843421 -0.038498405 0.04577624
000180 5f dc e1 3d 0b 9f 70 bc 33 b5 d6 bc 3e a9 9c 3d
       0.110283606 -0.014686356 -0.02620945 0.07649468
000190 37 7c 0a 3e 1b d7 32 bd c2 61 b4 3d 14 34 03 3e
       0.13523947 -0.04366217 0.08807708 0.12812835
0001a0 9d 9e 89 3c a6 64 6d 3d 34 b4 0b 3e f7 18 f9 bd
       0.016799266 0.057957314 0.13642961 -0.12162965
0001b0 0f b9 25 bd 4e ab 1e bb 67 31 b2 bd d5 aa 13 3d
       -0.04045969 -0.0024210992 -0.08700829 0.03605159
0001c0 02 ed be 3d 6f 86 99 bd c0 4d 11 bd ef ed 69 bd
       0.093225494 -0.07496344 -0.03547454 -0.057111677
0001d0 16 24 03 3d 88 e3 a4 bd 98 89 a4 bc c7 47 15 bd
       0.032016836 -0.08051211 -0.020085141 -0.036445405
0001e0 e8 70 8c bd 48 15 69 bd 61 16 0e 3e 0f c6 b5 3c
       -0.06857473 -0.05690506 0.13875724 0.022189168
0001f0 2d bf 0f 3d 55 d1 06 bd 80 4c 9e 3c 89 f4 60 3d
       0.03509443 -0.03291448 0.019323587 0.054920707
000200 28 b5 93 3d 10 c4 75 3d 56 e4 c6 3d a8 41 81 3d
       0.07212287 0.060001433 0.097115204 0.06311351
000210 48 85 84 3d f6 21 fe bd 6a 04 f2 bd 68 ed 30 bd
       0.06470734 -0.12408821 -0.11817248 -0.04319516
000220 e4 a2 9a bd b8 80 89 bc 00 79 66 3c f8 05 6b 3d
       -0.075506 -0.01678501 0.014066935 0.05737874
000230 38 6a de 3d d2 f3 95 bd 2a 4f f3 3d 50 c7 cf bc
       0.10860103 -0.07321896 0.11880334 -0.025363594
000240 7c b7 1b 3d 6c f5 21 bd 3e 8c df bd a0 23 00 bd
       0.03801678 -0.039540693 -0.10915421 -0.031283975
000250 60 cb 7f bc ec 66 e6 bd bc ca 16 3d f2 90 dc 3d
       -0.015612453 -0.112500995 0.036814436 0.107698336
000260 50 21 fd 3d 8c 68 a0 3d a4 f3 2a bd 84 d8 cc 3d
       0.123598695 0.07832441 -0.04173626 0.100022346
000270 56 11 b0 bd c0 c9 19 3b 20 77 a0 3d 40 82 20 3d
       -0.085970566 0.00234662 0.07835221 0.039186716
000280 96 d0 96 bd e0 9f 96 3c 0c 1e d7 bd 9e 30 fd bd
       -0.07364003 0.018386781 -0.10503778 -0.123627886
000290 64 fb c1 3d 80 c7 7e 3c 34 df 2d 3d c0 05 cf 3c
       0.09471777 0.015550494 0.04244919 0.025271297
0002a0 22 58 e2 3d 62 fc d3 bd a0 fc 46 bc 06 b9 f1 bd
       0.11051966 -0.103508726 -0.012145191 -0.118028685
0002b0 28 e7 a1 3d 9e 93 e8 bd 40 84 19 bd 48 12 f8 3c
       0.07905418 -0.11356281 -0.03747964 0.030282155
0002c0 22 c8 f4 bd 20 90 41 bd c2 bf cd bd 54 38 dd bd
       -0.11952235 -0.04725659 -0.100463405 -0.10801759
0002d0 62 59 aa bd a0 6b 35 bc 30 97 1e bd a2 9e c3 bd
       -0.0831783 -0.011073023 -0.038718402 -0.09551741
0002e0 04 4a f9 bd 7a 39 fb 3d 90 bd 86 3c 70 91 13 bc
       -0.121723205 0.12266822 0.016447812 -0.009006843
0002f0 30 5c 1b bd fe 7f 80 bd 70 33 ef bd 34 0e 23 bd
       -0.037929714 -0.062744126 -0.11679733 -0.039808467
000300 f5 fb 25 bb ab e1 a7 3d 95 89 49 bd bc 27 11 3e
       -0.002532718 0.081973396 -0.049203474 0.14175314
000310 60 56 56 3d 40 a4 8e bd 8c 3f 10 bd d2 93 9d 3d
       0.052328467 -0.06964922 -0.035216853 0.0769421
000320 b7 c8 8e 3d 34 98 42 bc ba ec 91 bd 8f 41 82 bd
       0.06971877 -0.011877108 -0.0712523 -0.063601606
000330 51 51 56 bd 7a 63 a1 3d e8 79 96 3d 16 a8 4a bd
       -0.052323643 0.07880302 0.073474705 -0.049476705
000340 b0 06 83 bd de 7f 03 bd ac 4f de 3d 6f c1 ca bd
       -0.0639776 -0.032104366 0.1085504 -0.09900176
000350 de e1 91 bd 3e d6 67 bd 56 dd 10 bd 78 1d e5 3d
       -0.07123159 -0.0566008 -0.035367332 0.11187261
000360 f4 84 1e 3d ce f8 5a 3d 06 5f a5 bd c4 b1 9c bd
       0.038701013 0.053459935 -0.08074765 -0.076510936
000370 b7 ec 88 3d f1 dc a5 3d a4 4a 36 bd 55 af 28 3e
       0.06685775 0.08098782 -0.044504777 0.16473134
000380 a3 38 1b bc 83 f7 8e 3d 1b b6 7b bd 91 30 fe bc
       -0.009473952 0.06980803 -0.061452966 -0.031029018
000390 c5 26 70 3d e6 1b d1 3d fa de 3b 3c 23 21 ff 3d
       0.058630724 0.10210399 0.011466736 0.12457492
0003a0 db 0a 91 bd 38 90 3e 3d e9 60 12 3e 78 0e 2c bc
       -0.07082149 0.046524256 0.14294781 -0.0105014965
0003b0 12 15 c0 bc 94 c5 62 bd 4d 7d 8a 3c a9 bb d3 bd
       -0.023447547 -0.055364206 0.016905451 -0.10338528
0003c0 62 8c d0 3d ea 42 db 3d b6 f8 f5 3d a5 5d d5 3c
       0.10183026 0.10706122 0.120103285 0.02604563
0003d0 af 62 74 bd 21 81 95 3c bb 0b 2d 3c 74 63 95 bc
       -0.059664425 0.01825005 0.010561879 -0.0182359
0003e0 68 b3 5b 3d e0 53 57 bd 89 4e 9a 3c 57 b3 03 3e
       0.053637892 -0.052570224 0.018836277 0.12861381
0003f0 43 cd 19 3e f9 b8 8d bd a9 02 d5 3d 85 db e1 3d
       0.15019707 -0.06920046 0.10400898 0.11028198

hidden_layers.1.bias f4 [64]
000000 37 34 89 bd 68 53 be 3c 62 7a d1 bd 27 12 50 bd
       -0.06699412 0.02323313 -0.10228421 -0.05079856
000010 d6 0f 06 3e e0 41 38 bc e6 71 92 3d b0 de bf bd
       0.13091978 -0.011246175 0.07150631 -0.09368646
000020 3e 38 5a bb 6e 15 be 3d e2 d8 f1 3c 00 cc c7 bd
       -0.0033297683 0.09281431 0.029522363 -0.09755707
000030 85 4f 09 3e 38 79 0e 3e 23 4f bb 3d 88 f3 83 3d
       0.1340924 0.13913429 0.091459535 0.06442934
000040 26 c0 d8 3d a0 2e 51 3d a7 6e 0e 3d 82 72 11 3e
       0.105835244 0.051069856 0.034773495 0.14203838
000050 1a 61 d6 3d b3 a9 d0 bb d1 10 db ba 34 97 0e bd
       0.104677394 -0.006367886 -0.0016713386 -0.034812167
000060 34 b4 ee bd f1 87 93 bb 47 87 28 3a 40 7c 00 bb
       -0.11655465 -0.0045022895 0.00064288493 -0.0019605309
000070 4e dc 01 3e fd 33 d2 3d 95 a2 af 3d e2 b1 1b 3e
       0.12681696 0.10263822 0.08575932 0.15204576
000080 aa bb 88 3d f6 76 f6 bd a2 a4 d0 bd 74 fa a5 bd
       0.06676419 -0.12034409 -0.10187651 -0.08104411
000090 ba b9 37 bc 88 4f 2b 3d 74 01 21 3e dc 36 67 bd
       -0.011213714 0.041823894 0.1572321 -0.056448802
0000a0 60 e8 f3 bc 3f c6 18 3e 8c 9b 2d 3e ba e2 8c 3c
       -0.029773891 0.14919375 0.16953868 0.017197955
0000b0 c0 dc 09 3d 9d e9 a2 bd 4c 0a db bc 6c 24 23 3e
       0.03365779 -0.079547144 -0.026738308 0.15931863
0000c0 10 b4 a3 bc ca 94 c1 3d ca f2 d0 ba 9d 80 d9 bb
       -0.019983321 0.094522074 -0.0015941497 -0.0066376464
0000d0 31 ef 93 3d 3c fe fd bc cb 2f 2f bd 74 de c9 bd
       0.072233565 -0.031005017 -0.04277019 -0.09856883
0000e0 66 16 d2 bd f2 c7 1e 3e 65 4a bd 3d a1 4f a3 3d
       -0.102581784 0.1550596 0.09242705 0.079741724
0000f0 b5 5f b4 bc ea 1c 24 3d ee 2f 23 3d e3 3f 20 3d
       -0.022018293 0.040066637 0.03984063 0.039123427

hidden_layers.2.weight f4 [64, 64]
000000 71 a3 65 bd eb 91 d6 3d 80 af da bc 48 0e a6 3d
       -0.056064073 0.104770504 -0.026695013 0.08108193
000010 ef 64 ab 3a a4 db 24 bd 4d b6 df 3d 98 5b 85 3d
       0.0013076345 -0.040248528 0.10923443 0.06511611
000020 37 d3 45 bd da 81 c2 3d bb 3e e7 3d ad df 63 3d
       -0.048297133 0.094974235 0.11291262 0.055633236
000030 64 0b 83 bd aa ae 8e bd b2 c0 df 3d 8e 3d ed bd
       -0.06398657 -0.06966908 0.109254256 -0.11584006
000040 98 15 c3 3c 0c f1 f5 3d 9c a4 93 3d 69 42 25 bc
       0.023814008 0.12008867 0.07209131 -0.010086634
000050 37 0c b0 3d c8 74 9c 3c a6 52 d7 bc b4 28 d1 bd
       0.0859608 0.019098654 -0.026284527 -0.10212842
000060 97 65 33 bc c7 4e f6 bd 58 ff 82 3d c0 d4 e6 bc
       -0.010949514 -0.12026744 0.06396359 -0.028177619
000070 b3 f8 28 3e 77 63 02 3e 58 0c bc 3d ff f6 5b bd
       0.16501121 0.12733255 0.09182042 -0.05370235
000080 4b ca 58 3d db 9b f0 bb 62 bc 7c bc 3c 59 10 3d
       0.052927297 -0.007342798 -0.015425773 0.03524135
000090 11 4c 47 3c f7 58 f4 3c 73 e4 19 3e d2 ff eb bd
       0.012164132 0.029827578 0.15028553 -0.11523403
0000a0 3a be c3 bd 2e a5 7f 3d 4b f3 1e 3e 0c 8d 89 bd
       -0.09557767 0.062413387 0.15522496 -0.06716356
0000b0 de ae f0 3d 27 5f 97 3d d8 fb 9c bd 78 f0 30 bc
       0.11752103 0.07391196 -0.07665223 -0.01079952
0000c0 e3 52 07 3e e8 8a 56 bd 9e 49 86 3d 1a a5 ea 3d
       0.13215213 -0.052378565 0.0655701 0.11457272
0000d0 3f b1 4b bd 07 e4 95 3d 1a 10 ef 3d 76 91 5a bc
       -0.049729582 0.073188834 0.11672993 -0.013340345
0000e0 98 a7 57 3d 5f ac 25 3e ab 02 8f bd 41 6f 0b 3e
       0.052650064 0.16179036 -0.06982931 0.13616659
0000f0 3f dd 1a bd 58 24 9f bd 81 d6 61 3c 8b 9b b4 bd
       -0.037808653 -0.07770604 0.013784052 -0.0881873
000100 c5 40 af bd f7 89 48 3d 20 3b c6 3c ab aa 7c bc
       -0.08557276 0.0489597 0.024198115 -0.01542155
000110 8b 39 26 3d 1c ec c5 3d 01 bb 38 3d 78 ba c7 bc
       0.04058222 0.09664175 0.045100216 -0.024380907
000120 09 89 7a bb f3 74 de bc 76 bc 82 3b 02 ca b3 bd
       -0.0038228652 -0.027155375 0.0039897515 -0.08778764
000130 5f 88 f9 bd ea 81 05 3d 7d 2d 79 bd a8 8f 12 bd
       -0.12184214 0.0325946 -0.060834397 -0.035781533
000140 4c 10 7f bd df 4e 1b 3c fe 40 ae 3c 70 86 bc bd
       -0.0622714 0.009479254 0.021271225 -0.092053294
000150 36 34 bb bd 19 b6 f5 3d 0a d6 1e bd 16 06 be bd
       -0.09140818 0.11997623 -0.038778342 -0.092785046
000160 b5 dc 2b bd fe 32 90 bd 37 1f 8b bb 30 7d c0 3c
       -0.04195853 -0.07040976 -0.0042456645 0.023497194
000170 5e 8b 11 3c f4 08 fe bd 8c c6 8e bb ed 65 34 3d
       0.008883325 -0.124040514 -0.0043571647 0.044042516
000180 a4 ee 26 3c 8d 6e b0 bc 7c a8 b3 3c 2c 90 a1 3d
       0.010188732 -0.02153709 0.021930926 0.07888827
000190 79 60 73 bd f0 1f ba bb 7c 23 f4 3c ae 99 ba 3d
       -0.059418175 -0.005680077 0.029802077 0.09111343
0001a0 00 12 d4 bd e7 bd f0 3d 3f 03 93 bd d6 c7 23 bd
       -0.10354996 0.11754971 -0.071783535 -0.0399855
0001b0 af 90 40 bd 26 0f 73 3d 98 b1 ba 3d 2a fe 9d bd
       -0.04701298 0.05934062 0.091159046 -0.077144936
0001c0 e5 11 b7 3c 7d 9a d0 bd 82 ff 93 3d 33 ad 70 bd
       0.0223474 -0.10185716 0.072264686 -0.058758926
0001d0 4f de 69 bd a5 fe b7 3d 17 50 46 3d b4 fd 82 bd
       -0.057096776 0.089841165 0.048416223 -0.06396046
0001e0 30 b3 09 bd 11 03 d0 3d a3 f2 cf 3d a9 30 33 bd
       -0.033618152 0.10156835 0.10153701 -0.043747578
0001f0 fe 0b ed 3d 37 d6 d6 3d 53 68 eb 3b 88 26 2e bb
       0.11574553 0.10490077 0.0071840673 -0.002657326
000200 9f ee 95 3d 36 61 99 bd cc 27 dd 3d ab 2d 86 3c
       0.07320904 -0.07489245 0.10798606 0.016379198
000210 85 75 9c 3d c0 47 ab bc fa fa db 3d 90 9d 34 3c
       0.076396026 -0.020908237 0.10741229 0.011023894
000220 7e 13 31 3d 5d 4a 81 3d 85 d3 01 bb c1 b6 22 bd
       0.04323148 0.06313012 -0.0019809913 -0.03972507
000230 5c ed 68 3d 22 f6 2a 3e 4d dd 83 bd 00 af ab 3b
       0.05686699 0.16695455 -0.06438694 0.0052393675
000240 a0 41 b2 bd a3 58 96 bd e5 63 f2 3d e9 4c 19 3d
       -0.08703923 -0.07341125 0.118354596 0.037426863
000250 a3 da 10 3e 71 5d b2 3d 5d de 05 3e c0 0e 56 3c
       0.14145903 0.08709229 0.13073106 0.01306504
000260 59 5b df 3d 64 78 d6 3d 33 59 c7 bd fa 7e 9d 3d
       0.10906095 0.104721814 -0.0973381 0.076902345
000270 8c b4 3d 3d d2 c1 b6 3d ea 2f 85 bd fd d0 9d 3d
       0.04631476 0.08923687 -0.065032795 0.07705877
000280 d4 c4 db bd 7c 27 ba 3d 25 89 b6 3d 9a 1f e3 3d
       -0.10730901 0.09089562 0.08912877 0.11090012
000290 87 80 7f bd 5c 4c e0 3d 91 f2 cd 3d 2a 94 bd bd
       -0.062378433 0.109520644 0.100560315 -0.09256776
0002a0 00 59 80 3a 97 3b d1 3d a2 d9 0a 3e 41 d9 3e bd
       0.0009792149 0.10216444 0.13559583 -0.04659391
0002b0 5c 3c b2 3d 62 09 d5 bc ff 81 8d bc da e0 ba bd
       0.08702919 -0.02600545 -0.017273901 -0.09124918
0002c0 98 66 15 3d a8 e5 06 3e bc be de bd 04 b4 75 bd
       0.036474794 0.13173544 -0.108762234 -0.05998613
0002d0 e9 6b a0 bd 81 87 77 3d eb af 49 3d 28 63 92 3d
       -0.07833082 0.06043196 0.049240034 0.07147819
0002e0 60 40 03 3d 15 7c 8d bd 78 42 cd 3d 3f ee 09 bc
       0.032043815 -0.069084324 0.100224435 -0.008418619
0002f0 0c 97 e4 3d aa 97 d9 3d 70 08 f3 3d ea 7a af 3d
       0.111616224 0.10624631 0.11866844 0.08568366
000300 80 db ce 3b 5a 9a e1 bd a4 09 4e 3d cc b4 55 bd
       0.0063127875 -0.11015768 0.050302163 -0.052174374
000310 84 0e 5e bd d8 5d 5a bd 54 30 9b bd e4 e1 f0 bd
       -0.054213062 -0.053312153 -0.07577577 -0.11761835
000320 fa 79 99 bd 38 15 91 3d 40 31 13 bc ec 0e d4 bd
       -0.07493968 0.07084125 -0.00898391 -0.103544086
000330 80 93 fe 3d e8 12 ef 3c 60 18 8a bc 40 a1 6e 3b
       0.12430477 0.02918382 -0.016857326 0.003641203
000340 42 36 cc 3d a8 52 9b bd 36 f1 f2 bd d4 73 c5 3d
       0.09971286 -0.07584125 -0.118624136 0.09641233
000350 fc 67 4a bd ac 37 da 3d 7c a1 34 3d a2 b6 c5 3d
       -0.049415573 0.1065515 0.044099316 0.09653975
000360 8a 36 ae bd ec b8 0f 3d 50 43 b8 bc 00 9c 55 39
       -0.08506496 0.035088465 -0.022493035 0.00020371377
000370 98 49 f5 3d 28 eb 4a bd 38 41 d1 3d 64 93 02 3d
       0.119769275 -0.04954067 0.102175176 0.031878844
000380 c8 32 34 3d 68 b3 a9 3d 58 77 10 bd a4 19 d8 3d
       0.04399374 0.08286172 -0.035270065 0.105517656
000390 ea e8 a9 bd 60 af b1 3b 5e 45 9b bd 60 31 ad 3c
       -0.08296378 0.0054225177 -0.0758159 0.021141708
0003a0 20 88 82 bb d4 4f 6f 3d 04 8a c4 bd 32 7f 87 bd
       -0.0039835125 0.05842574 -0.09596637 -0.066160575
0003b0 e0 d0 b4 3c 14 63 16 3d f0 52 53 3d f8 07 46 bd
       0.022072256 0.036715582 0.051592767 -0.048347443
0003c0 22 98 81 bd 58 60 cc 3d 2c 28 b4 bd 88 a1 d5 3c
       -0.06327845 0.099793136 -0.08796725 0.026078
0003d0 da 4c eb bd 78 3c 27 bd 42 e1 d1 3d 40 68 25 bd
       -0.11489268 -0.040829152 0.10248043 -0.040382624
0003e0 74 ca 2a 3d 1c 41 88 bd b8 d1 7b bd 14 1b 12 bd
       0.04169698 -0.06653044 -0.0614793 -0.035670355
0003f0 92 d7 94 bd b4 8a fe bd 2c 73 03 bd e8 df 78 3d
       -0.07267679 -0.12428799 -0.03209226 0.06076041

hidden_layers.2.bias f4 [64]
000000 16 9e 8f bd 17 36 44 3d b5 0e bf bd d8 66 ef bc
       -0.070125744 0.047903147 -0.09328977 -0.029223844
000010 0b e8 b7 3d f6 4c 69 3d cc f1 8a 3c 60 97 fe 3c
       0.089798056 0.05695816 0.016961 0.03107804
000020 4c a2 a7 bd e0 13 f4 bd 4e 43 e6 bd dc fa 2f bb
       -0.081852525 -0.11917853 -0.11243306 -0.0026852405
000030 08 b5 c4 bc 00 3b 35 bb c3 bb 5a 3d 22 ba 8f 3d
       -0.024012104 -0.0027653575 0.05340172 0.07017924
000040 c4 fe 9f bc 00 50 37 38 be 50 56 3d 4c 30 d2 3d
       -0.019530661 4.3705106e-05 0.052323096 0.10263118
000050 50 d0 31 bd ee 51 c9 bd 8f 03 a8 bd 68 84 df bd
       -0.043411553 -0.0983008 -0.08203804 -0.10913926
000060 27 66 1e 3e 2a 1e c3 3d 4f ba b7 3d 65 ef 1c 3d
       0.15468656 0.09527238 0.089710824 0.038314242
000070 60 a8 f2 bd 2f 56 d5 bc bb 23 98 3c 7c 00 9f bd
       -0.11848521 -0.026042072 0.018571725 -0.07763764
000080 5d fb 60 3d e8 c1 8a bd 0a d7 10 3c 30 83 e9 bd
       0.05492722 -0.06775266 0.008840332 -0.11401975
000090 0c 7e 1e 3e 28 6b ca 3c 23 b9 fc 3b f0 61 64 bc
       0.1547777 0.0247093 0.0077124997 -0.013939366
0000a0 ad a2 f7 3c 74 d0 e8 bd d0 23 3f bd bb 50 cb 3d
       0.030228937 -0.11367884 -0.046665013 0.099275075
0000b0 ed 04 7c bd 99 23 c6 bb d8 20 c4 bb a1 50 0e bd
       -0.061528135 -0.006046724 -0.0059853606 -0.034744862
0000c0 1b 56 c0 3d 77 8b a5 3d 12 c9 1e 3e 84 7a c3 bd
       0.09391423 0.080832414 0.1550639 -0.095448524
0000d0 83 f2 86 bd ee 48 d9 3b c0 6e 04 bc 3b 3a d7 3d
       -0.06589224 0.0066310083 -0.0080830455 0.105091535
0000e0 60 86 25 3c 96 55 94 3c d8 fe bb bd ed e6 f8 3d
       0.010102838 0.018107217 -0.09179467 0.121534206
0000f0 45 5b 99 3d fd cb 97 ba 3d e6 d4 3d 4e 82 60 bc
       0.074881114 -0.0011581179 0.10395477 -0.013702942

hidden_layers.3.weight f4 [64, 64]
000000 3c 5a 21 3e 03 65 2c 3d ed e9 83 3a c8 52 a5 3d
       0.15757078 0.04208852 0.0010064222 0.0807243
000010 69 a8 42 bd 49 c0 56 bc 16 0e 84 3d 26 e6 fa bd
       -0.04752389 -0.013107368 0.06447999 -0.122509286
000020 9c a5 43 bc 60 fb c6 3c 58 fc b7 bd 4e a6 f3 3d
       -0.01194134 0.024289787 -0.089836776 0.118969545
000030 68 cf f5 bd ec 5f 17 bd 8b 9c 99 bc c8 f4 ce 3d
       -0.1200245 -0.036956713 -0.018751403 0.10105282
000040 cf 9a 29 bb ba 69 86 3d 33 5c ba 3d e4 07 84 bd
       -0.0025879627 0.065631345 0.09099617 -0.064468175
000050 90 73 5b bd a3 84 bd 3d 89 a8 f5 bb 08 17 3a 3d
       -0.053577006 0.09253814 -0.0074968976 0.04543212
000060 63 bb 6b 3d 1e ef bf 3d 96 bb 9b bd 12 ee 51 3d
       0.057551753 0.0937178 -0.076041386 0.051252432
000070 d8 28 f9 bd 0f 53 51 bd ea 78 0b 3d 4c cc 85 bd
       -0.121659935 -0.0511046 0.03405086 -0.06533107
000080 6a e2 1b bd 33 e9 c1 3c cf db 8c 3d 4a f5 92 bc
       -0.038057722 0.023670768 0.06877863 -0.017939229
000090 a4 51 ad 3d 90 e1 fc 3c 87 bc c0 bd 42 84 93 bd
       0.08462837 0.030869275 -0.09410959 -0.072029606
0000a0 b0 72 ec 3c 29 74 2a bc 5d d9 b1 3d 1a 41 ac bd
       0.028863281 -0.010403671 0.08684037 -0.08410855
0000b0 c2 e2 a5 bd 86 15 a9 3d 36 08 8e bd 21 2a 07 3e
       -0.08099891 0.082560584 -0.0693516 0.13199665
0000c0 74 be 82 3d 0c 0b 24 bd 68 21 f4 3d 5e 3c 9d 3c
       0.06383982 -0.040049598 0.11920434 0.019193824
0000d0 dd d4 ae bc 74 11 b1 bd 80 f5 5e bc 32 2c d5 bd
       -0.021341735 -0.08645907 -0.013608336 -0.1040882
0000e0 44 64 26 bd a4 cb 97 bd 54 a6 52 bd 8f 04 b6 bd
       -0.040622965 -0.07411888 -0.051428154 -0.08887588
0000f0 4b 3f 20 3d 40 fd 14 3e 86 9b cb bc d0 4f f0 3d
       0.03912286 0.14549732 -0.024854433 0.11733973
000100 ff aa 5e bd 84 fa 50 3d e1 4b 12 bd 24 af e4 3d
       -0.054362293 0.05102016 -0.035716895 0.11166218
000110 8a f4 56 3d ee 36 56 bd b1 f1 b1 bd 3e e9 c2 3d
       0.052479304 -0.05229848 -0.08688677 0.09517144
000120 09 07 c0 bd 0c d4 c1 bd 14 6b 82 bd 22 8e f0 3c
       -0.09376342 -0.09464273 -0.0636808 0.02936465
000130 92 9c cb bd e8 ef a8 3d c5 d4 e2 3c 88 95 f5 3c
       -0.09941973 0.082488835 0.027689347 0.029978529
000140 ef a3 f8 3d 34 05 9a 3d a1 fd 6e bd e8 ee 7b bd
       0.12140643 0.07520524 -0.058347348 -0.061507136
000150 b0 57 71 3c 05 7c ad 3d fe a9 93 3d 04 22 44 3d
       0.014730379 0.084709205 0.07210158 0.047884002
000160 e4 32 6c bd 54 01 60 bd 60 c7 c7 bd e8 7d 30 3c
       -0.05766572 -0.054688767 -0.09754825 0.010772206
000170 da 2a 8c bd fd 11 b5 bd 04 b2 f9 bd 28 71 2c bd
       -0.06844111 -0.088413216 -0.12192157 -0.0421001
000180 03 24 00 be ff 3e 47 bd 5d e0 de 3d 48 d7 b7 3c
       -0.12513737 -0.048644062 0.10882638 0.022441521
000190 2b a1 98 3d 1a dc f2 bd 3a f1 d9 bd 40 dd 28 bb
       0.07452615 -0.11858387 -0.106417134 -0.002576664
0001a0 40 db 8d bb cc a0 83 3c 43 e2 f3 3d 50 78 f4 3c
       -0.004329115 0.016067885 0.119083904 0.029842526
0001b0 69 bc c2 3b 79 d4 ac bd e8 c0 86 bd 64 5a d2 bd
       0.0059428704 -0.084389634 -0.06579763 -0.10271147
0001c0 93 93 35 bd fa 89 99 bd 52 3a 0f 3d 76 f6 f8 3d
       -0.04433019 -0.0749702 0.034967728 0.12156384
0001d0 f1 19 b1 3c e4 d7 b4 3d e8 4a 18 bd 1e c0 eb 3d
       0.021618815 0.0883024 -0.03718081 0.11511253
0001e0 d0 60 a2 bd 90 65 9c 3d 58 4c 92 3c c9 77 fd bc
       -0.07928622 0.07636559 0.01785867 -0.030940907
0001f0 cf ca bd 3d 1a a7 1e bd e0 b5 1e 3d 9e 54 45 bc
       0.09267198 -0.03873358 0.03874767 -0.0120441
000200 5f 2b b2 3c 48 4f c8 3c 92 84 bd 3d 14 dd 87 3d
       0.021749197 0.024451867 0.092538014 0.06633964
000210 72 82 3e 3b 1e eb 25 bc cf 79 b6 3c f8 35 e4 bc
       0.002906945 -0.010126857 0.02227488 -0.027857766
000220 f7 f6 cb 3c 82 dc 98 bd c0 23 e7 bb 8f ca 2b 3b
       0.024898035 -0.074639335 -0.0070538223 0.0026213264
000230 56 63 be 3d 90 9e a7 bc 89 54 d4 3d c0 d4 f7 3d
       0.092962906 -0.02046135 0.10367686 0.12101126
000240 82 10 d8 3d 90 ea d9 bc 18 24 a0 3d b0 db d7 3c
       0.105500236 -0.026601106 0.07819384 0.026349872
000250 00 41 9c bb 6d 5e e8 3a 53 df 95 3d fc a4 3f 3d
       -0.004768491 0.0017728336 0.07317986 0.0467882
000260 7a ce be 3d 3c a1 a5 bd f0 c6 99 bc 18 37 fc 3c
       0.09316726 -0.08087394 -0.018771619 0.03078799
000270 a0 be b8 bc b2 5e dd bc 08 31 72 bd 60 82 f8 bd
       -0.022551835 -0.027022693 -0.05912879 -0.12134242
000280 53 67 74 bd 57 20 75 3d fe 32 f9 3c 96 c4 d7 bd
       -0.05966885 0.059845295 0.030419823 -0.10535543
000290 c0 2a db 3d 3c 4d 3d 3d 76 e9 a8 3d d8 3d 52 bd
       0.10701513 0.046216235 0.08247654 -0.05132851
0002a0 c0 b9 b1 3d df 3f 9e 3d 72 48 f3 3c a8 cf 9d 3c
       0.08678007 0.07727026 0.02969763 0.019264057
0002b0 a9 a8 8c bd 5c c7 ad 3d 60 16 0c bc b5 4c 0f 3d
       -0.06868107 0.084852904 -0.0085502565 0.034985263
0002c0 9c a7 33 bd 28 18 aa bc 6b f7 ac bd 0b c4 25 bd
       -0.043861017 -0.020763472 -0.08445629 -0.040470164
0002d0 0b 33 70 bd a2 32 21 bd 3c c1 44 3d a8 81 84 3d
       -0.05864243 -0.039354928 0.048035845 0.064700425
0002e0 b4 ff 57 bd a0 11 3c 3d 34 d3 b7 3d 84 d0 83 ba
       -0.052734092 0.045915246 0.08975831 -0.0010056649
0002f0 fa e4 ce bd 98 20 f3 3d 90 09 c6 3d 72 ee d3 3d
       -0.101022676 0.11871451 0.09669793 0.10348214
000300 de 5b 87 bd 1d 7b 14 3d 63 11 63 b9 2e 8d 92 bd
       -0.06609319 0.036250222 -0.00021654884 -0.07155834
000310 14 ea f1 bd 09 48 dd bd 8c bf 9a 3d a4 38 a5 3d
       -0.11812225 -0.10804755 0.07556066 0.08067444
000320 93 d5 e0 3c 66 e5 b2 bd 38 14 ec 3d 4b 4f 61 3d
       0.02744559 -0.087351605 0.11527294 0.05500726
000330 64 90 e7 3d 00 8c f7 ba be e5 9c 3d 6f 21 a5 3d
       0.11306837 -0.0018886328 0.07661007 0.080630176
000340 84 94 fb bd 5c 92 e4 3d f6 79 fd bd a0 96 a1 bc
       -0.122841865 0.11160728 -0.12376778 -0.019725144
000350 40 74 96 3b b8 a7 93 3d f4 cf c4 3d 32 80 b2 bd
       0.004591495 0.07209724 0.096099764 -0.087158576
000360 17 3e 80 3d bb 69 6f 3d ee 49 98 bc ef 8f 58 3d
       0.06261843 0.05845044 -0.01858994 0.05287164
000370 bc 16 be 3d de 52 b0 3d f2 37 d5 3c f4 a6 31 3d
       0.0928168 0.08609556 0.026027653 0.04337211
000380 8d d7 d4 3c a3 a4 3d 3d e0 1e 7f 3d 64 82 c9 3d
       0.025981689 0.046299588 0.062285304 0.09839323
000390 6d 6f eb bc a0 77 ff bb 73 84 69 bd 14 ff 2e bd
       -0.028739655 -0.007796243 -0.05701108 -0.04272373
0003a0 58 b7 80 bc 33 f1 cf bd 6b bb d6 bb 30 49 fd bd
       -0.015712425 -0.10153427 -0.0065531037 -0.12367475
0003b0 37 e7 dd 3d 3d a6 a0 3d 08 b2 d2 3c 19 9d 02 bd
       0.10835116 0.078442074 0.025719658 -0.0318881
0003c0 00 4a 55 3d a0 cb e9 3b 5f db b7 bc d6 87 ef 3d
       0.052072525 0.0071348697 -0.022443471 0.116958305
0003d0 d7 dd 86 bc ec 61 8e bd 72 88 99 3d 26 b8 6b bc
       -0.016463203 -0.06952271 0.07496728 -0.014387166
0003e0 80 3f 0f 3d f8 8d 97 3d 20 cb ca bc 5d 0a 10 3d
       0.034972668 0.07400125 -0.02475506 0.035166133
0003f0 ec e8 f0 3d a9 d7 73 bd a3 57 02 be 45 ac c6 3d
       0.11763176 -0.05953184 -0.12728743 0.097008266

hidden_layers.3.bias f4 [64]
000000 af 52 9c bd e8 e5 bc bc 69 3f e4 bd ec 3c 1d bc
       -0.07632958 -0.023058847 -0.11144907 -0.009597044
000010 93 c1 08 bb 99 6f cd 3d e4 7d bd 3d 90 f0 e1 bc
       -0.0020867332 0.10031051 0.09252527 -0.02758053
000020 5d 37 63 3d f4 15 9a bd d4 1c 21 bd 68 7f 9a 3d
       0.05547272 -0.075237185 -0.039334133 0.07543832
000030 d9 c8 e3 bd 48 c7 fa bd 24 4f c0 3b c0 fc 9d bd
       -0.11122293 -0.12245041 0.0058688093 -0.07714224
000040 08 b1 b4 bc 94 19 9b 3d 1e bc f4 bd 6e 5d 8c bc
       -0.022057071 0.07573238 -0.11949943 -0.017134394
000050 64 6e 43 bd d4 9f 7a 3d 28 85 b5 bd 9e a6 2d 3d
       -0.0477127 0.06118758 -0.08863288 0.042395227
000060 4c d5 8c bd 20 38 aa 3c 30 16 5d 3d 5b 4e a8 3d
       -0.06876621 0.020778716 0.053976238 0.0821807
000070 bc 22 a7 bd 25 a8 48 3d 76 ca 09 3e e6 81 03 3e
       -0.08160922 0.04898848 0.13456139 0.12842521
000080 67 49 e1 bd c8 e6 4f 3d c6 94 90 bc ec 4e 25 3d
       -0.110003285 0.0507572 -0.017649066 0.04035847
000090 c2 32 19 3d 84 49 9c bd 3c 51 45 bd d5 e6 04 bd
       0.037401922 -0.076312095 -0.048173174 -0.0324467
0000a0 13 9c fe 3d d7 83 4c 3d e7 76 da 3d 91 d5 08 bd
       0.124321125 0.04993042 0.1066721 -0.033406798
0000b0 a0 2d f5 bb 38 ef c2 3d b9 b5 63 bd e7 94 b0 3d
       -0.0074822456 0.095182836 -0.055593226 0.08622151
0000c0 6d 72 9c 3c ac 72 8a 3b ce 68 c6 3c 7f d5 e4 3d
       0.019097531 0.0042250957 0.024219897 0.11173534
0000d0 38 8f cd bc d4 e7 ff bd 20 f0 d1 bb 59 91 9a bd
       -0.025092706 -0.124953896 -0.006406799 -0.07547254
0000e0 ec 01 2a bd 92 a8 a3 3d f5 fe 1b 3d bc 9e 35 3d
       -0.04150574 0.079911366 0.038084943 0.044340834
0000f0 51 be 24 bc e0 75 88 bd cc 4d 0c bd 54 2f a7 3d
       -0.010055141 -0.06663108 -0.03425388 0.08163324

output_layer.weight f4 [2, 64]
000000 b9 3d 83 3d e6 41 99 bd 04 5a 3b bd 24 20 67 bd
       0.06408257 -0.07483272 -0.045740142 -0.056427136
000010 7e 53 37 bd fb c5 18 3e 60 03 79 3d a7 7a 12 3e
       -0.04475736 0.14919274 0.060794234 0.143046
000020 11 32 bd 3d 10 dd 14 bc e5 c5 0c 3e 06 2d 17 3d
       0.09238065 -0.0090859085 0.13747366 0.036908172
000030 da aa c6 bc f0 95 86 3d 60 c3 fc bc d0 a8 0c 3c
       -0.02425139 0.06571567 -0.03085488 0.00858517
000040 18 3a 8d bd 7c 7f 14 3e 88 0e e4 3d 8a c1 df bc
       -0.06895846 0.14501756 0.11135584 -0.027313966
000050 38 b1 06 bd f8 32 a7 bc 0e f1 c4 3d 2b bc 84 bc
       -0.032883853 -0.020410046 0.0961629 -0.016203007
000060 ce e7 a3 bd 77 e1 8e bd 00 5a 02 3e 02 40 8d bd
       -0.080031976 -0.06976598 0.12729645 -0.06896974
000070 d0 24 bd 3d cd 38 97 3d 75 75 a4 3d 5d 8c a2 3d
       0.09235537 0.07383881 0.08030216 0.079369284
000080 a4 da d0 3d 10 9b 5f bc 59 38 a8 3d 3d 8e 49 bd
       0.101979524 -0.01364781 0.082138725 -0.049207915
000090 11 6b 97 bd 00 c9 4e bc 56 a8 81 bd e4 a3 5d bd
       -0.07393468 -0.012621164 -0.06330936 -0.054111376
0000a0 61 40 00 3e 7c ce ff bc 37 54 81 bc ee c2 72 bd
       0.12524559 -0.03122639 -0.015787227 -0.05926793
0000b0 70 6f 17 bd 1a 46 4e bc d7 ab b5 bd 15 de 64 bc
       -0.03697151 -0.012589956 -0.088706665 -0.013968964
0000c0 e8 5e 10 bd 95 ea 97 3d 9c ae 81 bd 0c b0 78 3d
       -0.03524676 0.0741779 -0.06332132 0.060714766
0000d0 c6 db 81 bc 30 9d 63 bd e4 7c f9 3d 19 43 0a 3e
       -0.015851866 -0.055569828 0.12182024 0.13502158
0000e0 9d 28 4a bc 91 cc a4 3c 4e c9 80 3d cd 54 00 3e
       -0.0123387845 0.020117076 0.06288396 0.12532349
0000f0 8e de 8b 3d 54 08 1c 3e 18 0d 25 bd 1a d7 18 3e
       0.06829558 0.15237552 -0.04029569 0.14925805
000100 d7 de 12 be b3 58 32 3d 76 30 00 be 55 3e 71 bd
       -0.14342819 0.04354162 -0.12518486 -0.058897335
000110 7c aa 6d bd c9 62 5b bc 03 3b b7 3c da ce 32 bc
       -0.058023915 -0.013390251 0.022367006 -0.010913575
000120 0a f0 96 3d e0 1c 76 bd 53 f1 5b 3d 9b 57 a4 3d
       0.073700026 -0.06008613 0.05369694 0.08024522
000130 91 e8 22 3d 80 8e 17 3d 00 c2 9c 3d 6c 33 7d 3d
       0.039772574 0.037001133 0.0765419 0.061816618
000140 e0 a7 29 3d 73 d4 2c bc 20 28 bb 3d 52 16 e5 3d
       0.041419864 -0.010548699 0.091385126 0.11185898
000150 a6 7c ad 3d 9c 63 37 3d 28 75 4e 3d 0b 95 b1 bd
       0.084710404 0.04477273 0.050404698 -0.08671006
000160 a4 c7 eb bd 7e f7 95 bc ab ce 78 bd 68 b9 80 3d
       -0.11512688 -0.01830649 -0.06074397 0.062853634
000170 fc da f3 bd be 94 39 3d f7 0f 47 bd 87 2d c3 3d
       -0.11907002 0.045307867 -0.04859921 0.09530168
000180 ee a2 dc 3d 92 f8 fa bd c4 39 23 bd 2a 9f ba 3d
       0.10773264 -0.12254442 -0.03985001 0.091123894
000190 c5 80 54 3d c0 a0 7f 3b 96 5a ba 3d 4c 6c ac bc
       0.051880617 0.0039005727 0.09099309 -0.021047734
0001a0 c3 2e fe bc db d8 fd 3d d3 d5 28 3d f3 bc 8e bc
       -0.031028157 0.123948775 0.041219544 -0.017424082
0001b0 28 54 6f 3d 5d 22 ca 3c 4a 46 5a bc 26 84 a2 bc
       0.058429867 0.024674589 -0.013322422 -0.019838404
0001c0 a4 ec 74 bd b1 d9 94 bd e7 bb 4b 3c fe 4c 6e 3d
       -0.05979599 -0.07268084 0.012434936 0.058178894
0001d0 d8 1b 51 3d e0 2f ff bd c0 cd da 3c a9 be 49 bc
       0.051051944 -0.12460303 0.026709437 -0.012313523
0001e0 19 75 91 3d 76 78 51 3d f0 2c 76 bd fd 79 e6 3d
       0.07102413 0.05114027 -0.06010145 0.11253736
0001f0 67 c8 92 3d c3 de d1 bd f0 c9 58 3c c6 bc c3 3c
       0.0716713 -0.102475666 0.013231739 0.023893725

output_layer.bias f4 [2]
000000 27 08 a5 bd b0 1a 87 3c
       -0.080581956 0.016492218
