abc_env_raw/saved_models/phi_only_1.4.pt (torch, 72199 bytes, 12 tensors)

input_layer.weight f4 [64, 3]
0	0x3e8b36a2	0.2719012
1	0x3e4f3991	0.20236804
2	0xbecceac7	-0.4002287
3	0x3e2e84b3	0.17042808
4	0x3e8f713f	0.28016087
5	0x3e2335a7	0.15938435
6	0x3dc25709	0.09489257
7	0x3cc17fcc	0.023620509
8	0x3e368569	0.1782433
9	0x3e9edf46	0.3102972
10	0xbe39b880	-0.18136787
11	0x3ea4ac0a	0.32162505
12	0xbc515b09	-0.012778052
13	0xbf0025ff	-0.5005798
14	0x3d8c4a61	0.06850124
15	0x3ebd1148	0.36927247
16	0xbd585070	-0.052811086
17	0xbdd0161a	-0.101604655
18	0xbe606630	-0.21913981
19	0xbe9125eb	-0.28349242
20	0x3e85b2b4	0.26112902
21	0xbe4ab561	-0.19795753
22	0xbda0bf39	-0.07848973
23	0xbf05e7fe	-0.52307117
24	0xbf0fec76	-0.56220186
25	0xbe68a370	-0.22718596
26	0x3e4aa723	0.1979032
27	0x3cbeaec8	0.023276702
28	0xbe5eb2cf	-0.21747898
29	0x3ec49ec0	0.38402367
30	0x3e940061	0.2890654
31	0xbf04c04b	-0.51855916
32	0x3ee4ac35	0.44662634
33	0xbe913f6f	-0.28368708
34	0xbe83c92a	-0.25739413
35	0x3bcb8bab	0.006211718
36	0x3e813592	0.25236183
37	0xbefb3cbd	-0.49069777
38	0xbe6e276e	-0.23257229
39	0x3f023463	0.50861186
40	0xbeb3f357	-0.3514659
41	0xbeb7f845	-0.35931602
42	0x3e7bbab8	0.24582946
43	0xbe8a6515	-0.27030244
44	0xbee7cd0f	-0.45273635
45	0xbeb803ea	-0.35940486
46	0xbecfc1c3	-0.40577516
47	0x3ed9d25b	0.425433
48	0x3ecfa6a3	0.4055682
49	0x3d3592dc	0.04432951
50	0x3dd82703	0.10554316
51	0xbf06fb68	-0.52727365
52	0xbea8da65	-0.32979122
53	0xbe0466fc	-0.1292991
54	0x3eca430d	0.3950428
55	0x3da07e5e	0.07836603
56	0xbea7bb92	-0.32760292
57	0x3e0a75ed	0.13521548
58	0x3efc3003	0.4925538
59	0x3f0487de	0.51769817
60	0x3e8f253b	0.27958092
61	0xbe1a98d9	-0.15097369
62	0x3e5bb2d5	0.21454938
63	0xbdc626a6	-0.0967534
64	0x3e04430e	0.12916204
65	0xbe9fc462	-0.31204516
66	0xbec7737e	-0.389553
67	0x3ec9b180	0.39393234
68	0xbdf692f0	-0.12039745
69	0xbd97731f	-0.073950045
70	0x3ebeee8c	0.37291372
71	0x3ed62b41	0.41829875
72	0xbd15fe57	-0.03661951
73	0xbcaa44a3	-0.020784682
74	0x3f0a43a1	0.54009444
75	0x3ebc2c60	0.36752605
76	0xbe8b9bcc	-0.272673
77	0x3e52c337	0.20582281
78	0x3e51c41d	0.20484968
79	0xbe709351	-0.23493697
80	0x3e7f3775	0.24923499
81	0x3e9d0127	0.30664942
82	0x3f0d1cca	0.55122054
83	0x3c11be6f	0.008895501
84	0xbea2b9d9	-0.31782416
85	0x3eceb2a8	0.4037068
86	0xbeacf525	-0.3378078
87	0x3e0c5831	0.13705517
88	0xbdc5016c	-0.09619412
89	0xbd8837d7	-0.066512756
90	0xbf0dad34	-0.5534241
91	0xbea7a54e	-0.32743305
92	0xbea555f6	-0.32292145
93	0xbef939b1	-0.48676828
94	0xbdcb66e6	-0.09931736
95	0xbe303f16	-0.17211565
96	0x3e2c5cd6	0.16832289
97	0x3e023125	0.1271406
98	0xbe668119	-0.22510184
99	0xbeac13d9	-0.33608893
100	0x3df22f84	0.11825469
101	0xbf03003b	-0.51172227
102	0x3f0739a0	0.52822304
103	0x3f064c6b	0.52460355
104	0x3eb753e7	0.358062
105	0x3f0228e5	0.5084365
106	0x3e9b55c4	0.3033887
107	0xbb0f1440	-0.0021832138
108	0xbe4099b7	-0.18808638
109	0xbd556b6b	-0.052104395
110	0xbef88255	-0.48536935
111	0x3ef5975a	0.47967035
112	0xbe27dbc4	-0.16392428
113	0x3ef622a9	0.4807332
114	0xbc8abd0f	-0.016935853
115	0x3e70d5d7	0.23519073
116	0xbd168773	-0.03675027
117	0x3ee0bbca	0.43893272
118	0xbd916c35	-0.07100717
119	0xbefe9bd0	-0.4972825
120	0xbeeea44c	-0.46609724
121	0xbe876eac	-0.26451623
122	0x3e176604	0.1478501
123	0x3ea6bdcb	0.32566676
124	0xbe1a84fe	-0.15089795
125	0xbda3aad9	-0.07991571
126	0xbe9b35c3	-0.30314454
127	0xbef71373	-0.48257026
128	0xbf0aa26f	-0.54154104
129	0xbef9304e	-0.48669666
130	0xbf0d5dc3	-0.55221194
131	0x3f12c952	0.5733844
132	0xbf15851d	-0.5840624
133	0x3e15e7d2	0.14639214
134	0x3f02b86d	0.5106266
135	0xbf0ef838	-0.558475
136	0xbed44fcb	-0.41467127
137	0x3e0cefdc	0.13763374
138	0x3d566b87	0.05234864
139	0x3eb8e8f8	0.3611524
140	0xbe8465e5	-0.2585899
141	0x3eb4656a	0.35233623
142	0xbe728c81	-0.2368641
143	0xbeb4c914	-0.3530966
144	0xbe0d1735	-0.13778384
145	0x3ea63f53	0.32470188
146	0xbdea2e66	-0.11434631
147	0x3e307856	0.17233405
148	0x3e488402	0.19581607
149	0xbe7ec903	-0.24881367
150	0xbe8fa07a	-0.2805212
151	0xbec212db	-0.3790501
152	0x3d5ba930	0.053628147
153	0x3c366033	0.011131334
154	0x3f0663ea	0.52496207
155	0x3f0da6de	0.55332744
156	0x3e84bcfb	0.2592543
157	0x3eb838d4	0.35980856
158	0xbe786529	-0.2425734
159	0x3dbcbbd3	0.09215512
160	0xbe6bc7ef	-0.23025487
161	0x3e9a0244	0.30079854
162	0x3ce2549b	0.027628234
163	0xbe67ac3e	-0.22624299
164	0xbd40fd9a	-0.047116853
165	0x3e4fdc45	0.2029887
166	0xbe184a57	-0.14872108
167	0x3e84c498	0.2593124
168	0x3e093391	0.13398577
169	0xbd609670	-0.05483097
170	0x3ee6fb8c	0.4511379
171	0xbec35f97	-0.38158867
172	0xbd8878b8	-0.0666365
173	0x3ea6f079	0.3260534
174	0xbe5897bc	-0.21151632
175	0xbf0f9631	-0.5608855
176	0x3d082df7	0.03324696
177	0xbee9fb68	-0.4569962
178	0xbf031671	-0.5120612
179	0x3de5f405	0.11228184
180	0x3f095156	0.53639734
181	0xbe04a7f8	-0.129547
182	0xbe8d8c19	-0.2764595
183	0xbeae72a8	-0.3407185
184	0x3f0db02a	0.5534693
185	0x3df86bfe	0.12129973
186	0x3ef2b333	0.47402343
187	0xbe700735	-0.2344025
188	0xbf0d2cc9	-0.5514646
189	0xbdcecd63	-0.10097768
190	0xbe3cf009	-0.18450941
191	0xbdb1d759	-0.086836524

input_layer.bias f4 [64]
0	0xbeb919f1	-0.36152604
1	0xbdabb890	-0.08384812
2	0x3df3d625	0.11906079
3	0xbefa2c5b	-0.48861966
4	0x3e9841ab	0.297376
5	0xbe2ed9fb	-0.1707534
6	0xbefaf738	-0.49016738
7	0xbeb0deca	-0.34544975
8	0x3bd8a092	0.0066109383
9	0x3eef3ba9	0.46725205
10	0xbef7766c	-0.48332536
11	0x3ebcb5c4	0.36857426
12	0x3eda0737	0.4258363
13	0x3f02ebb0	0.5114088
14	0x3efc0253	0.49220523
15	0x3eb43fa3	0.352048
16	0xbe52ac76	-0.20573601
17	0x3f109704	0.5648043
18	0x3cdb4cc3	0.026770001
19	0x3efa0546	0.48832148
20	0xbecfc08f	-0.40576598
21	0xbefe00db	-0.49610028
22	0xbf109ca4	-0.56489015
23	0x3c53156c	0.012883525
24	0xbf0ed380	-0.55791473
25	0x3f0a2174	0.53957295
26	0xbe337acd	-0.17527314
27	0x3d853e4b	0.06506022
28	0xbf022107	-0.50831646
29	0xbe0ba5b1	-0.13637425
30	0x3d980cd7	0.07424324
31	0x3e771207	0.2412797
32	0x3ed950d8	0.4244449
33	0x3da958c7	0.08268886
34	0xbf0f5120	-0.5598316
35	0xbd91c149	-0.07116944
36	0xbec44ab8	-0.38338256
37	0xbe83474c	-0.25640333
38	0x3f05340e	0.52032554
39	0xbef12c25	-0.47103992
40	0xbeca84bc	-0.39554393
41	0x3e5a7f11	0.21337534
42	0xbf025bdc	-0.50921416
43	0xbf07c09c	-0.53028274
44	0x3e8e4b7a	0.2779196
45	0xbe862e94	-0.2620741
46	0x3ef9d645	0.48796287
47	0x3ee6252c	0.44950235
48	0x3e70913e	0.23492905
49	0x3e2882ff	0.16456221
50	0xbeb6475d	-0.3560132
51	0xbdf87da5	-0.1213334
52	0x3ee00c9b	0.43759617
53	0xbee617c4	-0.44940007
54	0x3dc2520f	0.09488308
55	0xbda115a2	-0.07865454
56	0x3dd18b21	0.10231615
57	0x3f032cc5	0.5124019
58	0xbeb9a6dc	-0.36260116
59	0xbea254d9	-0.3170536
60	0xbee66a82	-0.45003134
61	0x3e41d420	0.18928576
62	0xbee31926	-0.44355124
63	0xbee48d73	-0.44639167

hidden_layers.0.weight f4 [64, 64]
0	0x3d248918	0.040169805
1	0x3d9139a9	0.07091076
2	0x3da329b9	0.07966942
3	0x3cea5b78	0.028608069
4	0x3d948e0b	0.07253655
5	0x3d66541f	0.056232568
6	0xbdc3993a	-0.0955071
7	0xbd1a5dd2	-0.03768713
8	0x3d8a1c73	0.067437075
9	0xbcb2d906	-0.021832
10	0xbd12877c	-0.03577374
11	0x3da0f568	0.078593075
12	0x3de008f9	0.109392114
13	0x3bfc57f7	0.007700916
14	0xbd2e0bd5	-0.042491753
15	0x3d4542b8	0.04815933
16	0xbd8c7579	-0.06858344
17	0xbd21d394	-0.039508417
18	0x3c14922b	0.009068052
19	0xbbfe21de	-0.007755502
20	0x3dd1cfbd	0.10244701
21	0xbdae3fae	-0.0850824
22	0x3d8d4598	0.068980396
23	0xbc120e5c	-0.008914556
24	0x3de4f31c	0.11179182
25	0x3d35292f	0.04422873
26	0xbdc62268	-0.09674531
27	0xbc9d970f	-0.01923707
28	0x3dcbd73a	0.099531606
29	0x3d6ee6a5	0.05832543
30	0xbe02ede1	-0.12786056
31	0xbd0965c8	-0.03354433
32	0xbde4708b	-0.11154278
33	0xbe01efbc	-0.12689108
34	0xbcac3ae5	-0.021024177
35	0xbdc93898	-0.098252475
36	0x3d76e1d9	0.06027398
37	0xbd6df5ce	-0.058095746
38	0xbc0e32ca	-0.008679101
39	0x3dc81af4	0.09770766
40	0xbc19a80e	-0.009378446
41	0xbce19fd2	-0.027542029
42	0xbda277ed	-0.0793303
43	0x3d375e87	0.044767883
44	0x3c37cf41	0.011218847
45	0x3d12c1b1	0.03582925
46	0xbdfcd01c	-0.12344381
47	0x3c4446ba	0.011979753
48	0x3dc289ff	0.09498977
49	0xbe1578f7	-0.14596926
50	0x3b114594	0.0022166716
51	0x3d6bf7e9	0.057609472
52	0x3d5703ea	0.052493967
53	0xbd96960b	-0.07352837
54	0xbdbd1413	-0.092323445
55	0x3cdbac76	0.026815634
56	0xbd8499f0	-0.06474674
57	0x3d669760	0.056296706
58	0xbdde787a	-0.10862823
59	0x3dc46434	0.09589425
60	0x3d7762f0	0.06039709
61	0xbda34f5c	-0.07974121
62	0xbb721597	-0.0036939138
63	0xbc19526e	-0.009358032
64	0x3df408d0	0.11915743
65	0x3da9255b	0.08259078
66	0xbdbd5879	-0.092453904
67	0xbdc8fbf2	-0.0981368
68	0x3db817f8	0.08988947
69	0x3d40dc90	0.047085345
70	0x3da6019d	0.081057765
71	0x3d2b23cb	0.04178218
72	0x3d7403c5	0.059573907
73	0xbd931779	-0.071822114
74	0xbd994f6c	-0.07485852
75	0xbdef34e4	-0.1168001
76	0xbd38dee8	-0.045134455
77	0xbdcec52e	-0.10096203
78	0xbd1431e2	-0.036180384
79	0xbdf96fef	-0.12179553
80	0xbda5aa28	-0.08089095
81	0x3c8b3b89	0.016996162
82	0xbdd54b94	-0.10414806
83	0x3d60f7e7	0.054923918
84	0xbd878226	-0.06616621
85	0x3d677c89	0.05651525
86	0xbdcfda90	-0.10149109
87	0x3dbf57f4	0.093429476
88	0x3d252de4	0.040326968
89	0x3d24cf88	0.04023698
90	0xbb8b95c0	-0.004259795
91	0xbd3baaf5	-0.045817334
92	0x3df5cc5c	0.12001869
93	0x3da10af2	0.07863416
94	0x3d84a60c	0.064769834
95	0xbd896a04	-0.06709674
96	0xbd0a660a	-0.03378872
97	0x3dd3233e	0.10309456
98	0x3d9eaa78	0.07747358
99	0xbdbcf6fc	-0.09226796
100	0xbc22433f	-0.009903728
101	0xbde372d8	-0.11105889
102	0xbdd07f59	-0.1018054
103	0x3d82a9a4	0.06380013
104	0xbd342208	-0.043977767
105	0xbd5b8e40	-0.053602457
106	0x3de06126	0.109560296
107	0x3dcb126e	0.099156246
108	0x3de47bc3	0.11156418
109	0xbdaba413	-0.08380904
110	0xbd0b8d60	-0.034070373
111	0x3d862e59	0.06551809
112	0xbd82a18c	-0.06378469
113	0x3e037a7b	0.12839691
114	0xbdaddc87	-0.08489328
115	0x3da35976	0.07976048
116	0xbce280d1	-0.027649315
117	0xbdf8ec90	-0.12154496
118	0xbde7909a	-0.113068774
119	0x3d394c24	0.04523863
120	0x3dd07d91	0.101802
121	0x3db4d885	0.0883036
122	0x3d79b907	0.06096747
123	0x3dc424d8	0.0957734
124	0xbdaefb84	-0.085440665
125	0xbcad9c5c	-0.021192722
126	0xbde85a52	-0.11345352
127	0xbc6c9600	-0.01444006
128	0xbcf070f9	-0.029350745
129	0x3cb71f8b	0.022353908
130	0x3deb51e8	0.11490232
131	0xbd7c1034	-0.06153889
132	0xbd22a9b7	-0.039712634
133	0x3dbf3901	0.093370445
134	0xbde57001	-0.11203004
135	0xbd426853	-0.047462773
136	0x3d98ee6d	0.07467351
137	0x3b92b199	0.0044767377
138	0xbd3ac23e	-0.0455954
139	0x3d312d80	0.043256283
140	0x3e0f8834	0.14016801
141	0xba78eb2f	-0.00094954943
142	0x3e09f09d	0.13470693
143	0x3ad42136	0.0016184214
144	0x3dca1afc	0.09868428
145	0x3dc36c99	0.09542198
146	0x3e19ec82	0.15031627
147	0x3e3ada19	0.1824726
148	0xbd8c6bc3	-0.068564914
149	0x3d926b86	0.07149415
150	0xbd013115	-0.03154095
151	0x3c75a5f7	0.014993182
152	0x378ca631	1.676669e-05
153	0x3ddd704c	0.108124346
154	0x3d8c6252	0.068546906
155	0xbd02ea1f	-0.031961557
156	0xbbe6fac8	-0.0070489384
157	0x3db2bacb	0.08727034
158	0x3b6b9e6d	0.0035952583
159	0xbd742ba6	-0.05961194
160	0x3dc7c158	0.09753674
161	0x3d31aec6	0.043379568
162	0xbde34022	-0.11096217
163	0x3dab810c	0.08374223
164	0x3ccd8bb1	0.025091024
165	0xbde527a4	-0.111892015
166	0x3b48d9e3	0.0030647449
167	0x3bea9f60	0.0071601123
168	0xbd83e040	-0.06439257
169	0x3d8384d0	0.06421816
170	0xbdc6d9fb	-0.09709545
171	0x3dd2ea8d	0.10298643
172	0x3e22ba18	0.15891302
173	0xbca4bade	-0.020108636
174	0x3cb913e4	0.022592492
175	0x3a5ac786	0.00083457713
176	0xbd8c9ddf	-0.06866049
177	0x3e07c834	0.13259965
178	0x3df455fd	0.119304635
179	0x3ce1839f	0.027528582
180	0x3e12720d	0.1430132
181	0xbd9610eb	-0.073274456
182	0x3dc5a3a6	0.09650354
183	0x3c812b85	0.015767822
184	0x3daa4611	0.08314145
185	0x3dd91528	0.10599738
186	0x3dd5fc60	0.10448527
187	0xbc5a3f24	-0.013320718
188	0x3d8c9d29	0.068659134
189	0x3e05139f	0.12995766
190	0xbc364660	-0.011125177
191	0x3c904c0a	0.017614383
192	0x3de1e540	0.11030054
193	0x3b58f95f	0.003310762
194	0x3d95e869	0.07319719
195	0xbd94665f	-0.07246088
196	0x3dbc4d1d	0.09194396
197	0xbd3d51c3	-0.046220552
198	0x3df6eafc	0.120565385
199	0xbc5b486b	-0.013383965
200	0x3ce394cb	0.027780911
201	0xbcf26c10	-0.029592544
202	0xbd4d368e	-0.050100856
203	0x3d400479	0.046879265
204	0x3dbdcd20	0.0926764
205	0x3dcfb1aa	0.101413086
206	0x3dda58f2	0.10661496
207	0xbb0e87fa	-0.0021748529
208	0xbd7e508c	-0.062088534
209	0x3d902997	0.07039183
210	0x3d7c3d30	0.06158179
211	0x3e0314e9	0.12800945
212	0xbc7506bd	-0.01495522
213	0x3dcad411	0.0990373
214	0xbd9c323e	-0.076267704
215	0x3d063d40	0.032773256
216	0xbd6cd1cc	-0.057817265
217	0x3dce93ff	0.10086822
218	0xbd14742c	-0.036243603
219	0x3d96e155	0.073671974
220	0x3d8df5c8	0.06931645
221	0x3b062277	0.002046732
222	0x3d719412	0.0589791
223	0x3d648272	0.055788465
224	0x3e26c131	0.16284634
225	0xbd816223	-0.06317546
226	0xbdcb4df3	-0.09926977
227	0xbd480d2c	-0.048840687
228	0xbdd3a604	-0.10334399
229	0xbdb6389b	-0.088975154
230	0x3dd2b3ba	0.10288186
231	0x3dcd9db0	0.10039842
232	0x3d3609c7	0.04444292
233	0x3e1e7326	0.15473613
234	0x3d986255	0.0744063
235	0x3ddb1ecb	0.10699233
236	0x3dc594bb	0.09647509
237	0xbcb67845	-0.022274146
238	0xbc9b33de	-0.01894563
239	0x3e002c26	0.12516841
240	0x3d2ee56f	0.042699274
241	0x3e14aab9	0.1451825
242	0xbdb133f5	-0.08652488
243	0x3caeff75	0.021362046
244	0x3d3e20be	0.046417944
245	0x3e03b44b	0.12861745
246	0xbcd8332c	-0.026391588
247	0xbdcfb2f3	-0.10141554
248	0x3cbbfbb2	0.022947166
249	0xbcd90fcb	-0.026496788
250	0xba3f362b	-0.00072941434
251	0x3d5e92cf	0.054339226
252	0xbd76994a	-0.06020478
253	0xbc2f1872	-0.010686981
254	0xbd135836	-0.035972796
255	0xbd1df779	-0.038566086

hidden_layers.0.bias f4 [64]
0	0xbddd200c	-0.10797128
1	0xbdd59a60	-0.10429835
2	0x3dd3f8aa	0.10350163
3	0x3de28fcc	0.11062583
4	0xbbf49ec9	-0.0074652177
5	0xbde9367e	-0.11387347
6	0xba9147fb	-0.0011084074
7	0xbd98dda8	-0.074641526
8	0x3d509804	0.050926223
9	0x3aed5410	0.0018106718
10	0x3e087c5d	0.13328691
11	0x3d41b9c5	0.047296304
12	0xbd2da8c8	-0.04239729
13	0xbd8a31ee	-0.067478046
14	0xbddd1ac8	-0.10796124
15	0x3d58b8c8	0.052910596
16	0xbdd0f316	-0.10202615
17	0x3d15f935	0.036614615
18	0x3e19c8e8	0.15018046
19	0x3ce66e91	0.028128894
20	0x3d8df49f	0.069314234
21	0xbce16691	-0.027514728
22	0xbb07a337	-0.002069665
23	0x3c39a629	0.01133112
24	0x3d0bf41f	0.03416836
25	0x3e3a9096	0.18219218
26	0x3dc04fdd	0.09390233
27	0xbc7a3512	-0.015271442
28	0xbd6c7874	-0.05773206
29	0xbbadca8b	-0.005303686
30	0xbcd26c0b	-0.025686285
31	0x3d08143c	0.033222422
32	0x3c53f6ea	0.012937287
33	0x3dfbe04f	0.12298643
34	0x3e0b8cc5	0.13627918
35	0x3de655fa	0.112468675
36	0xbd160e98	-0.03663501
37	0x3e2341cb	0.15943067
38	0x3e18ad1c	0.14909786
39	0x3df80874	0.12110987
40	0x3e0efa1a	0.13962594
41	0xbde83d08	-0.11339766
42	0x3e23facf	0.16013645
43	0x3e1c04d4	0.15236217
44	0x3c3c6cca	0.011500547
45	0x3d4a15b3	0.0493371
46	0xbdfbb7de	-0.12290929
47	0x3ca192b2	0.01972327
48	0x3d8227fd	0.063552834
49	0xbd932a4a	-0.071858004
50	0x3e1dbf30	0.15404963
51	0x3dd69ac2	0.104787365
52	0x3d74b9f6	0.05974766
53	0x3c086edb	0.008327211
54	0x3a56b3a3	0.000819022
55	0x3e190545	0.14943416
56	0x3d78d380	0.060748577
57	0xbdd8f545	-0.105936565
58	0xbd93257f	-0.07184886
59	0x3d61dd6f	0.055142816
60	0x3d1d6b40	0.03843236
61	0xbdc8e358	-0.098089874
62	0x3d17e50c	0.03708367
63	0x3cc21a2e	0.023694124

hidden_layers.1.weight f4 [64, 64]
0	0xbd250025	-0.04028334
1	0x3cddc601	0.027071955
2	0x3db9f522	0.090799585
3	0x3da4dbe9	0.08049757
4	0x3dd17d8f	0.102290265
5	0x3c02a1bb	0.00797313
6	0xbd96d2de	-0.073644385
7	0xbdd17690	-0.10227692
8	0x3c00c884	0.007860307
9	0x3ccd1eec	0.025039159
10	0x3e26a491	0.16273715
11	0x3e3f2243	0.18665414
12	0xbc0c13b0	-0.008549616
13	0x3d158f37	0.036513533
14	0xbd10a3cc	-0.03531246
15	0xbd3215b4	-0.04347773
16	0xbcf9d508	-0.030497089
17	0x3cef86d9	0.029239105
18	0xbd6947d5	-0.05695327
19	0x3e1bd1e0	0.1521678
20	0xba522d87	-0.00080176484
21	0xbd828fb2	-0.06375064
22	0x3dd035bc	0.10166499
23	0x3d6477ec	0.05577843
24	0xbb8a2fc9	-0.004217122
25	0xbbe2007c	-0.0068970304
26	0xbdde6568	-0.108591855
27	0x3ca87385	0.020562897
28	0x3df18b53	0.11794152
29	0xbdea84ea	-0.114511326
30	0x3d958770	0.07301223
31	0xbda9d6a8	-0.082928956
32	0x3dbcab9b	0.09212419
33	0x3d539d2a	0.051663555
34	0x3dd592e4	0.10428408
35	0xbcdb473d	-0.026767367
36	0x3d77a1ea	0.060457148
37	0x3e014469	0.12623753
38	0xbcb0ada0	-0.021567166
39	0x3cae3678	0.021266207
40	0x3e1f9107	0.15582667
41	0x3bc11f57	0.0058936286
42	0x3cd95fca	0.026534934
43	0x3c17909c	0.009250786
44	0x3d96715a	0.07345839
45	0x3db2fd8a	0.08739765
46	0x3d8fc218	0.07019442
47	0xbce078a4	-0.027401276
48	0x3a49a26f	0.0007691746
49	0xbdbe23bf	-0.09284162
50	0x3d91194b	0.070849024
51	0xbd825f24	-0.06365803
52	0x3bca341d	0.006170763
53	0x3c213a33	0.009840536
54	0x3e168df7	0.14702593
55	0x3d27e634	0.040991023
56	0xbd4b328f	-0.049608763
57	0x3cfc5183	0.030800587
58	0xbccdab51	-0.025106104
59	0xbd1c84cd	-0.038212586
60	0xbd7f3fb2	-0.062316604
61	0x3db4007f	0.08789157
62	0x3bb2940b	0.005449777
63	0x3e028ece	0.12749788
64	0xbbe9a36a	-0.007130076
65	0xbdf53742	-0.1197343
66	0x3e285c53	0.16441469
67	0x3d971452	0.07376923
68	0x3de870e5	0.11349658
69	0xbd878237	-0.066166334
70	0x3dd2c1df	0.10290884
71	0xbd305ab0	-0.043055236
72	0xbd49e9a0	-0.049295068
73	0xbd2048e8	-0.03913203
74	0x3d9f6675	0.07783214
75	0x3e429048	0.19000351
76	0x3c915498	0.017740533
77	0x3d4d2514	0.05008419
78	0x3d331cf0	0.04372877
79	0x3e01bb82	0.12669185
80	0x3daa398e	0.08311759
81	0xbbfe93bd	-0.0077690766
82	0x3c3b3c76	0.011427989
83	0xbd4f24b8	-0.050572127
84	0xbca8bdae	-0.020598259
85	0x3da4df86	0.08050446
86	0xbd989935	-0.07451097
87	0x3c8c77a0	0.017146885
88	0x3d908bbe	0.07057904
89	0xbd508ea6	-0.05091729
90	0xbd1b596f	-0.037927087
91	0xbcf1ae34	-0.029502012
92	0xbdbb30a2	-0.09140135
93	0x3d97786d	0.07396016
94	0x3e386e12	0.18010738
95	0x3c3abad8	0.011397086
96	0x3e106bce	0.14103624
97	0xbd0492c2	-0.03236652
98	0xbd5825da	-0.052770473
99	0x3d8268f4	0.063676745
100	0xbdf456b5	-0.119306006
101	0x3e273879	0.16330136
102	0x3e22ae2a	0.15886751
103	0x3c9f6b7c	0.019460432
104	0xbc0bd9d6	-0.008535823
105	0x3dffdfbc	0.12493846
106	0x3d62212a	0.05520741
107	0x3b4e1ea2	0.0031451364
108	0xbc982eba	-0.018576968
109	0x3e1e0835	0.15432818
110	0x3d3f3c04	0.046688095
111	0x3dec011f	0.11523651
112	0xbcf490a7	-0.029854132
113	0xbcb75460	-0.0223791
114	0x3db84afb	0.089986764
115	0x3dd1eb95	0.10250012
116	0x3d30d5de	0.04317271
117	0xbd231004	-0.039810196
118	0x3cf62816	0.030048411
119	0x3e2a2adf	0.16617917
120	0x3ae72ca4	0.0017637205
121	0x3d0f0b7d	0.034923065
122	0x3d58427f	0.05279779
123	0xbda8e6cd	-0.08247147
124	0x3e063210	0.13105035
125	0x3d3f4fd7	0.046707
126	0x3db8c5a4	0.09022072
127	0x3dd58fd1	0.104278214
128	0xbd0f9ff3	-0.03506465
129	0xbdc3c3b4	-0.09558812
130	0xbe033efb	-0.12816994
131	0x3d311b99	0.04323921
132	0x3cc032f7	0.023461802
133	0x3bae7d80	0.0053250194
134	0xbd308b10	-0.04310137
135	0x3ddfbcc1	0.10924674
136	0x3da15929	0.07878334
137	0xbbeac220	-0.007164255
138	0xbd82ab3a	-0.06380315
139	0x3d769236	0.06019803
140	0xbdda8920	-0.10670686
141	0x3da0f23a	0.07858701
142	0x3d87f85e	0.06639169
143	0x3cad5b5c	0.021161728
144	0xbdc73ad2	-0.09728016
145	0xbe094bac	-0.13407773
146	0xbc4a783f	-0.01235777
147	0x3db9b76e	0.090681896
148	0x3c2c2b44	0.010508362
149	0x3c2be8cd	0.010492516
150	0x3b976775	0.0046204873
151	0xbdd6a3fe	-0.10480498
152	0x3cfa4115	0.030548612
153	0xbda39873	-0.07988062
154	0x3dbf4a19	0.09340305
155	0xbdaab009	-0.08334357
156	0x3cc248e7	0.023716403
157	0xbd06fe75	-0.032957513
158	0xbe0aeb5c	-0.13566345
159	0x3cd0ff43	0.025512343
160	0x3dd49d32	0.10381545
161	0xbde0e22b	-0.10980638
162	0x3de6af2f	0.11263882
163	0x3d9a2a05	0.07527546
164	0xbde9f529	-0.11423714
165	0xbdc62380	-0.0967474
166	0x3da9100d	0.082550146
167	0x3dae9767	0.085249715
168	0xbd6a8762	-0.057258017
169	0x3d32a0e9	0.043610487
170	0x3db43d9f	0.08800816
171	0xbd123539	-0.03569529
172	0xbdcc7ec5	-0.09985117
173	0x3cf3d4db	0.029764583
174	0xbdfc5e70	-0.123227
175	0xbe053d9a	-0.1301178
176	0x3c5a99ca	0.01334233
177	0xbd8ea188	-0.069644034
178	0x3be33b7b	0.006934581
179	0x3dccb13a	0.09994741
180	0xbd40342c	-0.046924755
181	0x3d90b8c4	0.07066491
182	0x3d230502	0.039799698
183	0xbaf06cd3	-0.0018342979
184	0xbe100719	-0.14065208
185	0xbc409b20	-0.011755735
186	0xbbdb65b1	-0.006695472
187	0xbddd146e	-0.10794912
188	0xbc260167	-0.01013217
189	0x3d599d88	0.05312875
190	0xbd5d6332	-0.05404968
191	0x3ddd5337	0.108068876
192	0x3dbccf26	0.09219198
193	0x3c2dbcd3	0.010604101
194	0x3dd5dfa9	0.104430504
195	0xbc1322bd	-0.00898045
196	0x3def826a	0.116947964
197	0xbc88dc86	-0.016706716
198	0xbde0694f	-0.10957586
199	0x3d708721	0.05872262
200	0xbdaa7da6	-0.08324747
201	0x3c758a50	0.01498659
202	0xbbc43391	-0.0059875925
203	0x3dab75a8	0.083720505
204	0x3c128440	0.008942664
205	0xbd150dec	-0.03639023
206	0xbdbb233e	-0.09137581
207	0xbda6016d	-0.08105741
208	0xbcc3f090	-0.02391842
209	0x3d81982d	0.06327853
210	0xba163b75	-0.00057309057
211	0x3c3a21a0	0.011360556
212	0x3dc41516	0.09574334
213	0x3de650f2	0.11245908
214	0x3d7b05f2	0.061284967
215	0xbd248695	-0.04016741
216	0xbcf8e045	-0.030380378
217	0x3d43ff24	0.047850743
218	0xbd6813d3	-0.05665953
219	0xbbb1c171	-0.0054246713
220	0x3d94000a	0.0722657
221	0xbde6e3f4	-0.11273947
222	0xbc9c8630	-0.019106954
223	0x3df10fc8	0.11770588
224	0xbd956233	-0.07294121
225	0x3de9af01	0.114103325
226	0xbbaa5d10	-0.005199082
227	0xbe03e1f5	-0.12879165
228	0x3c83cf59	0.016090082
229	0xbe02ff0e	-0.12792608
230	0xbc49a892	-0.012308257
231	0x3d11b70d	0.03557496
232	0xbdf639ac	-0.12022719
233	0xbb312880	-0.0027032197
234	0xbd6cf7ab	-0.057853382
235	0xbd71507c	-0.058914647
236	0x3d586284	0.052828327
237	0xbb0a7405	-0.0021126282
238	0xbd9b0f12	-0.07571234
239	0x3d31164e	0.043234162
240	0x3cf6abaf	0.030111162
241	0x3d511a34	0.05105038
242	0xbdb03481	-0.08603764
243	0xbdb75be9	-0.08953077
244	0xbd9f4060	-0.077759504
245	0xbd415791	-0.04720265
246	0xbd1f8bf5	-0.038951833
247	0x3dccb07e	0.09994601
248	0xbcb5bd54	-0.022185005
249	0x3ce2f910	0.027706653
250	0xbdc26708	-0.09492308
251	0x3d94a52c	0.072580665
252	0x3d5878ce	0.052849583
253	0xbd72be8e	-0.05926376
254	0x3d10c429	0.035343323
255	0x3d6bfdbf	0.057615038

hidden_layers.1.bias f4 [64]
0	0x3b858069	0.0040741456
1	0xbc5244cb	-0.012833784
2	0xbc7d42ce	-0.015457822
3	0xbd60f69f	-0.054922696
4	0xbdcf2c07	-0.101158194
5	0x3e203d6a	0.15648428
6	0xbcaa60a1	-0.02079803
7	0x3dd6c047	0.10485893
8	0xbdafe193	-0.08587947
9	0x3d0dd693	0.034628462
10	0x3e058fc7	0.13043128
11	0x3debabe5	0.11507396
12	0xbce5c3eb	-0.028047523
13	0xbdb839f2	-0.08995427
14	0xbd96643a	-0.073433354
15	0xbdf1ccc6	-0.118066356
16	0x3d8c5118	0.06851405
17	0x3de5103f	0.11184739
18	0xbc8619a1	-0.016369643
19	0xbdbd0f39	-0.09231419
20	0x3d56b1a6	0.052415513
21	0xbde3bed0	-0.11120379
22	0x3ca1f49a	0.019769955
23	0x3dea8907	0.11451917
24	0x3d243636	0.040090762
25	0x3caf306f	0.0213854
26	0x3daa8aea	0.08327277
27	0xbc954165	-0.01821966
28	0x3de1cd27	0.11025458
29	0x3d20642d	0.039158035
30	0x3ca6c9ce	0.0203599
31	0x3d95b32c	0.07309565
32	0xbd4c8fc8	-0.049941808
33	0xbb5c9b40	-0.0033661872
34	0x3d896279	0.06708235
35	0x3dd87817	0.1056978
36	0x3e1d1601	0.15340425
37	0x3c2b8ac2	0.010470094
38	0x3d1aaa29	0.037759934
39	0x3de500cc	0.111817926
40	0xbdec5760	-0.11540103
41	0xbde192bc	-0.110143155
42	0xbd1aaacf	-0.037760552
43	0x3e22b219	0.15888251
44	0x3de9d852	0.11418213
45	0x3c13ab94	0.009013075
46	0x3d89c664	0.06727293
47	0xbdb84bb2	-0.08998813
48	0x3e283039	0.16424645
49	0x3dd38067	0.10327225
50	0xbdb4e906	-0.08833508
51	0x3ce76fa8	0.028251484
52	0x3dbfb304	0.093603164
53	0xbdac5fe3	-0.084167264
54	0x3e09cb38	0.13456428
55	0x3de5d710	0.112226605
56	0x3d3ca966	0.04605999
57	0x3ddd4809	0.10804755
58	0x3d9117cb	0.07084616
59	0xbd11feb3	-0.03564329
60	0x3e05d60f	0.13069938
61	0x3c64fb10	0.013975874
62	0x3c9287ff	0.017887114
63	0xbc1115fe	-0.008855341

hidden_layers.2.weight f4 [64, 64]
0	0xbc57afc7	-0.013164467
1	0x3cd3b96d	0.025845254
2	0x3db428a8	0.08796817
3	0xbde2980d	-0.11064158
4	0x3d73f172	0.059556432
5	0x3c3a9095	0.01138701
6	0x3d06b43f	0.03288674
7	0xbd417819	-0.047233675
8	0x3db50c2f	0.088402145
9	0xbcce16e6	-0.025157403
10	0xbdd93a3a	-0.10606809
11	0xbc76990a	-0.015051136
12	0x3c12ede1	0.008967848
13	0x3de11ef2	0.109922305
14	0x3d4ad76b	0.049521845
15	0xbd96605e	-0.07342599
16	0x3daeceea	0.085355595
17	0xbdab61d6	-0.0836827
18	0x3de7dabd	0.11321018
19	0xbdd660ec	-0.10467705
20	0xbcbf6483	-0.023363357
21	0xbdcd7522	-0.10032107
22	0xbc8befac	-0.017082058
23	0x3df35c96	0.11882894
24	0xbd595efa	-0.053069092
25	0xbdf374a6	-0.11887483
26	0x3da1cff3	0.07900991
27	0x3e07c3a6	0.13258228
28	0x3bedfdd9	0.007262927
29	0xbb9d61c4	-0.0048029143
30	0x3d0347b9	0.032050822
31	0xbd44d483	-0.04805423
32	0xbde67924	-0.112535745
33	0x3c13dcc0	0.009024799
34	0xbd5a6c55	-0.05332597
35	0xbd880c57	-0.06642979
36	0x3c338d17	0.010958931
37	0xbb7ff105	-0.003905357
38	0xbb77e5fa	-0.0037826286
39	0xbd98439a	-0.07434769
40	0xbdaeb59f	-0.08530735
41	0x3dac12e9	0.08402044
42	0xbd912796	-0.070876285
43	0xbdbf8bcd	-0.09352837
44	0x3d58182f	0.05275744
45	0xbdc5116a	-0.09622462
46	0xbca62082	-0.020279173
47	0xbc0a36ab	-0.008435885
48	0xbce75506	-0.028238785
49	0x3ded6084	0.115906745
50	0x3c4fac8e	0.012675418
51	0x3d82e466	0.0639122
52	0x3d10f372	0.035388418
53	0xbcb1ce63	-0.021704858
54	0xbd8699de	-0.065723166
55	0xbd948008	-0.072509825
56	0x3daa0669	0.08302004
57	0x3e030b90	0.1279738
58	0xbcb3e0cc	-0.021957777
59	0x3c157919	0.00912311
60	0xbd6faa89	-0.058512244
61	0xbd9a4df7	-0.07534402
62	0x3c62cb23	0.013842377
63	0x3c167b63	0.009184691
64	0x3e2a7298	0.16645277
65	0x3d75730f	0.05992418
66	0xbdb745f5	-0.0894889
67	0x3dadc8e5	0.08485583
68	0x3d6b9652	0.057516403
69	0xbd3e5a84	-0.04647304
70	0xbc1ae482	-0.009453895
71	0xbd6be63c	-0.057592615
72	0xbd37afe9	-0.044845495
73	0xbd9f7c44	-0.07787374
74	0x3d801c1a	0.0625536
75	0xbd8172a2	-0.063206926
76	0xbdf478d8	-0.119371116
77	0xbc32d737	-0.010915569
78	0x3d87fb62	0.06639744
79	0xbc6d8930	-0.01449804
80	0xbd4a1e27	-0.04934516
81	0x3d4e2677	0.05032965
82	0xbb67428e	-0.0035287472
83	0x3c92eb57	0.017934484
84	0x3dba0d43	0.09084561
85	0x3da6f342	0.081518665
86	0x3df6701e	0.120331034
87	0xbd7ba118	-0.061432928
88	0x3dfbcc6b	0.12294849
89	0xbd80b812	-0.062851086
90	0xbd0f99fc	-0.03505896
91	0x3be4878e	0.006974167
92	0x3d464747	0.04840782
93	0x3e290fc6	0.16509923
94	0xbce57d83	-0.02801395
95	0xbd0ccfd2	-0.03437788
96	0xbc067960	-0.008207649
97	0xbcfd4840	-0.03091824
98	0x3d3f253b	0.046666365
99	0x3e0501af	0.12988923
100	0x3d8b05fe	0.06788252
101	0x3e20b1e4	0.1569286
102	0x3e072996	0.13199458
103	0x3da3a52d	0.07990489
104	0xbd62a162	-0.055329688
105	0x3ded3f83	0.115843795
106	0x3e17e9cd	0.14835282
107	0x3d1ec979	0.038766358
108	0x3da8f509	0.08249862
109	0x3e14157a	0.14461318
110	0x3e310355	0.17286427
111	0xbd960b10	-0.07326329
112	0x3e0fab19	0.14030112
113	0x3d82893e	0.06373833
114	0x3dfa50a0	0.12222409
115	0x3ce05070	0.027382106
116	0xbd66caf4	-0.056345895
117	0x3da3f961	0.080065496
118	0x3dc490b4	0.095979124
119	0x3e2cfb8e	0.16892835
120	0xbd05afb4	-0.032638267
121	0x3dc71975	0.097216524
122	0x3d05ed5a	0.03269706
123	0xbc9d9c98	-0.019239709
124	0x3d9e2c22	0.077232614
125	0xbd2b14aa	-0.041767754
126	0x3d85e8af	0.065385215
127	0x3e10b319	0.1413082
128	0xbd24fc10	-0.040279448
129	0xbd9dd20c	-0.07706079
130	0x3c921b70	0.017835349
131	0x3df69b8a	0.120413855
132	0xbdc036c4	-0.09385446
133	0x3d96aede	0.07357572
134	0x3de392ea	0.11112006
135	0x3d435d2c	0.047696277
136	0x3deec0aa	0.116578415
137	0x3d9a12f0	0.07523143
138	0xbd8ff030	-0.07028234
139	0xbd4c06b0	-0.049811065
140	0x3d987c04	0.07445529
141	0x3b85fe20	0.004089132
142	0x3dca55f2	0.09879674
143	0xbc57b700	-0.013166189
144	0xbc5b4830	-0.01338391
145	0xbccdc218	-0.025116965
146	0xbcbf9018	-0.023384139
147	0xbdb1a5c6	-0.08674197
148	0xbde317a8	-0.110884964
149	0x3ce24780	0.027621984
150	0x3d27e47c	0.040989384
151	0x3d566150	0.0523389
152	0x3a0a0f00	0.00052665174
153	0x3dcbb44c	0.09946498
154	0x3cb44878	0.022007212
155	0xbce94d00	-0.0284791
156	0xbdafb67c	-0.08579728
157	0x3d5ec4e8	0.054387003
158	0x3ab61a80	0.0013893396
159	0xbce0faf0	-0.027463406
160	0x3de82036	0.11334269
161	0x3d8f68f2	0.070024386
162	0xbc881568	-0.01661177
163	0xbdb69a7e	-0.08916186
164	0x3da5331a	0.080663875
165	0x3da69ad6	0.08135001
166	0xbd5fcc14	-0.054637983
167	0x3d8dc596	0.06922452
168	0x3d855dca	0.065120295
169	0xbd55039c	-0.052005395
170	0x3d8e326c	0.06943211
171	0xbb7ea500	-0.0038855672
172	0xbd036254	-0.032076195
173	0xbd84c8d6	-0.06483619
174	0x3c2b73b0	0.010464594
175	0xbda14450	-0.07874358
176	0xbdcee4e8	-0.10102254
177	0x3d6fe4c8	0.058567792
178	0xbcd3c538	-0.025850877
179	0xbd0f3b08	-0.034968406
180	0x3b095100	0.002095282
181	0x3df2c404	0.11853793
182	0xbd12087c	-0.035652623
183	0x3d17a310	0.037020743
184	0x3b821f40	0.0039710104
185	0xbca2dc98	-0.019880578
186	0x3dda38ae	0.10655342
187	0xbdc56d06	-0.09639935
188	0x3cf39738	0.029735193
189	0x3da5ecfe	0.08101843
190	0xbc88c0c0	-0.016693473
191	0xbdf911f8	-0.121616304
192	0x3d814308	0.06311613
193	0x3dfdd3f6	0.12393944
194	0xbbc80898	-0.00610454
195	0xbde26b3f	-0.11055612
196	0xbc5cedbe	-0.0134844165
197	0x3de74545	0.11292509
198	0xbd691ea7	-0.056913998
199	0xbd37d6e4	-0.04488267
200	0x3c457c8d	0.012053621
201	0xbd75d122	-0.060013898
202	0xbc11ddec	-0.008903008
203	0x3e05045d	0.12989946
204	0xbd712076	-0.058868848
205	0xbd8cdf0b	-0.068784796
206	0xbd9666f0	-0.073438525
207	0x3dfbd90c	0.12297258
208	0x3db40f93	0.08792033
209	0x3dc7d8cc	0.097581476
210	0x3d933467	0.07187729
211	0xbca850c0	-0.020546317
212	0xbd7b983d	-0.061424483
213	0xbdd37630	-0.10325277
214	0x3db1b719	0.08677501
215	0xbd93191e	-0.07182525
216	0x3d6b761a	0.057485677
217	0x3d206912	0.039162703
218	0x3d88b53d	0.066751935
219	0xbb0cfc93	-0.002151285
220	0xbcbcb7fc	-0.02303695
221	0x3d66001e	0.056152456
222	0x3cf10e70	0.02942583
223	0xbdeafc59	-0.11473913
224	0x3d7044b4	0.05865927
225	0xbdc13fa2	-0.09435965
226	0xbd1d0c5c	-0.038341865
227	0xbcf3ce34	-0.029761411
228	0x3d71cb3b	0.059031706
229	0x3d25f78b	0.04051928
230	0xbd081400	-0.0332222
231	0x3d750649	0.059820447
232	0xbd781b81	-0.060573105
233	0xbcee9d3b	-0.029127708
234	0x3d537772	0.051627584
235	0x3c91385b	0.017727068
236	0xbd7749a4	-0.060372964
237	0xbd9d2995	-0.07673947
238	0x3d444213	0.047914576
239	0xbd2f00d1	-0.042725388
240	0xbda09f12	-0.0784284
241	0x3b05c1d8	0.002040973
242	0x3e173f7d	0.14770313
243	0xbced3327	-0.028955055
244	0xbd48274f	-0.048865613
245	0x3dcbedc9	0.09957463
246	0x3d15b34b	0.03654794
247	0x3dfeaeb8	0.12435669
248	0x3db168e6	0.08662586
249	0x3caba1f2	0.020951245
250	0x3d783417	0.06059655
251	0x3da2306f	0.07919394
252	0x3de55b25	0.11199025
253	0xbd06a7c9	-0.032874856
254	0x3becb419	0.0072236178
255	0x3e1c7a50	0.15281034

hidden_layers.2.bias f4 [64]
0	0x3dae1e27	0.08501845
1	0x3d423965	0.047418017
2	0xbd8306ac	-0.06397757
3	0x3dbd385e	0.09239267
4	0xbd29b9d8	-0.041437
5	0xbdbc2535	-0.09186784
6	0xbe006854	-0.12539798
7	0x3b956a40	0.004559785
8	0x3cfe06e7	0.03100915
9	0x3d89fba0	0.06737447
10	0xbd9b0444	-0.07569173
11	0xbdc7bdf8	-0.097530305
12	0x3e1c3b37	0.15256964
13	0xbd18be4c	-0.037290856
14	0x3e200531	0.1562698
15	0xbda6988a	-0.08134563
16	0xbd91f34a	-0.07126482
17	0x3d01282b	0.031532448
18	0x3db8884c	0.090103716
19	0xbd9607c1	-0.07325698
20	0xbd9c810a	-0.076418
21	0xbd3ec574	-0.046575025
22	0xbde5e862	-0.11225964
23	0x3d91d624	0.07120922
24	0xbdb8b4f2	-0.090188876
25	0x3dd74dd5	0.10512892
26	0xbd998616	-0.07496278
27	0x3e02e8c4	0.12784106
28	0x3dff878b	0.12477025
29	0xbcfb4102	-0.030670647
30	0xbd8b83b5	-0.068122305
31	0x3d14d989	0.03634027
32	0xbdae2f0e	-0.08505069
33	0xbd801c4a	-0.06255396
34	0xbb213680	-0.0024599135
35	0x3dc85d0c	0.09783372
36	0x3d4ac37a	0.049502827
37	0xbdc409f0	-0.09572208
38	0xbd21bedc	-0.03948866
39	0x3d5bb95f	0.05364358
40	0x3dd5fece	0.10448991
41	0x3df66093	0.12030139
42	0xbac4ef49	-0.0015024926
43	0x3e0ec184	0.13941008
44	0x3dffd3c4	0.12491563
45	0x3d397b67	0.0452837
46	0xbd89e641	-0.067333706
47	0xbdb566d5	-0.08857504
48	0xbdf15c2a	-0.11785157
49	0x3c6b626f	0.01436673
50	0xbd5cff39	-0.053954337
51	0x3dfafd04	0.1225529
52	0x3df54ef7	0.11977952
53	0xbce3bdf8	-0.027800545
54	0xbcd6da09	-0.026227014
55	0xbbdbfb4f	-0.006713308
56	0x3d12e4c9	0.035862718
57	0x3d1e4108	0.038636237
58	0xbca162e2	-0.019700471
59	0xbad2247a	-0.0016032599
60	0x3d7ea831	0.06217212
61	0xbd483549	-0.04887894
62	0x3d71c5b9	0.059026454
63	0xbc97ee20	-0.018546164

hidden_layers.3.weight f4 [64, 64]
0	0x3df883a2	0.12134482
1	0xbdf7568e	-0.12077056
2	0xbdd8f370	-0.10593307
3	0xb9b0ba00	-0.00033707917
4	0x3dab97fa	0.083785966
5	0x3da70962	0.081560865
6	0xbdeb3d06	-0.11486249
7	0xbd9d7588	-0.07688433
8	0x3d3b09ac	0.04566352
9	0xbd39679c	-0.045264825
10	0x3d8ffea2	0.07030989
11	0x3cd19b98	0.025586888
12	0xbda98790	-0.082778096
13	0x3d9e2036	0.077209875
14	0xbd836d84	-0.06417373
15	0x3df80a0a	0.1211129
16	0x3daf2a3a	0.08552976
17	0xbda085ec	-0.078380436
18	0xbd97d970	-0.0741452
19	0x3ddff8d8	0.10936135
20	0x3d23a9fc	0.03995703
21	0xbd7ca988	-0.061685115
22	0x3daa03d0	0.083015084
23	0x398ef200	0.00027264655
24	0xbdfd8a26	-0.12379865
25	0xbdce1fd6	-0.10064666
26	0xbdb7cbfa	-0.08974452
27	0x3d959bac	0.07305083
28	0x3dfcacfa	0.1233768
29	0x3d7ed35c	0.062213287
30	0xbde9ee4c	-0.11422405
31	0x3d5c7758	0.053824753
32	0xbd410000	-0.04711914
33	0x3d9b8416	0.07593553
34	0x3de4c862	0.111710325
35	0xbac6a700	-0.0015155971
36	0x3da0c6c6	0.07850413
37	0x3d9839a4	0.07432869
38	0x3ce5faa8	0.028073624
39	0x3d88b174	0.066744715
40	0xbdac49c2	-0.08412506
41	0x3da6dbde	0.08147405
42	0xbd316bac	-0.043315575
43	0x3df872c6	0.12131266
44	0xbdc67034	-0.0968937
45	0xbd36ebdc	-0.044658527
46	0x3de67b24	0.11253956
47	0xbd73dfd0	-0.059539616
48	0x3d8af1be	0.0678439
49	0xbdd0f1f0	-0.10202396
50	0x3d8100be	0.0629897
51	0xbd972086	-0.0737925
52	0x3c369f10	0.011146322
53	0x3df4632c	0.11932978
54	0xbd4e6a9c	-0.05039464
55	0xbd84874e	-0.0647112
56	0x3d87766c	0.06614384
57	0xbbee38e0	-0.0072699636
58	0xbc0c5790	-0.008565798
59	0x3cc3e4c0	0.023912787
60	0x3ce4d988	0.027935758
61	0xbde871a6	-0.11349802
62	0x3cbd4948	0.023106232
63	0x3d5121e0	0.051057696
64	0x3dc87117	0.09787195
65	0x3d853846	0.06504874
66	0x3ca14218	0.019684836
67	0x3dbaf2e4	0.09128359
68	0xbd371350	-0.044696152
69	0x3d92b5cb	0.071635805
70	0x3cadda18	0.02122216
71	0x3c9c3dd0	0.019072443
72	0x3e08cfcd	0.1336052
73	0x3d8bbb13	0.06822791
74	0x3bf0abc0	0.007344693
75	0xbdbb8130	-0.091555
76	0x3d24b170	0.04020828
77	0x3df00e92	0.11721529
78	0x3deb1df4	0.114803225
79	0x3df8bdc2	0.121455684
80	0xbd4f7853	-0.05065186
81	0xbdae330d	-0.08505831
82	0x3d1631a7	0.036668446
83	0xbdc0b38c	-0.09409246
84	0xbcff212f	-0.031143753
85	0x3de5046a	0.111824825
86	0xbdee9d7a	-0.1165113
87	0xbd7cbb4c	-0.061702058
88	0x3d5db5dc	0.054128513
89	0x3d2282d4	0.03967555
90	0xbdae6d2e	-0.08516918
91	0xbd9281a1	-0.07153631
92	0x3e1de356	0.15418753
93	0xbd985805	-0.074386634
94	0x3d51b1b6	0.05119487
95	0x3c4a9856	0.012365421
96	0xbdeca4ae	-0.11554848
97	0x3c956682	0.018237356
98	0x3cb259f8	0.021771416
99	0xbce06943	-0.027393943
100	0x3e12381b	0.14279215
101	0x3df7e9f8	0.12105173
102	0xbdda4786	-0.10658173
103	0xbcb21107	-0.021736635
104	0xbde3edba	-0.11129327
105	0x3d8bca9d	0.06825755
106	0xbc99c28e	-0.018769529
107	0xbc1967df	-0.009363144
108	0xbd6bfb7a	-0.057612874
109	0x3dc923ef	0.09821307
110	0x3d058da1	0.03260577
111	0x3dbd95ac	0.09257063
112	0x3dee9220	0.11648965
113	0x3d098392	0.03357274
114	0xbc60b925	-0.013716017
115	0x3e2015e8	0.15633357
116	0xba6863e6	-0.00088649837
117	0xbc9ec000	-0.019378662
118	0x3d5d73a5	0.054065365
119	0x3dae202d	0.08502231
120	0x3e02af57	0.127622
121	0x3d2ca806	0.042152427
122	0x3dae192a	0.085008934
123	0x3dc07a37	0.09398311
124	0xbd3f5c7a	-0.046719052
125	0x3d5522ec	0.052035257
126	0x3de2ad2f	0.110681884
127	0x3e10c481	0.1413746
128	0x3dd1ce7a	0.102444604
129	0xbd697150	-0.05699283
130	0x3cac4858	0.02103059
131	0x3d5d8da2	0.05409015
132	0x3c988820	0.018619597
133	0x3da88a78	0.08229536
134	0x3df6da7a	0.1205339
135	0x3b8b16c0	0.0042446554
136	0x3c2fa16d	0.010719639
137	0x3dfab8db	0.1224229
138	0xbc917708	-0.017756954
139	0x3d7625e0	0.060094714
140	0x3d43c7f5	0.047798116
141	0x3d2f80b4	0.04284735
142	0x3bb81af3	0.005618447
143	0xbcd4da50	-0.025983006
144	0xbd2f2028	-0.042755276
145	0x3da0ba01	0.078479774
146	0x3b9fb0cc	0.0048733708
147	0x3d5998ca	0.053124227
148	0x3e080ba9	0.13285698
149	0x3d4c2128	0.049836308
150	0xbdb66cac	-0.08907446
151	0xbd07c4b8	-0.03314659
152	0x3d7acab5	0.061228473
153	0xbd4790bb	-0.04872201
154	0xbda23b3a	-0.07921453
155	0x3c2622bf	0.01014012
156	0xbcd6da8b	-0.026227256
157	0x3d8ad503	0.0677891
158	0x3dcd5a71	0.10027016
159	0x3d072348	0.03299263
160	0x3d5460c0	0.05185008
161	0xbc28a400	-0.010293007
162	0x3d1342a4	0.035952225
163	0x3d5522a2	0.05203498
164	0xbd0eb8cf	-0.034844216
165	0x3d7af844	0.06127192
166	0xbd597b44	-0.05309607
167	0x3d3779e0	0.044793963
168	0x3de3f0d6	0.1112992
169	0x3ca0b4eb	0.019617518
170	0xbdc386a7	-0.09547167
171	0xbd3db895	-0.04631861
172	0xbca50da6	-0.02014811
173	0xbd1b1baa	-0.03786818
174	0xbd8f36aa	-0.06992848
175	0x3e0309ba	0.12796679
176	0x3d808446	0.06275229
177	0x3dba5988	0.09099108
178	0x3dde1076	0.108429834
179	0x3c847a54	0.016171612
180	0xbc93d9c8	-0.018048182
181	0x3d97f4da	0.074197486
182	0x3de5b25a	0.112156585
183	0xbc4fb2c3	-0.012676897
184	0x3d9ce8e5	0.076616086
185	0x3de27ada	0.11058588
186	0x3dbd1afb	0.09233662
187	0xbdf81c48	-0.12114769
188	0x3def5485	0.11686043
189	0x3d5d6369	0.054049883
190	0x3d01925e	0.031633727
191	0x3d9c1aa0	0.07622266
192	0xbdcd35a3	-0.10019996
193	0x3df16c3d	0.11788223
194	0xbc9dfc70	-0.01928541
195	0x3d69e75f	0.05710542
196	0x3d82650a	0.06366928
197	0xbc136331	-0.008995817
198	0xbdaee52f	-0.08539807
199	0xbdf5696e	-0.11983
200	0x3da8bef3	0.08239546
201	0x3cd9dec2	0.026595477
202	0x3de7b912	0.11314596
203	0x3ddff6e6	0.10935764
204	0x3e1710df	0.1475253
205	0x3dd8c990	0.1058532
206	0x3e107a64	0.14109188
207	0xbca9ece8	-0.020742849
208	0xbd7473e8	-0.05968085
209	0xbdcaa9ad	-0.09895644
210	0x3c924764	0.017856307
211	0x39b24790	0.00034004124
212	0x3c781611	0.01514198
213	0xbd842456	-0.06452243
214	0xbd9db824	-0.07701138
215	0x3b872bf0	0.004125111
216	0xbd3e6681	-0.046484474
217	0xbdce6ee1	-0.10079742
218	0x3d43f0b2	0.047836967
219	0x3e1449f9	0.14481343
220	0xbd8a297e	-0.06746195
221	0x3d0cb8e5	0.034356017
222	0xbdae5b5a	-0.08513518
223	0x3c11e86a	0.0089055095
224	0xbdf6ef94	-0.12057415
225	0xbdb03857	-0.08604496
226	0x3dc1d040	0.09463549
227	0xbcd06dfe	-0.025443073
228	0xbd8a2955	-0.06746165
229	0x3dc60928	0.09669715
230	0xbd4fad93	-0.050702643
231	0xbbef70f0	-0.0073071644
232	0xbc8a9f15	-0.01692156
233	0xbc6c0351	-0.014405088
234	0x3e303bd6	0.17210326
235	0x3dd8983d	0.10575912
236	0x3dc7fa2c	0.097645134
237	0x3d6c0f5c	0.057631835
238	0x3df078f2	0.117418185
239	0xbd6e50f1	-0.05818266
240	0x3cda7e08	0.026671425
241	0x3dbfce2b	0.09365495
242	0xbda6cd74	-0.08144656
243	0x3d9b0d53	0.07570901
244	0x3a372a5f	0.000698721
245	0x3c9516b0	0.018199295
246	0xbcbfe6b0	-0.02342543
247	0x3c8693a5	0.016427824
248	0x3de0b1f4	0.10971442
249	0xbcc2fea6	-0.023803066
250	0x3e1dec6e	0.15422222
251	0x3d384955	0.04499181
252	0x3e188662	0.14895013
253	0xbd2b6a0e	-0.04184919
254	0xbd3dd4e7	-0.046345618
255	0x3e1b3cd5	0.15159924

hidden_layers.3.bias f4 [64]
0	0xbde4e7b0	-0.111770034
1	0x3d965624	0.07340649
2	0xbdc50637	-0.09620326
3	0x3e1737a1	0.14767314
4	0xbc40c4c0	-0.011765659
5	0xbddb6a71	-0.107136615
6	0x3bc7d4e0	0.0060983747
7	0x3c6b3159	0.014355027
8	0x3d5904af	0.052982982
9	0xbbf222dc	-0.0073894095
10	0xbdc1ddae	-0.0946611
11	0xbd8193fb	-0.06327053
12	0x3cb062f6	0.021531563
13	0xbc8334c4	-0.016016372
14	0x3ce6e8cc	0.028187178
15	0x3d17660a	0.036962546
16	0xbd839c61	-0.06426311
17	0xbbc6f7c0	-0.0060720146
18	0xbd3b76ec	-0.04576771
19	0xbdb59890	-0.088669896
20	0xbc71ba55	-0.014753898
21	0xbdbeed4c	-0.093226045
22	0xbc7effd6	-0.015563926
23	0x3ddf0c37	0.10891002
24	0xbd4d2a64	-0.050089255
25	0x3dc77be4	0.09740427
26	0x3d3c6696	0.04599627
27	0xbd7ee288	-0.062227756
28	0x3bf273a3	0.007399039
29	0x3dfa3222	0.12216593
30	0x3dc14566	0.09437065
31	0x3d9602a0	0.073247194
32	0x3c7f65a2	0.015588196
33	0x3db8ad5c	0.09017441
34	0x3dcc7bd0	0.09984553
35	0x3e0cf45d	0.13765092
36	0x3de8b788	0.11363131
37	0x3db98f62	0.09060551
38	0xbd75c428	-0.060001522
39	0xbd5551f8	-0.052080125
40	0xbcc2a838	-0.023761854
41	0x3dd916f1	0.10600079
42	0x3d98fd1c	0.07470152
43	0xbd8b6262	-0.068058744
44	0x3d9123f4	0.07086936
45	0xbd16a4a0	-0.036778092
46	0xbdea8490	-0.114510655
47	0x3dc97f9c	0.09838793
48	0x3db9324a	0.09042795
49	0xbd650619	-0.05591402
50	0x3ddca6b0	0.107739806
51	0x3dd58d90	0.104273915
52	0xbd3c430c	-0.04596238
53	0xbc132f1d	-0.008983401
54	0xbda411f0	-0.08011234
55	0xbc83925b	-0.016060999
56	0x3d8861c1	0.0665927
57	0xbc235351	-0.009968595
58	0xbd1ca5c8	-0.03824404
59	0xbdb57c70	-0.08861625
60	0x3cc32b78	0.023824438
61	0xbcf95f42	-0.03044093
62	0x3e13132c	0.14362782
63	0xbd4bdb5c	-0.049769744

output_layer.weight f4 [2, 64]
0	0xbc9a1980	-0.018810987
1	0x3e2405a4	0.16017777
2	0x3bdd88df	0.006760701
3	0x3e13b976	0.14426216
4	0x3dd748aa	0.105119064
5	0x3c2f451c	0.010697629
6	0x3e31b392	0.17353657
7	0xbddf465c	-0.10902092
8	0x3dfb311e	0.12265228
9	0x3e07d817	0.13266025
10	0xbdc05b66	-0.09392433
11	0xbddb799a	-0.10716553
12	0xbd85f4d1	-0.06540836
13	0xbc0bdc98	-0.00853648
14	0x3d4b853f	0.04968762
15	0x3de5f155	0.11227671
16	0x3da2797b	0.07933327
17	0x3d2b6050	0.041839898
18	0xbc4c7c30	-0.0124807805
19	0x3dd406a8	0.10352832
20	0x3d834154	0.06408945
21	0x3e214dcc	0.15752333
22	0xbdb7aef2	-0.08968915
23	0x3daa5b1a	0.083181575
24	0x3d2d6c0c	0.04233937
25	0xbd971d25	-0.07378606
26	0xbdc01bdf	-0.09380316
27	0x3df1df82	0.11810209
28	0xbda972a1	-0.08273817
29	0x3d33032d	0.0437042
30	0x3df744d9	0.120736785
31	0xbd12cf0b	-0.035841983
32	0xbd427654	-0.047476128
33	0xbd61c053	-0.055115055
34	0xbdd9d4b6	-0.106362745
35	0x3dbc5b28	0.09197074
36	0x3d5417e7	0.051780608
37	0xbdcfe542	-0.10151149
38	0xbcd5f568	-0.026117995
39	0x3d6b8de8	0.05750838
40	0xbdc3b5cc	-0.095561594
41	0xbd2ea23b	-0.042635184
42	0x3c928d4c	0.017889641
43	0xbd9060f0	-0.07049739
44	0xbdc67243	-0.096897624
45	0x3c5b5960	0.013388008
46	0x3d35d334	0.044390872
47	0xbda92740	-0.082594395
48	0x3d4c3ec9	0.049864564
49	0xbdc10f3b	-0.09426733
50	0xbda3b0ba	-0.07992692
51	0xbd72a100	-0.059235573
52	0xbd92db5e	-0.07170747
53	0x3db840f9	0.089967676
54	0xbdff7d12	-0.12475027
55	0xbde1ea3d	-0.110310055
56	0x3e190b33	0.14945678
57	0xbd91c492	-0.07117571
58	0x3de96530	0.11396253
59	0x3c9964b0	0.01872477
60	0xbadd8f9e	-0.0016903763
61	0xbdc79b58	-0.09746426
62	0x3cec37ee	0.028835263
63	0x3e180fd5	0.1484979
64	0x3da96890	0.08271897
65	0x3da36991	0.079791196
66	0xbde9131e	-0.113805994
67	0xbccd1b7a	-0.025037516
68	0xbdd73986	-0.105090186
69	0xbe0f491e	-0.13992736
70	0xbe09a5ff	-0.13442229
71	0x3d503284	0.050829425
72	0x3dd459a5	0.10368661
73	0x3cf24b91	0.029577048
74	0x3db060a2	0.08612181
75	0xbdff89f0	-0.12477481
76	0xbc9b7a7a	-0.0189793
77	0x3cd475e5	0.025935123
78	0x3dbdcd5d	0.092676856
79	0xbdc3e682	-0.0956545
80	0xbdc1868a	-0.094494894
81	0x3d973eb8	0.073850095
82	0xbd998f26	-0.074980065
83	0xbc64a730	-0.013955876
84	0xbd11cda2	-0.035596497
85	0x3c917c4f	0.01775947
86	0xbd087789	-0.033317123
87	0xbd9be85b	-0.07612678
88	0xbdc34b78	-0.09535879
89	0x3dcfd377	0.101477556
90	0xbd07ee0c	-0.033186004
91	0xbdfae3ca	-0.122504786
92	0xbcef1034	-0.029182531
93	0xbd9e7bab	-0.077384315
94	0x3dba461f	0.09095406
95	0x3d23b2b5	0.03996535
96	0x3d962664	0.07331541
97	0x3de6a2fa	0.11261554
98	0x3c5e4ee5	0.013568615
99	0xbe0a030b	-0.13477723
100	0x3d95067a	0.07276626
101	0xbd840a2d	-0.064472534
102	0x3df56af6	0.11983292
103	0x3d405820	0.046959043
104	0xbd34ad90	-0.044110835
105	0xbdd1212c	-0.10211405
106	0xbdeb77c1	-0.114974506
107	0xbd6450b8	-0.055741042
108	0xbc0ed31a	-0.008717323
109	0xbd4c6f9c	-0.049911126
110	0xbdc16056	-0.09442203
111	0xbdf8aa7d	-0.12141893
112	0x387eae78	6.0720806e-05
113	0x3d54e85b	0.051979404
114	0xbc5a0546	-0.013306921
115	0x3da85d16	0.0822088
116	0xbd8eff6c	-0.069823116
117	0x3db751b3	0.0895113
118	0x3dae8f38	0.085234106
119	0x3d86e5ac	0.06586775
120	0x3c7e248e	0.015511645
121	0xbd4e7dd0	-0.050412953
122	0xbcdfe7e7	-0.02733226
123	0xbc906ae0	-0.017629087
124	0x3d878ac6	0.06618266
125	0xbdc44436	-0.09583323
126	0xbd3ddb69	-0.046351824
127	0xbd93344e	-0.07187711

output_layer.bias f4 [2]
0	0x3db516f1	0.08842266
1	0xbd4161f6	-0.047212563
