abc_env_raw/saved_models/phi_only_1.3.pt (torch, 72199 bytes, 12 tensors)

input_layer.weight f4 [64, 3]
00000000: b02c f1be 01ea ce3e 9ab0 023f c68e f03e
00000010: d64e 7a3e 8d61 6bbd adcb 953e 8f31 b6bc
00000020: 2a39 da3e 131f 0fbf 5a20 a33e 7f7c 173e
00000030: 0834 263e ff29 913e ac70 00bf 6395 c6be
00000040: 7310 ff3e 5ee0 d1be 30cd 7cbd f6e5 f5be
00000050: 2326 f33e 1135 093f 3dc7 663d c135 8c3d
00000060: bc18 b7bd 0ec4 15be 759a fe3e 541d 95be
00000070: d4e3 02bf d60f c8be 07df 833d c26e 8e3e
00000080: 0aa2 11be 6ebf 88bd e75f dfbe 392b f0be
00000090: 81a6 7dbe 97e9 883e b6e3 573e 8e65 9b3c
000000a0: 7378 c2be 7459 cebe 3285 7e3e 8196 7dbd
000000b0: 1d6d 1a3d c2f3 70bd 7e4e 4ebe 34c7 81bd
000000c0: cbc8 383e 7142 e3be 113b da3e 74db 7fbc
000000d0: f2ea cf3d 1679 18be fe0e bdbe 887b abbe
000000e0: 6cff e23e 0149 e5be b1cc ffbe fd25 62be
000000f0: 81a6 e9be c70f f6be c6e2 a5be 44d5 533e
00000100: c079 f7be 546e 993e 9bf5 eb3e 1ed5 d1be
00000110: e285 a6be bc2d 03bd 3243 503e 3ca9 873d
00000120: 1887 433e 1fb8 5b3c e9d9 123e e06c 073e
00000130: a4c2 babe 9c95 dd3e 969e 13bf bc4f 6abe
00000140: f35c f03e 89f3 0d3f 44d1 8e3d ec80 f83d
00000150: 0652 89be 8f8f 2b3c 7565 12bf 8c91 14bd
00000160: 213a 383e 3f5f b9bd c8d8 98be 30b4 eebe
00000170: 8992 9abe 3028 953e b3b5 d03b 6cea 39be
00000180: 4a0a a4be 0d1a 923e 68fd ff3e 34c0 b73e
00000190: f9fa f73e 2787 f1bd 06da aa3e 42bf 07be
000001a0: 7242 c63d f970 503e 3775 04bd cb20 fd3e
000001b0: e2ea 583e c0ea 0e3f 82b8 943c 0767 413c
000001c0: 8858 e13e 05da a8be 6c8d d83e ef04 f43d
000001d0: 9505 febd d6c1 db3e 2202 e1be 7743 e4be
000001e0: 48b3 e0be db6a d43d e3ee 833d cca3 253e
000001f0: da75 07bf cb85 62be d593 c03e fc57 fd3e
00000200: 522d e43d 20af 0abf 64fa 39be 19a1 063f
00000210: e1fa 4fbe 943d 1ebe 6d5a ca3d bc0e 79be
00000220: f7ab dc3e f581 9bbe bca8 e83e 63c0 00bf
00000230: 065e 4fbe 9b33 393e 421b 0cbf bb9d d43e
00000240: 3bef a13d 88a4 9c3e b330 abbe df67 923d
00000250: 5b6a 02bf 4974 b03c 3188 c73d cbcf abbe
00000260: 3966 abbe e4d9 d13e 8f95 9c3e 3fbe 06bf
00000270: 2dc2 f9be b408 703e 6cd6 e83e 8730 a73e
00000280: 7305 f9be 51a7 433b 3fb8 b4be 6130 9dbe
00000290: 7e04 acbe d4f6 a4be a3b5 9f3e 08dc 96be
000002a0: beb1 e73e 6703 c7be 7a7a 47bd 9f32 c03e
000002b0: b819 09bf 7242 943e c057 b53e 700f 423e
000002c0: 1500 583e ff59 84bd d5a0 a13e 4e16 dabe
000002d0: 3ce1 38bd d9a3 0e3f cd41 0a3e 51e1 ed3e
000002e0: ee2e 813e 6c70 b2bd a510 4d3d fb6e cabe
000002f0: 2571 04bf e946 0dbf e717 a4be 95e8 01be
-0.47104406 0.40412906 0.5105072 0.46983927 0.24444136 -0.05746608 0.29256955 -0.022240428
0.42621738 -0.5590679 0.3186062 0.14793585 0.16230786 0.28352353 -0.50171924 -0.38785848
0.49817237 -0.4099149 -0.06171912 -0.4802701 0.47490034 0.535966 0.056342352 0.0684619
-0.089402646 -0.1462557 0.49727216 -0.29123938 -0.5112889 -0.39074582 0.064390235 0.27818877
-0.14221969 -0.06677137 -0.43627855 -0.46907976 -0.24770547 0.26740715 0.21082959 0.018969323
-0.3798252 -0.40302622 0.24855497 -0.06191111 0.037701715 -0.058826216 -0.2014713 -0.06336823
0.18045346 -0.44386628 0.4262319 -0.015616287 0.10152234 -0.1488994 -0.369255 -0.33492684
0.44335496 -0.4478226 -0.49960855 -0.22084804 -0.45634845 -0.48058912 -0.32399577 0.20686823
-0.48335075 0.29966986 0.4608582 -0.40982908 -0.3252402 -0.032026038 0.20338133 0.06624076
0.19094503 0.013410597 0.14340939 0.13225126 -0.36476624 0.43278205 -0.5766386 -0.22881979
0.46945915 0.5544973 0.06973508 0.12133965 -0.2682039 0.010471239 -0.5718606 -0.036271617
0.17990924 -0.0905137 -0.2985289 -0.46621847 -0.30189922 0.29132223 0.0063693165 -0.18155831
-0.320391 0.285355 0.4999802 0.35888827 0.48433664 -0.117933564 0.33369464 -0.13256553
0.09680642 0.20355596 -0.032338347 0.49439082 0.2118335 0.5582695 0.018154386 0.011804349
0.44012856 -0.32978836 0.42295396 0.119150035 -0.124034084 0.42921323 -0.4394694 -0.44582722
-0.4388678 0.103719436 0.064420484 0.16175765 -0.529142 -0.2212135 0.37612787 0.4948119
0.11141457 -0.5417347 -0.18161923 0.52589566 -0.20310546 -0.15453178 0.098805286 -0.24322027
0.4309995 -0.30372587 0.45441234 -0.5029356 -0.20250711 0.18086092 -0.5472909 0.4152659
0.07906958 0.30594277 -0.33435592 0.07148718 -0.50943536 0.021539824 0.09742773 -0.3355697
-0.33476427 0.4098655 0.30582854 -0.5263404 -0.48780957 0.2344082 0.4547609 0.3265421
-0.4863697 0.0029854367 -0.3529682 -0.30700973 -0.33597177 -0.32219565 0.31193265 -0.29464746
0.45252794 -0.38869783 -0.048700787 0.3753862 -0.5355487 0.28956944 0.3541851 0.18951201
0.21093781 -0.06462478 0.31568018 -0.42595142 -0.045136675 0.5571876 0.13501664 0.46460965
0.25231117 -0.08712849 0.0500647 -0.39537796 -0.51735145 -0.55186325 -0.32049486 -0.12686379

input_layer.bias f4 [64]
00000000: 5408 103f 129d b3be 9f1f 0dbd 9218 e8bd
00000010: 866d b6bd 2435 fb3e 0c1d bebe 0a13 17be
00000020: 9370 bb3e ce10 0b3f 1d82 96be 9566 303d
00000030: fc37 223f 72f7 283d ea99 303d 87e7 133f
00000040: 724a 0ebe 86c1 7dbd da94 0abe e5aa b73e
00000050: 589f e03e 7b06 ec3e cd66 08be 4f22 a63e
00000060: 006b fbbe 9c77 0abf 2b58 22be db28 0c3e
00000070: 4b97 b03e ca5c 873e 51c4 afbe b59b a23e
00000080: d3a4 fb3e 6148 ef3c 98da 25be 82cb 11bf
00000090: 0510 e7be e766 12bf 9f64 fabe a67a 0abf
000000a0: 0f49 1abe c6b7 b63e bdcb ec3e 2a3d 7ebd
000000b0: 5611 0dbf 118a 243e 9f63 71be 2a96 66bd
000000c0: ae18 3dbe b1ae c93e 2a03 663c 770e 0f3f
000000d0: 5fa4 163f 70f0 a43e e829 c63e 0cac 873e
000000e0: bee9 0b3f 90bf 04bf bcb6 503e 446b 1c3f
000000f0: 6e91 12bb 7109 42bd e0f2 70be 0bc7 87be
0.5626271 -0.35080773 -0.034453984 -0.113328114 -0.08907609 0.4906398 -0.37131536 -0.14753357
0.36609325 0.54322517 -0.29396144 0.04306658 0.63366675 0.041251607 0.043115534 0.5777516
-0.13895586 -0.061952136 -0.13533345 0.3587257 0.4387157 0.46098694 -0.13320465 0.3244805
-0.49105072 -0.5408876 -0.15853946 0.1368746 0.34490427 0.2643798 -0.34329465 0.3175942
0.49149188 0.029209318 -0.16196668 -0.56951153 -0.4512941 -0.57188267 -0.48904893 -0.54093397
-0.15066932 0.35687083 0.4624919 -0.06207005 -0.5510458 0.16068293 -0.23573159 -0.05629555
-0.18466446 0.3939109 0.01403884 0.55881447 0.5884456 0.3221469 0.38703847 0.2649845
0.5465354 -0.518548 0.20382208 0.61101174 -0.0022364515 -0.047372285 -0.2353015 -0.26519045

hidden_layers.0.weight f4 [64, 64]
00000000: f50f ffbc bcfa e5bd 503c be37 77e8 78bc
00000010: 6c39 e23d 7f73 e53d e3ba 77bc dea9 46bd
00000020: 0a84 d43d 0217 ac3d 331e 883d 686e 823d
00000030: d523 253e eb97 3d3d e232 59bd f6eb 1a3e
00000040: 2fd9 bb3d ebe3 343d 173a 1ebd b043 88bd
00000050: e049 46bb f27c 073e 7f3e 293d 1864 4ebd
00000060: 89a6 27bd 1e29 993d 54dc c53b 7cca b3bc
00000070: de5b f33c 74a2 3fbd cedc 47bc 77bc 6b3d
00000080: 0bd3 2b3e 1e2d a43d b388 45bc 5e19 91bd
00000090: 5b70 3bbd 60be 1abd 6e64 c0bd d0c4 a1bd
000000a0: 8dea d4bb b4cd a13c 0cb9 313e 256f cabb
000000b0: d3c2 aebd 0d03 eebc 0776 0cbd d6da 27bd
000000c0: d037 123d cf2b 833d 5ee8 c63d c390 2e3e
000000d0: cd58 0d3e 7a99 3dbc ca59 be3d 3df6 44bc
000000e0: 11f2 923d b235 b43c 4af4 f03d a96f 1b3e
000000f0: edfe 9a3d 93c2 833d b425 72bd 30c5 cbbd
00000100: d050 8e3d a1c5 963d e090 8c3d 6892 9b3d
00000110: ac5b ac3c f410 86bd 265e f2bd cf45 773d
00000120: 335f dcbd d86d 74bd 3fc7 803d 844d 853d
00000130: 763d 453d 2e6d e73c 7c26 bbbc f7f5 97bd
00000140: ad54 1abb ea40 393d 7000 58bc 4f76 713d
00000150: d7a7 823a f664 d73d 4648 d3bd 6482 493d
00000160: 107f dcbd afea 013d 460f 7c3d 7492 cf3d
00000170: ffb6 71bd 6962 143d d0c8 89bc 33d8 c73d
00000180: e877 9bbd e0cc a8bd e2db fabd a312 f9bd
00000190: cfb8 733a 7c27 2d3c 4cc8 0a3d f1c8 bd3d
000001a0: 8326 723d fa38 d23d 8e7f 03be 8035 f63c
000001b0: 0545 483d def7 ca3d 61b3 7f3d c0b1 3e3d
000001c0: a163 c8bc 150d b3bc 78df b43d 9d6f fdbc
000001d0: dfa9 7bbd 8f8c 9bbd 2cf7 41bd 70bd 96bd
000001e0: 6329 613d b484 5abc 28f2 b13d 7ae5 05bd
000001f0: 0b42 c8bd c5cc 8cbd 7861 9d3d acd4 3a3d
00000200: bdb2 cbbd 8f2e 033e 4019 62bd cde9 5e3c
00000210: d3b3 f33c 5d73 17bd 7193 2e3d 1e36 18bc
00000220: 7e2e bbbd f958 eb3d e3fb c9bc 4c05 eb3a
00000230: 0325 f7bc fed8 9cbd d8cd 7bbd 3895 043e
00000240: b703 d93d fee5 92bd 89bf e33d d069 163d
00000250: 2ac3 323d 3590 8fbc 5745 f63c 12e9 57bd
00000260: 7f73 863c d839 ae3d 1f12 cf3c 2b78 da3d
00000270: 21bc 083e 26a8 30bd f888 29bd 48dc 093c
00000280: 4614 e5bd 02f7 79bd 606e 863c a8a0 963d
00000290: d743 ae3d 4e2a f33d 65be bf3c 3a23 f13d
000002a0: 5d08 2e3d 7937 bebd db29 a3bd 21aa ffbc
000002b0: 3730 8cbd d61d 873c 194c f43d 6490 453d
000002c0: 9cee c53d 77d3 65bd d05a a13d 7ddd 39bd
000002d0: 4de3 9cbd 4af1 a83d f702 1eba 529c ba3d
000002e0: 23e4 893d ed6a 093d 26b4 b5bb be13 b7bd
000002f0: f897 1e3c fd6f 1abd cc1c b3bd 3064 e2bd
00000300: eff0 c83c ba55 63bc 59a8 0c3e a762 9ebb
00000310: 94e2 073d 5e6d 74bd 0571 bb3b 6be3 8b3d
00000320: 07c2 983c 374c e33d 0735 bf3d 51ae 31bd
00000330: af38 1a3e 701c ed3c a2ee 253d 2967 f83d
00000340: 3c05 36bd 1904 093e 51a5 c7bd bad7 14bd
00000350: 1d23 ab3d 951f c13d b4cb d43d 2b06 1c3e
00000360: ceac 7d3d 72a9 8f3d 0ab4 d1bd 8867 f53b
00000370: b995 243e d4b8 0b3d 6685 d8bd a7c4 1a3e
00000380: 71c5 0d3d 9ed0 173e b8f4 63bd f6b0 cbbd
00000390: ca36 933d dde3 65bd 625c b73c cb34 e2bd
000003a0: 8bd8 7abd 93ef 91bd 52fb e6bc 7d0e 113e
000003b0: e649 b23c 1eaa 293d 51a7 66bd 83d5 dc3c
000003c0: bc8b b5bd f6de 94ba 5537 81bd f111 f73d
000003d0: c622 123e 2b37 b33d 6aa6 7fba e067 1a3e
000003e0: bb73 153c f8b3 853d 6583 173e a3ee 353c
000003f0: c869 cfbd e35c f5bc 2983 523d 399e c73c
-0.031135539 -0.112294644 2.267785e-05 -0.015192143 0.110461086 0.1120367 -0.015120241 -0.04850184
0.10376747 0.08402826 0.06646385 0.063687146 0.1612695 0.04628746 -0.05302704 0.15129074
0.09172284 0.044162672 -0.038629618 -0.06653535 -0.0030256435 0.13231257 0.041319367 -0.050388426
-0.040930305 0.074785456 0.006038228 -0.021947138 0.029706892 -0.046785787 -0.01219864 0.05755278
0.16779725 0.08016418 -0.012056517 -0.070849165 -0.045761447 -0.037779212 -0.093941554 -0.07898867
-0.006497687 0.019751407 0.17355746 -0.0061778002 -0.085332535 -0.02905419 -0.034292247 -0.040980183
0.03569776 0.0640484 0.09712289 0.1704741 0.13803406 -0.011572236 0.0929447 -0.012021598
0.07175077 0.02199826 0.117653444 0.15179314 0.075681545 0.064335965 -0.059117988 -0.0994972
0.069490075 0.073619135 0.0686357 0.07596284 0.021039806 -0.06546202 -0.11834364 0.06036931
-0.10760345 -0.059675068 0.06288003 0.065089256 0.048154317 0.028250303 -0.0228455 -0.07419961
-0.0023549006 0.045227922 -0.013183698 0.05895072 0.0009968233 0.10517304 -0.103165194 0.049196616
-0.10766423 0.031717952 0.061538003 0.101353556 -0.05901241 0.036226664 -0.016819388 0.097580336
-0.0759123 -0.08242202 -0.122489706 -0.12161758 0.0009297253 0.010568496 0.033882424 0.09266842
0.05911876 0.10264774 -0.12841627 0.030054808 0.048893947 0.09910558 0.06242693 0.046556234
-0.02446157 -0.021856824 0.08831686 -0.03093701 -0.0614413 -0.07595169 -0.047354862 -0.07360351
0.05497111 -0.013337303 0.08688766 -0.03268955 -0.09778222 -0.06874994 0.07684606 0.045612976
-0.09946201 0.1281073 -0.05519986 0.013605547 0.029748833 -0.036975253 0.04262108 -0.009290246
-0.09139727 0.114915796 -0.024656242 0.0017930656 -0.030169016 -0.076585755 -0.061475605 0.12947547
0.10596412 -0.07172774 0.11120517 0.036722004 0.043643154 -0.017524818 0.03006236 -0.052712508
0.016412495 0.085071266 0.025277195 0.106674515 0.13353015 -0.04312911 -0.04139039 0.008414336
-0.111855075 -0.06102658 0.016410053 0.073548615 0.08509033 0.11873303 0.023406217 0.11774297
0.042488445 -0.09287924 -0.07966968 -0.031209053 -0.06845134 0.01649372 0.11928577 0.048233405
0.09664652 -0.05610987 0.07878649 -0.045377243 -0.07660542 0.08249147 -0.00060276635 0.09111847
0.06732967 0.033549238 -0.005545157 -0.089393124 0.009679787 -0.037704457 -0.08745727 -0.110542655
0.024528949 -0.013875419 0.13736095 -0.0048335376 0.033175066 -0.059674613 0.00572026 0.06830486
0.018647207 0.11098521 0.09336286 -0.04337913 0.15060686 0.028944224 0.04051078 0.12129051
-0.044438586 0.1338047 -0.097483285 -0.036338545 0.08356307 0.09429852 0.10390416 0.15236728
0.061932378 0.07014741 -0.10239418 0.0074891485 0.1607274 0.034111813 -0.10572319 0.1511408
0.034612123 0.14825675 -0.055653304 -0.09945862 0.071881846 -0.05612551 0.022382919 -0.11045226
-0.061241668 -0.07125773 -0.02819601 0.14165683 0.021763753 0.041422002 -0.05631191 0.02695728
-0.08864543 -0.0011357951 -0.06309382 0.12063969 0.14271078 0.08750757 -0.00097522757 0.15078688
0.009121831 0.06528467 0.14796217 0.011104259 -0.10127598 -0.029951518 0.051394615 0.024367439

hidden_layers.0.bias f4 [64]
00000000: 677e 9a3d 02f2 9c3d d15b 65bd 3d81 2a3e
00000010: 5f34 cd3d a190 a0bc 8a35 08be 3e73 f03d
00000020: c5fc 903d ea18 debd d792 243e 2c7f 983b
00000030: 26df 07bd 2e16 d0bd fdd6 87bd a54d d5bb
00000040: 660e 98bd 694e f83d 905f ea3d 5c08 103d
00000050: e1b8 c7bd dfc6 a4bc 48c9 77bd 8fd3 c33d
00000060: 8f6a ec3d 81e9 f6bd 00b5 5f3c e839 c23d
00000070: a9de 273e 037b 8d3c 5663 86bd 56e4 bf3d
00000080: 0ac1 73bd 4715 c6bc e65f 4fbd f769 b33c
00000090: 8c73 003d 42c0 0c3e 87b8 b4bc d56d 8b3c
000000a0: 2921 f83d ca3d e6bd e944 0fbd 2559 863d
000000b0: f73d 183d 0364 b63d e24b 1f3e af9a c73c
000000c0: acbf b53d 2d40 083e efc5 e7bd cda9 223d
000000d0: a083 ab3d 1ab2 15bd 6adc 97bd 55f8 163e
000000e0: 6344 783d 3aa3 9bbc f84a c43d 13e6 143d
000000f0: e1ff bcbc fcc9 113e e9d7 a53b f116 003e
0.075436406 0.07663347 -0.055995766 0.16650863 0.100197546 -0.019600214 -0.13301674 0.11740731
0.07079462 -0.10844596 0.1607164 0.004653832 -0.033171795 -0.101604804 -0.06632803 -0.0065095
-0.07424621 0.121243306 0.11444008 0.035164222 -0.0975206 -0.02011436 -0.06049469 0.09561836
0.11543762 -0.12056256 0.013653994 0.09483701 0.16393532 0.01727057 -0.065619156 0.093697235
-0.05951027 -0.024180068 -0.050628565 0.021901114 0.031360194 0.13745216 -0.022060646 0.017020145
0.121157 -0.11242254 -0.034977827 0.06559972 0.03716847 0.089057945 0.15556291 0.024365751
0.08874449 0.13305731 -0.1131705 0.039712716 0.08374715 -0.036546804 -0.074150875 0.14743169
0.060612094 -0.01899873 0.09584612 0.03635223 -0.023071231 0.14237207 0.005061139 0.12508751

hidden_layers.1.weight f4 [64, 64]
00000000: f239 923d 2d30 e63d 91dd 973c 3a33 0a3e
00000010: 6cc5 a5bc 1691 0e3e 4acd aa3a f46d b8b9
00000020: 181e 41bd fc03 1fbd 1eeb 7abd cb9b e13d
00000030: 335a 6dbd 666d c9bc a4ee c13d 3fcd 6abd
00000040: f6f4 e63d 1d51 bebc ef43 8b3d 3f1c 9c3c
00000050: 179f f1bd 8a06 2fbc 8390 ea3d 3494 afbc
00000060: 0b24 6d3d 6efd 72bd 0d4c 82bc 48ce 033e
00000070: 5e4c 8936 5939 86bd 8d2b 263c b511 263d
00000080: 6e9f be3d 1782 97bb fcfb aa3d 666b d33d
00000090: d089 92bd b172 5abd 1dbe 1b3e 8bd8 e23d
000000a0: 13ae 043e 0217 a03d 342e 22bc dfc9 ac3d
000000b0: 1bec 023e 84c1 3abd d2f8 c53d 8c9c 483d
000000c0: c83a 973d 9277 693d 8577 f23d 2e90 db3d
000000d0: dd42 bb3d c839 093e e606 a53d 2a1b 223c
000000e0: 7622 eebd 27ba c0bd 2095 e33d b62a 4d3c
000000f0: 2732 49bd 2b08 ea3d ff03 153e 9856 9cbd
00000100: 49b9 ea3d 10d5 e4bc e4fc 80bd 3ef2 36bd
00000110: 2365 653d 0206 c9bd 64fd 533d 38c7 673d
00000120: b751 543d 5050 213c 504b b83d 95df e43d
00000130: 2e0a 63bd 5516 f93d 0070 8ebb ad53 d3bd
00000140: 888b 76bd ea5a 01be cd40 463c b342 dbb9
00000150: 3546 cc3c 6878 1e3d ec3b b83d f8ee eabd
00000160: 833b e1bd d6e0 aebd 9c63 713c ac07 193c
00000170: 6422 9ebc 38d6 8c3d 2fde 5abd 45c1 9dbd
00000180: 316b 42bd 9f26 85bd 7e71 933d f685 843d
00000190: 8b2b e73d 1fe6 c7bd 4ec1 e9bc 66d2 9a3d
000001a0: a05f de3d 2022 4abc 1898 8ebc ac43 21bd
000001b0: 39ba 8fbc 6060 a93d 761d f8bd f414 2bbd
000001c0: cf6c 413d 938a e7bd 6bad 103c 5d35 473d
000001d0: 51a2 0b3d 2cd6 153d ba75 33bb 1bfb 943d
000001e0: 04e8 013d 1245 f73d 22cd be3d 0e04 d8bd
000001f0: de70 bc3d 262c 47bd 37d8 a3bd 889f 77bc
00000200: 71fa cb3d cf32 84bd 8e2a cf3d fdce d23d
00000210: f5de b03c 6f92 ab3d 8755 a7bd 0686 87bd
00000220: 42e7 1e3c b8bd 51bd be68 f53d 49d6 de3c
00000230: 45b7 ee3d cb92 b7bc f450 dcbc b3ed 1f3e
00000240: 01b9 383d 6d7f f73d 0d8d 033e 3241 a4bd
00000250: 313c 91bd 85f6 1b3e f456 76bd 0320 fd3c
00000260: f58b 86bd eea0 373c a309 d63d a23a 8abd
00000270: a895 1e3e 2e9b 013e e51a 51bd 2527 023e
00000280: 8209 753c b527 e93d 6832 38bd 0cfa fa3c
00000290: e3b7 fb3a 7a37 bebc 7ac5 6a3d c3aa 2a3d
000002a0: d85f 93bd f446 a8bd c244 73bd 8bfd 4e3d
000002b0: 5469 47bc 86e3 093d ab19 d2bc cba2 02bd
000002c0: 0c1b 5d3d afc7 c83d 3ffa c839 4e74 bd3d
000002d0: b1d8 813d f718 313e c40d 023e aeef a53d
000002e0: ce77 973d 8c5b 68bd bd66 25bd c204 a13d
000002f0: f369 203e 0c5f 233e 9345 66bd a56c 223e
00000300: b462 8ebd 3a1b c43d 01a9 033d dd37 c9bc
00000310: 7a81 e2bd e568 36bc c290 1e3b f046 bf3d
00000320: f32a 8dbd 703c cdbc 768b 223d 8e09 e73d
00000330: 42b5 59bd 1d81 053e 20cf 0b3e f2f6 3bbd
00000340: 40ec 6c3d ed6f 563d 9dee f13d 62ef fb3d
00000350: 81ef debd a877 153d 6956 673d 0bcd 083d
00000360: a0ee cbbc 2785 d43d 0b33 003e 68fd 533d
00000370: 5035 91bc de21 5abd f921 a83b 02b7 1a3e
00000380: 9791 443d a8e3 ecbd 3158 c43d 9821 113e
00000390: 056c 97bd 03a9 193e abba 153e 53f9 e83d
000003a0: ebed 883d fe4f e3bc 9667 ea3d 72b0 d63d
000003b0: 6022 323c 3e53 afbc 573c 593d 8f27 fcbc
000003c0: 61a5 d4bb fd5b cd3d eee7 a63d f024 aa3c
000003d0: 86d2 193e ddcd 073d acbb 893d ac32 1bbd
000003e0: 8e50 5abd 6ad4 733d afdf 153e ef4c 8dbd
000003f0: bd86 a83d d5c6 5f3d 676a 2e3c 3feb 073e
0.071399584 0.112396576 0.018538268 0.13496104 -0.02023574 0.13922533 0.0013031152 -0.00035177136
-0.04714784 -0.03882216 -0.06125938 0.11016043 -0.05794735 -0.024588298 0.09469345 -0.057324644
0.11277191 -0.023232037 0.06800067 0.019056438 -0.11797922 -0.010682711 0.11453345 -0.021432973
0.0578957 -0.05932372 -0.015905404 0.12871659 4.0918085e-06 -0.06553907 0.010142219 0.04054423
0.093077525 -0.004623662 0.083488435 0.10323219 -0.07155192 -0.053332034 0.15209241 0.110764585
0.12957029 0.078168884 -0.009898711 0.08436941 0.1278538 -0.045594707 0.09666599 0.04897742
0.073842585 0.056998797 0.11839203 0.107208595 0.091436125 0.13400948 0.080579564 0.009894172
-0.11627667 -0.09410506 0.11112428 0.01252239 -0.049120095 0.11427339 0.14552306 -0.07633704
0.114611216 -0.027933627 -0.06298235 -0.044664614 0.056004655 -0.09815599 0.051755324 0.056586474
0.05183574 0.009845808 0.0899874 0.111754574 -0.05542963 0.121624626 -0.0043468475 -0.10318694
-0.06019166 -0.12632337 0.012100411 -0.0004182063 0.024935821 0.038689047 0.08995804 -0.11471361
-0.10997679 -0.08538978 0.014733221 0.009340208 -0.019303508 0.068767965 -0.053434547 -0.07702879
-0.047465507 -0.06501507 0.07199381 0.064708635 0.11287602 -0.09760689 -0.028534558 0.075596616
0.10858083 -0.012337238 -0.017406508 -0.039371178 -0.017544853 0.08270335 -0.12114994 -0.04176803
0.04722291 -0.11305728 0.008830409 0.048634876 0.034090344 0.036581203 -0.0027383403 0.07274457
0.031715408 0.12073721 0.0931647 -0.10547648 0.09201215 -0.048626088 -0.08000224 -0.015113719
0.09959877 -0.064550035 0.101155385 0.10293386 0.02159069 0.08377539 -0.0817061 -0.0661736
0.009698691 -0.05120632 0.119828686 0.027201788 0.1165605 -0.022408864 -0.02689407 0.15618019
0.04509831 0.120848514 0.12846775 -0.080202475 -0.07091559 0.15230758 -0.06014152 0.030899053
-0.065696634 0.011207802 0.10451057 -0.067494646 0.15486777 0.12656853 -0.05105104 0.12710245
0.01495588 0.11384527 -0.044969946 0.03063681 0.0019204583 -0.023219813 0.057317235 0.041666757
-0.07196015 -0.08216658 -0.059391744 0.050534766 -0.012171108 0.03366425 -0.025647005 -0.031893533
0.053980872 0.098037116 0.0003833342 0.09250699 0.06340159 0.1729468 0.12700564 0.08102356
0.07395898 -0.05672793 -0.040381182 0.078622356 0.15665416 0.15954226 -0.056218695 0.15861757
-0.0695242 0.095755056 0.032143597 -0.02456277 -0.11059852 -0.011133407 0.002419517 0.09339702
-0.068929575 -0.025053233 0.03968378 0.11281119 -0.053151377 0.13037534 0.1365323 -0.045889802
0.057842493 0.052352834 0.1181309 0.12301518 -0.108855255 0.036491066 0.05647889 0.03339867
-0.024894059 0.10376959 0.12519471 0.05175534 -0.017725617 -0.053254955 0.005131003 0.15108874
0.047990408 -0.115668595 0.09587134 0.14172971 -0.0739365 0.15005879 0.1462199 0.1137568
0.06686004 -0.027748104 0.11445539 0.10482873 0.010872453 -0.021401998 0.05303606 -0.030780582
-0.0064894413 0.10027311 0.08149706 0.020769566 0.15021715 0.03315531 0.06725249 -0.03789012
-0.05329948 0.059528746 0.1463611 -0.068994395 0.08228824 0.05463298 0.0106454855 0.13273333

hidden_layers.1.bias f4 [64]
00000000: b833 e43d 011c abbd 183f 9d3d 8b7b 1b3d
00000010: 43d0 dfbc 4390 5dbd fbae 57bc 3672 af3b
00000020: 8d97 013e 8d3a 053e a5e0 f63d 0891 00be
00000030: a5cd fe3d 996f 883d e376 80bd 8496 003d
00000040: e944 0e3d 4829 143a e9da ac3d 9c02 09bd
00000050: 3e81 7cbc a9ab 07bd 49e4 82bc 69fc 863d
00000060: e6c8 b03d e996 293e 2bee 9ebd 8b7a 4a3d
00000070: b387 54bd 6e3a 303b 9c63 50bd 785a 0bbd
00000080: 6cd9 103e a5f7 cc3d ae5c fcbd 0335 f23c
00000090: c8ff 4e3d f361 963d be64 833d be76 9ebd
000000a0: 2bcf e6bb 72d3 c93d 8c66 fcbd f52a 813d
000000b0: 04ed c83c 379b e4bd 2e03 843d bb56 093e
000000c0: ff6e a1bd 4e44 6bbd 7549 de3d 8048 9abd
000000d0: 249e a9bd a07c 01be cf1b c5bd 029c 0cbd
000000e0: c143 813d 62e7 2ebd c03f ba3c b015 763c
000000f0: e202 02be 0253 2a3e 5b57 bb3d b2c1 5bbd
0.11142677 -0.08354951 0.0767805 0.037959617 -0.027320987 -0.054092657 -0.013164277 0.005354191
0.12655468 0.13010617 0.12054566 -0.12555325 0.12441567 0.066619106 -0.06272676 0.031393543
0.034733687 0.00056519033 0.08440191 -0.033449754 -0.015411673 -0.033122692 -0.015977995 0.06591112
0.08632068 0.16561474 -0.07760271 0.049433272 -0.051887225 0.0026890296 -0.050876245 -0.034021825
0.1414544 0.10008172 -0.12322365 0.029566294 0.0505369 0.07342901 0.064156994 -0.07737492
-0.0070437393 0.09854783 -0.12324247 0.063070215 0.02452708 -0.111624174 0.06445919 0.13411991
-0.07882499 -0.057438187 0.108538546 -0.075333595 -0.08282116 -0.12645197 -0.09624445 -0.03432847
0.06311751 -0.042701133 0.022735476 0.015019819 -0.12696412 0.16633227 0.09147521 -0.05365152

hidden_layers.2.weight f4 [64, 64]
00000000: e0eb 7b3d 7a65 ea3d 6ab0 9abd a443 b4bd
00000010: d0de a53d 8c51 c7bd 00e4 fc39 0869 bc3c
00000020: 609b b2bb 20b7 c1bc 00d4 353d 8c4d 263d
00000030: 9cd2 5d3d 9a33 aabd 9e88 cd3d aee8 eb3d
00000040: b60f c7bd 2295 cf3d 825b 913d 462e 8d3d
00000050: 3670 883d 30c9 d7bd de7e bdbd a8fd cfbd
00000060: 8077 4ebb 729d debd ce38 b8bd 6857 96bc
00000070: 9895 973d 7e08 853d 7a6f b6bd 98bd ccbd
00000080: 0084 9cbb ca41 bb3d 2686 913d 60e9 8ebd
00000090: f099 003c 5e97 b5bd 4872 5bbd 82da e7bd
000000a0: 3027 db3c 30ab 1ebc 082a 79bd 605d 713d
000000b0: 80c9 db3d d0af 2abc 20dc cd3d 46cb ebbd
000000c0: a82e 3ebd 303a da3c 3010 26bc b8a1 91bd
000000d0: 3812 b8bd 18fe debc 9420 223d dc5c b8bd
000000e0: 967f adbd 042f 41bd 8067 adbb 4cb2 28bd
000000f0: f0cd 2c3d 943e cf3d 6a74 e2bd 2075 48bc
00000100: 5932 fa3d e2b0 5e3d 3279 cf3c 8cf9 563c
00000110: 7b1d 9abd 9a19 ac3c a2d0 12bd 0dcc 223e
00000120: a980 93bc 77d9 51bd 2feb dd3d 3297 b63d
00000130: 1ae9 183e b6e0 fc3d 3df4 083e 202f 3dbd
00000140: a250 f83d 2db5 58bb 6119 a3bd ab61 943d
00000150: acea e33d 26c5 553d 9234 e4bc ac48 83bd
00000160: 3801 ae3d 73ea 283d a2ad a6bd e628 5dbc
00000170: 65a0 b03c b75b cabc 6001 fcbb c499 97bd
00000180: 7b53 2e3d f8c2 9b3d 8ed6 b5bd 9130 e93d
00000190: d11a f83d 3eb7 babc 76fb 26bb b80c 76bd
000001a0: 696a 023d 50bf 0d3e c83c 8bbd 5ac3 9a3c
000001b0: 4104 cebd 1c41 ce3d e4db b23b 0976 9a3b
000001c0: 3365 85bc 0730 483c edd0 a93c cd8c 873d
000001d0: 5e03 883d 04f5 d7bc 002b a2bd 6254 1c3e
000001e0: fcfe 9f3d 67c0 00be 734f 9b3d 51a4 b83d
000001f0: 3719 e6bd d071 78bc cc2d bf3d d5b6 003c
00000200: 282d f83c 9670 adbd 08b0 c83d c870 e33c
00000210: 283d a33d 6a85 f3bd c464 f4bd 8678 b13d
00000220: 8491 90bd 36d9 afbd 2c21 af3d 188f a33d
00000230: 382e bdbd 3459 123d 703d 41bd 400e 5d3b
00000240: 4c59 3c3d 2850 ab3c 8006 c03b d0c8 66bc
00000250: c0e4 443d ca60 d03d d4f2 8abd e027 4ebc
00000260: 80a8 e13c 4864 87bd d41a 24bd a875 a0bc
00000270: e01e ec3b e4af f1bd 7689 a3bd 747d 393d
00000280: 6060 b1bc 302e ffbc 64d8 153d 4ad3 c7bd
00000290: fc11 edbd 8021 f53a eeb7 94bd 3059 bcbc
000002a0: b4db cdbd d046 a0bc 5c6e 273d de4c fabd
000002b0: c885 62bd 2092 dc3c d862 0cbd 5cde bdbd
000002c0: 7222 e53d 5a60 a53d 40d7 3dbd 0400 a4bd
000002d0: c6bb afbd 782a 07bd 90de 533c 0837 df3d
000002e0: 604a 753d b417 193d 3e2c 9cbd b6df fc3d
000002f0: c0fe 813b 7470 6e3d 285d 55bd a464 ce3d
00000300: 146d f53c c69e 5b3d ad85 153e 6be4 083e
00000310: 3067 fb3d 4756 d73d b9d2 e93d b336 83bc
00000320: df8a 4bbd 8045 2b3e dd9b 19bd f4e0 aa3c
00000330: efc9 cb3d 8f82 363d eec4 0e3e 8a6f a13d
00000340: c405 6f3b 635d e73d 896f cdbc b88d ecbd
00000350: 3230 0abd 905b 70bc ffe4 e6bc f03b 8fbd
00000360: 36a5 83bc fff8 03bd 6304 fdbb dd78 233e
00000370: e430 0f3e 5b9e 85bc c003 173c aa3e a6bd
00000380: 8798 d03d 043c 6f3d f04f b13d c2f3 363e
00000390: 84b3 033e 6a04 f13d 32f1 5e3c 5ee3 afbd
000003a0: 2a03 69bd 0ad7 83bd aada d6bd a9ac 4a3c
000003b0: c67d 513d f021 d9bd 6226 89bd b50d 933d
000003c0: a0d3 023d b700 5cbd 55bc e23d 305e bdbd
000003d0: 9829 a83c c4f5 c73d a592 97bd c699 04bd
000003e0: 65c8 053d 80bd b83a b816 8a3b bc8c 90bc
000003f0: 3129 a53d 7cf8 173e 681d 483d 400f c7bd
0.061504245 0.11445136 -0.075531796 -0.08801964 0.08099139 -0.09732351 0.0004823506 0.022999302
-0.005450651 -0.023646891 0.044391632 0.0406013 0.05415593 -0.083106235 0.10035823 0.115189895
-0.097197935 0.10135867 0.07097532 0.068935916 0.066620275 -0.1053642 -0.092527136 -0.10155803
-0.0031504333 -0.10869874 -0.0899521 -0.018352225 0.074015796 0.064957604 -0.08907981 -0.099971
-0.004776478 0.09143408 0.07105665 -0.069781065 0.007849202 -0.088667616 -0.053575784 -0.11320974
0.026752084 -0.009684369 -0.0608311 0.05892694 0.107317924 -0.0104178935 0.10051751 -0.11513381
-0.046431214 0.026639074 -0.010135695 -0.071109235 -0.0898785 -0.02722077 0.03958185 -0.090020865
-0.08471601 -0.04716398 -0.005291879 -0.041185662 0.042188585 0.10119358 -0.110573605 -0.012234956
0.12216634 0.054367907 0.025326345 0.01312102 -0.07525154 0.021008302 -0.0358435 0.15898152
-0.018005686 -0.05123278 0.10835873 0.08915557 0.14932671 0.12347548 0.1337442 -0.04618752
0.121247545 -0.0033066974 -0.07963825 0.07245191 0.111287445 0.05218997 -0.027857099 -0.064103454
0.08496326 0.041239213 -0.081385866 -0.0134985205 0.021560857 -0.024701936 -0.0076905936 -0.07402375
0.042560082 0.07605547 -0.08878814 0.113862164 0.1211449 -0.022792455 -0.0025479472 -0.060070723
0.031839762 0.13842511 -0.067987025 0.018891979 -0.10059405 0.100710124 0.005458342 0.004713778
-0.016283607 0.012218482 0.020729506 0.066186525 0.06641267 -0.02636195 -0.07918358 0.15266564
0.07812306 -0.12573396 0.07583513 0.09015716 -0.11235278 -0.015163854 0.09334907 0.007856091
0.03029497 -0.0846874 0.097992 0.02776374 0.07970649 -0.11890681 -0.11933282 0.08665566
-0.07059005 -0.085863516 0.08551249 0.07986277 -0.09237331 0.035729602 -0.047177732 0.0033730417
0.045983598 0.020912245 0.00586015 -0.014085963 0.048069715 0.10174711 -0.06784597 -0.012582749
0.027546167 -0.06610924 -0.040064648 -0.019587353 0.007205829 -0.118011266 -0.07985203 0.045285657
-0.0216524 -0.031149954 0.03658332 -0.09757097 -0.11575696 0.0018702 -0.07261644 -0.022991747
-0.10051671 -0.019565016 0.04087673 -0.122216925 -0.055303365 0.026925147 -0.034273952 -0.09270927
0.111882105 0.08075018 -0.046347857 -0.080078155 -0.08580737 -0.032999486 0.012931481 0.10899168
0.059885383 0.03737612 -0.07625626 0.12347357 0.003967136 0.058212712 -0.052090794 0.100777894
0.029959239 0.053618215 0.14601775 0.13368385 0.12275541 0.10514503 0.11417145 -0.016017294
-0.049692985 0.16725731 -0.03750216 0.02085922 0.09950625 0.044558104 0.1394231 0.078826025
0.0036471942 0.11297109 -0.025077598 -0.11550468 -0.03373737 -0.014670268 -0.028185366 -0.06993854
-0.01606999 -0.032219883 -0.00772147 0.15964074 0.13983494 -0.016310861 0.009217203 -0.08117421
0.10185342 0.058406845 0.08657825 0.17866424 0.12861449 0.1176842 0.01360731 -0.08588289
-0.056887783 -0.064375 -0.104909256 0.012370267 0.051145338 -0.10602176 -0.06696774 0.07180349
0.031940103 -0.05371162 0.11071078 -0.092464805 0.020527646 0.09763673 -0.07401017 -0.032373212
0.032661814 0.0014094561 0.004214134 -0.017645232 0.08064497 0.14840883 0.04885617 -0.097197056

hidden_layers.2.bias f4 [64]
00000000: 203a 28bd 5d29 de3d fc6e 7fbd 2097 103d
00000010: a6fe 0b3e a4f8 d5bd 5228 893d 1ae4 1abb
00000020: e156 1bba c57f a83c a2d3 82bd dbbd 54bd
00000030: 1e3c bdbd 3573 cabc dedc c73c 812d 39bc
00000040: 5e7d a43d 833c 963c b8a5 5a3d 0c47 313d
00000050: 6618 16bd 69c5 98bd 07ee aa3d 00f1 d8bb
00000060: 74d6 5dbd 0cad 90bd fca8 993c 27b1 c23d
00000070: 9959 8f3d 40ed 2cbc 9168 4cbd 1fe0 dabd
00000080: 5dd4 343d 02b6 0b3d 84da a6bd 3f3f 243d
00000090: 4a20 193c a4b6 923d 67e7 b73b e467 943d
000000a0: 07c6 cd3d baa4 913d b454 803b 40b6 463c
000000b0: 51f3 db3d cd4d 373d 3455 46bd ec8d ae3d
000000c0: 1f90 1c3d 9a9a b2bd 1f03 673d 87a0 c33d
000000d0: 56f2 9fbd 4a29 aebd 5bfe f83d 3778 7abd
000000e0: 4ead 653d d3fc 60bc 4fb5 393d 81ab d83d
000000f0: 25f7 a9bd b3a2 54bd faa4 993d d8df 60bc
-0.041071057 0.10847733 -0.062361702 0.035300374 0.1367136 -0.10447815 0.066971436 -0.0023634494
-0.0005925727 0.020568738 -0.06388022 -0.051938873 -0.09239982 -0.024713138 0.02439731 -0.011302353
0.080317244 0.018339401 0.053380698 0.043280646 -0.036644362 -0.07459528 0.08346181 -0.0066205263
-0.054159597 -0.07064256 0.018757336 0.095064454 0.06999511 -0.010554612 -0.04990441 -0.10687279
0.044147838 0.034109123 -0.08147147 0.04009938 0.009346077 0.07163742 0.005612302 0.07246378
0.10047536 0.07111497 0.0039163474 0.012128413 0.10739768 0.04475193 -0.0484211 0.08523163
0.038223382 -0.08720894 0.05639946 0.095521025 -0.07809894 -0.08503969 0.121578895 -0.061149802
0.05607348 -0.013732153 0.045338925 0.10579587 -0.08299092 -0.051912975 0.0750217 -0.0137252435

hidden_layers.3.weight f4 [64, 64]
00000000: f81d 803d 9003 57bc 40d4 00bd ae76 dd3d
00000010: 0731 f33c 5a85 913d fcbe a4bd cdc1 2bbd
00000020: 3c31 353d 1924 103d eb59 513d dcb8 a1bc
00000030: fe32 c33d 8fbd c63d 2384 6dbd 8f47 10bc
00000040: 1aaa a53d e827 08bd 7ede 24bc fef5 a7bc
00000050: cbd1 b43d d22f a8bd ed10 0fbc 089b 25bd
00000060: 8a4d ab3d a4a2 5e3d d493 923c e2f3 08be
00000070: c659 c7bd c853 c23c b567 aabd 8621 9d3d
00000080: fcaf cbbb b42a f03d 60cc cfbd 3fc7 d7bd
00000090: 05f5 6cbd 6efc f3bd 9b43 82bd 831f b4bd
000000a0: 2d29 f7bd 7f41 913d f082 a4bd 8e13 cb3d
000000b0: 59e4 593d 2820 cd3c 7f15 2e3d a020 993d
000000c0: 97c4 843d 057c 2f3d 3c78 e53d a61e 7e3c
000000d0: d754 1f3c 06fd e93d 9f85 b1bd dcfa e33d
000000e0: 1d60 a63c 3b2e 8e3d 5eff e73c 03ff c0bd
000000f0: 634b 9a3d d551 32bd 1bd0 963d ed2e 82bd
00000100: c049 cf3c b361 85bd 203d dbbd 833a 98bc
00000110: 5d69 59bd e099 103d e5e6 013e 9b24 a2bd
00000120: 10a5 483d 20fe b9bd 84b2 ef3d e30e c7bd
00000130: 5a9a c4bd 3118 35bd 1428 a3bd c443 123d
00000140: 2502 40bd bb7b dc3d 3e7e a4bd 6fd8 abbd
00000150: b0bd e23d b384 b73d dac0 c73b a4b3 cabd
00000160: 7859 aebc 080f 2d3d af2e 94bc dd31 d7bd
00000170: ee6f 32bd a8af dc3d 4492 a43d aa86 0bbd
00000180: 1912 3ebd b05d d93c feac b6bd 30e3 b03d
00000190: 0fb0 3a3d 62f6 3d3d 6f92 3ebc e546 df3d
000001a0: 056a 96bd 39de 823d 4489 d83c 10f1 aabd
000001b0: 4e1a eb3d 389b b4bc 8475 d23d 5f7f 0c3d
000001c0: 783c 7dbd 14c7 9cbd d473 3fbd 4ce9 b13c
000001d0: 4119 863d e6e0 9abd 525e 60bd 2792 213d
000001e0: 7522 9cbd 6c43 e5bc ab02 25bd b337 643d
000001f0: 0875 513d 5d57 c0bd c3c6 db3d b6f7 f2bb
00000200: a675 fbbd d4d5 103e b0c2 0ebd 6412 f33d
00000210: a5e7 1cbd 2650 933d 9c84 4cbd 259a f13d
00000220: 91ef 213e ae80 ce3d bb06 953d 10a6 9ebb
00000230: cac3 d63d f5ba 863d ba3b 9c3d 3580 8fbc
00000240: a5ee 283e a490 0b3e d990 ec3d e39b e83d
00000250: 60b6 0c3e 80f6 44bd 5d4f 7dbc c877 eebc
00000260: c878 cb3c 9a53 dfbd 9b7e ce3d 14d6 e1bd
00000270: 0b3e 9f3c a072 b7bc f955 4cbd 7db9 723d
00000280: bd83 8fbc f9bc 8e3d b8f5 d1bc 134a be3d
00000290: 34fc 613c ff3b fd3d bfda 093e 5bb4 843d
000002a0: 2f06 303d 034f 013e d556 dc3c d896 973d
000002b0: 059e 91bb 5838 c83d 5ade 9dbd 26bf 893d
000002c0: e474 173e bb63 d1bd f196 163c 9acd 80bc
000002d0: 1576 7abd 70d7 363d 796c fbbc 4a95 0b3d
000002e0: 96f7 013e cc98 acb9 d9b4 ab3d ddad afbd
000002f0: 5e63 7bbc 0eac 833c 74d3 2b3d b57c 3b3c
00000300: 40c1 05bb e22d fc3c 805a 3abd 6da9 2fbd
00000310: 670f 163d 766f b8bd eea4 9abd 690c 563c
00000320: ecf8 053e 4f8d 223e 1aa1 233e 57cf 1d3e
00000330: be2a f93d 3cdd da3d 7ae9 193e d122 853b
00000340: a895 8d3b 6576 343d 0cd8 8c3c e885 983d
00000350: 87d2 813c 7daf 033e 6273 453c 3e71 da3d
00000360: 78ed 22bd deb9 99bd 2a97 113e 290d f1ba
00000370: 1d24 253e c05c a1bc aaec c03c df2e 1abc
00000380: 6bfa 1b3e 4553 d43d c808 e9bc 76a6 eabd
00000390: 3b29 febc 33e4 893c 4c36 d43d e9f6 8d3d
000003a0: 5c83 d13d abe6 1e3e 18c3 043e 80de c3bc
000003b0: 4006 983d cf20 3e3c e375 3fbd 18b3 c93d
000003c0: a222 71bd 58b0 7bbd 5158 cebd d489 163e
000003d0: 6ee1 7e3d 7e10 dbbd fe88 8b3d 648e 593d
000003e0: 6204 d73d 7e88 bfbd d68e 2e3e 1499 393c
000003f0: ab24 b2bd 417d bc3d 327d b0bd f174 8abd
0.06255716 -0.013123408 -0.031452417 0.10813652 0.029686464 0.07105513 -0.0804424 -0.04193287
0.044236407 0.035190675 0.051111143 -0.019741468 0.0953121 0.09704124 -0.057987344 -0.008806123
0.08089085 -0.033241183 -0.010062812 -0.02050304 0.08829077 -0.08212246 -0.008732063 -0.040431052
0.08364399 0.054354325 0.017892756 -0.13374284 -0.0973392 0.02372159 -0.08320562 0.0767241
-0.0062160473 0.11726895 -0.10146403 -0.1053605 -0.057850856 -0.119133815 -0.06360551 -0.08795073
-0.120684005 0.070925705 -0.08032787 0.09915839 0.053196285 0.025039747 0.04250097 0.07476926
0.06482809 0.042842884 0.112045735 0.015510237 0.009724817 0.114252135 -0.08668064 0.11131832
0.020309502 0.069424115 0.02832001 -0.094236396 0.0753391 -0.043535072 0.07363912 -0.06356607
0.025303721 -0.06512775 -0.10705018 -0.018582588 -0.053078998 0.035302997 0.12685736 -0.07917138
0.04898554 -0.090816736 0.11703971 -0.09719636 -0.09599753 -0.044212524 -0.07966629 0.035709158
-0.046877045 0.10765787 -0.08031891 -0.08390891 0.11071336 0.08960857 0.0060959877 -0.09897545
-0.021282896 0.042250663 -0.018088667 -0.105075575 -0.043563776 0.10775691 0.080357105 -0.034063973
-0.046403978 0.026533931 -0.089197144 0.086370826 0.04557806 0.046377547 -0.011631592 0.10902194
-0.0734444 0.06390042 0.02643264 -0.0834676 0.114796266 -0.02204667 0.102763206 0.034301158
-0.061825246 -0.07655159 -0.04674132 0.02171769 0.065477856 -0.07562427 -0.05477745 0.039446022
-0.0762376 -0.02798625 -0.040285747 0.05571718 0.051137 -0.09391663 0.1073127 -0.0074147834
-0.12278299 0.14144069 -0.034853637 0.11868742 -0.03830685 0.071930215 -0.049931154 0.11796979
0.15814044 0.100831375 0.07276674 -0.0048415735 0.104865626 0.06578628 0.076285794 -0.017517189
0.16497286 0.13629395 0.11551065 0.11357858 0.13741446 -0.048086643 -0.015460816 -0.02910985
0.024837866 -0.109046176 0.10082742 -0.1102716 0.019438764 -0.022393525 -0.049886677 0.059258927
-0.017518872 0.069696374 -0.025629863 0.09291472 0.01379304 0.12364959 0.13462351 0.064797126
0.042974647 0.12627797 0.026896873 0.07401818 -0.004443886 0.09776372 -0.07708426 0.06725912
0.14790684 -0.102241 0.009191261 -0.015723038 -0.061147768 0.04463905 -0.030691372 0.03407792
0.12692103 -0.0003292024 0.08384103 -0.08578084 -0.015343515 0.016073253 0.041949704 0.011443307
-0.0020409375 0.030783597 -0.045496464 -0.042886186 0.036635783 -0.090056345 -0.07550989 0.013064482
0.13083237 0.15874217 0.15979424 0.15411125 0.121663556 0.10686728 0.1503047 0.0040629883
0.004320819 0.044058222 0.017192863 0.074474156 0.015847458 0.12859912 0.012051435 0.106661305
-0.03977725 -0.075061545 0.14217821 -0.0018390763 0.16127057 -0.019697547 0.02355035 -0.009410589
0.15232246 0.10367445 -0.02844657 -0.11457531 -0.03102552 0.016832447 0.10361919 0.0693186
0.10230133 0.1551768 0.12965047 -0.023909807 0.07423067 0.011604502 -0.046743285 0.098486125
-0.05887092 -0.06144747 -0.10075439 0.14701015 0.062226705 -0.10696505 0.068132386 0.05311431
0.10498883 -0.09352206 0.17046675 0.011328001 -0.086984 0.09203578 -0.08617629 -0.06760586

hidden_layers.3.bias f4 [64]
00000000: 0b86 803c dfba 1d3a 61d7 893d 5bb6 193e
00000010: 919a 153e 66fe e2bc 64eb bf3d 78a1 d0bd
00000020: 9a0a 1d3e d81c 8c3d 0f0c fc3c 6b42 983d
00000030: 34c7 303d 9ab0 0b3d 84bf e0bd 092b beba
00000040: 66b6 ddbd 9290 c23d e2d1 dabd 00bb c6bd
00000050: 3b42 a5bd 679b 833d 7596 303d 6a58 aebd
00000060: ba3b 123d d975 9ebc 6829 84bd d025 b0bd
00000070: b477 133e d62f cabd ab52 8f3d ceff a03c
00000080: d4c8 35bd 6c0d d53d cbe9 1fbd f3ae 7abd
00000090: 912e 1dbd a5d7 4c3d abbc aabc f234 3fbd
000000a0: 9473 0abd c75f 993d 2655 8fbd dedd dbbb
000000b0: 5e38 f8bd 8662 84bd 11f6 883d 12d9 423d
000000c0: d8d0 a3bd 5baa 28bd d475 d73d 5076 dbbd
000000d0: 9090 2abd 9599 b03d fb3f c2bd fcb4 cf3d
000000e0: e4f3 c8bc 547f c9bd 9b00 0c3e 46e7 98bd
000000f0: 71f5 163e 5aba cd3d 8051 cbbd 028e 683d
0.015688917 0.00060169207 0.067305334 0.1501097 0.14609744 -0.027709197 0.09371069 -0.10187048
0.15336075 0.06841439 0.030767469 0.07434543 0.043158725 0.034103967 -0.10974029 -0.0014508675
-0.10825805 0.09500231 -0.10684563 -0.09703636 -0.08069273 0.06426125 0.043112237 -0.085129574
0.03570149 -0.019343304 -0.0645321 -0.08600962 0.14401132 -0.09872405 0.069981895 0.019653227
-0.044380978 0.10402951 -0.03904132 -0.061202 -0.038374487 0.050010342 -0.020841917 -0.046681352
-0.03380163 0.07488971 -0.06998663 -0.0067097982 -0.12120126 -0.06464104 0.066875584 0.047570296
-0.07998818 -0.04117809 0.10520521 -0.10715926 -0.04164177 0.086230434 -0.094848596 0.10141942
-0.024530359 -0.09838739 0.13672106 -0.07465987 0.14742066 0.10045309 -0.09927654 0.056776054

output_layer.weight f4 [2, 64]
00000000: 81f4 7bbc 72a7 053e 16ff ea3d 0c92 033e
00000010: 96b9 783d f63d c43d 5c4c aa3d 50b3 1f3d
00000020: fbbb c53d db2a ff3d 1e88 803d 4454 9abd
00000030: 8cbd a6bc 4b2a 62bd 30c5 d33d 9ebb 82bd
00000040: f0e2 fcbc 14b4 0ebd 73db 8cbd 6c76 393b
00000050: f992 37bd 96a0 acbd 088f ce3c 1f16 dbbd
00000060: 595d c83d a5f5 c3bd 504a 81bd c404 fa3d
00000070: 2c9a 183e 8177 b4bd dd5c 233e 0682 e53d
00000080: d486 f0bd 512e 18bd b5d1 f93c fe65 073e
00000090: 962f a1bd 1cfa 463d fb57 163e 9443 65bd
000000a0: 1a31 c03d 220c 1cbd 7807 58bd 3828 42bc
000000b0: 0a40 8a3d 5077 d23c 8748 8d3d 2ad9 b93d
000000c0: c57c b53d 9b5d 213e 05fe c8bd 5a4d c5bd
000000d0: e8b2 aa3c 9c25 843d 8716 a8bd e096 893c
000000e0: 12a2 03bb f33e 9dbc adcf 7c3d 976e de3d
000000f0: 6456 903d e32c 153d 202e 6a3d 395a d0bd
00000100: 7422 193d e2ff 5abd 14fd b0bc cfb6 59bd
00000110: e73d 19bd 5f43 c93d 723c 0ebe a404 68bd
00000120: c93a 04be 7ac9 363d 9f7d 4dbd d13e 1cbd
00000130: 5886 613d 1bba 083d 2292 98bd 1e8c 77bd
00000140: f460 43bd c7d9 843d f1de 963b 661b 0c3c
00000150: e6d5 173c 3828 abbd aa3f d6bd fed5 d73d
00000160: 5391 373d fd37 593d b466 9a3d 5616 8ebd
00000170: c3d1 22bd df48 1dbe ee2f 0dbe 9f33 753c
00000180: a0c2 eb3c 5613 c6bd 7b82 873d 6a07 54bd
00000190: d9bc 373c ef2d 05be fd65 18be 01fa 603d
000001a0: 6be3 21bd f23e cbbd 4207 babc 9d0c 383d
000001b0: c8de b13c 20f1 d9bd ee22 ab3c 9ba6 90bc
000001c0: ddae 33bb 9960 493d 62e8 ee3d 9631 93bd
000001d0: c060 53bb 0409 0b3d d6fa d0bd 582f dcbc
000001e0: 63d1 d43d a9d4 53bc 70b6 883d dec0 8a3d
000001f0: cf78 52bd 895e ebbd 1098 ed3d 89b0 bebc
-0.0153781185 0.13052157 0.11474435 0.12848681 0.060723864 0.095821306 0.08315346 0.038989365
0.09654995 0.12459346 0.06275962 -0.07535604 -0.020354055 -0.055216115 0.10340345 -0.063834414
-0.030869931 -0.034839705 -0.06877794 0.0028299345 -0.0448179 -0.08429067 0.025214687 -0.10697579
0.0978343 -0.09568337 -0.06313002 0.1220794 0.14902562 -0.08811856 0.15953393 0.11206441
-0.117444664 -0.037153546 0.030495504 0.132225 -0.078704044 0.048578367 0.14682 -0.05597265
0.093843654 -0.03809751 -0.052741498 -0.011850409 0.06750496 0.025691658 0.06898599 0.09074624
0.088616885 0.15758364 -0.098140754 -0.09633894 0.020837262 0.06452486 -0.08207422 0.016795576
-0.0020085615 -0.019195056 0.061721493 0.10860937 0.07047728 0.03641976 0.057172894 -0.101734586
0.037386373 -0.053466685 -0.021605052 -0.053152855 -0.03741255 0.09827303 -0.13890246 -0.05664505
-0.1291305 0.044625737 -0.05016863 -0.038145844 0.05505976 0.03338061 -0.074497476 -0.06043636
-0.047699884 0.0648685 0.0046042134 0.008551454 0.009267306 -0.083572805 -0.10461362 0.10538863
0.044816326 0.05303191 0.0753912 -0.06937854 -0.039750826 -0.1535983 -0.13787815 0.014965921
0.028779328 -0.09671657 0.06616684 -0.051764883 0.011214458 -0.13005804 -0.14882655 0.054925922
-0.039523523 -0.09924115 -0.022708539 0.044933904 0.021712676 -0.10641694 0.02089068 -0.017657569
-0.002741746 0.04916439 0.11665417 -0.07187192 -0.0032253712 0.033944145 -0.10204093 -0.026878044
0.103915 -0.01292912 0.06675422 0.06775068 -0.051384743 -0.114926405 0.11601269 -0.023277538

output_layer.bias f4 [2]
00000000: d792 9abd a6e9 c53d
-0.07547539 0.096637055
