abc_env_raw/saved_models/phi_only_0.5_untuned.pt (torch, 72311 bytes, 12 tensors)

input_layer.weight f4 [64, 3]
000000 81 fd dd be a6 ce aa 3b 78 18 ec 3e 7a 1d da be
       -0.4335747 0.0052126227 0.46112418 -0.42600614
000010 a9 80 56 be 4d f3 20 bd 6e 23 a2 bd f7 f7 70 3e
       -0.20947517 -0.03929453 -0.07916914 0.23532091
000020 12 f7 80 bd a1 84 d7 3e c4 96 f2 be 42 cb 01 bf
       -0.06297125 0.42093375 -0.4738065 -0.5070077
000030 04 54 8b 3e 78 8e 81 bc cb 77 12 3f bc 13 90 bc
       0.27212536 -0.015815005 0.5721404 -0.017587535
000040 e2 ed 11 bd 47 42 0c bd 42 dc 3b bc 38 82 09 3f
       -0.035627253 -0.034242895 -0.011466088 0.53714323
000050 e1 f3 f1 3c 4c ac 07 3f e5 67 4f 3e 5b d0 0b bf
       0.029535236 0.5299728 0.20254476 -0.546148
000060 c8 8f 28 3e cf 1a a4 3e 89 a0 89 bd d7 4f e8 3d
       0.16461098 0.32051703 -0.06720073 0.11343353
000070 ef de d3 3e fe 57 de 3e d7 d6 13 be 55 d6 ce 3e
       0.41381022 0.43426508 -0.14437424 0.40397897
000080 90 c8 c8 bd 95 b8 10 be a9 01 bf bc 10 10 9c be
       -0.09803879 -0.14132912 -0.023316221 -0.30481005
000090 b2 c3 13 3f 47 a8 c7 3e ea 83 d4 3e cd f0 24 bd
       0.5772048 0.38995573 0.41506892 -0.040268708
0000a0 b1 d0 68 be 2f df bb 3d d7 a8 bd 3e 43 b2 f0 3c
       -0.2273586 0.09173428 0.37042877 0.029381877
0000b0 a6 97 0b 3f 8e a8 e8 3e f1 73 a5 3d 0d be 2d 3e
       0.5452827 0.45441097 0.08078755 0.1696703
0000c0 6d b9 09 bf d9 e8 e7 3e f5 f2 9a 3e 67 68 55 3e
       -0.5379856 0.45294836 0.30263487 0.20840608
0000d0 3d 05 b4 be a5 4f ae bd 1f a5 13 3f 61 9b f1 3e
       -0.35160246 -0.08511285 0.5767383 0.47188857
0000e0 63 5c 14 3c 2e e5 bd be 7a da 06 bf 95 5a b4 3e
       0.00905523 -0.37088913 -0.5267712 0.3522536
0000f0 d3 5a c3 bc 41 c0 fa 3e 3a ec ea 3e 67 86 f8 bd
       -0.02384702 0.48974803 0.45883352 -0.1213501
000100 04 fe fe 3e 37 d0 f6 be 82 0e 18 3d 51 2c 0c bf
       0.49803174 -0.4820573 0.03712321 -0.5475512
000110 17 01 d4 3e ba d7 0f 3f 13 2a 37 3d 94 4e 0b bf
       0.4140708 0.5618855 0.04471786 -0.54416776
000120 18 02 e1 3e 19 e2 ad 3d 62 4e ef be 86 b7 f3 be
       0.4394691 0.0849039 -0.4673949 -0.47600955
000130 af 95 89 bd 4e a9 c0 3e 52 4b 9a 3c ef f3 8e bd
       -0.06718003 0.3762917 0.018834744 -0.069801204
000140 9d f0 eb 3d 87 c2 10 be 99 f6 c6 3e b7 37 94 3e
       0.11520503 -0.14136706 0.38860014 0.28948757
000150 66 25 df 3e b9 88 02 3f ec 18 9c 3e 83 98 ea be
       0.4358322 0.5098987 0.30487764 -0.45819482
000160 9a 3e de 3e fd 74 95 3e 7f 7a 06 bf b9 5c 43 3d
       0.43407136 0.29190817 -0.52530664 0.04769585
000170 22 ac d5 bd 6b 42 ac be 01 1f db 3d 55 ca ea be
       -0.10433222 -0.33644423 0.10699273 -0.45857492
000180 26 16 c2 3e 01 0b 67 be 83 d7 46 be 86 4c cd be
       0.37907523 -0.22562791 -0.19418149 -0.40097445
000190 91 5b 0a bf 64 a3 d2 be f8 a1 06 3f b2 92 65 be
       -0.5404597 -0.41140282 0.52590895 -0.22419241
0001a0 70 40 f9 bd 7d 48 ec be 00 fc 1e 3e 1c ae b8 3e
       -0.121704936 -0.46149054 0.15525818 0.36070335
0001b0 ee 69 0a bf 77 e9 04 3f 9c 53 87 be d3 4f 04 bf
       -0.54067886 0.5191874 -0.26430976 -0.516843
0001c0 b7 01 f5 3d 69 b8 0c bd 0b 0f e9 be 74 15 fc 3e
       0.11963218 -0.034355555 -0.4551929 0.49235117
0001d0 31 89 65 be 0a 98 0e 3f bf de 8a be e2 f5 32 3e
       -0.22415616 0.55700743 -0.27123067 0.1747661
0001e0 6e 14 87 3b 98 97 35 be 43 13 16 be b4 b0 ea be
       0.0041223085 -0.1773361 -0.14655785 -0.4583794
0001f0 e1 7e dd 3e 42 d4 44 3e 60 aa 65 be 5c bb 0e 3e
       0.43260863 0.19221595 -0.22428274 0.1393866
000200 d7 dd 0b bf c2 9e 52 be 6b da 14 bf 33 14 dd be
       -0.54635376 -0.20568374 -0.5814578 -0.43179473
000210 10 5f a9 be ee d3 0a be d3 c5 60 bd 76 3d 23 3e
       -0.3308034 -0.13557407 -0.05487616 0.15941414
000220 bf ee 4f 3e 58 ab e9 3e a4 7e 3f be c9 07 e2 3e
       0.20305918 0.45638537 -0.18700653 0.44146565
000230 d1 c0 08 3f 0f 15 46 be 18 a6 0a 3f 8e 63 45 3e
       0.53419214 -0.1934397 0.5415969 0.19276258
000240 9e 16 03 3e fe 23 cc be 4e 6d f8 3e e4 c1 f4 3e
       0.12801597 -0.3987121 0.48520893 0.47804177
000250 5b ea a2 be 79 37 29 3e bd 67 b4 3c fa 27 e0 3e
       -0.31819424 0.16525067 0.022022123 0.437805
000260 f8 04 c7 be 5f 20 4b 3e a5 85 af 3e 70 46 7e bc
       -0.38870978 0.19836567 0.3428165 -0.015519723
000270 40 2b cc 3d 09 cf ed be 32 c7 dc 3e 32 a0 f3 3e
       0.09969187 -0.46447018 0.43120724 0.47583157
000280 50 e4 ee be af 50 c4 3d f3 bc 5f be c0 91 d7 3e
       -0.46658564 0.09585702 -0.21849422 0.42103386
000290 e5 11 c4 be 41 54 c5 be 3e c5 ac 3e 1e a5 e5 3c
       -0.38294902 -0.38540843 0.33744234 0.028032836
0002a0 6d ab f5 be 16 5c 56 3e 33 11 ab be cd fb 8f bd
       -0.4798235 0.20933565 -0.3341156 -0.07030449
0002b0 53 f7 9a bd ce 68 a8 bd 32 93 dc 3e ae c1 92 be
       -0.075667046 -0.08223115 0.4308105 -0.2866339
0002c0 e0 02 18 3e 10 8d b4 3e 74 ac 60 3e 8f be d7 be
       0.14844847 0.35263872 0.21940786 -0.42137572
0002d0 63 32 00 3f c3 18 33 3e 5d 41 de be 1a 42 db be
       0.50076884 0.17489915 -0.43409243 -0.4282387
0002e0 91 f2 df 3e 06 ca ed 3e e0 aa f1 3e 3a 3f 7c be
       0.4373975 0.46443194 0.4720068 -0.24633494
0002f0 f1 f7 fe be bc c6 e0 3d 8c 45 b5 be b6 0b cd be
       -0.4979854 0.109754056 -0.35404623 -0.40047997

input_layer.bias f4 [64]
000000 35 32 0f bf 29 f8 fd be bc 3f d9 3e 78 a6 ba be
       -0.55935985 -0.49603394 0.42431438 -0.3645513
000010 93 a9 90 be 43 d2 c5 be 83 01 24 b9 91 12 0b bf
       -0.28254375 -0.3863698 -0.00015640822 -0.54325205
000020 34 a5 3a be 3e aa 9d be 62 d7 1a be 90 4c 68 be
       -0.18227082 -0.30793947 -0.15121225 -0.22685456
000030 ad 71 85 be e2 57 95 3e 4a 72 37 be c9 8b 3b be
       -0.2606329 0.29168612 -0.17914692 -0.18315043
000040 3c b4 fd 3e c4 f2 c9 3e b3 52 92 3a 03 c9 de 3e
       0.4955157 0.39443028 0.0011163562 0.43512735
000050 86 55 16 3e 75 78 95 be 26 3d bf be c8 e7 2d be
       0.14681062 -0.29193464 -0.3735134 -0.16982949
000060 96 27 d6 3c 5b 3e 01 3f 40 d2 7d 3e 22 f9 c6 3e
       0.026141923 0.5048577 0.24787235 0.38861948
000070 f1 a3 5a be 13 e5 fd 3e e7 c4 cf 3d eb 68 38 be
       -0.21351601 0.49588832 0.10144978 -0.18008773
000080 a2 c4 7a 3e 29 13 12 bf d4 bb ab 3e 07 95 f7 3e
       0.24489072 -0.57060486 0.3354174 0.48355886
000090 66 bd e9 bc ad 75 e1 3d e4 5d 93 3d c3 94 b3 be
       -0.028532695 0.11008773 0.071956426 -0.35074434
0000a0 ee 6d 45 be b8 d5 a5 bc d7 9d da be b4 e8 d2 be
       -0.19280216 -0.02024351 -0.42698547 -0.41193163
0000b0 3f e5 e4 be 91 b2 6f bd 95 44 72 3e c1 40 c9 be
       -0.4470615 -0.058519904 0.23658974 -0.39307216
0000c0 17 63 84 bc f9 d9 dd 3e d1 23 08 3f 50 39 c4 bd
       -0.016160531 0.43330362 0.5317965 -0.09581244
0000d0 15 60 cf 3e 5e 3c 09 3f f9 8e 52 be 72 fa 8a 3e
       0.40502992 0.5360774 -0.20562352 0.271442
0000e0 e5 7f 09 bc 26 bd 6d bd 16 cd 61 3e 8e 35 cb be
       -0.008392309 -0.058041714 0.2205089 -0.39689296
0000f0 88 bf a3 be b2 10 bd 3e bc 9f b1 3e 8d b5 09 3f
       -0.31982064 0.369268 0.3469218 0.5379265

hidden_layers.0.weight f4 [64, 64]
000000 34 da e2 3d c6 a4 a1 3d 6a 6f a6 bd 24 30 d1 bc
       0.11076775 0.07892756 -0.08126719 -0.02553565
000010 ec bb dc bd 9a 39 95 3d 98 9a 12 bd 68 4f a6 bd
       -0.10778031 0.07286377 -0.035791963 -0.08120614
000020 90 c0 18 3c 60 32 05 bc f0 87 36 3c 18 3f 87 3c
       0.009323254 -0.008129686 0.011140808 0.016509578
000030 90 09 00 3c 8a 62 a1 bd dc c3 15 bd 80 ba f9 3a
       0.00781478 -0.07880123 -0.03656374 0.0019052774
000040 84 aa 46 bd db 2d f7 3c 00 1e f9 b9 55 36 dc 3d
       -0.04850246 0.030173233 -0.00047515333 0.107525505
000050 8c 6a 4f bd 30 50 2d bd c0 0f 5c 3b e8 53 63 bd
       -0.05063872 -0.0423128 0.0033578724 -0.05549994
000060 12 6d 0c bd 28 f9 94 bd 1f b9 e3 3d fe e5 56 3b
       -0.034283705 -0.07274085 0.111192934 0.0032790895
000070 e4 6f c2 3d 0b 50 92 3d 15 2f f0 3d 80 d0 d2 bd
       0.09493998 0.07144173 0.1172773 -0.102936745
000080 aa 01 e9 bd da ac e2 bd ad 05 89 bd ca 44 e8 bd
       -0.113772705 -0.11068125 -0.06690536 -0.113412455
000090 30 1a 6a 3c fa 52 68 3d 10 00 04 3d 90 9f e9 bd
       0.01428847 0.056719758 0.032226622 -0.11407387
0000a0 20 d0 cb bd e8 81 cb 3c 84 48 d0 bd 78 b8 d9 3d
       -0.09951806 0.024842218 -0.10170081 0.10630888
0000b0 78 3c 50 bd 08 9f 64 3d 1e dc a3 3d a4 a9 f7 3d
       -0.050838917 0.055815727 0.080009684 0.12092903
0000c0 c4 6f 61 bd 1b 3e 24 bd f8 e2 e7 3c d6 07 e3 bd
       -0.05503823 -0.04009829 0.02830647 -0.11085479
0000d0 db 3d ac bd f9 9c e2 3d 14 76 26 3d fb 48 47 bb
       -0.084102355 0.110650964 0.04063995 -0.003040849
0000e0 b2 5b ff bd f4 c9 a5 bc 42 b5 f4 bd f6 74 81 3d
       -0.12468661 -0.0202379 -0.11948635 0.06321137
0000f0 60 6a ca bd 57 8c 43 bd 71 30 a0 3d 5a d9 61 3d
       -0.09883571 -0.04774126 0.078217395 0.055138923
000100 c0 a8 c1 bc cf 21 b1 bd 65 fc bd bc 10 2e 1f 3d
       -0.023640037 -0.086490266 -0.02319164 0.038862288
000110 81 48 55 bd b8 36 6e bd a4 08 0a 3e 70 47 0c bd
       -0.0520711 -0.058157653 0.13479859 -0.034247816
000120 a9 23 07 3d 35 3e 2b bd 6c 10 ca bd e5 b3 da bd
       0.032992993 -0.041807372 -0.098664135 -0.106788434
000130 6c 16 68 3d ff a1 13 3e 5e b5 7e bd f7 07 70 bd
       0.05666201 0.14417265 -0.062184684 -0.058601346
000140 89 e8 00 3e 04 5b dc 3d 16 9f 74 b9 7f 5c 51 3d
       0.12588705 0.10759547 -0.00023328917 0.0511136
000150 0e 9b 17 bd 17 74 75 3d e4 39 03 3e 5c f8 64 bd
       -0.037013106 0.059925165 0.12815052 -0.055900916
000160 56 24 10 3b 40 fd e4 3c 42 77 c2 3c a1 82 1e 3c
       0.0021994314 0.02795279 0.023738507 0.009674699
000170 17 76 8d bd c4 27 11 3e 1a ed 4c 3d 0a b0 ea 3d
       -0.069072895 0.14175326 0.050030805 0.11459358
000180 48 78 a6 bd 42 9c f2 bd 27 e8 8d 3d 56 d8 07 bc
       -0.081284106 -0.1184621 0.06929045 -0.008291325
000190 12 7e 9f 3c 5f a6 df bc f6 1e 4f bd 67 93 78 bd
       0.019469295 -0.027301012 -0.050566636 -0.06068745
0001a0 39 07 d8 3d c4 f5 0d 3e e1 93 94 3d bb 91 75 3c
       0.105482526 0.13863283 0.07254768 0.014988358
0001b0 1f 65 05 3d 48 16 f3 3d 82 12 12 3d 74 d4 ce 3c
       0.03256714 0.11869484 0.03566218 0.02524779
0001c0 e7 3e a9 3a 66 1e f6 bc d2 10 61 3d ee 32 99 3d
       0.0012912423 -0.030043792 0.05494768 0.07480417
0001d0 0c bd 61 bd 90 d1 06 3e fd 97 fc 3d d0 24 42 3d
       -0.05511193 0.13165879 0.12333677 0.04739839
0001e0 bc 31 b1 bc 9d cc dc bd c6 06 20 3d cb 26 37 3c
       -0.02163016 -0.107812144 0.03906896 0.011178683
0001f0 db 1a 80 bd d4 1b 05 3e c8 46 bc 3d 40 e1 ae 3b
       -0.06255122 0.12998897 0.09193188 0.0053369105
000200 98 e0 8e bd 97 af 02 3d 4e 26 a9 bc c6 76 03 3e
       -0.069764316 0.031905737 -0.020648148 0.12838277
000210 9b 32 ec bd fa 69 83 bd 28 d9 68 bd a4 d7 82 3d
       -0.1153309 -0.06416698 -0.05684772 0.063887864
000220 0d 0f 3d bd d9 31 8e 3d ec e6 c7 3a c6 15 8d 3d
       -0.04615693 0.069431014 0.0015251315 0.068889186
000230 46 82 e3 3d ab bf 8e 3d dd dc 39 3d 89 19 bc bc
       0.11108832 0.069701515 0.045376647 -0.022961395
000240 4b 5c 9a 3d 21 26 b4 3d 90 48 0d 3e a1 9d 7c ba
       0.07537135 0.08796335 0.13797212 -0.00096365256
000250 2a e2 bc 3c 4b 3c 54 3d 78 fa 37 bd 12 99 ed 3d
       0.023057062 0.051815312 -0.0449166 0.116014615
000260 cc f7 b0 3c dc 91 a7 3d 2e 9a bd bd 96 8a 34 3e
       0.021602534 0.08182117 -0.09257923 0.17630991
000270 b2 b1 bb bd 47 f5 c6 3d c1 9e 10 3e 02 10 ad bd
       -0.09164752 0.09714752 0.1412306 -0.08450319
000280 d1 5b 11 3e 71 c4 0c 3d 6d 09 d0 bc fb 4c 04 3e
       0.14195181 0.03436703 -0.02539512 0.1291999
000290 e5 1e a2 3d 69 15 21 bc 14 67 0f 3e bd 65 08 3d
       0.07916049 -0.009831765 0.14004165 0.03330015
0002a0 1b 09 03 3e 36 b5 82 bc 48 db 1f 3d dc 57 0e 3d
       0.12796442 -0.015955549 0.039027482 0.034751758
0002b0 62 6a e5 3d 0b 0e 2d 3d 7f ce 23 3c 59 4b bb bd
       0.112019315 0.04224972 0.009997963 -0.09145231
0002c0 9d 64 b5 bb 49 25 04 3e f4 a2 01 3e 39 35 f0 3d
       -0.0055356757 0.12904848 0.12659818 0.117289014
0002d0 ed 61 81 3d dd fa 1b bd 9b ba 94 bc d7 c5 f9 3d
       0.06317506 -0.03808104 -0.018155387 0.12195938
0002e0 68 bb 22 3d c5 d1 78 3d 02 5c 72 bd 57 8f 49 bd
       0.039729506 0.060746927 -0.059169777 -0.049208965
0002f0 5a 34 8f bd b6 e3 ea 3d e9 56 aa 3c eb 7b e1 3c
       -0.06992407 0.11469214 0.020793395 0.027524909
000300 1a 98 15 bd 6b cc 34 3d 13 5e b0 3d 8f 66 56 bd
       -0.03652201 0.04414026 0.08611693 -0.0523439
000310 5a 88 9b 3d 0c 9b 21 bd a8 d8 aa 3a f1 e9 c9 bd
       0.07594366 -0.039454505 0.0013034539 -0.09859074
000320 90 2e 99 3d 39 46 ba 3d 06 45 f9 3d 45 2e 7e bc
       0.07479584 0.09095425 0.12171368 -0.015513961
000330 13 7a c3 bc e0 be 00 3e 4c 57 cb 3d 58 a7 73 3c
       -0.02386192 0.12572813 0.0992876 0.014871441
000340 68 10 d7 3c 9c 18 c7 3d 29 19 0e 3e 1f 50 12 3d
       0.02625294 0.09721491 0.13876785 0.03572094
000350 40 43 c7 3d 0a f8 93 bc c5 05 75 bd ed de b8 bd
       0.09729624 -0.01806261 -0.059819955 -0.09026895
000360 c4 07 2f 3e c2 f9 fc bc c0 9d 9d bd df 4f 1b bb
       0.17092806 -0.030880813 -0.07696104 -0.002369873
000370 de f6 e2 bd 13 34 fd 3d 53 00 31 bd 4a f4 d8 ba
       -0.110822424 0.12363448 -0.0432132 -0.0016552296
000380 4c de 77 bd 2e 47 b0 3c bd e3 f9 3d db 58 25 3e
       -0.060514733 0.021518316 0.12201641 0.16147177
000390 38 56 81 3d ac ae 1d 3c c4 d1 a4 bc 2f 63 b3 3d
       0.06315273 0.009624165 -0.020119555 0.08759152
0003a0 31 6b 5e 3d 60 af ba 3d 6c e0 47 bd 0c ba 55 bd
       0.054301444 0.091154814 -0.04879801 -0.05217938
0003b0 5e 71 4f bd e7 52 bc bd cf 8e 6d 3d ad 34 e0 3d
       -0.050645225 -0.091955 0.05799752 0.10947547
0003c0 2b 3f b4 bd e7 0b 21 3e 52 bf 29 bd 6b b2 9c 3d
       -0.08801111 0.15727197 -0.041442223 0.07651218
0003d0 e0 43 a0 bc 31 a5 8f bd 9f 07 46 bd 05 46 1b bd
       -0.019563615 -0.0701393 -0.04834711 -0.037908573
0003e0 2f 2c 0c 3e 22 7a 76 3d 5f 2f 64 bb 37 e7 ce bd
       0.1368873 0.06017507 -0.0034818274 -0.101026945
0003f0 47 a7 27 bc ef 3f 00 3d 2b f6 28 bd 2b af 30 3e
       -0.010232753 0.03131097 -0.04125039 0.17254321

hidden_layers.0.bias f4 [64]
000000 3f a2 2a bd 23 c9 5a 3a 86 f8 23 3e 63 fc 35 3e
       -0.041658636 0.0008346012 0.16012773 0.17772059
000010 d4 2c 76 bd 1a 80 a6 bd 6c ab 14 bd be 33 c5 bc
       -0.060101345 -0.08129902 -0.036296293 -0.024072524
000020 24 8b fe bb fe 85 6a bb a7 c2 e5 3d 06 a0 15 3e
       -0.0077680517 -0.0035785432 0.112187676 0.14611825
000030 aa e8 0f bc 4e 1e bc 3c 3d f5 44 3d 18 94 68 bd
       -0.008783499 0.02296367 0.04808544 -0.05678186
000040 31 9e 44 3d 7d ff 1e 3e e7 6f 09 3d e8 e7 30 bd
       0.048002426 0.15527149 0.033553984 -0.043189913
000050 8b 06 be 3c 8c b8 b6 3a d4 70 fe 3c a4 f9 79 3d
       0.02319648 0.0013940497 0.03105966 0.06102909
000060 82 4a f0 bb 05 de 02 3e f4 ba ea 3d 67 aa ca 3d
       -0.007333101 0.12780006 0.1146144 0.09895783
000070 f1 57 5a 3d f0 f3 3c 3c 16 27 22 bd d8 96 9b 3d
       0.053306524 0.011532769 -0.039588057 0.075971305
000080 3d 98 7b bd e9 a4 80 bd 33 fc 98 bd e7 ac 0d 3e
       -0.061424483 -0.06281454 -0.07469978 0.13835488
000090 d2 b6 16 bd c9 07 ee bc 99 17 97 bd bf 17 9b 3d
       -0.036795445 -0.029056447 -0.07377548 0.075728886
0000a0 2d 38 be 3d 96 e1 2c 3e c0 bb 39 3d 79 00 51 3d
       0.092880584 0.16882929 0.045345068 0.05102584
0000b0 a7 94 09 3e be 8a a4 bd a9 3a c7 3c 06 53 4d bd
       0.13435613 -0.080342755 0.024319964 -0.050128005
0000c0 c5 37 02 3e 04 82 a1 3d c7 b4 0a bc ad 7c 1d 3e
       0.12716587 0.07886127 -0.008465952 0.15379591
0000d0 55 dd af bd 42 f6 25 3e a8 61 0d 3e 20 59 76 3c
       -0.085871376 0.16207221 0.13806784 0.0150358975
0000e0 38 34 13 3e 4b 10 85 3d 4d cb 33 3e 66 0e 7c 3d
       0.14375389 0.06497248 0.17558022 0.06153717
0000f0 45 89 52 bd bb f1 09 3e 9a 62 11 3c c2 e6 c1 bd
       -0.05140044 0.13471119 0.008873606 -0.09467842

hidden_layers.1.weight f4 [64, 64]
000000 f8 98 a9 bc 9b 03 ca bc ba 1b 38 3e 57 20 ac 3d
       -0.020702824 -0.024659922 0.17979327 0.08404606
000010 b1 14 d4 bd 80 d2 7d 3c 57 53 31 bd e0 40 d1 bd
       -0.10355509 0.015492082 -0.04329237 -0.10217452
000020 46 e8 b5 3c 50 4b 14 3e 21 02 31 3e 94 7a 07 3e
       0.022205483 0.14481854 0.17285968 0.13230354
000030 6c 0b c8 3d 6b e1 0c 3e 11 f4 a4 bb 38 0e 91 3c
       0.097678035 0.13757865 -0.005033978 0.017706975
000040 c3 6a 9d 3d e9 42 ff bc 1b c7 cc 3d c2 98 d0 bd
       0.07686379 -0.031159835 0.09998914 -0.10185386
000050 a5 a1 0a 3d 93 78 1a bd 27 19 47 3c 26 13 ec 3d
       0.033845562 -0.037712645 0.012151993 0.1152709
000060 f1 89 8b bd 3c b2 0e 3d 68 8f 39 3e 9b 5e 14 3e
       -0.068134196 0.034837946 0.18121111 0.14489214
000070 26 cc cc 3c d8 ed f6 3d ea 28 cf bc 35 6b 14 3d
       0.02499969 0.12057084 -0.025288064 0.036235053
000080 ef d7 30 3d 64 43 d9 3d f5 a0 7a bd 33 75 05 3e
       0.04317468 0.10608557 -0.061188657 0.13032989
000090 96 1d ac bd e7 23 ed 3d d4 04 7a 3d 6c 2a af bc
       -0.084040806 0.115791135 0.06103976 -0.021382533
0000a0 4e c7 6c bd 89 a2 b8 3d a6 d7 9f 3d ab 6f 13 3e
       -0.05780726 0.09015376 0.078048036 0.14398067
0000b0 76 87 ac bb dd 4b f5 3a 96 7a 12 3e e5 c3 26 bd
       -0.0052651716 0.0018714626 0.14304575 -0.040714163
0000c0 c2 32 b1 bc eb c2 4e bd 92 09 33 bd 56 d5 f7 3c
       -0.021630649 -0.050478857 -0.0437103 0.030253094
0000d0 eb 04 07 bd ba 26 26 3e 58 10 07 3e 68 4e ba bc
       -0.032963675 0.1622571 0.13189828 -0.022742465
0000e0 44 40 4b 3d 8b 01 f0 3d 94 d7 33 bd 17 11 6d bd
       0.049621835 0.11719044 -0.043906763 -0.057877626
0000f0 90 b1 c0 3d af 82 24 bd da 16 cc 3d 7f 88 76 bc
       0.09408867 -0.040163692 0.09965296 -0.015047192
000100 eb 27 85 bd 99 4b 72 3b 41 f2 6c 3d 4d 74 15 3d
       -0.065017544 0.003697133 0.05784822 0.036487866
000110 e1 bc 32 3c 38 4b ac bd d3 4c b2 bd 6e 49 37 bd
       0.01090929 -0.08412784 -0.08706059 -0.044747762
000120 7f a9 df 3d 4b a1 2c 3e 58 aa 10 3e 5e 2f 7a bd
       0.10921001 0.16858403 0.14127481 -0.06108033
000130 7e 9b 88 3d cf 88 1e 3b f5 d9 6e 3d 00 60 74 39
       0.06670283 0.002419043 0.05831333 0.00023305416
000140 e5 56 a7 bd 55 e2 f7 3d 3d 3e 59 bb 40 4d 03 3e
       -0.08170871 0.12103716 -0.003314867 0.12822437
000150 df 4d cd bd 54 a0 d3 3c 68 38 cb bc 0c 3b 75 3d
       -0.10024618 0.025833286 -0.02480717 0.059870765
000160 ed 0a 08 3e 4e d8 86 bd 31 09 17 3e 99 d7 08 3e
       0.13285418 -0.065842256 0.147496 0.13363494
000170 36 da aa 3d 80 d9 c5 ba f9 38 b9 3d 9a 32 f2 3d
       0.08342402 -0.0015094727 0.0904407 0.11826058
000180 51 75 42 bd f0 59 5d 3d cf 8f de 3d 83 f5 4c 3d
       -0.047475163 0.05404085 0.10867273 0.050038826
000190 30 70 23 bd 04 05 e2 3d fe 39 69 bd 84 63 a3 3d
       -0.039901912 0.11036113 -0.05694007 0.079779655
0001a0 7a 42 b7 bd 36 46 18 3a 42 00 fb 3d 80 01 e9 3d
       -0.08948226 0.0005808802 0.122559085 0.11377239
0001b0 df 14 48 bb 23 e2 81 3d 64 17 af 3c ef 7a 18 3d
       -0.0030530018 0.0634196 0.021373458 0.037226614
0001c0 68 df dc 3d 49 72 82 bd 35 d6 0d 3c 59 7d 0b 3e
       0.10784799 -0.063694544 0.008657028 0.13622035
0001d0 48 7d e4 3d ac be 3d 3e f4 f1 00 bd 08 69 b2 3c
       0.11156708 0.18529767 -0.031480744 0.021778598
0001e0 bc 2b d4 3d 17 4c c1 3d 48 6a 70 3d ec 1c c8 3d
       0.10359904 0.09438341 0.058695108 0.097711414
0001f0 62 94 d0 3d ed fc 81 3d 18 6e bb bd 99 08 55 3d
       0.10184552 0.0634707 -0.09151858 0.052010152
000200 54 5d 2b 3d f8 58 ab 3c 20 6b f7 3b 94 74 01 bd
       0.04183705 0.020916447 0.007550612 -0.03160532
000210 ce a9 8d 3d 98 51 6d bd 20 ce 82 bb d8 a2 90 3d
       0.06917153 -0.057939142 -0.003991857 0.0706231
000220 f4 fb e4 3d 58 4c d2 3c 10 a8 c7 bd 00 78 5d bb
       0.11180869 0.02567117 -0.09748852 -0.003379345
000230 20 a6 a3 3d ca a6 94 bd c8 41 7a 3d 3a cd ab bd
       0.0799067 -0.07258375 0.06109789 -0.08388753
000240 4e 54 b9 bd 9a db da bd 50 26 99 bc b8 c4 eb 3d
       -0.09049283 -0.10686417 -0.018695027 0.115121305
000250 ec 9a ed bd 42 7f ae bd 98 36 c5 bd 7e b6 da bd
       -0.11601815 -0.08520366 -0.096295536 -0.10679339
000260 e2 4e 82 3d a4 df e8 bd a4 84 17 bd 2e f8 88 3d
       0.06362702 -0.11370781 -0.03699173 0.066879615
000270 c8 47 9d 3c 60 28 b1 bb bc a5 7a bd 1c ee ec bd
       0.019199267 -0.0054064244 -0.061193213 -0.11568853
000280 d0 a2 3d bc 38 ef a6 bc f0 9d d9 3c 68 05 b3 bc
       -0.011574462 -0.02037774 0.026564568 -0.021853164
000290 b6 cd cc bd fe 63 83 bd e8 51 91 3d d0 70 50 3d
       -0.10000174 -0.06415556 0.070957005 0.050888836
0002a0 c0 24 4c bd 80 0c 1b 3b 70 53 68 3c 44 60 4f bd
       -0.049839735 0.0023658574 0.014180049 -0.050628915
0002b0 38 a7 f9 3d 6e e6 df 3d 44 37 39 bd 2a 38 83 3d
       0.121900976 0.10932623 -0.04521872 0.06407197
0002c0 84 9a 2d bd c2 ad ea 3d 98 ab 50 bd 7c a2 a9 3d
       -0.042383686 0.11458923 -0.050944895 0.082829446
0002d0 b4 9d ae 3d f8 98 e6 3c 24 5c 8c bd 54 e3 80 3d
       0.08526173 0.028149113 -0.06853512 0.062933594
0002e0 8a e3 a4 bd f0 b9 02 3c 18 b4 d6 bd b0 87 b3 3c
       -0.08051212 0.007978901 -0.10483569 0.021915287
0002f0 00 08 fc 39 96 25 aa bd f0 3b 1b bd b4 6c a1 bd
       0.00048071146 -0.0830795 -0.037898958 -0.078820616
000300 80 e6 bb bb 10 63 f8 bd 60 d3 bc bd 3a b8 cb bd
       -0.005734265 -0.1212827 -0.09220004 -0.09947248
000310 e0 b8 d6 bd 52 e8 bc 3d 56 0c b3 bd d4 71 1a 3d
       -0.10484481 0.09223999 -0.08742587 0.03770621
000320 b0 bd d3 3c 40 ea c6 3c 2c 77 30 bd ac f0 9a 3d
       0.025847286 0.024281621 -0.0430824 0.07565436
000330 a8 51 6b bd 00 3c 33 ba 60 9f 11 3d 00 1a f0 bc
       -0.05745092 -0.0006837249 0.035552382 -0.029309273
000340 10 c4 c8 bd 6a b0 b7 bd 58 71 0e 3d a0 9d f8 bd
       -0.09803021 -0.08969195 0.03477606 -0.121394396
000350 e0 1e b4 3b 90 32 1a 3d dc 5e ff 3d 50 f4 4f 3d
       0.0054968446 0.037645876 0.12469265 0.050770104
000360 c8 ca 8f bc cc 92 3e 3d 40 c4 ab bd cc d5 c3 bd
       -0.017552748 0.046526715 -0.08387041 -0.09562263
000370 90 f3 0e 3d 78 77 f1 bd e0 52 28 bc c0 13 6c 3b
       0.034900248 -0.11790365 -0.010273665 0.0036022514
000380 0a ba b7 3d 90 f8 50 3d 28 11 42 bd ee 94 f0 bd
       0.08971031 0.051018298 -0.047379643 -0.11747156
000390 80 98 d2 3b ae a9 8d bd 54 5c 7f bd 66 05 d2 bd
       0.006426871 -0.069171295 -0.06234391 -0.10254936
0003a0 70 c0 68 bd 7c 86 94 3d e2 ef e2 bd 00 f2 df ba
       -0.056824148 0.07252213 -0.1108091 -0.0017085671
0003b0 60 45 8b bb 8c 90 dc bd 00 e7 97 3d 20 40 d8 3b
       -0.0042502135 -0.10769758 0.07417107 0.006599441
0003c0 1c ce c7 3d 30 fa bd 3c 94 43 cf bd c0 23 df bd
       0.09756109 0.023190588 -0.101203114 -0.10895491
0003d0 10 d6 57 bd 34 bd a9 3d fe ec a7 bd 90 8f 25 bd
       -0.05269438 0.08288041 -0.081994995 -0.040420115
0003e0 f0 1f 6b 3d 40 e8 29 bd 98 5f 0c 3d 00 a6 da 3b
       0.057403505 -0.041481256 0.034270853 0.006672621
0003f0 58 a0 de 3d c0 b6 49 3c 7c 53 0a bd 1c 79 68 bd
       0.10870427 0.012311637 -0.033771023 -0.056756124

hidden_layers.1.bias f4 [64]
000000 3e fe b4 3d 8c 58 56 3d 40 e6 c2 bd 48 7e 8b 3c
       0.08837555 0.05233054 -0.09516573 0.017027989
000010 25 f1 11 3e 9c 54 93 bd 60 b8 28 3d 99 63 b9 bd
       0.14252146 -0.07193872 0.04119146 -0.090522
000020 18 46 3a bd 27 93 84 3d c1 d9 65 3c 2e 0a fa bc
       -0.045477003 0.064733796 0.014028967 -0.030522432
000030 04 c3 ad 3d 7d 24 d7 bd 3c 9a 9d bd db 15 8c 3d
       0.08484462 -0.105050065 -0.076954335 0.06840106
000040 f0 f2 38 bd bd 6f 0b 3c 40 d0 27 3c a5 9b 68 3d
       -0.04515356 0.008510527 0.010242522 0.05678906
000050 ac f3 ce 3d 1c 01 9b 3d 73 40 42 3d 1b 28 96 3d
       0.101050705 0.07568571 0.047424745 0.07331868
000060 0a b0 83 3d 8d 4e 1e bd 22 56 c2 bd e3 27 53 3d
       0.06430061 -0.03864913 -0.09489085 0.05155171
000070 b6 3c d0 bd 79 7e 60 3d cf b7 d7 bc e7 3e f8 3d
       -0.1016783 0.054808114 -0.026332764 0.12121373
000080 0f d6 5f 3d 68 47 18 bd 1e 98 fa bd 4e 3a 0f 3d
       0.0546475 -0.037177473 -0.12236045 0.034967713
000090 f6 5c 96 bd 6d 2e 66 bc 5f 9c ee bd 50 71 b0 bd
       -0.0734195 -0.014049155 -0.11650919 -0.08615363
0000a0 8c 7c 12 bd fb d1 62 bc 56 f3 98 3d f4 79 9e 3d
       -0.03576331 -0.013844009 0.07468288 0.077381045
0000b0 42 4d c4 3c c5 82 e6 3c 20 cb 27 bd c1 b0 b4 bd
       0.02396262 0.028138528 -0.0409652 -0.08822776
0000c0 1a 7d d5 bd c2 13 d1 bd 9e c0 85 bd 20 be cd 3b
       -0.10424252 -0.10208847 -0.065308794 0.006278768
0000d0 78 37 ed bc 14 03 2d 3e a8 a2 80 3d 69 81 17 3c
       -0.028957114 0.16895705 0.06281024 0.009247162
0000e0 68 e3 4c bd 65 cc 13 3e c7 fa 17 3e 1a 5b 05 3e
       -0.05002156 0.14433439 0.14841758 0.13023034
0000f0 12 c7 b3 3d 9c cc e9 bd cc a8 8b 3d 21 81 86 3d
       0.08778204 -0.11415979 0.06819305 0.06567598

hidden_layers.2.weight f4 [64, 64]
000000 64 77 2f 3c 4c 54 c1 bd ea 6a b1 3d da 9d d7 bd
       0.010709617 -0.094399065 0.0866297 -0.10528155
000010 6d 87 24 bd d0 d0 e2 3d 97 95 e0 3d 1f 08 b1 bd
       -0.040168215 0.11074984 0.10966032 -0.08644127
000020 ae 4a cc 3d 4c 2c 00 be 5d 6a 90 3c 14 e4 11 3d
       0.099751815 -0.12516898 0.017628843 0.035617903
000030 05 e1 67 3d 00 2f 71 3b 02 a4 b0 3d 0e dd eb bd
       0.05661108 0.0036801696 0.08625032 -0.11516772
000040 6c 07 e4 bd 77 0e 81 bd c8 41 e6 bc a0 e7 fb bd
       -0.11134228 -0.06301587 -0.028107539 -0.12300038
000050 68 ed 99 3c 4f 28 00 be c0 01 f6 bd 1f 69 e7 3d
       0.018789962 -0.12515377 -0.120120525 0.11299347
000060 2c a6 c7 3d ea 0d 01 bd 58 b0 b0 3d e8 28 c4 3c
       0.09748492 -0.03150741 0.08627385 0.023945287
000070 d8 d0 90 3c 0e ed fd bc 0e d0 bd bd 20 73 8c 3c
       0.01767771 -0.030996826 -0.09268199 0.01714474
000080 95 f3 91 3d cc 05 52 3d 08 80 1a bd 5c ae 67 bd
       0.07126538 0.05127506 -0.037719756 -0.056562766
000090 08 a2 8c 3c 90 57 4f 3d 58 46 df bd 70 17 50 3c
       0.017167106 0.050620615 -0.10902089 0.0127009
0000a0 f2 04 d3 3d 26 13 b8 3d a0 c5 72 3d 7a 9f e3 3c
       0.103036776 0.08988027 0.0592705 0.027786005
0000b0 c9 d7 ec bd da d7 f0 bd 5e 3d af 3c 95 2b 26 3c
       -0.11564595 -0.117599204 0.021391567 0.010142227
0000c0 4a f3 d9 bd 30 61 3d bc 18 db ee bd 24 6b 4c bd
       -0.10642107 -0.011558816 -0.116628826 -0.049906865
0000d0 80 d4 a5 3d 6c b1 9a 3d f4 ec 23 bd 4e 4b d2 3d
       0.08097172 0.07553372 -0.040020898 0.102682695
0000e0 8a fd a9 3d 22 b4 06 3d 9c ed e8 3c 3a f4 d7 3c
       0.08300312 0.03288663 0.028433613 0.026361573
0000f0 54 c5 f8 3d b4 5c 48 bd e4 48 18 3d ea 87 dc bd
       0.12147012 -0.048916534 0.03717889 -0.10768111
000100 27 78 41 3d b8 3f 99 3d 78 69 1f bd 10 51 75 bc
       0.047233727 0.074828565 -0.038918942 -0.01497294
000110 b7 8c 54 3b 3f 6d a8 3b 79 7a 78 3c c2 6a d4 bd
       0.0032432505 0.0051399763 0.0151659185 -0.10371925
000120 b2 d2 a6 3d 32 3e 06 3e e3 10 00 3e b7 8c 54 3d
       0.08145656 0.13109663 0.12506442 0.05189201
000130 3f e4 c4 3d d7 c2 84 bc 46 b3 fd bd f8 f6 cc 3c
       0.09613847 -0.016206188 -0.12387709 0.025020108
000140 a0 f3 bc 3b 90 13 10 3d b0 b9 3d bc 91 bf fc 3d
       0.005766347 0.035174906 -0.011579916 0.12341226
000150 c8 fb 2b bd 64 14 05 3c 9e 92 d5 bc 5f 67 c8 3d
       -0.041988164 0.008122537 -0.02607089 0.097853415
000160 9e 88 15 3e b2 0a 81 3d 33 7d fd bd c9 30 09 3e
       0.14602897 0.06300868 -0.123773955 0.13397516
000170 25 bb b8 bd 80 3a 82 bd ee ec 7b 3d 14 9c 9c bd
       -0.0902007 -0.06358814 0.06150525 -0.07646957
000180 bd 84 1c 3d ac d7 f0 bd 00 c8 57 39 53 c5 c7 3d
       0.038212527 -0.11759886 0.00020578504 0.097544335
000190 94 70 4a bd fb 7d 5b bd 73 6b d7 3d 68 f9 89 3d
       -0.04942377 -0.05358694 0.10518541 0.067370236
0001a0 0c b3 69 3d 3b bc 86 3d c0 19 21 3c 66 2b 57 bd
       0.057055518 0.06578871 0.009832799 -0.052531622
0001b0 27 98 c7 3d 87 e6 dd 3d 4f 73 8c 3d ff 6b 3d 3c
       0.09745818 0.10834985 0.06857931 0.011561393
0001c0 8c 71 c5 bd 6f c2 87 bd 57 6e bd 3d 50 ca d1 bc
       -0.09640798 -0.06628882 0.09249561 -0.025609165
0001d0 40 32 76 3c 1c ab f8 bc bf 3f 25 bc 71 40 af bd
       0.015026629 -0.030355029 -0.010085999 -0.08557213
0001e0 44 a9 d9 3d fd dd 5f bd ac 67 1b 3e 6e ab a6 3d
       0.10627988 -0.054655064 0.15176266 0.08138166
0001f0 ef cb d5 bd 9e 0d e6 3d 20 f7 ed bb 69 68 e9 3d
       -0.10439288 0.11233066 -0.0072621256 0.11396868
000200 a3 98 d3 3d c3 6d 01 be 08 8a 3c bd b4 c5 0b 3d
       0.103318475 -0.12639527 -0.046030074 0.03412409
000210 f4 f9 b6 3d 98 b7 de bd 78 3e 39 3d 7c 4a fb bd
       0.089343935 -0.108748615 0.04522559 -0.12270066
000220 f8 0c e6 3d 74 11 ef 3d 4b 9e e3 3d 60 77 46 3c
       0.11232942 0.11673251 0.11114176 0.012113422
000230 df f6 a6 bd e0 c9 98 bb ec f2 5f bd 0f 99 c9 bc
       -0.08152556 -0.0046627373 -0.054675028 -0.024609117
000240 1e 95 85 bd 1f 2b 01 be 0e 58 d4 3d 7e 41 fe bd
       -0.065225825 -0.12614106 0.103683576 -0.124148354
000250 e0 f3 d6 bc ab ea 12 3d 98 0a 81 bc e9 81 93 bd
       -0.026239336 0.035868328 -0.015752122 -0.07202513
000260 95 02 0c 3d cd ba 13 3d 72 fb d9 bd 3e e9 72 bd
       0.03418215 0.03606682 -0.106436625 -0.05930447
000270 30 d7 22 3c ac 1d b6 bd 86 4c 89 3d 1a c9 8c 3d
       0.009939 -0.08892378 0.06704049 0.068742946
000280 8f ac a0 3d c4 8d f2 3d dc 7b 4f bd 64 1d a3 3d
       0.07845413 0.11843446 -0.05065523 0.0796459
000290 40 14 ed 3b 1a f5 9b 3d 55 1f 02 3d 84 b3 1b bd
       0.00723508 0.07615109 0.03176816 -0.038012996
0002a0 ae f0 c1 bd e7 93 95 3d 74 65 a2 bd 73 13 fe bd
       -0.09469734 0.07303601 -0.07929507 -0.124060534
0002b0 c6 a0 f6 bd 72 db 3a bd 62 c4 86 bd e2 3d 03 bd
       -0.12042384 -0.045619436 -0.06580426 -0.032041438
0002c0 c0 75 90 3b b6 f1 a8 bd e2 2d bb 3d 44 dc 25 3d
       0.004408568 -0.08249228 0.09139611 0.040493265
0002d0 20 3e d9 3b c6 05 94 bd b2 6a 33 3b 7e 8f ef bd
       0.0066297203 -0.07227664 0.0027376828 -0.11697291
0002e0 d4 49 46 bd 30 80 cf 3d b5 12 85 3c cf 45 76 bd
       -0.04841025 0.10131872 0.016244272 -0.06012517
0002f0 18 e4 e2 3d 66 91 ca bd 60 0d 2a 3c 2d c0 c4 bb
       0.11078662 -0.09891014 0.010379165 -0.0060043545
000300 1f 6e d3 3c 6b 66 b1 3c 1e 9a db bd f8 c8 da 3d
       0.025809346 0.021655282 -0.10722755 0.10682863
000310 67 b0 f2 3d b2 a0 a0 3d 46 c1 8c 3d 54 96 4d 3d
       0.11850052 0.0784315 0.068728015 0.050192192
000320 1f 00 e7 3d d8 58 ad bc 87 b9 92 bc 61 d2 99 bd
       0.1127932 -0.021160528 -0.017910732 -0.0751083
000330 12 73 cc bd d4 95 27 bd b8 84 fb bd 2e 52 00 3e
       -0.099828854 -0.04091437 -0.122811735 0.12531349
000340 dc a0 58 bd 56 30 1e 3d 5c db c2 bd df 55 45 3d
       -0.052887782 0.038620315 -0.09514496 0.048177596
000350 94 f2 cb bd 65 c3 d3 3d a8 a3 b8 bd af bd 08 3e
       -0.099583775 0.10340003 -0.0901559 0.13353609
000360 92 4b d2 bd e6 85 11 3e f6 ce 2b bc 9c 3a cb 3d
       -0.1026832 0.14211234 -0.010486355 0.09923288
000370 bc b2 2f 3c 88 6e 6c 3d 11 30 dc 3d 61 40 3e 3d
       0.010723766 0.0577226 0.107513554 0.046448115
000380 95 62 6a 3d 00 a5 92 ba a8 c0 ca 3d 06 c1 b0 bc
       0.05722292 -0.001118809 0.099000275 -0.021576416
000390 46 36 af bd 9c b8 c1 bc 9e 15 52 bd 70 9a e0 bc
       -0.08555274 -0.023647599 -0.051290147 -0.027417392
0003a0 7c 6a 91 bd 29 52 0b bd b8 66 44 3d 0d 56 11 3e
       -0.071003884 -0.0340139 0.047949523 0.14192982
0003b0 32 a7 57 3c 8e 71 dd 3c 16 b8 cc bd d2 5e 6c 3d
       0.013162421 0.027031686 -0.09996049 0.057707615
0003c0 d6 35 b1 bd 64 0a 18 bd 77 a6 a3 3d 00 b9 18 ba
       -0.086528465 -0.037119284 0.07990735 -0.0005825907
0003d0 60 11 14 3c 7d 40 28 3e b8 72 35 3d 59 91 2a bd
       0.009037346 0.1643085 0.044298857 -0.04164252
0003e0 80 e0 55 3d 89 55 cc 3d 3e e7 0b 3d 9f 7e d3 3d
       0.052216053 0.09977252 0.034156077 0.103268854
0003f0 e0 b5 e4 3c 40 ce 0f bd a8 3b f3 bd cd d4 52 3d
       0.027918756 -0.035108805 -0.11876613 0.051472474

hidden_layers.2.bias f4 [64]
000000 1f 01 09 bc b6 80 fc 3d db 83 57 bd 6d 7b 67 3c
       -0.008362084 0.12329237 -0.05261598 0.014128548
000010 70 a8 d5 bd 4b 25 99 3c a9 75 0d 3e bc 6a 1a bd
       -0.104325175 0.01869454 0.13814415 -0.037699446
000020 70 f6 e7 3c 67 08 7d 3d 1d 87 bf 3d d4 bb 26 bd
       0.028315753 0.06177559 0.09351943 -0.04070647
000030 c0 cf 49 3d b8 78 a8 bd 83 3c c5 3d 1c 5c 62 bd
       0.04927039 -0.0822615 0.09630682 -0.055263624
000040 91 5d 17 3d b2 f7 3d bd 16 0e 3d bd b8 f7 a1 bd
       0.036954466 -0.0463788 -0.04615601 -0.07908577
000050 c4 b9 d5 bc a9 df fe 3d a2 ac 00 3e 70 0b a8 bd
       -0.026089557 0.124450035 0.12565854 -0.082053065
000060 55 03 91 3d 80 5c 59 3c 6b 74 55 bd 7b fa ec 3d
       0.07080714 0.013266683 -0.052112978 0.11571213
000070 02 f6 a6 3d 69 f7 aa bd 5b 74 9b bd 12 12 4c 3d
       0.08152391 -0.08347971 -0.075905524 0.04982192
000080 10 40 96 bb f1 e7 c3 bd 8a bd a6 3d 4c df 85 3d
       -0.0045852736 -0.09565724 0.081416205 0.06536731
000090 aa 58 bd bd 78 de de bc dd 12 bf 3c bd c0 35 3d
       -0.09245427 -0.02720569 0.023324424 0.044373263
0000a0 a4 b4 ae bd a7 d2 8d 3d 17 01 0b 3e 40 04 2d bd
       -0.08530548 0.06924944 0.13574634 -0.04224038
0000b0 de 27 9f bd 90 91 05 3c b0 7f 57 bc 91 e5 d6 3b
       -0.07771276 0.008152381 -0.013153002 0.006558128
0000c0 e2 06 ca bd 70 8c b5 bd b3 85 1c bd f8 3e 32 3d
       -0.09864594 -0.08864677 -0.038213443 0.043517083
0000d0 55 5a ba 3d e2 cb 59 3d c7 38 70 3d 8e 4e 26 bc
       0.09099261 0.053172953 0.058647897 -0.010150565
0000e0 0c ff 06 bd e7 e5 b5 3d 51 6f 4a 3c 7b 47 98 3d
       -0.032958075 0.08881741 0.012355641 0.07435509
0000f0 70 da 12 bc e5 a2 41 3d 2e 9a 8a 3d 19 e3 da 3a
       -0.008963212 0.04727449 0.06767689 0.001669976

hidden_layers.3.weight f4 [64, 64]
000000 00 0a af ba 4a d4 a0 3d b0 ce 4b bd 80 fd 42 bd
       -0.0013354421 0.07852991 -0.04975766 -0.047605038
000010 48 44 9a bd 28 5f 50 bd 68 e1 e0 3d 3c 82 28 bd
       -0.07532555 -0.050871998 0.10980493 -0.041139826
000020 90 c5 67 bd 10 7a 5f 3c c2 60 b5 bd 80 f6 fe bb
       -0.056584895 0.013639942 -0.08856346 -0.00778085
000030 98 3d b4 3c 60 53 f4 3d 70 b7 56 3c f0 32 6f 3d
       0.022002026 0.11929965 0.013105258 0.058398187
000040 20 13 e3 bb be bd e7 bd 2c 44 a5 bd 4e 24 e6 bd
       -0.00692977 -0.11315487 -0.080696434 -0.11237393
000050 28 49 f6 3d 34 72 c2 bd e8 39 e0 3c 18 08 58 bd
       0.12025672 -0.09494439 0.027371362 -0.052742094
000060 d8 72 13 3d 98 50 b1 bc b0 10 d3 3d 08 ee 69 3d
       0.035998195 -0.021644875 0.10305917 0.05711177
000070 e0 8f 88 3d b4 d9 16 bd 5e 21 95 bd 22 b6 c5 bd
       0.06668067 -0.03682871 -0.07281755 -0.0965388
000080 68 de ba 3c 3c 11 55 3d b6 07 f6 bd b8 5f 89 bd
       0.02281113 0.05201839 -0.120131895 -0.0670771
000090 36 83 bf 3d 00 14 70 3d 9c 3e 0f 3d e8 f4 4f bd
       0.093511984 0.058612823 0.03497182 -0.05077067
0000a0 20 bf 3b bd a0 e5 6e 3d d0 31 75 3d d4 72 06 3d
       -0.045836568 0.058324456 0.059861958 0.032824352
0000b0 00 f1 ab 3d 68 f8 3f bd f8 c4 02 3d 72 59 e0 3d
       0.083955765 -0.046867758 0.031926125 0.1095456
0000c0 90 47 fa bc 40 bf 3a bc fc ad 35 3d 26 fd b0 3d
       -0.030551702 -0.011398137 0.044355378 0.08642034
0000d0 d8 da 97 3d bc 93 6f bd f6 02 ab 3d 90 90 a6 bd
       0.07414788 -0.0584905 0.08350174 -0.08133042
0000e0 18 cb bc bd 00 35 f1 3a e8 17 be bc 6e 28 ef bd
       -0.092184246 0.0018402636 -0.023204759 -0.11677633
0000f0 90 3c 0f 3c bc 96 a1 3d b0 e1 e9 bd e2 ff b0 3d
       0.008742467 0.078900784 -0.114199996 0.08642556
000100 85 9a 94 3d 70 22 02 3d 21 ea 7b bc be 60 b8 bd
       0.07256035 0.031771123 -0.015375645 -0.09002827
000110 42 f8 de 3d 74 60 17 be dc 74 6a 3d a0 3e 05 3c
       0.10887195 -0.14782888 0.057240352 0.008132607
000120 18 d0 77 3d 1a 9e 14 be de 36 9b bc 04 b8 16 3d
       0.060501188 -0.14513436 -0.018947061 0.036796585
000130 00 a2 c2 bd b8 78 91 3d 9c 36 1f 3d 9c 3a 7b 3d
       -0.09503555 0.071031034 0.03887044 0.06133519
000140 a1 a5 dc 3c 95 4d f2 bd 71 13 ea bd bc 13 3d bd
       0.026934447 -0.11831204 -0.114294894 -0.0461614
000150 e2 89 cb bd 7d a0 b5 3d 4e 43 7a 3d f2 7a a1 3d
       -0.099384084 0.08868501 0.061099343 0.07884778
000160 cd c5 96 bd 76 00 b1 bc 6c 3f ee bc 0c af b1 3d
       -0.07361946 -0.021606665 -0.029082976 0.08675966
000170 b7 2f 1b 3d bb 29 91 3d af ee 6e bd a2 33 50 3d
       0.0378873 0.070880376 -0.058333095 0.05083049
000180 42 39 3e 3d 88 e7 2a bd 0e 8e e8 bc a8 4f 84 bd
       0.046441324 -0.04172471 -0.02838805 -0.06460506
000190 0d ad 89 3c e4 68 53 3d 39 f4 f4 bd c2 a5 a6 3d
       0.01680615 0.051613703 -0.11960644 0.081370845
0001a0 0e a5 98 3d db 7b ce bd d5 c2 e8 bd 2a 72 8f bd
       0.07453357 -0.10082217 -0.11365286 -0.07004197
0001b0 eb 6d 37 bd b0 0d 4a 3d b8 aa 5a 3d 29 b2 1b 3c
       -0.04478256 0.04932946 0.053385466 0.009502926
0001c0 e2 43 b3 bd e0 9c c5 bb 90 81 f4 3d 10 cc 2f 3d
       -0.08753182 -0.006030664 0.119387746 0.04291922
0001d0 d4 46 cf bd 64 84 95 bd 6e 08 a6 3d e4 66 94 bc
       -0.10120931 -0.07300642 0.081070766 -0.018115468
0001e0 f8 77 52 3d 98 be f2 3c a8 a3 f4 3a 6e 32 eb 3b
       0.051383942 0.029631898 0.0018664496 0.0071776425
0001f0 d6 26 e4 3d 06 4d f6 bd 2b 40 8c bd 29 41 95 bc
       0.1114022 -0.1202641 -0.068481766 -0.018219547
000200 ef d4 dd 3d af ff fc 3d 3d 15 ad bd 15 ba b8 3d
       0.108316295 0.12353455 -0.084513165 0.09019867
000210 b8 70 59 bd 14 b4 6a 39 d3 67 17 3e c6 c1 86 3d
       -0.053086013 0.00022383063 0.147857 0.06579928
000220 c9 c3 73 3c e7 b8 83 3d 53 43 87 3c 9c a7 93 bd
       0.014878222 0.06431752 0.016511595 -0.07209703
000230 5b 54 30 3d eb 06 58 bd a3 78 69 bd 0e 57 4f 3d
       0.043049198 -0.052740972 -0.056999814 0.05062013
000240 12 71 d4 bd da ad a1 3d c2 a3 bc bd 71 d3 a7 3d
       -0.10373129 0.07894488 -0.09210922 0.08194626
000250 3f ef 01 3c 2e 5f b8 3b d2 53 00 3e 66 4b 09 3c
       0.007930576 0.0056265807 0.12531975 0.008379793
000260 2c 51 1a 3e 06 44 1b 3d a0 ec b0 bd 32 25 15 bc
       0.15070027 0.03790667 -0.08638883 -0.009103106
000270 43 f4 5a 3d 78 05 1a bd c4 47 f3 3d ef 66 de 3d
       0.053455602 -0.03760287 0.118789226 0.10859477
000280 2a 88 d4 bd 6c 0d 3e 3d cf 14 a2 3d 6f 86 66 3c
       -0.10377534 0.04639952 0.07914125 0.014070137
000290 43 53 e5 bc ce 19 c6 bd 12 f6 b4 3d 83 08 f5 3d
       -0.027993804 -0.096728906 0.08835997 0.11964514
0002a0 d4 0e 10 3d eb ec b5 3d 58 28 ed 3d 8c 92 eb bd
       0.03517039 0.08883079 0.115799606 -0.11502561
0002b0 9f 07 44 3c 14 df 71 bd 90 cd e6 3c d3 73 a4 3d
       0.011964708 -0.059050635 0.028174192 0.08029904
0002c0 48 54 cd bd 42 c3 fe bd b1 1f 8f bd c1 f5 82 3d
       -0.10025841 -0.12439586 -0.069884665 0.0639453
0002d0 29 f6 f7 3d c6 12 96 3d ef ee 31 bd 7b 78 5e bd
       0.12107498 0.073277995 -0.043440755 -0.054314118
0002e0 98 ec 8c 3d 54 03 5f bd 19 fe 0a 3d 30 43 fd 3d
       0.06881064 -0.054446533 0.033933733 0.123663306
0002f0 50 6d cf 3c f3 83 70 3d 8b 2b 2e 3e d0 08 83 3b
       0.025320679 0.058719587 0.17008798 0.0039988533
000300 40 fc 09 3d ce 2d 20 3d 88 da 1e 3d 28 a4 9a bd
       0.03368783 0.039106183 0.038782626 -0.075508416
000310 d8 e8 cc 3d 2e 2c da bd a1 8a 42 bd 96 96 bb bd
       0.10005349 -0.10652958 -0.047495488 -0.09159581
000320 e0 8e 9b 3c 00 81 e5 3c 72 71 be 3d f4 4e 1e bd
       0.018989027 0.028015614 0.09298982 -0.038649514
000330 82 21 00 3d e8 bd b1 3c 7d b8 85 bd c4 65 09 bd
       0.031281956 0.021697 -0.06529329 -0.033544317
000340 1c 4a 09 3d c0 e9 57 3c 02 64 92 bd 8e 6b 84 bc
       0.03351794 0.013178289 -0.07147981 -0.016164567
000350 cf 08 5f bd 95 85 64 3d fb 20 16 bb 40 b2 85 3d
       -0.05445176 0.055791456 -0.0022907841 0.06528139
000360 02 2f fd bd b4 c6 54 3d 52 df 85 3d f0 0b eb 3d
       -0.12362482 0.05194731 0.065367356 0.11476886
000370 45 39 eb bc 72 cd 95 bd 98 6f 18 3b c0 6f c1 3b
       -0.028713832 -0.07314576 0.0023259874 0.005903214
000380 c2 2e 0f bc fe d8 d8 3d 1e d3 28 bd ff 22 07 bd
       -0.008739175 0.10588263 -0.041216962 -0.03299236
000390 20 34 0f 3d 28 e0 39 bd 04 80 c6 bc f4 0a 5f 3c
       0.03496182 -0.045379788 -0.024230964 0.013613451
0003a0 0e b6 c3 bd be 9d ec 3d b2 5e be bd 9c 59 c6 3d
       -0.095562086 0.115535244 -0.092954054 0.096850604
0003b0 af ff 96 3d 80 94 62 bc e8 95 a8 3d db 83 ae 3d
       0.073729865 -0.0138293505 0.08231717 0.08521243
0003c0 0a 6f 87 bd 58 14 89 3c 80 42 dc bc 1b 9c c3 bd
       -0.06612976 0.016733333 -0.026887178 -0.09551259
0003d0 81 1c a5 bc 18 63 b5 bc 83 48 a2 3d f9 61 92 3d
       -0.020155193 -0.022141978 0.07923987 0.07147593
0003e0 40 3b a5 3d 59 12 ce ba 69 63 10 3d df 15 5d 3d
       0.08067942 -0.0015722021 0.035251055 0.053975936
0003f0 08 fb 75 bd 00 1e 95 bc bc 88 90 bd 40 9d 76 bd
       -0.060053855 -0.018202782 -0.0705733 -0.06020856

hidden_layers.3.bias f4 [64]
000000 e0 5a 60 bd 17 93 bd 3d 7d da 8f 3d 48 80 d1 bd
       -0.054774165 0.09256571 0.07024095 -0.10229546
000010 c0 e3 61 3b 41 e4 b0 3d e3 0c 9b 3d c1 01 55 bc
       0.0034468025 0.08637286 0.07570817 -0.013000906
000020 04 19 6a 3d cb 77 ce 3d 1d 1c bb bd 37 3b c1 bc
       0.057152763 0.100814424 -0.091362216 -0.023587806
000030 cf 48 2c 3d 72 26 85 3d a6 d2 77 bc 24 81 60 3d
       0.042061623 0.065014735 -0.015125906 0.054810658
000040 94 65 8f bd b9 73 63 3c 22 8b ac 3d e9 f6 a4 bd
       -0.07001796 0.013882571 0.08424975 -0.08054907
000050 eb 72 a6 3d e0 e5 d1 3d 06 d4 aa bd cd 0f 79 3d
       0.081273876 0.10248923 -0.083412215 0.060806084
000060 52 5d 02 bd 48 30 ef 3c f8 b1 5a bd 0e 29 08 3d
       -0.03182728 0.029197827 -0.05339238 0.033242278
000070 bd 4c c9 3d 98 db c0 3d a7 c8 5d 3d 54 21 83 bd
       0.0982909 0.09416884 0.054146435 -0.06402841
000080 1d 85 a6 3c 49 6b b7 bd ea 35 49 bd ad 91 be 3d
       0.020327145 -0.0895601 -0.049123682 0.09305129
000090 39 1c 73 bc 2e a5 9b bd 9c 9d b5 bd 03 6c 1d 3d
       -0.014838272 -0.07599865 -0.08867952 0.038433086
0000a0 a0 d8 47 bc e8 14 fa 3d 2a 69 df 3d 55 25 81 3d
       -0.0121976435 0.12211019 0.1090873 0.06305949
0000b0 b2 59 d5 3d dd e8 86 3a 00 80 9d bb cd dc 4f bd
       0.10417499 0.0010292787 -0.0048065186 -0.05074768
0000c0 7e db 0e 3e 4c e5 67 3d 3e fa b7 3d a0 44 31 bd
       0.13950917 0.05661516 0.08983277 -0.043278337
0000d0 a6 07 d4 bd 2a 83 03 3e 3d 4d 91 bd 20 ba 2a 3c
       -0.10353021 0.12843004 -0.0709481 0.010420352
0000e0 a0 f4 0d 3d c8 37 0a 3c 62 04 94 bc 9b 66 e3 3c
       0.03465712 0.008436151 -0.018068496 0.027758887
0000f0 0b 4d 30 3d d0 ad 7d 3c b5 38 26 3d 56 3d d5 bc
       0.043042224 0.015483335 0.040581424 -0.026030224

output_layer.weight f4 [2, 64]
000000 3c 5d 69 3d db ef 90 bd b0 74 b4 3d f4 a7 1b bd
       0.05697368 -0.07076999 0.08811319 -0.03800197
000010 3a 83 ed 3d 94 35 1d 3e db a1 db 3d 0d 54 10 bd
       0.11597295 0.1535247 0.10724231 -0.035236407
000020 98 a9 c9 bd d4 2f fc 3d 54 a2 f2 3d 21 d0 b7 3d
       -0.098468006 0.1231381 0.11847368 0.08975244
000030 3c 42 88 3d 7a 61 92 3d b1 05 27 3e 01 6a ca 3d
       0.06653258 0.071474984 0.16310765 0.098835
000040 ba 35 b1 bd 6b c4 e2 bc 06 43 74 3d ae 86 34 3d
       -0.08652826 -0.02768155 0.05963423 0.044073753
000050 9e c0 e6 3d 56 c8 0e bd 5c a3 fd bd 57 8f 6b 3d
       0.112672076 -0.034859024 -0.12384674 0.057509746
000060 c3 a7 dc bd a5 00 03 3e bf dc 63 bd 78 a2 35 bd
       -0.107741855 0.12793215 -0.05563044 -0.044344395
000070 ff 8b a3 bd 20 86 1e 3e 5b be 7b bd 5e 87 c9 bd
       -0.079856865 0.15480852 -0.061460834 -0.09840272
000080 2f 11 14 3e df 5a c3 bc 3a 5d a0 bd f8 3d c3 bc
       0.1445968 -0.023847042 -0.078302816 -0.02383326
000090 78 aa 15 3e 9a 2c 05 bc e0 d6 0b 3d 99 89 94 bd
       0.1461581 -0.00812831 0.034140468 -0.07252807
0000a0 64 f5 9f 3d 5f fa 08 3e 62 62 ae 3d bc b4 a2 bd
       0.078104764 0.13376759 0.08514859 -0.079446286
0000b0 fe e9 e2 bd 25 6c 60 bd 0b e6 bd bd 87 f4 b2 3d
       -0.11079787 -0.054790635 -0.09272393 0.08738046
0000c0 c3 ee f4 3d dd 80 56 bd 72 e6 de bd 72 d0 a2 3d
       0.11959603 -0.052368987 -0.10883798 0.07949914
0000d0 36 4d ee 3d ad 19 03 3e f8 72 61 bc a8 ae 86 3c
       0.116358206 0.12802763 -0.013760321 0.016440704
0000e0 92 db 03 3e 2c df 03 3e 66 d9 b8 bd 02 36 93 3c
       0.12876728 0.12878102 -0.090258405 0.017970089
0000f0 e9 5e 9b 3c ea 8a ea 3d 93 d6 e1 bd 8a 17 d0 3d
       0.018966155 0.11452277 -0.11027255 0.1016074
000100 24 f0 c6 3d 12 18 dc 3c 88 3f 94 bc 4e c1 b1 bc
       0.09713772 0.026866946 -0.0180967 -0.02169862
000110 40 0b 8e 3b 35 77 88 3b 6d 76 94 3d 6c 65 c9 3d
       0.004334837 0.004164601 0.072491504 0.09833798
000120 89 91 ee bc b9 cc 1d 3d d4 88 fb bd 8b ae 6f bd
       -0.029122131 0.038525317 -0.12281957 -0.058516067
000130 5e 51 c7 3c 92 f2 18 3d 62 45 f7 bd eb 72 e3 bd
       0.024330791 0.037340708 -0.120737806 -0.11105903
000140 50 d4 c4 bc f2 90 f7 bd 48 3f df bc a2 0f 9a bd
       -0.02402702 -0.12088193 -0.027251855 -0.07522513
000150 24 9e 1f 3d fd 60 aa bd d4 04 95 3d 87 de 34 bd
       0.038969174 -0.0831928 0.072763115 -0.04415753
000160 8f f8 32 bd 38 73 c2 bd 8a 90 34 bc 6b 00 93 3d
       -0.043694075 -0.094946325 -0.011020789 0.07177814
000170 34 33 45 bd 1a 21 cc bd 8e 8d 1d bd c8 4e bb bc
       -0.048144534 -0.09967251 -0.038465075 -0.022864714
000180 86 bb 61 bb f9 81 5f bb 69 b7 db bd 6a f4 8f bc
       -0.0034444048 -0.003410457 -0.10728342 -0.0175726
000190 20 16 00 3d e0 49 50 3d 70 e4 5a bd 3d e7 55 bb
       0.0312711 0.050851703 -0.05344051 -0.003263905
0001a0 e0 66 49 3d fc b5 2a 3d 73 3b e7 bb b8 38 f4 3d
       0.049170375 0.04167746 -0.0070566474 0.11924881
0001b0 84 8f 10 bd 94 34 18 bd ab 1c 8b bd 92 1e 81 3d
       -0.035293117 -0.037159517 -0.06792577 0.06304659
0001c0 eb 78 03 bc db b5 2d bd 37 20 3c bd d6 ba a0 bd
       -0.008024435 -0.04240976 -0.04592916 -0.07848136
0001d0 cc 5d b6 3d 87 93 3f bd 36 d7 c0 bd 70 21 65 bd
       0.08904609 -0.046771552 -0.09416048 -0.05594009
0001e0 31 5b 84 bc e0 37 94 3d 7d ac 2a bd 82 86 e1 3d
       -0.016156765 0.0723722 -0.041668404 0.110119835
0001f0 88 20 76 3d 7e 2d ce 3d 5c 0e c2 3c ce 6c a7 3d
       0.060089618 0.10067271 0.023688488 0.0817505

output_layer.bias f4 [2]
000000 1b 92 76 bc 5b 0c c4 3c
       -0.015049483 0.023931673
