abc_env_raw/saved_models/phi_only_2.0.pt (torch, 72199 bytes, 12 tensors)

input_layer.weight f4 [64, 3]
00000000: d7b6 b4bc c6cc 61be dfb3 083f df37 64be
00000010: ca83 e93d f569 a7be eff6 f0be ef8f 9cbe
00000020: 8b8d eebd 8903 623e cdd2 f83e ef64 6e3d
00000030: 8e1f a2bd 989a ba3e 8b3c 99bd 639b 09bf
00000040: dace 9fbe 9dd2 b23e 1a62 01bf 2d7d c7be
00000050: 442c babd ff5a 96be c1be c1be 8000 753c
00000060: 3398 303e 855b abbe cd1a febe 6905 00bf
00000070: 9cf6 313e 2712 c03e 514a b1bd 83f2 c73e
00000080: 7420 e73d 3c19 623e 4320 c63e 63d9 49be
00000090: 50a6 0b3e 9816 0dbd 898d a93e 06f7 923e
000000a0: 4e76 69be 9da8 073f 284b e3be 3ba8 6cbe
000000b0: f166 8ebe d04b f5be 2f5e 06bf fda2 c0be
000000c0: 0032 adbc 7126 a1be 2fea c33d a22d 453e
000000d0: f86a f23d 64bf aabe 16b0 0bbf a851 a8be
000000e0: d48a 75be db25 003f af82 20bd c3a9 c4be
000000f0: 86d5 0a3f 4d03 aabe 2fa3 913e e530 58bc
00000100: 107b 113f 0dcb 9b3e 6d16 303d ca73 5abe
00000110: d11e 66be 7e23 cdbd 7535 a6be bb54 a43c
00000120: bf8e abbc 97b2 eabe 5d68 b93d d03f 2a3d
00000130: d597 593e c1de 963e 9e17 01be 9a52 c83e
00000140: 11f1 d63e 98fc ab3d 5d70 7bbc a52c f4be
00000150: 09fa e63e e332 25be 4105 073f 8630 c93e
00000160: 7802 cc3d c197 5abe dde5 6f3d cc53 eabe
00000170: de19 f53e 4ad5 673e 90ac f43e fb78 103f
00000180: 363a d33e 21df d13e b876 e6be 13d6 82be
00000190: 8e18 dabe a454 993e 5539 bc3b f94d 3ebe
000001a0: 8ae6 e83e a212 293e 3eaa ecbe 030e f63e
000001b0: 3ed6 10bd 2eeb f8be f622 793e 0450 3f3d
000001c0: 4cac f6be 4a6e abbe cfef 05bf f5ab 153f
000001d0: 2b15 50bd ecee bf3e aa19 0e3f bd13 e03e
000001e0: aaa3 eb3e 0f58 eb3d dce7 00bf 5373 e1be
000001f0: 84de d63e 9684 07bf be53 853e fb15 bcbe
00000200: 4df2 18bd 34d1 133e cced 23be 8601 e53e
00000210: 623f 14bc 9b21 463e a4e1 0c3e bb24 23be
00000220: 2574 a7be 90fe cabe 883c 913d 33a5 ca3d
00000230: 81a7 173e e334 d43e 5de8 533e ec85 04bf
00000240: f318 0d3f 418a 153c ee8d b23e 9d85 e4be
00000250: b32b c4be 557e 6abe e70b 11bf 5546 fe3e
00000260: 502c eabe 38cf b63e a9d1 4dbd 5aad 513e
00000270: 3198 de3d 398b b03d d365 c0be f403 663b
00000280: 5699 5d3e c418 2a3e e0a2 80be 4a8c dcbd
00000290: ec3b 46bb 712b 44bd 52fc a23e 14a2 7bbe
000002a0: 9923 01bd 67c1 adbe 4e0f c2be 14c3 efbe
000002b0: ff88 83be 29dc b0be 75ca 243e d47b 03bf
000002c0: e780 9b3d 00cc 35be 2eba 9cbc 379a a63c
000002d0: cf0c d6be d05f a4be 1ca8 423e ea28 b13c
000002e0: a7e6 9cbe aeb3 d73e 0020 1e3d 47f5 c43e
000002f0: b172 a7be 596d 983d f7c9 71be 6df7 e03e
-0.022059841 -0.22050771 0.5339946 -0.22286938 0.1140209 -0.32698026 -0.47063395 -0.30578563
-0.11648091 0.22071661 0.48598328 0.058201727 -0.07916175 0.3644607 -0.07482251 -0.53752726
-0.31212503 0.3492631 -0.50540316 -0.3896269 -0.09090474 -0.293663 -0.37840846 0.0149537325
0.1724556 -0.3346826 -0.49629822 -0.50008255 0.1737923 0.3751385 -0.08656753 0.3905221
0.11285487 0.22079939 0.3869649 -0.19711833 0.13637662 -0.034445375 0.33115795 0.2870409
-0.22799036 0.5299166 -0.44393277 -0.2311105 -0.27812913 -0.47909403 -0.5248746 -0.3762435
-0.021142006 -0.3147464 0.09566151 0.19255689 0.11836809 -0.33349144 -0.5456556 -0.328748
-0.2397874 0.5005776 -0.03918713 -0.38410768 0.5423206 -0.33205643 0.28444812 -0.013195251
0.56828403 0.30428353 0.042990137 -0.21333233 -0.22472693 -0.10016535 -0.3246266 0.020059934
-0.02094209 -0.45839378 0.09053109 0.041564763 0.21249326 0.29466823 -0.12606665 0.3912552
0.41980794 0.08397788 -0.015346614 -0.4769031 0.45112637 -0.16132693 0.5274239 0.39294833
0.099614084 -0.21346952 0.058568824 -0.45767057 0.47871298 0.22639957 0.47787905 0.564346
0.4125535 0.40990546 -0.4501245 -0.2555395 -0.4259686 0.29947388 0.005744139 -0.18584432
0.45488387 0.16511014 -0.46223634 0.48057565 -0.035360567 -0.48616928 0.24329743 0.04670717
-0.48178327 -0.3348258 -0.52319044 0.5846551 -0.050801437 0.3748697 0.5550791 0.4376506
0.46023303 0.11491405 -0.5035379 -0.44033298 0.4196664 -0.52936685 0.26040453 -0.3673552
-0.03734045 0.14435273 -0.16008681 0.44727725 -0.009048315 0.19348757 0.1375795 -0.1593198
-0.327058 -0.3964734 0.070916235 0.098947905 0.14809991 0.414466 0.20694108 -0.5176685
0.55116194 0.009127201 0.3487391 -0.4463319 -0.3831459 -0.22899754 -0.56658787 0.49663034
-0.45736933 0.3570497 -0.050248776 0.20476285 0.10868872 0.086203046 -0.37577686 0.003509757
0.21640524 0.1661101 -0.25124264 -0.107689455 -0.0030248119 -0.04789299 0.3183313 -0.24573547
-0.03152809 -0.33936617 -0.37902302 -0.4682852 -0.25690457 -0.3454297 0.16092856 -0.5136082
0.075929455 -0.17753601 -0.019131746 0.020337207 -0.41806647 -0.3210435 0.19009441 0.021625955
-0.30644724 0.42129272 0.038604736 0.38468382 -0.3270469 0.074427314 -0.236122 0.4393877

input_layer.bias f4 [64]
00000000: 7edb 9d3e 4568 fcbe 13c2 513e 5111 a73e
00000010: 4c18 0fbf 36ab 4d3e 1f1b 4d3e f3bb 753e
00000020: da0a 713e caa3 dabe 8b5e a93e 57de fbbe
00000030: 0860 a1bd 10ef afbe 1ee3 033e b85d 813e
00000040: fe6c b2be a6ff cebe 5228 213f 1eba dc3e
00000050: fc72 08bf 8da7 28be bda4 c1be 8aee e13e
00000060: a07b 88be 3d80 e33d 23dc 02bf 4a7f f83e
00000070: 73a0 e53e 824c 93be 5ed3 e73e 910b 143f
00000080: c7a0 a2be 17a7 1dbd d0da e03e 55c0 cdbe
00000090: dcde d93e 590c e93e 47c7 b4bd f782 053e
000000a0: 32c2 cebc 32a2 8f3c fb04 dbbe a552 043d
000000b0: 5825 ef3d 46f7 ac3e cc6e eb3e 1de0 c23e
000000c0: 9a94 b0bd 587e 163f f637 e8be 964e 85be
000000d0: 7969 b13e dc9c cabe 9d9c c73e dac1 4b3e
000000e0: e235 24be 6967 e63e b832 163e 1233 2cbe
000000f0: 58b9 023f 8db6 9cbd 35dd db3e 1dd4 eb3e
0.30831522 -0.492983 0.2048419 0.326304 -0.5589645 0.20084843 0.20029877 0.23997478
0.23539296 -0.42703086 0.33079943 -0.4919307 -0.07879645 -0.34362078 0.12879607 0.25266814
-0.3484878 -0.4042942 0.6295215 0.43110746 -0.5330045 -0.16470166 -0.37820998 0.44127303
-0.26656818 0.11108444 -0.5111715 0.48534614 0.44848976 -0.28769308 0.45278448 0.5783015
-0.31763288 -0.038489427 0.4391694 -0.401858 0.4255284 0.45517233 -0.08827072 0.1303824
-0.025239084 0.017533395 -0.42777237 0.03230538 0.11677045 0.33782405 0.4598297 0.3806161
-0.086220935 0.58786535 -0.45355195 -0.2603652 0.34650782 -0.395728 0.38986674 0.19898167
-0.1603618 0.4500077 0.14667785 -0.16816357 0.5106406 -0.07652006 0.42942205 0.46060267

hidden_layers.0.weight f4 [64, 64]
00000000: 9096 8fbd f862 803a c120 1c3e 7ee3 11bd
00000010: c72e 9c3d 2637 0f3e 3267 f33d bf3f 9b3d
00000020: 909f ce3c 1c2f f8bd 19a4 303e 86d1 22bc
00000030: 2144 343d fa33 873c d465 d2bc bc45 bebd
00000040: 1643 8fbc e3b3 96bd 6c77 f2bc 31f2 d83d
00000050: 99c6 033e 3116 aebd a0a9 813c dcd1 e9bc
00000060: ec95 e53c 468a e43d 365d 093d d8a1 e8bb
00000070: 4b84 9dbd adce 19bc c3b1 a03d 95cb 3abd
00000080: 2d80 67bd 02c9 053c 47a2 ee3d 9658 273d
00000090: e26c 95bc 40cc dc3c 8b75 673d a57d e0bb
000000a0: 0235 043e 92cc d13c a727 93bd 3fb1 9bbd
000000b0: 394b 7a3d 1027 7e3d 0ef8 cc3c 2e9b 41bd
000000c0: b434 4a3d 49fc b93d 7cf0 d8bd 77b9 efbd
000000d0: 5ef3 2c3e f48c d3bd 644f 203e 1115 253e
000000e0: 0e4b 64bd 4ee8 f33d 0509 c6bc cc0d 9ebc
000000f0: cd30 d73d b0f4 c33d 9b23 173e 3d5f a33d
00000100: 9913 f83d 257d ac3d 52e5 143e 6795 f9bc
00000110: 153c 2d3c a017 83bd 42b2 a3bd 8327 a13d
00000120: a293 053e fe10 12bd 4d5a 84bd f368 bcba
00000130: 80ed fdbc 8c68 cbbd ec60 b3bd 1267 18bd
00000140: 3145 2f3c 375d 76bd baf4 ec3d dcd7 9cbc
00000150: 4143 063e eda3 74bd 244a c1bd 037d e03c
00000160: 4e14 483d fddd 853c 32ee b8bd 361d fa3d
00000170: 49db 1cbb c1bf 3b3c 8cb4 6ebc 94c4 053e
00000180: 0bfc 973c 767f 423d c7af 34bd 09f9 9b3d
00000190: 2dc2 883b bff7 823d a17c c03c 9259 0f3e
000001a0: a9ad 30bc 3d62 42bd 4667 e0bd 2e6a adbd
000001b0: b1b7 9d3b ec4a 8a3c 4aa0 893d abe2 fc3d
000001c0: 721b 13bd 1aac bb3d b2b5 933c fa50 0ebb
000001d0: 64b6 e83d 2c4c df3d dd8d 98bd 535b 1d3e
000001e0: e843 a13d 3a5a c43d 0cbd 053e b93a 393c
000001f0: fd2d 1b3e e8b7 0b3e f308 61bd e938 9ebd
00000200: 815c afbd 3ccd 4c3d b285 153e b8ff c7bc
00000210: 96a3 ed3d db12 203d bfe8 f9bc edfb 10bd
00000220: cd26 c23d 72a1 04bd 53c1 c53d d675 6fbd
00000230: 40de 073e 9ac1 033e c1c7 4b3d ecd9 e63d
00000240: 19e7 efbd 0f88 1dbd 93c3 143d 9c27 9abd
00000250: 6db1 50bd 2101 093e ac1e 943d 27e6 0d3e
00000260: 8baa 96bd c119 f33d 2b40 cebd 9350 083e
00000270: 6d0a 0d3e 7a10 a7bd 6d96 213e cd5f febc
00000280: 0c2c 053e 116a dcbc 965d 033e eb88 413d
00000290: df5c 6f3d 8609 d83d 14f0 423d b8bb cbbc
000002a0: 9774 183d e798 f6bc dc25 35bc 4890 9d3d
000002b0: 9081 8ebd 1a89 103e ced4 263e 5d94 4ebc
000002c0: fb6c 23bd 6a59 0b3e 2d8a fcba b6c3 1d3d
000002d0: 1474 d13d 2003 df3b b54a 713d 0ac7 0a3e
000002e0: 40fd 9dbd 42e5 bb3d bcdf 1b3d ccbf cabd
000002f0: 5814 0abd 5d57 b5bd 23fc c739 1c7b 2e3d
00000300: 927c 85bd f5df 903d 58a0 cc3d 1c24 e83d
00000310: 5012 763c 79fe 6fbd 9f47 83bc ae3f d43d
00000320: 8b5c 13bc 18c7 e43d a618 2f3d 00c3 f33d
00000330: 7329 5bbd f0f2 2cbd 2eda c6bd 96c5 66bd
00000340: 293f 6e3d 3c8d 74bd 6920 8e3c 3ec3 bcbd
00000350: 0695 bdbd 26b3 713d 840b 3abd f3f5 7e3b
00000360: a7dd b03b de58 c1bd ae29 483d f7d7 ff3c
00000370: 4d32 9abd c0e4 ed3b efb1 d1bd 0f23 d73d
00000380: faf9 c73d 77d4 91bd 5a45 d23b 73a0 c8bd
00000390: eeb1 883c 5a0a 8d3c b4b7 d3bd d3fb 17bd
000003a0: a47a 22bd 9e39 87bd e8c3 453d dbc3 c93d
000003b0: d251 aebd 039c febd 2223 c0bc 31ba 04be
000003c0: 138e bcbd ae0b 933d 2f28 fcbd 94bc 38bd
000003d0: e65c 43bd a4cd b13d 8e8e c33d 8e56 48bd
000003e0: 267f cbbd 582e f23d a19c 44bd d266 d73d
000003f0: fb25 c43c 9d83 9e3c d586 a4bd 9652 d73a
-0.070111394 0.000979512 0.1524687 -0.035617344 0.076261096 0.13985881 0.11884917 0.07580518
0.02522257 -0.121183604 0.17250098 -0.00993765 0.044010285 0.016504277 -0.025683321 -0.092906445
-0.017488044 -0.073585294 -0.02959796 0.10593069 0.12868728 -0.085003264 0.015827954 -0.028542452
0.02802559 0.11159186 0.03353616 -0.0070993714 -0.076912485 -0.009387654 0.07846405 -0.045604307
-0.056518722 0.0081656 0.11652046 0.040855967 -0.018240396 0.026952863 0.056508582 -0.0068509155
0.12910846 0.025610242 -0.071852975 -0.076021664 0.061106894 0.06204897 0.025020625 -0.04726713
0.049366668 0.09081323 -0.10592744 -0.117052965 0.16889712 -0.10329619 0.15655285 0.16121317
-0.05573564 0.11909543 -0.024174223 -0.019293688 0.10507355 0.09568155 0.14759676 0.0797715
0.12113113 0.08422307 0.14540604 -0.030466748 0.010573407 -0.064009905 -0.07992984 0.078688644
0.13044599 -0.035660736 -0.06462536 -0.0014374539 -0.030997038 -0.0993205 -0.08758721 -0.03720767
0.010697649 -0.06014749 0.115701154 -0.019145899 0.13111593 -0.059726644 -0.09437969 0.02740336
0.04884749 0.016341204 -0.09029807 0.12212603 -0.0023934415 0.011459292 -0.014569413 0.1306327
0.0185528 0.047484837 -0.044112947 0.07615859 0.004173538 0.0639491 0.023496928 0.13999012
-0.010783591 -0.04745697 -0.10957198 -0.08467518 0.0048131575 0.016881429 0.06720026 0.12347921
-0.035914846 0.09163685 0.018030975 -0.0021715746 0.11362913 0.109032005 -0.07448933 0.15366869
0.0787428 0.09587522 0.13060397 0.0113055045 0.15154262 0.13644373 -0.054940175 -0.077256985
-0.085625656 0.050000414 0.14601782 -0.024413928 0.11603467 0.039080482 -0.03050649 -0.035396505
0.09480057 -0.03238053 0.09656014 -0.058461986 0.13268375 0.12866822 0.049751047 0.11272034
-0.11714 -0.038459834 0.036319327 -0.07527086 -0.050950456 0.13379337 0.07232413 0.13857327
-0.07356747 0.118701465 -0.10070833 0.13311987 0.13773508 -0.081574395 0.15780039 -0.03105154
0.13005084 -0.026906045 0.12828669 0.047249716 0.05843818 0.105486915 0.047592238 -0.024869785
0.037220564 -0.030102206 -0.01105639 0.07693535 -0.06958306 0.141148 0.16292116 -0.012608615
-0.039898854 0.13608328 -0.0019267254 0.038516723 0.10227218 0.0068057925 0.058909137 0.1355249
-0.07714319 0.09174587 0.038055167 -0.098998636 -0.033710808 -0.08854554 0.00038144094 0.042597875
-0.065179005 0.070739664 0.09991521 0.11335012 0.0150190145 -0.058592293 -0.016025363 0.103637084
-0.008994232 0.111707866 0.042748116 0.11902428 -0.053506326 -0.04222387 -0.09709583 -0.056340776
0.058165703 -0.059705004 0.017349439 -0.09216927 -0.092569396 0.05900874 -0.04542114 0.0038903921
0.005397517 -0.09440778 0.048867874 0.03123091 -0.07529125 0.007259935 -0.10239016 0.10504734
0.09764476 -0.071206026 0.0064169588 -0.09796228 0.016686406 0.01721685 -0.10337773 -0.037105393
-0.03966774 -0.066027865 0.048282534 0.098518096 -0.085117 -0.124321006 -0.023454253 -0.12961651
-0.09206786 0.07179962 -0.12312352 -0.045101717 -0.047696017 0.08681801 0.095486745 -0.04891067
-0.09936361 0.118252456 -0.048000935 0.10517658 0.023943892 0.019349867 -0.0803353 0.0016427811

hidden_layers.0.bias f4 [64]
00000000: caac 2cbd 936b aa3d 988f 063e bd9f 2bbd
00000010: 2095 30bd 66ef 4dbb 1889 afbd 25ec 863d
00000020: 4068 d23d aee1 da3b fa17 c03c 190b 073e
00000030: c0a3 9e3c 9c8c 433d 7d86 133d e2ce 2a3d
00000040: 136d d43d 8ca3 9e3d 246b 21bd dfad 6a3d
00000050: 0874 b4bd 7a73 aabd 7e13 48bd ec2c 043e
00000060: 813c 1cbd bbec 1fbd 2c5f adbd 0459 103d
00000070: bd61 24bd 5a0d 803d 3b28 d23c 4edb 04bd
00000080: 817f 103e 2edc 6f3d 428d d93d f65c 19bb
00000090: 2074 4f3d 0d09 b2bd 2275 603d 5aa9 203e
000000a0: cf21 de3d bd5e 633c 54f5 f5bd 68af 053e
000000b0: 528c ea3d edf5 bd3d 006c 62bc a583 313e
000000c0: 71a0 c23d c1de 37bd 16ea ea3c 96e0 8bbc
000000d0: 58b3 d1bd b5cb f73d 31bd f53c 0636 d33d
000000e0: bb42 02be 8ccd 313e 5a6e 663d 7225 aebd
000000f0: f546 ea3d 46e9 633d a98e 67bd 5e1d 0f3d
-0.042156972 0.083212994 0.13140714 -0.041900385 -0.043110967 -0.003142321 -0.085710704 0.0658801
0.1027379 0.006679735 0.023448933 0.13187827 0.019365191 0.047741517 0.03601693 0.041701205
0.10372367 0.07746038 -0.039408818 0.057294723 -0.08811194 -0.08322807 -0.048846714 0.12907761
-0.03814364 -0.039044123 -0.08465418 0.035241142 -0.040132273 0.062525466 0.025653949 -0.032435708
0.14111139 0.05855959 0.10622646 -0.0023401356 0.050647855 -0.086931325 0.054799207 0.15689602
0.10846292 0.013877568 -0.12009683 0.13055193 0.11452545 0.09275422 -0.0138196945 0.17335375
0.09503258 -0.04489017 0.028676074 -0.017074864 -0.10239285 0.12099401 0.02999744 0.103130385
-0.12720768 0.17363566 0.056257583 -0.08503236 0.11439315 0.05564239 -0.056532536 0.034940116

hidden_layers.1.weight f4 [64, 64]
00000000: 1dab b73d b828 85bd e704 353d cb9f 6f3c
00000010: 0044 a13d 1163 a2bc 1130 f63d 5936 d5bb
00000020: 210f 9a3c 99c2 cfbd 3d7e 4e3c 2587 e93d
00000030: f40f 4ebd cfb4 233e 98bd e23d 8d7c 9abd
00000040: 12fc 133e 2d62 f43d c22b 563c 59bd bd3d
00000050: be55 a4bd c41b 3d3c caf7 2bbd f0f9 73bd
00000060: 5f8f 553d 9d3e df3d e45a 66bd e7b2 f03d
00000070: 37a2 f63d aff8 d33d be81 9d3d d2dd fdbc
00000080: ba23 153e 9ad7 da3d b2b5 143e c5c7 8f3c
00000090: 4ba1 103d 11d6 093d bcf6 d13c 1da9 0c3e
000000a0: 26b2 ea3c cfba 47bd d292 f33d ed8b fdbc
000000b0: ad5c 88bd 4f64 193e d0ed 983c c358 04bc
000000c0: 509a d5bd 6bf0 d2bc bb1e b6bd 4128 1abd
000000d0: ea76 fbbd efcd 243d 5dda 6fbd 5505 413d
000000e0: 96c4 733d dc31 1fbd 75b9 39bd 0d2f fb3d
000000f0: 5b2b 37bd 96f1 6f3d 6b1e 08bd f535 dbbd
00000100: d775 d03d 395a 7f3c 166d 6fbd 6086 513d
00000110: cef5 453c c7db dc3d 48f0 a53d a2a3 7e3d
00000120: d6bf 373e a495 3abd 8469 953c c9e8 f83d
00000130: febe d5bd 7867 01bd 0092 be3c f112 b73d
00000140: 3839 483e cb42 083e ef66 1fbd 5773 9abc
00000150: 8c52 1fbd 3809 9f3c 86ce b53d b20b 0f3d
00000160: c507 843d e3d9 203e c2fc d4bd 2316 2b3e
00000170: 606b 2d3d 635f 813d 93bc 9a3d d4e6 cf3d
00000180: 73c8 cd3d 8707 d3bb e0d9 d13c ea39 7dbd
00000190: 3b20 ea3c e084 ab3c 7487 ff3d 22d7 f13d
000001a0: 7a1b 3abd 258a c93d d7c3 473d 96e5 e13c
000001b0: 5943 83bd a278 90bc 51fc d9bc 9c64 513d
000001c0: dc11 b03d a9e4 573d e18b d8bd 4b5f 30bd
000001d0: 6007 563c 7632 083e 4dc6 133e 86cd 2b3e
000001e0: d34c cebd c648 ef3c e176 1c3e 16a1 9abd
000001f0: 3b3b b4bd 4e99 0c3e 200b 8dbd b2d0 99bd
00000200: a4ea afbd 93bb c33c 649b 88bd 4003 653d
00000210: 60c2 cf3c e4b4 fcbd 2d5e c43c f6f0 d7bd
00000220: 3a57 8a3d a906 79bb d5cf 143d f43c c93c
00000230: d002 a93c 935c 223d e125 bcbc f687 5cbd
00000240: f8cd c9bd 4995 5bbd 318f c73d 8dd3 a13d
00000250: e6da f1bd 88a7 64bd 2928 e43d a1c4 f13d
00000260: db6c 3dbc bba3 6abd 1a12 e5bd 4f7d b83d
00000270: c0db 00be 2967 b0bc f516 9c3d e0ba a0bd
00000280: 5e8b 9e3d 0247 a3bc 45be 083b 118e aa3d
00000290: 7275 253d bf9f 063d 7c87 263d e97f 0b3c
000002a0: 0e9a f4bc 1ff4 9fbd c1c5 713c f036 86bd
000002b0: b508 b73d 6c2e 1dbd f6c4 92bc 5163 a9bd
000002c0: 58f5 953d e380 e33d 2622 a73d e727 9fbc
000002d0: bcfd 3cbd 022f 6ebc 6ebe 8cbd db3c 75bd
000002e0: 3bc8 89bd ee04 113d f2e7 11bd 63bd 423d
000002f0: a49f 973d 3881 4b3d 351c f7bd c215 abbd
00000300: 26a5 d23d 41dc e33d 51e7 e2bc e632 7dbd
00000310: 1190 85bd 7f5b 88bd 5618 55bd 55c4 1d3c
00000320: d78d 403d 639c df3c eace 8d3d 6fff 7c3c
00000330: 3418 8cbd 7e8d 483c a78a c23c 5507 153e
00000340: fa65 843d 55f3 a93c 6ffe 033e afb7 a73d
00000350: e867 a9bc 7285 703c 282e dc3d 553e df3d
00000360: add2 213c 8536 6b3c 1a0c 8b3d 7287 13bd
00000370: c00c 9a3d 6a7a 373c ea2d b33d 4e13 783d
00000380: 86e1 53bc 181f 893d 03b8 1cbd a8eb 86bc
00000390: c0a0 14bd 957d 953d e757 813a 501e 99bb
000003a0: 3ef2 033e 08d7 f03d c699 d73d e8aa cd3d
000003b0: b906 b53d 1a45 5c3d 3e9b a53d a6fd fe3d
000003c0: 7bff 863d 02df de3d 67c1 9abd d620 263d
000003d0: 7c25 a6bd ce5f a0bc 945d af3d 11bd 85bb
000003e0: 0ae8 c6bd 3f70 ea3d b1fb 753d 0126 a8bd
000003f0: 581d c53d 1790 653d 12ec cc3d 0a5a c239
0.08968184 -0.06501907 0.04419413 0.0146255 0.07874298 -0.01982263 0.12020887 -0.006506723
0.018806042 -0.101445384 0.01260334 0.1140273 -0.050308183 0.15986942 0.110713184 -0.075432874
0.14451626 0.11932788 0.013071956 0.09264631 -0.080241665 0.011542264 -0.041984357 -0.05956453
0.052138682 0.109006144 -0.056239024 0.11752873 0.12042659 0.10350167 0.07690762 -0.030989561
0.1456441 0.10685654 0.14522436 0.017551312 0.03531007 0.033651415 0.025630347 0.13736387
0.0286494 -0.04876214 0.11893238 -0.03095051 -0.066583015 0.14979671 0.018668085 -0.008077803
-0.104298234 -0.025749406 -0.0889258 -0.037636045 -0.122785404 0.040235456 -0.058557857 0.047124226
0.05951365 -0.03886591 -0.04534288 0.122648336 -0.04471908 0.058580004 -0.033232134 -0.10703651
0.10178726 0.015585476 -0.05845364 0.05115354 0.01208253 0.10784107 0.08102471 0.06216777
0.17944273 -0.045552865 0.01823879 0.12153775 -0.104368195 -0.031592816 0.023262978 0.0893916
0.19553077 0.1330673 -0.038916524 -0.018853826 -0.038897082 0.019413576 0.08877282 0.034923263
0.064467944 0.15708117 -0.10399772 0.16707663 0.04233873 0.06317022 0.07555499 0.10151449
0.10047998 -0.0064401063 0.025616586 -0.06182281 0.028579822 0.020937383 0.124770075 0.118086115
-0.04543636 0.09840802 0.04877075 0.027575295 -0.0640933 -0.017635647 -0.026609572 0.05112134
0.085971564 0.0527083 -0.10573555 -0.04305963 0.013063282 0.133005 0.14431114 0.1677762
-0.10073247 0.029209506 0.15279724 -0.07550256 -0.0880036 0.13730356 -0.068868876 -0.075105086
-0.08589676 0.023893153 -0.066702634 0.055911303 0.02536124 -0.1233919 0.023970688 -0.105440065
0.067549184 -0.0037998355 0.036331017 0.024565198 0.020631224 0.039639067 -0.02296728 -0.0538406
-0.098537385 -0.053609166 0.097441085 0.07901678 -0.1180933 -0.055823833 0.111404724 0.11805082
-0.011561598 -0.05728505 -0.11185093 0.09008276 -0.12583828 -0.021533566 0.07621566 -0.078481436
0.07741426 -0.01993132 0.0020865363 0.08327878 0.040395208 0.03286719 0.04065655 0.008514383
-0.029858615 -0.07810234 0.014756621 -0.06553447 0.089372076 -0.03837435 -0.017916184 -0.08270896
0.07322186 0.111085676 0.0816081 -0.019428207 -0.046140417 -0.014537575 -0.06872259 -0.05987249
-0.06727644 0.035405092 -0.03562159 0.047543894 0.07403496 0.04968378 -0.12065927 -0.08353759
0.10285406 0.111259945 -0.02769819 -0.06181612 -0.06521619 -0.066580765 -0.05202516 0.009629329
0.04701027 0.02729625 0.06924231 0.0154417595 -0.06840554 0.012240766 0.023747755 0.14553578
0.06464763 0.020745913 0.12890027 0.08189332 -0.02067943 0.014680253 0.10750991 0.10900561
0.009876889 0.01435626 0.067894176 -0.036017843 0.07521963 0.011198619 0.08748992 0.060565285
-0.012932187 0.06695384 -0.038261425 -0.016469792 -0.036286116 0.072993435 0.0009868116 -0.004672803
0.12885377 0.11759764 0.10527377 0.100423634 0.08839173 0.053776838 0.08086251 0.12450723
0.06591698 0.10882379 -0.0755642 0.04055866 -0.08112618 -0.019576933 0.085627705 -0.0040813764
-0.09712227 0.114471905 0.060054485 -0.08210374 0.096247375 0.056045618 0.10005964 0.00037069648

hidden_layers.1.bias f4 [64]
00000000: e936 903c f823 3d3d 5580 10bb 780b d33d
00000010: c688 523d 9aa5 f43c 44ee e83d a861 ef3d
00000020: 5c73 b53d cd70 e63c 3ac4 64bd b0cd 2e3d
00000030: c43d 073d e9e8 34bd 6c2a aebd 4495 bcbb
00000040: 53fa 37bd 406d f2bc 5682 62bd 11b2 ac3d
00000050: 8b1f 023e 94e4 55bc 016f 68bc 3448 e43d
00000060: d3ca 8fbd df26 e6bd 223c 37bd b2df a5bd
00000070: 8019 27bc 9fb0 4abd 6326 0a3d 3249 81bd
00000080: 63c7 283e 4488 af3d c652 643c 6ee2 a33d
00000090: 7e2d 113e 8a52 413c 446a 933c 4102 3ebd
000000a0: 8967 c3bd 6638 4a3b 3d12 88bc a829 e53d
000000b0: 390c d53d 3eda 84bd f041 193c 454c e4bc
000000c0: fd58 73bc d98b fc3c d9a9 093e bcda f6b9
000000d0: cea1 59bc dfe2 0a3e b160 f93d 3dc7 463b
000000e0: d44e 2ebc 6379 933b 09ee 46bd ecf2 5ebd
000000f0: f8dc 8abd d2fa 0c3d 0dfc 01be 144f ff3d
0.017604308 0.04617688 -0.0022049148 0.10304922 0.05139997 0.029864121 0.113735706 0.11688548
0.08859894 0.02812996 -0.0558512 0.042676628 0.03301789 -0.044167433 -0.08504185 -0.0057550985
-0.044916462 -0.02959311 -0.05530008 0.08432401 0.12707345 -0.013054986 -0.014186622 0.11146584
-0.070211075 -0.11237883 -0.04473508 -0.08099307 -0.010198951 -0.049484845 0.033728015 -0.06312789
0.1648231 0.085709125 0.01393575 0.080021724 0.1417751 0.011799464 0.017995007 -0.04638887
-0.09541232 0.003085637 -0.01661026 0.11189586 0.10402722 -0.06486939 0.0093541 -0.0278684
-0.014852759 0.030828403 0.13443698 -0.00047083746 -0.013283206 0.13563107 0.121766455 0.0030331158
-0.010638911 0.0045005544 -0.04856685 -0.054430887 -0.06780428 0.03441889 -0.12693806 0.12466255

hidden_layers.2.weight f4 [64, 64]
00000000: 70ff 2c3d e44a 13bd 7399 f9bd d214 24bd
00000010: aeb4 f8bd c2e9 363d 2853 923c 6c59 cf3d
00000020: fb60 abbd f010 03be 2429 51bd 1e04 e6bd
00000030: 9000 9bbc e055 46bc 10c9 4fbc 19e7 a8bc
00000040: 5e80 00bc aaa7 c6bd 5403 113c 8ad2 48bd
00000050: dc28 05bb 1ed0 95bd 51b6 973d 0565 013d
00000060: bc1d f03c 5067 cf3c eb0e 923d acd0 0abd
00000070: 3c17 a3bd 4dea 05be 4619 bc3d 3211 d73c
00000080: d7a2 e6bd 64a4 10bd 7666 9a3d c43b 8c3d
00000090: 9fdb 68bd 365f e6bd b338 623d 2c74 c4bc
000000a0: 32ec 353d 9c8b 99bd 7122 dbbd f765 06bd
000000b0: dc31 d9bb 695f c53c 0d3e b23d 9477 9cbd
000000c0: dfa3 cb3d 0ddc cabd c091 9fbd a3fa 033c
000000d0: b843 b83d e76c e1bd 369d a63d e46d 58bd
000000e0: 6151 103c a26e a23d b51a 03be 14ad c7bd
000000f0: a6b2 8a3d 9c62 cf3d 1a57 94bc 00b5 8c3d
00000100: e753 563d 814f bd3d 15c7 efbd ebf1 fcbc
00000110: b267 7cbc 2bf3 273e bf37 a23d e264 763b
00000120: d045 2b3e 5558 483d 3274 0f3c 4a47 adbd
00000130: 1bd4 013d d637 bd3d 7a90 ca3d 5a72 353e
00000140: ffae d03c d8fd f93d 941d 963d 18ef 22bd
00000150: 290e 1f3e 26a3 08bd 288b 91bc f34d 183e
00000160: f70e e43d aeb7 a6bd b476 cc3d 10d5 063c
00000170: 78b3 a8bc e77d 053e 908d 013d 0685 d9bd
00000180: 9404 0f3e f484 cfba ab80 2f3e a331 e73d
00000190: 4c33 2a3e fd07 2b3c 9898 3e3e 1529 be3d
000001a0: 10be c33c 665a d6bd 174b f3ba e81f b53c
000001b0: 3456 2f3e 0153 a73c 8ce2 4dbc a877 ca3c
000001c0: 5394 823d d706 25bd aa6a 273e 102b d73d
000001d0: 7d51 763d 3280 833d 70b9 043e 6bd0 3fbd
000001e0: 96cf 3b3e 783c bb3d c04e db3d ec24 19bd
000001f0: 2898 b5bc 9f61 ff3d 2bd5 933c 3609 fb3d
00000200: e284 b03d 7b13 03bd b77c 98bc 579f 5bbd
00000210: 6c52 a1bd 8610 3bbd cd1b d3bc 2739 b93d
00000220: 5bfc c63d 519d c43d d7f9 e93d 586d 993d
00000230: 58f5 b13d 7e1a bb3d 16d6 dcbd cdbd babd
00000240: 4771 01be 98c0 a73c ab54 ce3c 8358 f2bd
00000250: f25e 02be 6e09 d73d 436d 83bc 27aa a03d
00000260: 941b 4c3d fca8 5ebd de40 64bd 8025 c83c
00000270: f278 ec3d 9dde fbbd 9e94 643d 211e 733c
00000280: b001 e83d 4191 c3bc a44d 9f3d 3c12 83bd
00000290: b2fd 4e3d beb6 a13d 16ee 803d 7c3e 863d
000002a0: 952b 14bd f22c 5d3d 4a1a 793b 02c3 f8bd
000002b0: d601 103d 9e5e adbd d621 d5bd ca47 923d
000002c0: bef7 fa3d 98e6 0cbd 00de 05bc 826f 5f3d
000002d0: b539 153b 07bd d23c 60b4 083c db82 fcbd
000002e0: 8cbb 5e3d 3bac f1bd 49c3 80bc 7ace f9bd
000002f0: c493 ca3d 17ac f4bc 329c a1bc 4cfe 0ebb
00000300: 9def 03bd 2a80 093e 462a a4bd 6416 f63d
00000310: e475 143e 2ecc b23b 588d f13c cc38 233e
00000320: b4db 873d 3562 243e d2e3 ef3d fe1b 9abd
00000330: 35b1 2cbd 0ebc 88bb 7a8b b33d 9e85 9f3d
00000340: 376c 993d 3006 9ebd 24fd 853d 1d01 10bc
00000350: ab7e 1b3e 1b63 80bd 5188 72bd efec 253e
00000360: d6f3 0a3e 72c7 82bc dbec c3bb 2c19 b4bd
00000370: 305a 47bc f3cf 83bd 98c0 de3d 8b78 5bbd
00000380: 4831 0a3e 62e1 553d 2932 373e 792d 993d
00000390: 4aae 85bd 90b3 30bd 3184 58bd 7eb5 f2bd
000003a0: 9ab5 ed3b 3ce7 aa3d 6355 5c3d 71f6 933d
000003b0: 1186 5ebb 98ad 25bc ab93 063e 48c6 293d
000003c0: 5ee6 1a3e ff63 1cbc 05fd 403d 01e8 8cbd
000003d0: 3e01 953d f496 c03d dcdd 823d 77a0 f83d
000003e0: 2bda 1a3e 646f 13bd ef40 543d 640d 75bd
000003f0: 4eaf a33d b7a2 a2bc 93eb 90bc 4a35 913c
0.04223579 -0.035960093 -0.12187471 -0.04005892 -0.12143837 0.044656523 0.017861918 0.10124478
-0.08368107 -0.1279943 -0.051064625 -0.11231254 -0.018921167 -0.012105435 -0.012682214 -0.020618008
-0.007843105 -0.09699948 0.008850891 -0.04902891 -0.0020318544 -0.07315086 0.07407821 0.03159048
0.029311053 0.025317818 0.071317516 -0.03389041 -0.07963416 -0.1307766 0.09184508 0.026253317
-0.11261528 -0.035313025 0.07539074 0.06847337 -0.056850072 -0.11248629 0.055229854 -0.023981176
0.044414707 -0.074973315 -0.106999286 -0.032812085 -0.006628258 0.024093347 0.087032415 -0.07639995
0.09943365 -0.099052526 -0.077914715 0.008055362 0.08997291 -0.110070996 0.08135454 -0.052839175
0.008808465 0.07931258 -0.12803157 -0.09749809 0.06772356 0.1012623 -0.01810794 0.068704605
0.05232611 0.0924368 -0.11707894 -0.030877074 -0.015405582 0.16401355 0.07920789 0.0037596752
0.1672585 0.048912365 0.00875573 -0.08460863 0.03169642 0.092391655 0.09890838 0.17719403
0.02547407 0.1220662 0.0732986 -0.0397788 0.15532745 -0.033358715 -0.01776655 0.14873485
0.11135667 -0.08140503 0.09983578 0.008229509 -0.02059339 0.13036309 0.031629145 -0.10621075
0.1396659 -0.001583247 0.17138927 0.11288764 0.1662113 0.010438916 0.18612897 0.092851795
0.02389434 -0.10466461 -0.0018561807 0.02210994 0.17122728 0.020425322 -0.01256622 0.02471526
0.06375947 -0.040289726 0.16349283 0.105062604 0.060136307 0.06420936 0.12961364 -0.046829622
0.18340907 0.09142393 0.1070838 -0.037388727 -0.02216728 0.124697916 0.018045982 0.12257616
0.086190954 -0.032001 -0.018614156 -0.053618755 -0.07877049 -0.045670055 -0.025770092 0.09044104
0.09716102 0.09600318 0.11424606 0.07491559 0.08689374 0.09135912 -0.10783021 -0.09118233
-0.12640868 0.020477578 0.025186857 -0.118332885 -0.12731531 0.104998454 -0.016043311 0.07844954
0.049830988 -0.054360375 -0.055725925 0.024431944 0.11546506 -0.122983195 0.055805795 0.014838726
0.11328447 -0.023872973 0.07778481 -0.06399962 0.05053491 0.078961834 0.06295411 0.06554887
-0.036174376 0.05399794 0.0038010054 -0.1214657 0.035158 -0.084653124 -0.10406844 0.07142599
0.12254284 -0.0343996 -0.008170605 0.0545497 0.0022769992 0.0257249 0.008343786 -0.12329646
0.054378077 -0.118004285 -0.01571812 -0.121975854 0.09891465 -0.029867215 -0.0197278 -0.0021819053
-0.032210935 0.13427797 -0.080158755 0.120159894 0.14498097 0.005456469 0.029486343 0.15939635
0.06633702 0.16053088 0.11713375 -0.0752487 -0.042161185 -0.0041728085 0.087668374 0.07789157
0.074913435 -0.07716024 0.06542423 -0.008789328 0.15185039 -0.06268903 -0.059212033 0.16203664
0.13569579 -0.015964244 -0.005979163 -0.08793864 -0.0121674985 -0.064361475 0.10876578 -0.053581756
0.13495362 0.052216895 0.17890228 0.07479376 -0.065273836 -0.043139994 -0.052860443 -0.11851023
0.0072543146 0.08344886 0.05379237 0.07224739 -0.0033954422 -0.010112189 0.13142268 0.04144886
0.1512694 -0.009545325 0.0471163 -0.06880189 0.072756276 0.09403792 0.063899726 0.12139981
0.15122287 -0.035994902 0.051819738 -0.059827223 0.07992421 -0.01985298 -0.017690456 0.017725606

hidden_layers.2.bias f4 [64]
00000000: c3e3 bbbc 5fa1 1dbd eee7 7f3c c933 26bc
00000010: db58 593d b767 113e c477 763d 2b14 a13d
00000020: 806b 853c 0071 8b3d 9cc9 e8bd 6abf 70bd
00000030: 9208 e5bd 00ab f83c 2cbe e53c 760f 3d3d
00000040: 0ea3 953c c667 19bc ee44 a8bd 75aa f93d
00000050: 14ed 1bbd 5625 1dbd 63f0 3f3d 8fd3 7dbd
00000060: 7e01 48bd 5ace c4bd 390f a23d cd92 2cbd
00000070: b19b 8f3d 32e6 0d3e 8cbd 35bd 35f8 47bc
00000080: b184 183e bc2a 503d 5ec1 283e d0a2 973d
00000090: de02 053e 5e8e bbbd 3d2c 853d 6be8 e3bd
000000a0: eba0 17bd aceb 5fbd 66b3 b8bd 1e2f 083e
000000b0: b176 073e fc43 4dbd c0bc e0bd e2af a73d
000000c0: 58a6 f4bc f10d b13d ba67 b2bc f737 153d
000000d0: 9d5d 7e3c 2a9b cabc e86a 11bd adf2 da3d
000000e0: 2ca8 da3d 3300 223d 37a0 3dbd 7482 0b3d
000000f0: d7c3 033d 6670 d9bd 7eb4 973d e6fc b4bd
-0.022935754 -0.038483974 0.015619261 -0.0101441825 0.053063255 0.1419972 0.06017281 0.07865175
0.016286612 0.068086624 -0.11366579 -0.058776297 -0.11183275 0.030354977 0.028044783 0.046157323
0.018266227 -0.00936312 -0.08216272 0.12190715 -0.038067892 -0.038365684 0.04686011 -0.061969336
-0.048829548 -0.09609671 0.0791306 -0.042132188 0.07012118 0.13857344 -0.04437022 -0.012205173
0.14894368 0.050822005 0.16480014 0.07404101 0.12989375 -0.09158014 0.065025784 -0.111283146
-0.037018698 -0.054668114 -0.090185925 0.13299224 0.13228871 -0.050113663 -0.10973501 0.08187844
-0.029864475 0.08645237 -0.021777976 0.036430325 0.015525249 -0.024732191 -0.035502344 0.10690818
0.106766075 0.03955097 -0.04629537 0.034059957 0.03216919 -0.106171414 0.07407473 -0.08837299

hidden_layers.3.weight f4 [64, 64]
00000000: b419 553d 7072 fb3d 624b 20bd 0647 473d
00000010: e652 d6bd 48e3 453c 7487 e4bd 630c 2e3d
00000020: 861f fc3d f82b 63bd 1080 1e3d ec2d afbc
00000030: 9066 75bd 1e31 babd c85d 503d ad77 c7bd
00000040: d632 31bc 51de 9c3d da7f f83d b765 bc3d
00000050: 9c5c 29bd 227a 24bd 1144 ca3d 2a44 823c
00000060: c5c3 373d 784e fd3d c2e4 a0bd f2d5 b3bd
00000070: e9fb ba3d edf0 043e d00a 9b3d 5f4e cfbd
00000080: 67d1 c23d 18bb 30bc 8f89 bf3d 2f6b d03d
00000090: 4a86 0c3e 34ff fc3d 989e bbbd af6c c2bd
000000a0: 92d4 9ebd 4ce4 28bd 0c98 893d f30f b43d
000000b0: 9e99 babc 9ce9 a13d 58bf e33d 6ad7 afbd
000000c0: 3009 243d 507c a5bd 2fa6 cfbd e0d0 9bbc
000000d0: d61c d13d 5968 053d ea5b b2bd f95c 92bd
000000e0: 9b4c eb3c 1111 113e 0503 ebbc 5a08 8d3c
000000f0: 9875 a2bd c8c7 3fbd 6604 85bd 9cbb 1e3d
00000100: c03b 04bd d030 d6bd a0e7 44bd 8894 d0bd
00000110: d8de 0b3d 8008 c2bd 2e4d 9abd 8c78 79bd
00000120: d45c aa3d a888 bebc 7255 f33d e0bf 3a3c
00000130: 78ef abbd 522e f8bd f011 7c3c a4a3 90bd
00000140: 2c52 a53d e8ba cdbd c0e1 e33d f035 f4bc
00000150: f2c8 9bbd d2ce 8b3d ea97 88bd 9c55 aebd
00000160: e810 a73c 3080 49bc 688d f53d c00b 48bd
00000170: 0c7f 4f3d 54f4 963d 1ec7 bb3d 6452 1b3d
00000180: 5809 46bd 76ee e8bd 80c5 dabc c0d6 82bb
00000190: 202a e33c c63a a73d 605c 7f3c 8aa0 e0bd
000001a0: 2419 8e3d c848 be3c f056 74bc fe07 d8bd
000001b0: 5048 bd3c 5ad0 fe3d d2a0 db3d 18ac f13d
000001c0: 1ce8 ffbd 6cd6 d4bd 1003 b73d 60ae d73d
000001d0: d813 cfbc f01d ab3d ac9e 25bd ea3f bb3d
000001e0: dc60 d8bd f27f 8a3d 6a9f 87bd a290 85bd
000001f0: 3c54 36bd 9440 4dbd 6e97 89bd fefe e6bd
00000200: 8a1c d6bd b84c 4fbc 25dc c4bd 38f1 223e
00000210: fd61 e73d 1ae6 753d 6620 e13d e4bb 013e
00000220: a8c0 d53d c597 ae3d 9c31 ae3d c0b2 3b3d
00000230: 4015 0b3b 0ca5 e83d 9115 c53d 81f5 c0bc
00000240: 3de1 bc3d a291 c23d fa34 f8bd 09ab bdbd
00000250: b097 843c 3f98 083e 0151 75bd 4552 af3d
00000260: 3f34 4fbd 747b 85bd 71d6 343d ae28 dd3c
00000270: c3ca b1bc 4f8d cd3d 80c8 2b3d 061c cd3c
00000280: 0102 ab3d eef1 353e 3eeb 91bd 7868 1bbd
00000290: 6282 57bd 3195 72bd 346b a33b 8452 86bd
000002a0: 1517 3f3c 94e6 21bd 4098 113b 4e1d 1b3e
000002b0: f2df fd3d c85a 94bc ac51 7e3d 371a 8abd
000002c0: f4c0 f83d 1b79 95bc 38e6 c1bd 4811 abbd
000002d0: a085 a13d 9a40 0a3e 582a fdbd f781 003e
000002e0: f841 d23d a11c d3ba f022 21bc 3edd d63d
000002f0: fbed 643d 7c06 763d 86a8 833d aa59 d63d
00000300: 1574 dcbc 9d85 743d 595a 89bd bccb 283c
00000310: 6e37 843d 9777 173e 1b14 48bd 8e96 973d
00000320: bc32 9cbd 1369 eabd c81f 04bd ec7e 323b
00000330: 0667 f53d 164e b53d cf2a acbc 5172 803d
00000340: 4ebc 973c 2094 99bd 42ce e63d 24bf aabc
00000350: 08f7 1d3d 6ed9 5cbd b03f e63d dbe1 9fbd
00000360: 1788 6f3c c240 b43d 38b5 183e d8fe a83c
00000370: 4d9b 6c3d 83c8 173e c081 4d3b ac33 12bd
00000380: a340 ba3d d91c d23d ec06 9f3d 4872 163e
00000390: 8611 5b3c 05b1 b03c 2292 eabc 28ba 9c3c
000003a0: d2d0 3fbc 5090 16bc 4a42 d23d 46c0 5b3b
000003b0: 5b2b ea3c 0c39 183d aca2 32bd 7dea cabd
000003c0: 6cef d2bd 702a 09bd c508 003e bf29 de3d
000003d0: 28fb 97bb 378c 7abd e464 b13d e061 de3d
000003e0: 66a6 c1bd b7b8 2c3d f629 da3d 7087 973d
000003f0: 7bf7 04bd d44e 013d 7b13 b3bd 78f6 f63d
0.052026466 0.122776866 -0.03913439 0.048651718 -0.1046503 0.012078114 -0.11158648 0.04249228
0.123107 -0.055461854 0.03869635 -0.021384202 -0.059912264 -0.090913996 0.050870687 -0.09739623
-0.010815343 0.07659591 0.12133761 0.09199088 -0.041348085 -0.040155537 0.09876264 0.015901644
0.044864435 0.12368482 -0.07856132 -0.08781041 0.09130079 0.12982531 0.07570422 -0.1012237
0.095125966 -0.010786794 0.09352409 0.10176694 0.13723102 0.12353364 -0.09161109 -0.09493386
-0.07755388 -0.041233346 0.06718454 0.087921046 -0.022778329 0.079058856 0.1112048 -0.08586009
0.040047824 -0.08080351 -0.10139119 -0.019020498 0.10210578 0.032570217 -0.087089375 -0.071466394
0.028723052 0.14166667 -0.028687963 0.017215896 -0.079325855 -0.046821386 -0.064949796 0.038753137
-0.032283545 -0.10458529 -0.048072457 -0.1018458 0.034148067 -0.094742775 -0.07534252 -0.060905978
0.08318487 -0.023258522 0.11881532 0.011398286 -0.083952844 -0.1211821 0.015385136 -0.07062462
0.08072314 -0.10045415 0.11127043 -0.029810876 -0.07606687 0.06826557 -0.066696 -0.085124224
0.020393804 -0.012298629 0.11989862 -0.04883933 0.05065827 0.07370821 0.09168838 0.03792037
-0.048348755 -0.11373608 -0.026705503 -0.0039928854 0.027730048 0.08165507 0.015585989 -0.109681204
0.06938389 0.023228064 -0.014913306 -0.105483994 0.02310577 0.12442084 0.107240334 0.118004024
-0.12495443 -0.1039246 0.08936131 0.10531306 -0.025278017 0.083553195 -0.040434524 0.0914305
-0.105653495 0.06762685 -0.06622203 -0.06521727 -0.044513926 -0.050110415 -0.06718336 -0.11279105
-0.10454662 -0.0126525685 -0.09612302 0.1591233 0.11297987 0.060033895 0.10992508 0.12669331
0.10437137 0.085250415 0.08505556 0.045824766 0.0021222383 0.11359605 0.09623254 -0.023554565
0.09222648 0.095004335 -0.121194795 -0.09261138 0.016185611 0.13339327 -0.059891704 0.085606135
-0.050586935 -0.065176874 0.04414982 0.026996937 -0.02170313 0.10036718 0.04193926 0.025037777
0.083499916 0.1776807 -0.07124947 -0.037941426 -0.052614577 -0.05922431 0.004987145 -0.06558707
0.011663218 -0.039526537 0.0022215992 0.15147898 0.1239623 -0.018109694 0.062089607 -0.06743281
0.12146178 -0.018246224 -0.09467739 -0.083529055 0.07886815 0.13501206 -0.12361592 0.12549578
0.10266489 -0.0016106555 -0.00983499 0.10491417 0.05589102 0.060064778 0.06428628 0.10466321
-0.026910821 0.059697736 -0.067066856 0.01030248 0.06455885 0.14791714 -0.0488473 0.07401763
-0.07626864 -0.114458226 -0.03225687 0.0027236296 0.11982541 0.08852784 -0.021016506 0.06271804
0.018522408 -0.07498956 0.11269809 -0.020843096 0.038565665 -0.053918295 0.11242616 -0.078067504
0.014619849 0.08801414 0.1491288 0.020629331 0.057765294 0.14822583 0.0031357855 -0.03569381
0.0909436 0.102594085 0.07764992 0.14692032 0.013370877 0.021568784 -0.028634135 0.019131735
-0.0117075015 -0.00918968 0.1026655 0.0033531352 0.028585127 0.03716378 -0.043612167 -0.09908006
-0.10299572 -0.033487737 0.12503345 0.10847806 -0.0046380945 -0.061168876 0.086618215 0.10858512
-0.09455566 0.042168345 0.10652535 0.073988795 -0.03246258 0.031569317 -0.0874395 0.12058729

hidden_layers.3.bias f4 [64]
00000000: ec08 76bd 0486 2abd 3c80 943d 6d48 cb3d
00000010: c06c 8abd 4309 6f3d 0e4e 983d fc9a 6a3d
00000020: 2645 fabd 079d 03be 7eca 4a3c c908 da3c
00000030: 1820 dcbd 10ec dc3c 54a0 4ebd 884c 943c
00000040: 400f 913b c069 183d 668e 913d 2a4d d93c
00000050: 180f 21bd 6f1e f4bc 484d f93d 3fe8 d9bc
00000060: 8c87 c13d 40fe 1b3d 0973 fcbd ae98 8abd
00000070: b31e a33d f34d 193c 2929 bc3d 62e8 eabd
00000080: 8bf5 db3d c84c 4ebd 587a 67bd 946b 87bd
00000090: ae5e a83d 342c 273c c6d5 c33d f36f d2bc
000000a0: 924a a2bd 7cd7 21bd 2cd6 42bd e067 3c3d
000000b0: e4bf 923d 0f54 aa3a 6490 9bbd d08f b53c
000000c0: 6205 b93d 3c5f 973d 5b26 8e3d 836f 213b
000000d0: a550 0d3e 0ba8 ab3d c450 84bd be65 8b3d
000000e0: aaa0 9bbd 9063 58bc c0dc 6d3d c9c4 7dbc
000000f0: e10f 063e 9941 163e aa4d d63d 0857 b7bc
-0.060067102 -0.041631714 0.07251021 0.099259235 -0.06759024 0.058358442 0.07436763 0.05727671
-0.1222022 -0.1285287 0.012377379 0.026615517 -0.10748309 0.026968032 -0.05044587 0.0181029
0.004426867 0.037210226 0.071072385 0.026526053 -0.039321035 -0.029799668 0.12172943 -0.026600001
0.09449682 0.03808427 -0.12326629 -0.067674026 0.0796484 0.009356963 0.09187538 -0.11470105
0.10740193 -0.050366193 -0.05651316 -0.06612316 0.08221184 0.01020341 0.095622584 -0.025688147
-0.079243794 -0.039512143 -0.04756753 0.0459975 0.071655065 0.0012995022 -0.075959 0.022163302
0.0903423 0.073912114 0.069409095 0.0024633117 0.13800295 0.08381661 -0.06460717 0.06806515
-0.075990036 -0.013207331 0.05807185 -0.015488812 0.13091995 0.14673461 0.10464032 -0.022380367

output_layer.weight f4 [2, 64]
00000000: 33d7 ca3d bc85 ea3d a399 523d 37de 173e
00000010: 7e66 84bd 9859 bcbd 84d2 edbd 5ace 033e
00000020: 5a45 88bd 29f6 eebc 1e29 6b3d 3581 163e
00000030: ce47 89bd 6050 bf3d 5bea e03d 37e2 bc3d
00000040: a87a cb3c f613 d6bc c55d a53d eb0c 08bd
00000050: 8376 dabc 3be3 f13d 5d13 9f3c c236 e2bd
00000060: e177 ec3d 0935 b03d ca5f 1abd 7d70 8a3d
00000070: 001f 6fbd c488 943d b3cf d0bd 1072 0dbd
00000080: 6f0e d5bd 7edf a43d 60c6 1abc 5faa bcbd
00000090: 8610 05bd 1b2a 9c3d 37c0 fb3d 48d7 c1bd
000000a0: c4a4 a8bd 3a01 be3d 1872 d8bd c997 cebd
000000b0: 6e68 a73d cca1 bcbd 795e 6cbd d018 8c3c
000000c0: a8d5 d5bd a3e8 493d 57bc e0bd 7eb3 903d
000000d0: b0dc f03d f7f4 9b3d 7c10 bf3d 94a4 743d
000000e0: 8e3b b83d 6853 a13d 8342 763d 0f98 063e
000000f0: bfac e23d 9094 173e b3e4 e5bd 0035 903c
00000100: 855b 053d 806e 6b3b 5e34 c3bc d096 293d
00000110: ecdf 03bd 941e 49ba fcc7 ee3c 883f b6bd
00000120: 600a ce3c 48c6 9b3d b2d2 b3bd de72 4ebd
00000130: 94d7 89bd c200 93bd 8a69 b7bd 5cd7 843d
00000140: 3cfe 5d3d 4b04 ad3c 34b1 91bc ba19 c0bd
00000150: 3fa9 16be 23c4 a8bb 91eb b73d 62d5 37bc
00000160: 2119 d1bd 8ea8 80bd 1dc0 cb3b 2923 a83d
00000170: 6407 e23d 67dd fabc 7f00 efbd baab 48bd
00000180: 8e07 92bd 68c5 9fbd 2099 12bc 8188 b2bd
00000190: ad16 d2bd 34d5 e3bd 75c2 ddbd 5f68 babd
000001a0: f8bb 44bd 44c2 d4bd 80e3 fb3d 5d9b 10bd
000001b0: 2dd7 173d 5fdc a0bd 448a 973d 341f 3abd
000001c0: 39f1 f5bd bb1d e2bd 6945 25bd 1b54 a73d
000001d0: 5eec 04bd df29 293c 9429 ce3d bf22 88bc
000001e0: e016 22bd 0ef0 d8bd 9802 593c 942b 0dbe
000001f0: ab1e 2f3c 75e6 983b 5978 66bc 9822 c0bc
0.09904327 0.11451289 0.05141605 0.14830862 -0.06464861 -0.09196776 -0.11612418 0.12871686
-0.06653853 -0.029170113 0.05741226 0.14697726 -0.06703149 0.09341502 0.109822 0.092228346
0.02483876 -0.026132565 0.08074526 -0.033215445 -0.026667839 0.11810919 0.019418413 -0.110456005
0.115463026 0.08603866 -0.037689008 0.06759737 -0.058379173 0.072526485 -0.101958655 -0.034532607
-0.104031436 0.0805044 -0.00944671 -0.09212183 -0.03248646 0.076252185 0.122925214 -0.0946489
-0.082345515 0.09277578 -0.10568637 -0.100875445 0.08174215 -0.09210548 -0.057707284 0.017101675
-0.10441142 0.049294125 -0.10973423 0.070654854 0.11760843 0.07615083 0.09329316 0.059727266
0.08995734 0.078772366 0.060122024 0.13143943 0.11068105 0.14802766 -0.112252615 0.017603397
0.032557983 0.0035924017 -0.023828682 0.04140359 -0.03219597 -0.0007672098 0.029148094 -0.088988364
0.025151432 0.076061785 -0.08780421 -0.050402515 -0.067305714 -0.07177879 -0.08955677 0.06486389
0.054197535 0.021120211 -0.017784692 -0.09379907 -0.14713 -0.0051503344 0.089804776 -0.011220308
-0.10209871 -0.06282149 0.00621797 0.08209831 0.11036566 -0.030623151 -0.116700165 -0.048991896
-0.07130347 -0.07801324 -0.008947641 -0.08717442 -0.10258231 -0.1112465 -0.10828105 -0.091019385
-0.048030823 -0.10388616 0.122992516 -0.035304416 0.037070442 -0.078545325 0.07399419 -0.045439914
-0.120089 -0.11040827 -0.040349398 0.08170339 -0.03245198 0.010324924 0.10066524 -0.01661813
-0.039572597 -0.10592662 0.013245247 -0.13786155 0.010688464 0.0046661445 -0.014066779 -0.023453996

output_layer.bias f4 [2]
00000000: b1e4 de3d 8d64 86bc
0.10883463 -0.016405368
