abc_env_raw/saved_models/phi_only_1.1.pt (torch, 72199 bytes, 12 tensors)

input_layer.weight f4 [64, 3]
0	0x3e7e9e53	0.24865083
1	0x3f16a73a	0.5884892
2	0xbec9351a	-0.39298326
3	0x3cb5efb6	0.02220903
4	0xbed40ec4	-0.41417515
5	0xbecfb141	-0.40564921
6	0x3d5ef88d	0.054436255
7	0xbd761fc4	-0.060088888
8	0x3e097d70	0.13426757
9	0xbf066e65	-0.525122
10	0x3f027a91	0.5096827
11	0xbeaa902a	-0.33313113
12	0x3e67a5dc	0.22621864
13	0x3f098a79	0.5372692
14	0x3d6a2613	0.057165217
15	0xbe549992	-0.20761707
16	0x3dd575a0	0.10422826
17	0xbed2bdcf	-0.41160437
18	0x3ea0569f	0.31316087
19	0x3ed514a1	0.416173
20	0x3eb9cc3f	0.3628864
21	0xbef9d93b	-0.48798546
22	0xbd9a1ddb	-0.07525226
23	0xbd2622fb	-0.040560704
24	0xbe1bf6f1	-0.1523092
25	0x3e8bde3c	0.2731799
26	0x3ece0388	0.4023707
27	0xbc0098b2	-0.007848905
28	0xbecfde2f	-0.405992
29	0xbee2f941	-0.4433079
30	0x3ee9d6be	0.45671648
31	0xbe3a8f3f	-0.18218707
32	0xbea4fb3e	-0.32222933
33	0xbd9a6f36	-0.07540743
34	0x3eea00ad	0.4570364
35	0xbea235d7	-0.31681702
36	0xbea25281	-0.3170357
37	0xbe453f03	-0.19262318
38	0xbf0e8c38	-0.55682707
39	0x3e2c443e	0.16822907
40	0x3f091ea6	0.5356239
41	0x3b12fff0	0.0022430383
42	0x3c1cfca7	0.009581721
43	0xbee99dc4	-0.45628178
44	0xbdd2de5c	-0.10296318
45	0xbe2d2aa4	-0.16910797
46	0xbede67a7	-0.43438455
47	0x3d85daee	0.06535898
48	0x3ed339fe	0.41255182
49	0x3bc4c264	0.0060046185
50	0xbe81c8a2	-0.25348383
51	0x3ed8a945	0.42316642
52	0xbf0fe689	-0.56211144
53	0xbe13344d	-0.1437542
54	0xbeecb04d	-0.46228257
55	0x3e637325	0.22211893
56	0x3f0d19b1	0.55117327
57	0x3e026fcb	0.12737958
58	0x3d838d01	0.06423379
59	0xbeae7d0f	-0.34079787
60	0x3f0af0b8	0.5427356
61	0x3eec0ff8	0.46105933
62	0x3f0f80bf	0.56055826
63	0xbee7e572	-0.4529224
64	0xbe40ac71	-0.18815781
65	0x3ec97c96	0.39352864
66	0xbe054f7f	-0.13018607
67	0xbee902d4	-0.4550997
68	0xbed3aaa3	-0.41341123
69	0xbe99356d	-0.29923573
70	0xbde44b9a	-0.11147232
71	0xbed0c8e6	-0.40778273
72	0xbe25dc20	-0.16197252
73	0x3e5aa1fe	0.21350858
74	0x3e2ac841	0.16677953
75	0xbd8cfdad	-0.06884322
76	0x3e0e5e2f	0.13903116
77	0x3ddf8ed2	0.10915913
78	0xbf07ecaa	-0.53095496
79	0x3de19539	0.1101479
80	0x3ed04b6a	0.40682536
81	0x3db16145	0.08661131
82	0x3f149b70	0.5804968
83	0xbea18f32	-0.31554562
84	0xbdccab72	-0.09993638
85	0x3ef08622	0.46977335
86	0x3ee9d38c	0.4566921
87	0x3e11b593	0.14229421
88	0x3eff7985	0.498974
89	0xbd6710ca	-0.056412496
90	0x3e878e3f	0.26475713
91	0x3ef593be	0.4796428
92	0x3ea4ead5	0.32210413
93	0x3f0aea79	0.54264027
94	0x3cb60de2	0.022223417
95	0xbdc23bd1	-0.09484065
96	0xbe2d1f3a	-0.16906443
97	0x3dd5b35e	0.10434602
98	0xbef05874	-0.46942484
99	0xbdb8efdc	-0.090301245
100	0x3ddb3649	0.107037134
101	0xbf0deb26	-0.55436933
102	0xbe4550a2	-0.1926904
103	0xbde9de47	-0.11419349
104	0xbf04e673	-0.5191414
105	0x3ca6e518	0.020372912
106	0x3f06f1d2	0.5271274
107	0x3e8d44df	0.27591607
108	0x3e462dc2	0.19353393
109	0x3dcf10fb	0.10110661
110	0xbd3dd1a2	-0.0463425
111	0xbf128518	-0.57234335
112	0x3ec931f8	0.39295936
113	0x3f0bab01	0.54557806
114	0xbe38e48c	-0.18055934
115	0xbe6ac765	-0.22927625
116	0xbe0691da	-0.13141575
117	0xbecc7ab5	-0.39937368
118	0x3f06fba5	0.5272773
119	0xbe5adf40	-0.21374226
120	0xbe81c157	-0.2534282
121	0xbef1d470	-0.4723239
122	0x3f0df095	0.55445224
123	0x3db97ec4	0.09057382
124	0xbe82d4f7	-0.25553104
125	0x3e2759bb	0.16342823
126	0xbe29668b	-0.16543023
127	0xbea0f625	-0.31437793
128	0xbe677c7e	-0.22606084
129	0xbe0710f5	-0.13190062
130	0xbeff20ec	-0.49829805
131	0x3e98bdc0	0.29832268
132	0x3f000bc0	0.5001793
133	0xbef6cc4a	-0.48202735
134	0x3ec4a687	0.384083
135	0x3e83ab31	0.25716546
136	0x3e80858c	0.25101888
137	0x3eacfc36	0.33786172
138	0xbe0c7bab	-0.1371905
139	0xbe955f16	-0.29174107
140	0xbed26bab	-0.4109777
141	0x3eb1c028	0.34716916
142	0x3d9ecef5	0.07754318
143	0xbecaae08	-0.395859
144	0x3edfa16c	0.43677843
145	0xbed25c4c	-0.41086042
146	0xbea04f6a	-0.31310588
147	0xbf05f7fa	-0.5233151
148	0xbe9e68ec	-0.30939424
149	0x3ee46ffd	0.4461669
150	0xbe8db5d8	-0.27677798
151	0x3ec37ed7	0.3818271
152	0xbedf77c3	-0.43646058
153	0xbe9a184c	-0.30096662
154	0xbea8647b	-0.3288916
155	0xbe24f827	-0.16110288
156	0xbf01c753	-0.5069477
157	0x3e4ef0dc	0.20209068
158	0x3f01f022	0.5075704
159	0xbdfb3179	-0.122652955
160	0x3e3100b3	0.17285423
161	0x3dd55f8b	0.10418614
162	0x3db49911	0.088182576
163	0x3f05d71a	0.52281344
164	0xbdc8be4e	-0.09801923
165	0x3cc2ee0b	0.023795148
166	0xbeb46874	-0.3523594
167	0x3e491b54	0.19639331
168	0xbdb3cd68	-0.087794125
169	0x3ecb6d92	0.39732033
170	0x3eb6ad6e	0.3567919
171	0x3e9b2b22	0.30306345
172	0xbcbed34e	-0.023294117
173	0xbee24121	-0.44190314
174	0x3e83cd58	0.25742602
175	0xbdfefa3f	-0.124500744
176	0xbf00b74b	-0.5027968
177	0xbb2950e2	-0.0025835563
178	0x3ea90056	0.3300807
179	0xbcd1ddc4	-0.025618441
180	0xbe80c6d7	-0.25151703
181	0xbf0111ca	-0.5041777
182	0xbd0b1a8a	-0.033960856
183	0x3f01f654	0.5076649
184	0xbddbffcb	-0.10742148
185	0x3efe1c8d	0.49631158
186	0xbeb807d6	-0.35943478
187	0xbe593cea	-0.21214643
188	0x3ebe9ab4	0.37227404
189	0x3df38fa0	0.11892629
190	0xbdd0129f	-0.10159802
191	0xbf0c93f8	-0.5491328

input_layer.bias f4 [64]
0	0x3e891782	0.26775748
1	0xbec34914	-0.38141692
2	0xbeab6a7f	-0.33479688
3	0x3f00085a	0.50012743
4	0x3e0e9b7f	0.13926505
5	0x3ef967f8	0.48712134
6	0xbe9d904c	-0.30774152
7	0xbd2196dc	-0.03945051
8	0x3e759682	0.23983195
9	0xbe996c32	-0.2996536
10	0xbf0eb088	-0.55738115
11	0x3f05a8e9	0.5221086
12	0x3d0a3364	0.033740416
13	0xbeb03e18	-0.34422374
14	0x3e2d50fe	0.16925427
15	0x3e528d3a	0.20561686
16	0x3e82b7be	0.2553081
17	0x3eaccd02	0.3375016
18	0x3ead6999	0.33869627
19	0x3f130eb8	0.57444334
20	0x3e20f9fd	0.15720363
21	0x3e74af20	0.2389493
22	0x3e25a9d0	0.1617806
23	0xbec2e906	-0.38068408
24	0x3e74b288	0.2389623
25	0x3f1e1179	0.6174541
26	0x3eca88b2	0.39557415
27	0x3e11d2cc	0.14240569
28	0xbee9f75a	-0.45696527
29	0x3d8dccb2	0.06923808
30	0xbee213fb	-0.4415587
31	0xbeea340b	-0.4574283
32	0xbea07767	-0.31341097
33	0x3ebad693	0.36491832
34	0xbf0dcbf7	-0.5538935
35	0x3e8f5f4a	0.28002387
36	0xbc36da01	-0.011160375
37	0xbf0eb845	-0.55749923
38	0x3e973fe3	0.2954093
39	0x3f0a9bee	0.5414418
40	0x3e0e1596	0.13875422
41	0xbe9f0e11	-0.3106542
42	0xbde44d38	-0.11147541
43	0xbd4d3f9e	-0.0501095
44	0x3f0e6286	0.55619085
45	0xbeb7280f	-0.3577275
46	0x3e37fc19	0.17967261
47	0x3df03a49	0.11729867
48	0x3ec7fb90	0.39059114
49	0x3d2d99db	0.042383056
50	0xbe2d9df3	-0.16954784
51	0x3f1e489f	0.6182956
52	0xbe810ee8	-0.25206685
53	0x3f025d92	0.50924027
54	0x3e0df811	0.13864161
55	0x3f0627a5	0.5240424
56	0x3eb8133d	0.35952178
57	0xbe0bd4ca	-0.13655391
58	0xbee8a7e2	-0.45440584
59	0x3d05db70	0.032679975
60	0xbedd739b	-0.43252262
61	0xbeec2e8a	-0.46129256
62	0x3e65db8f	0.22447036
63	0x3e1a9f77	0.15099894

hidden_layers.0.weight f4 [64, 64]
0	0x3d9f7866	0.07786636
1	0xbcf910a7	-0.030403448
2	0xbda6aee7	-0.08138829
3	0x3d957c79	0.07299132
4	0x3c51ebcb	0.012812565
5	0x3d04d7d8	0.032432407
6	0xbd1bf19e	-0.03807222
7	0x3cbba46c	0.02290555
8	0xbd55d54f	-0.05220538
9	0xbde4218a	-0.111392096
10	0x3bece5ba	0.007229534
11	0xbd15ab0e	-0.036540084
12	0xbdfb83fe	-0.12281035
13	0x3d699e87	0.05703595
14	0xbdc11b79	-0.09429068
15	0x3dd0ab39	0.10188908
16	0xbd9acfbe	-0.07559155
17	0x3dd9a5f6	0.10627358
18	0xbd9c489b	-0.07631036
19	0xbdbdb500	-0.09263039
20	0x3ca28b9b	0.01984196
21	0xbd5d40b6	-0.05401679
22	0xbc9e9fd2	-0.019363318
23	0x3cae64af	0.021288244
24	0xbc5b6327	-0.013390339
25	0xbd0609ef	-0.032724317
26	0x3da21f9e	0.07916187
27	0xbe052805	-0.13003547
28	0xbe0100fb	-0.1259803
29	0x3dba6048	0.091003954
30	0xbd86e2de	-0.0658624
31	0xbd7768be	-0.060402624
32	0x3cc14341	0.02359164
33	0x3d275913	0.040856432
34	0x3ca8b3bd	0.020593518
35	0xbe0c925d	-0.13727708
36	0x3da6f0df	0.08151411
37	0xbe004044	-0.12524515
38	0xbc6f0e0c	-0.014590751
39	0xbd0d1648	-0.034445077
40	0xbddac7ec	-0.10682663
41	0x3d5c8afa	0.053843476
42	0xbd286d19	-0.04111967
43	0xbcfcf000	-0.03087616
44	0x3dd7ba58	0.10533589
45	0x3d4f14aa	0.050556816
46	0xbc4458da	-0.0119840745
47	0x3d15aa32	0.036539264
48	0xbd465a15	-0.048425753
49	0x3cdcb414	0.026941337
50	0x3d7e77f0	0.0621261
51	0xbb8ece90	-0.0043581203
52	0x3c654f3f	0.0139959445
53	0xbdb63fc4	-0.08898881
54	0xbcd41c7f	-0.025892494
55	0xbd22f8c1	-0.03978801
56	0x3db38a2a	0.08766587
57	0xbca96943	-0.020680076
58	0xbc023624	-0.007947478
59	0xbc956c23	-0.01824004
60	0x3bacb577	0.0052706557
61	0xbd0ab219	-0.033861253
62	0x3de1cac6	0.11025004
63	0xbdf627a6	-0.12019281
64	0xbc2103f0	-0.009827599
65	0x3dcb9722	0.09940936
66	0x3ca6e758	0.020373985
67	0xbdc69421	-0.09696222
68	0xbdaebbb4	-0.08531895
69	0xbd00375b	-0.03130279
70	0x3da46b94	0.080283314
71	0x3c11ee8f	0.008906974
72	0x3d7d2626	0.06180396
73	0xbd8a7184	-0.06759933
74	0xbde63222	-0.11240031
75	0xbdf51ef4	-0.119687945
76	0xbdb948de	-0.090471014
77	0xbdf194e8	-0.1179598
78	0x3c51b013	0.012798327
79	0x3cb63e63	0.022246545
80	0xbcfdc0a0	-0.03097564
81	0xbd26e1e4	-0.04074277
82	0xbbd2fe1b	-0.006438983
83	0xbd249411	-0.04018027
84	0x3d661094	0.056168154
85	0xbda1c228	-0.078983605
86	0x3de5c3c2	0.112189785
87	0xbc9eeed0	-0.019400984
88	0xbd1c15b9	-0.038106654
89	0xbd31f0c9	-0.04344252
90	0x3d237c5d	0.039913524
91	0x3cd86c10	0.026418716
92	0x3acb5971	0.0015514327
93	0xbd778874	-0.060432866
94	0x3c212700	0.0098359585
95	0x3df2a9b0	0.118487716
96	0xbd858314	-0.06519142
97	0xbdc08f64	-0.094023496
98	0xbd635524	-0.05550112
99	0x3dd31ef4	0.10308638
100	0x3d8fc588	0.07020098
101	0x3dc7fe23	0.097652696
102	0x3d54b25e	0.051927917
103	0x3d04cf3a	0.03242419
104	0xbbdcb83f	-0.006735831
105	0xbdb9ec90	-0.09078324
106	0xbdd6b9af	-0.10484635
107	0xbdfad229	-0.12247116
108	0xbdc3c8b7	-0.09559768
109	0x3d65fbbc	0.056148276
110	0x3df93462	0.12168194
111	0xbbac40c0	-0.0052567422
112	0x3b109840	0.0022063404
113	0x3dc0de8e	0.09417449
114	0xbdf5336f	-0.11972701
115	0x3dc15a52	0.09441055
116	0xbc43264e	-0.011910988
117	0x3d195904	0.037438408
118	0xbdceb6e0	-0.100934744
119	0x3caf6882	0.021412138
120	0xbdbb9b5f	-0.09160494
121	0x3cd074b8	0.02544628
122	0xbd70326c	-0.058641836
123	0xbdc76f8f	-0.09738075
124	0xbd564b20	-0.05231774
125	0x3dc5990c	0.09648332
126	0xbd5102e6	-0.051028155
127	0xbd1754dc	-0.036946163
128	0xbd87eff8	-0.06637567
129	0xbd6d2f64	-0.057906523
130	0x3d82e96e	0.063921794
131	0x3cbbb718	0.022914454
132	0x3dfef52a	0.12449105
133	0x3cd52d30	0.026022524
134	0x3ca25738	0.01981698
135	0xbdc6aed8	-0.097013175
136	0x3d16c150	0.03680545
137	0x3d1a82b0	0.03772229
138	0x3c9727f8	0.018451676
139	0x3d8c29bc	0.06843898
140	0xbd9a9866	-0.07548599
141	0xbb8d29a0	-0.0043079406
142	0x3d418b74	0.047252133
143	0x3df8725c	0.12131187
144	0xbd4bd798	-0.049766153
145	0xbd3da884	-0.046303287
146	0xbc986468	-0.018602565
147	0xba5dcc00	-0.00084608793
148	0xbd8e9f14	-0.069639355
149	0xbda0bf8c	-0.07849035
150	0x3d57f1b8	0.052720755
151	0x3b10a480	0.0022070706
152	0x3dae54e8	0.08512288
153	0xbd83606c	-0.064148754
154	0xbb2a5240	-0.0025988966
155	0x3c244390	0.010025874
156	0xbdbd84c8	-0.09253842
157	0xbd5338d4	-0.051567867
158	0xbcf4c8e0	-0.02988094
159	0xbda7a448	-0.08185631
160	0xbddeece0	-0.10885024
161	0x3c7303e0	0.014832467
162	0x3d03cc4c	0.032177255
163	0xbded278c	-0.115798086
164	0xbd70ef8c	-0.0588222
165	0xbd95ea18	-0.073200405
166	0xbc8a3788	-0.016872182
167	0xbdc5a0a8	-0.096497834
168	0x3d8c33b0	0.06845796
169	0xbd7b0a88	-0.06128934
170	0x3dcd5932	0.10026778
171	0xbdba95fa	-0.09110637
172	0xbd1403c4	-0.036136404
173	0x3cf6be88	0.03012015
174	0xbd9f9f92	-0.077941075
175	0xbd80f2ba	-0.062962964
176	0x3c6e7e50	0.014556482
177	0x3de6f006	0.112762496
178	0xbdafaa4c	-0.085774034
179	0x3dc0714e	0.09396611
180	0xbd980232	-0.07422294
181	0xbd59f480	-0.05321169
182	0x3da6fc26	0.08153562
183	0xbde90994	-0.1137878
184	0xbddd9fbc	-0.108214825
185	0xbdb14b3c	-0.08656928
186	0x3dc13b12	0.09435095
187	0x3c0eb540	0.008710206
188	0x3d77fa64	0.060541525
189	0x3dac8552	0.08423866
190	0x3cf868e8	0.03032346
191	0xbd831b06	-0.06401639
192	0x3d3d5870	0.04622692
193	0x3d7f9610	0.06239897
194	0x3d7917d8	0.060813755
195	0x3de4f72d	0.111799575
196	0x3de28eed	0.11062417
197	0xbdaa766b	-0.08323368
198	0xbdbaf8a5	-0.091294564
199	0x3d5f1f96	0.054473482
200	0xbd96ef57	-0.07369869
201	0xbd08fcc6	-0.03344419
202	0xbe00e58c	-0.12587565
203	0xbdae8a79	-0.08522505
204	0xbca6de2d	-0.020369614
205	0x3d09477f	0.03351545
206	0x3e0bd036	0.13653645
207	0x3d445685	0.047934074
208	0x3d4a1153	0.049332928
209	0xbd85aa6f	-0.06526648
210	0xbcadb13c	-0.021202676
211	0x3dbcc535	0.09217302
212	0x3d53e974	0.05173631
213	0xbb0f1b46	-0.0021836325
214	0x3ddc463d	0.107555844
215	0x3df4365b	0.1192443
216	0x3cc7f263	0.024407571
217	0x3df4bc51	0.11949981
218	0xbd8cb4b9	-0.068704076
219	0x3c53b85e	0.0129223745
220	0xbd04eddf	-0.032453414
221	0x3d88d622	0.066814676
222	0x3d5191b4	0.051164344
223	0xbdd6459c	-0.10462496
224	0x3cbc6752	0.022998486
225	0x3dd34e4c	0.10317668
226	0xbd161600	-0.036642075
227	0x3d6b57c3	0.057456743
228	0x3d7a88fe	0.061165802
229	0x3d876d0a	0.066125944
230	0xbd887bdb	-0.066642486
231	0x3d7fec76	0.062481366
232	0xbddcb6d2	-0.10777058
233	0xbd257202	-0.04039193
234	0x3d8332d7	0.06406181
235	0xbda36cff	-0.07979774
236	0xbcc050ba	-0.023475993
237	0x3cde06de	0.027102884
238	0xbd141221	-0.0361501
239	0xbdb95c0b	-0.09050759
240	0x3d5db639	0.05412886
241	0xbdb05284	-0.086094886
242	0x3d52d263	0.05147017
243	0x3d824e86	0.063626334
244	0x3bcfbb26	0.0063394485
245	0x3dab995e	0.08378862
246	0xbd346272	-0.044039197
247	0x3da66d7e	0.08126353
248	0x3db586e1	0.08863617
249	0x3dcd98f0	0.10038936
250	0x3d301753	0.042990994
251	0xbd6a10b1	-0.057144824
252	0xbc0c09bb	-0.008547242
253	0xbe01ff93	-0.1269515
254	0x3e06fa86	0.13181505
255	0xbc47deec	-0.012199145

hidden_layers.0.bias f4 [64]
0	0x3cf2d207	0.029641164
1	0x3c8e9838	0.017406568
2	0xbd23d530	-0.039998233
3	0x3d4cf23a	0.050035693
4	0x3d0fd9f0	0.03511995
5	0x3e0ec5e6	0.1394268
6	0xbdce0b19	-0.100607105
7	0x3dc25205	0.094883
8	0x3d992503	0.074777626
9	0x3dbf63de	0.0934522
10	0x3e1bfbdf	0.152328
11	0xbde7deb1	-0.11321772
12	0x3d800ee3	0.062528394
13	0x3e16181e	0.14657637
14	0x3d6031aa	0.054734863
15	0x3d61f905	0.055169124
16	0xbcbb2848	-0.022846356
17	0xbdb6c911	-0.08925069
18	0x3dfddd97	0.123957805
19	0xbc8941d3	-0.01675502
20	0x3e17342d	0.14765997
21	0x3e186c08	0.1488496
22	0x3d8a2fc5	0.067473926
23	0xbc0e5a71	-0.008688555
24	0x3d51eb86	0.051250003
25	0xbdbb60a7	-0.09149294
26	0x3d32e97f	0.04367971
27	0x3da5db42	0.08098461
28	0x3dcb7bfc	0.099357575
29	0x3dc2d388	0.09513003
30	0x3cf229e7	0.029560996
31	0x3e1eab0c	0.15494937
32	0x3da3f6d7	0.08006065
33	0x3e0622a7	0.13099156
34	0x3dfcc980	0.123431206
35	0x3e05db02	0.13071826
36	0x3e1ff180	0.15619469
37	0x3dbc8f12	0.09206976
38	0x3db74111	0.08947957
39	0xbd640990	-0.055673182
40	0xbd59699c	-0.053079233
41	0x3d13ac42	0.03605295
42	0xbdcbc6dd	-0.099500395
43	0xbc88d758	-0.016704246
44	0x3dbebb91	0.09313119
45	0x3d76f294	0.060289934
46	0xbb183055	-0.0023222168
47	0x3d8f9669	0.0701111
48	0xbdb9f733	-0.09080353
49	0xbd8f3c7e	-0.0699396
50	0x3e16921e	0.14704177
51	0x3d459be7	0.048244383
52	0x3d17b961	0.037042025
53	0x3e152744	0.1456576
54	0x39049a90	0.0001264608
55	0xbd484701	-0.04889584
56	0xbdc1249b	-0.0943081
57	0x3c909481	0.017648937
58	0xbddc05b6	-0.10743277
59	0x3d2811a0	0.041032434
60	0x3dff601b	0.124695025
61	0xbdcca12b	-0.09991678
62	0x3d23f935	0.040032584
63	0xbce77046	-0.028251778

hidden_layers.1.weight f4 [64, 64]
0	0xbd79d3f8	-0.060993165
1	0xbd453604	-0.048147216
2	0x3d31f960	0.043450713
3	0xbdc16d7c	-0.094447106
4	0xbccc53c8	-0.024942294
5	0x3df24e64	0.11831358
6	0xbd2549a0	-0.040353417
7	0xbd86fc2c	-0.06591067
8	0xbcbdea38	-0.023182973
9	0x3da7eae2	0.08199097
10	0x3d218c38	0.039440364
11	0xbbc35d40	-0.005962044
12	0x3de8e7c0	0.11372328
13	0x3de0891c	0.109636515
14	0x3d89f222	0.06735636
15	0xbd96fb7a	-0.07372184
16	0xbd36bf54	-0.04461606
17	0x3dcd02ce	0.100103006
18	0x3d6253dc	0.055255756
19	0xbd67aa48	-0.056558877
20	0x3dcda6fa	0.10041614
21	0xbd42ffe8	-0.047607332
22	0xbd0c6d74	-0.03428407
23	0xbde0c48a	-0.10974987
24	0xbde7114a	-0.112825945
25	0xbd3811f4	-0.044938996
26	0x3da8c918	0.082414806
27	0xbdbfda3c	-0.09367797
28	0x3deb39dc	0.11485645
29	0xbde1ad84	-0.110194236
30	0x3d284d80	0.041089535
31	0x3d1d4420	0.038395047
32	0xbd8e8f5e	-0.06960939
33	0xbd8c0368	-0.06836587
34	0xbdf38990	-0.11891472
35	0x3dd58336	0.10425417
36	0xbd9dc29a	-0.07703133
37	0x3a810000	0.0009841919
38	0xbde2384c	-0.11045894
39	0x3dcefdc6	0.10106997
40	0xbd386a38	-0.045023173
41	0x3d8ced66	0.06881218
42	0xbb066580	-0.0020507276
43	0xbdce93f2	-0.10086812
44	0xbb96e820	-0.004605308
45	0x3c928418	0.017885253
46	0xbda16048	-0.07879692
47	0xbdaf77e2	-0.08567788
48	0x3d1213e0	0.035663486
49	0xbd0d9e0c	-0.034574553
50	0xbd9b97e8	-0.07597333
51	0xbdaaa12c	-0.08331522
52	0xbd7664a0	-0.060154557
53	0x3cf1e628	0.029528692
54	0xbd3c8d60	-0.046033263
55	0xbd2eb2ac	-0.042650864
56	0xbcfbef78	-0.030753836
57	0xbca25e28	-0.019820288
58	0x3d8b37f6	0.06797783
59	0xbdb1b322	-0.08676745
60	0x3d1c8438	0.03821203
61	0xbdf497a0	-0.11942983
62	0xbdb647b0	-0.08900392
63	0x3db935e8	0.09043485
64	0x3c5119a0	0.012762457
65	0x3d151acc	0.03640251
66	0xbde341aa	-0.11096509
67	0xbda8a41c	-0.082344264
68	0xbc34ade0	-0.011027783
69	0xbddcbc08	-0.107780516
70	0x3d2908e8	0.04126826
71	0x3d950884	0.07277015
72	0xbd474174	-0.048646405
73	0xbcef74a8	-0.02923043
74	0xbdca53bc	-0.09879252
75	0x3dcff4e2	0.101541296
76	0xbbe46400	-0.0069699287
77	0x3de0d8e6	0.1097887
78	0x3d7ef360	0.06224382
79	0xbd67ecdc	-0.05662237
80	0xbd770840	-0.060310602
81	0xbd3d5b8c	-0.046229884
82	0xbde41d2a	-0.11138375
83	0x3d2ef7a0	0.042716622
84	0x3d785468	0.06062737
85	0x3d4b2624	0.04959692
86	0xbdcb8e4e	-0.09939252
87	0x3c265b20	0.010153562
88	0x3c382430	0.0112390965
89	0xbd4e6cc0	-0.05039668
90	0xbd126b44	-0.035746828
91	0x3dee81ac	0.11645827
92	0xbcad7b00	-0.021176815
93	0xbdec36de	-0.115339026
94	0x3da01586	0.07816605
95	0xbdf2ceaa	-0.11855824
96	0x3d0662d0	0.03280908
97	0xbdb4158a	-0.08793171
98	0x3dba264c	0.09089336
99	0xbdea3326	-0.11435537
100	0xbd8c93de	-0.06864141
101	0xbdb917ae	-0.0903772
102	0x3d5ad714	0.05342777
103	0xbdf787ba	-0.12086435
104	0xbc8d0138	-0.017212495
105	0xbd349b7c	-0.044093594
106	0xbd717d24	-0.058957234
107	0xbcb99910	-0.022655994
108	0x3de4c818	0.11170977
109	0x3dde1050	0.10842955
110	0xbd2e0140	-0.04248166
111	0xbddfe2f6	-0.10931961
112	0xbd859912	-0.065233365
113	0x3c3ee6d0	0.01165171
114	0x39fd4a00	0.00048311055
115	0xbd52bc50	-0.05144912
116	0xbcddd448	-0.027078763
117	0xbc2167d0	-0.009851411
118	0xbdfeae22	-0.12435557
119	0x3d823a06	0.06358723
120	0xbddd8f46	-0.10818343
121	0x3da88308	0.08228117
122	0xbd13af9c	-0.036056146
123	0xbdc11830	-0.094284415
124	0xbdbfdee2	-0.093686834
125	0x3c4fbdf0	0.012679562
126	0x3da1f7ce	0.07908593
127	0xbb0ce700	-0.0021499991
128	0x3d9080bc	0.07055804
129	0x3d8eedde	0.06978963
130	0xbd8441ee	-0.064578876
131	0xbcdd4620	-0.027010977
132	0x3d1ecb6e	0.038768224
133	0xbd05086e	-0.032478742
134	0xbd618ba9	-0.05506483
135	0x3df0d6aa	0.11759694
136	0x3d932cec	0.071863025
137	0xbd3d724c	-0.04625158
138	0xbdddb33d	-0.108252026
139	0xbcad1d40	-0.021132112
140	0x3dc799ec	0.09746155
141	0x3d9872c1	0.074437626
142	0x3d1fd614	0.03902252
143	0xbd3c5fd6	-0.045989834
144	0xbdaf5ab5	-0.08562223
145	0x3d999fad	0.07501159
146	0xbdbaaf48	-0.091154635
147	0x3d71f918	0.059075445
148	0x3d56bfae	0.052428894
149	0xbd948920	-0.07252717
150	0xbd502926	-0.050820492
151	0x3d43f979	0.047845338
152	0xbc4e6c93	-0.012599128
153	0xbcc268e0	-0.023731649
154	0xbd7e2772	-0.062049337
155	0x3d7c96f2	0.06166739
156	0x3da301d0	0.0795933
157	0x3d57bae8	0.052668482
158	0xbd8ff13e	-0.07028435
159	0x3d3912e6	0.04518404
160	0xbddd69a6	-0.108111665
161	0xbd3e5809	-0.046470676
162	0x3d606c35	0.054790694
163	0xbdb735e7	-0.08945828
164	0xbdb660df	-0.089051954
165	0x3d86011d	0.06543181
166	0x3d6cb490	0.057789385
167	0xbcc0de88	-0.023543611
168	0x3da189cc	0.07887611
169	0x3db7ac6b	0.08968433
170	0x3c91bcf4	0.017790295
171	0x3d3c4d8e	0.0459724
172	0xbd62ff8c	-0.05541949
173	0xbd86a054	-0.06573549
174	0x3da0b867	0.07847672
175	0xbd9ee29f	-0.07758068
176	0x3daa92d7	0.08328789
177	0xbdbb6eaa	-0.09151967
178	0x3cc6c618	0.02426438
179	0x3deb93b5	0.11502782
180	0xbddc8b85	-0.10768799
181	0xbd9c52c1	-0.076329716
182	0x3df52092	0.11969103
183	0xbdc6d637	-0.09708827
184	0x3dbcd1f2	0.092197314
185	0xbd7e42d9	-0.06207547
186	0x3d0e42ec	0.03473179
187	0xbdef2cb2	-0.11678447
188	0xbde09057	-0.10965031
189	0x3c1bdd8a	0.009513268
190	0x3d535046	0.051590227
191	0xbd9e6d17	-0.07735651
192	0xbe031677	-0.12801538
193	0xbda79b18	-0.08183879
194	0x3d5cebb0	0.053935707
195	0x3d1b3fde	0.037902705
196	0x3d860c3f	0.065453045
197	0xbc263784	-0.010145072
198	0x3da146eb	0.07874855
199	0x3d9c2beb	0.07625564
200	0xbde80db6	-0.1133074
201	0x3d68910a	0.056778945
202	0xbd58eab2	-0.052958198
203	0xbdbc4695	-0.0919315
204	0xbd9c0c50	-0.07619536
205	0xbdd8344a	-0.10556848
206	0xbc8cd1ef	-0.017189948
207	0x3dc162f1	0.094427
208	0x3d159d61	0.03652704
209	0xbb376471	-0.0027983452
210	0x3deeaa80	0.11653614
211	0xbd4f6864	-0.050636664
212	0x3d4fb1cd	0.050706673
213	0x3dc6768c	0.0969058
214	0xbde15099	-0.11001701
215	0xbd9394ff	-0.07206153
216	0xbde54457	-0.111946754
217	0x3dc2289e	0.09480403
218	0x3d8b16b8	0.06791443
219	0xbd3dee64	-0.046369925
220	0x3d9efbb6	0.07762854
221	0x3de784ff	0.11304664
222	0xbc27b888	-0.010236867
223	0x3de6d407	0.1127091
224	0xbc6bb670	-0.014386758
225	0xbe043121	-0.12909366
226	0xbd8fa013	-0.070129536
227	0x3d1f454a	0.03888444
228	0x3d39940c	0.045307204
229	0xbdf6b4c2	-0.120461956
230	0xbde7ff0f	-0.113279454
231	0xbd9ae90c	-0.075639814
232	0x3d9161d1	0.07098735
233	0x3c4a92d9	0.012364113
234	0xbdab7fc4	-0.08373979
235	0xbdc45532	-0.09586562
236	0x3de51240	0.111851215
237	0x3daf107c	0.08548066
238	0xbe04fc92	-0.12986973
239	0xbcd8cfcd	-0.026466275
240	0x3c6052c6	0.01369161
241	0x3da7721e	0.08176063
242	0x3cc20580	0.023684263
243	0xbe00b0d0	-0.12567449
244	0xbd34c536	-0.044133388
245	0x3d7d20c0	0.06179881
246	0x3dcace05	0.09902576
247	0xbd8d4efc	-0.06899831
248	0x3dc4bf1f	0.09606766
249	0xbd93af82	-0.0721121
250	0x3dc56c20	0.09639764
251	0xbd5197c0	-0.05117011
252	0x3aecf387	0.0018077948
253	0xbd44b4e7	-0.048024084
254	0xbcc48357	-0.023988409
255	0x3d9c31fd	0.07626722

hidden_layers.1.bias f4 [64]
0	0xbda706ea	-0.08155616
1	0x3c6c1f00	0.014411688
2	0xbde3452d	-0.110971786
3	0x3d9e049a	0.077157214
4	0x3e138521	0.14406253
5	0x3d9eae4f	0.077480905
6	0x3deb1b75	0.114798464
7	0x3e2347df	0.15945385
8	0xbdb5a51f	-0.08869385
9	0xbdfacc9c	-0.122460574
10	0xbd2ebcd3	-0.042660546
11	0x3e1c40f6	0.15259156
12	0xbc2a540d	-0.010396016
13	0x3e0e650b	0.13905732
14	0x3e08b298	0.13349378
15	0x3d679e76	0.056547605
16	0x3d70ec35	0.058819015
17	0x3da1016b	0.078615986
18	0x3d3a4569	0.04547635
19	0xbbb6d1a6	-0.0055791913
20	0x3db076e8	0.086164296
21	0x3e1a8ea1	0.15093471
22	0x3dad1565	0.08451346
23	0x3c39f843	0.011350694
24	0xbbd9aa15	-0.00664259
25	0x3e079f02	0.1324425
26	0x3cc71e23	0.024306362
27	0xbc221eb0	-0.009895012
28	0x3cc96add	0.02458709
29	0xbd32fc55	-0.043697674
30	0x3dc90cb3	0.09816875
31	0x3dc591e3	0.09646966
32	0xbccdb247	-0.025109423
33	0xbdae5451	-0.08512176
34	0xbd8421d3	-0.06451764
35	0x3dd7a546	0.1052957
36	0xbdc519d7	-0.09624069
37	0xbdbc794b	-0.09202822
38	0xbd896658	-0.06708974
39	0x3da8bf4d	0.08239613
40	0x3d9ed094	0.07754627
41	0x3d2b3392	0.04179723
42	0x3e1bc009	0.15209974
43	0x3dcd4691	0.10023225
44	0x3dc5f573	0.09665956
45	0x3db35f83	0.08758452
46	0xbd45a3a5	-0.048251767
47	0xbdc1c930	-0.094622016
48	0xbc047465	-0.008084391
49	0xbdd71862	-0.105026975
50	0xbd479d6a	-0.048734106
51	0x3dce29d8	0.10066575
52	0xbde2c464	-0.11072615
53	0x3d939c24	0.07207516
54	0x3d316c1d	0.043315995
55	0xbd944ad8	-0.07240838
56	0x3dcd6926	0.10029821
57	0x3d2cdf70	0.042205274
58	0xbd2daa74	-0.042398885
59	0xbd9bdef2	-0.07610883
60	0x3d3998bd	0.04531168
61	0xbdd5a73e	-0.104322895
62	0x3de60393	0.112311505
63	0x3d5b125f	0.053484317

hidden_layers.2.weight f4 [64, 64]
0	0x3d8367a6	0.06416254
1	0xbd12ad80	-0.035809994
2	0xbdd6bc90	-0.10485184
3	0x3d875de0	0.06609702
4	0x3dcdff2a	0.10058434
5	0xbd3be61c	-0.045873746
6	0xbdc8c32e	-0.098028526
7	0xbdf15522	-0.11783816
8	0xbded27e2	-0.11579873
9	0xbdb48826	-0.08815031
10	0x3dc26c32	0.09493293
11	0x3c7537d0	0.01496692
12	0xbda518f6	-0.080614015
13	0xbdcb1cd2	-0.099176064
14	0x3d2c815c	0.042115554
15	0x3dbbb77e	0.09165858
16	0xbdb0a6b0	-0.08625543
17	0xbbd527c0	-0.0065049827
18	0x3d7d8650	0.06189567
19	0x3de58ba0	0.11208272
20	0x3c2376e0	0.0099770725
21	0xbd13bbd8	-0.036067814
22	0xbdc50b68	-0.09621316
23	0xbd836afc	-0.0641689
24	0xb9fa5a00	-0.0004775077
25	0x3d8dde30	0.069271445
26	0x3d5c6b94	0.053813532
27	0x3d8d6240	0.06903505
28	0xbd99694e	-0.074907884
29	0xbd8875fe	-0.0666313
30	0xbc276e60	-0.010219187
31	0x3dc2a0fe	0.09503363
32	0x3bd70b40	0.0065626204
33	0xbdf20ab4	-0.11818448
34	0x3d74def8	0.059782952
35	0x3dddbafa	0.108266786
36	0x3d67b7a8	0.056571633
37	0x3dbbb5aa	0.09165509
38	0x3db26af4	0.08711806
39	0x3d8441ac	0.064578384
40	0x3bcc1a60	0.00622873
41	0xbc691c00	-0.014227867
42	0xbdeb436a	-0.114874676
43	0xbd6cdf98	-0.057830423
44	0xbcebe1a8	-0.028794125
45	0xbd34e7a4	-0.044166222
46	0xbdf2d194	-0.1185638
47	0xbd8fb54c	-0.070170015
48	0xbdeff9b2	-0.117175475
49	0xbbefa8c0	-0.0073138177
50	0xbde773ba	-0.1130137
51	0xbbaa7060	-0.0052013844
52	0x3b9fa7a0	0.0048722774
53	0xbc7e9c10	-0.015540138
54	0xbcee37d8	-0.029079363
55	0x39b23400	0.0003398955
56	0xbd6af060	-0.057358146
57	0xbd528048	-0.05139187
58	0x3d0bec94	0.034161165
59	0xbda0ff64	-0.07861212
60	0xbda9c44c	-0.08289394
61	0x3d6dce28	0.058057934
62	0xbca74730	-0.020419687
63	0xbb1a8340	-0.0023576766
64	0xbca32df8	-0.01991938
65	0x3bd71f20	0.0065649897
66	0x3b99b260	0.0046904534
67	0xbd6093d0	-0.054828465
68	0x3d5d7de0	0.054075122
69	0x3db44e90	0.08804047
70	0x3df4dd26	0.11956243
71	0x3d763fc0	0.06011939
72	0xbdbbfd7a	-0.09179206
73	0x3d0eba8c	0.034845874
74	0xbdcf5880	-0.10124302
75	0x3c00d990	0.007864371
76	0x3d68d8f0	0.056847513
77	0xbd95fc6e	-0.07323538
78	0x3df16ab8	0.11787933
79	0x3db2632e	0.08710323
80	0xbd19ab40	-0.037516832
81	0xbc1a80f0	-0.009430155
82	0xbdeed3b2	-0.116614714
83	0xbdb0c5f6	-0.08631508
84	0xbd7a627c	-0.06112908
85	0xbcf91760	-0.030406654
86	0xbdce10fc	-0.10061833
87	0x3c98d6d0	0.018657118
88	0xbdcf3098	-0.101166904
89	0xbde89548	-0.11356598
90	0x3bab2c00	0.005223751
91	0x3de3b1a8	0.111178696
92	0xbd1a5048	-0.03767422
93	0xbbe7e100	-0.0070763826
94	0x3af2d680	0.0018527061
95	0x3df93d46	0.1216989
96	0xbd65c1bc	-0.056092963
97	0xbbf975e0	-0.0076129287
98	0x3a54ef00	0.0008122772
99	0xbdffddd0	-0.12493479
100	0xbd1d1388	-0.038348705
101	0xbddfa4aa	-0.10920079
102	0x3d700cf4	0.058606103
103	0xbdccd4f2	-0.100015536
104	0x3dab440e	0.0836259
105	0xbda907c0	-0.08253431
106	0x3ca601a0	0.020264447
107	0xbc19bd50	-0.0093835145
108	0x3c4545c0	0.0120405555
109	0xbdb29ffc	-0.08721921
110	0xbd35cca0	-0.0443846
111	0x3df3bbb8	0.11901039
112	0xbd572354	-0.052523926
113	0xbd83a81e	-0.0642855
114	0x3b6ea3c0	0.003641352
115	0xbdcd34a6	-0.100198075
116	0x3dda556a	0.10660823
117	0x3d16d1b8	0.036821097
118	0x3dc1b584	0.094584495
119	0xbde64f4c	-0.112455934
120	0xbcc29c78	-0.02375625
121	0xbde81b24	-0.11333302
122	0xbd9379c0	-0.07200956
123	0xbd489fe0	-0.048980594
124	0xbdec499a	-0.11537476
125	0x3d4c1ee8	0.049834162
126	0xbdf99f26	-0.12188558
127	0x3c562b60	0.013071865
128	0x3d7d0a60	0.061777472
129	0xbdb78504	-0.089609176
130	0x3d604572	0.05475373
131	0xbd9ff33c	-0.07810065
132	0xbdb587f0	-0.08863819
133	0xbdf75a7e	-0.12077807
134	0xbd94f90c	-0.072740644
135	0x3c26059c	0.010133173
136	0xbdbc1543	-0.09183743
137	0xbdafb781	-0.085799225
138	0xbd992a8e	-0.0747882
139	0xbc5223e0	-0.012825936
140	0xbddd6a43	-0.108112834
141	0xbd49d795	-0.04927786
142	0xbd56df70	-0.05245918
143	0xbdf4975a	-0.119429305
144	0x3dbcc115	0.09216515
145	0xbbb850ed	-0.0056248815
146	0x3daad2fc	0.08341023
147	0xbc982f6d	-0.018577302
148	0xbd35a399	-0.044345472
149	0x3db749fa	0.08949657
150	0x3de15233	0.110020064
151	0x3dc676aa	0.09690602
152	0x3d8a5c1c	0.0675585
153	0xbd658bee	-0.05604165
154	0xbd835151	-0.06411994
155	0x3d860f5a	0.06545897
156	0xbd8393b7	-0.06424659
157	0x3c92f58e	0.017939355
158	0xbb608425	-0.0034258452
159	0xbd8ee3dc	-0.069770545
160	0xbde962f5	-0.11395828
161	0xbc4c5459	-0.012471282
162	0x3d028c98	0.031872362
163	0xbd39a649	-0.045324598
164	0xbcac9b87	-0.021070255
165	0x3df8123a	0.121128514
166	0x3dc7d6c5	0.09757761
167	0xbdd14b98	-0.102194965
168	0xbdff4419	-0.124641605
169	0x3da0e119	0.07855434
170	0x3de9bc0d	0.11412821
171	0xbd8d93a5	-0.069129266
172	0x3d608057	0.054809894
173	0x3cef1adb	0.02918761
174	0xbc80766e	-0.015681472
175	0xbd27cb54	-0.040965393
176	0xbd2234b7	-0.039601054
177	0x3d35b650	0.04436332
178	0xbde94cdd	-0.11391614
179	0x3ddc8855	0.10768191
180	0x3d1708fb	0.0368738
181	0x3dda8f0f	0.106718175
182	0xbbdd8583	-0.0067603006
183	0xbdbd5348	-0.092444
184	0xbe06dbaa	-0.13169733
185	0x3cf536d4	0.02993337
186	0x3d81dc34	0.063408285
187	0x3c8df62a	0.017329294
188	0xbd95beb5	-0.07311765
189	0x3d88b0ec	0.0667437
190	0xbca576b3	-0.020198202
191	0xbdafe6ec	-0.08588967
192	0x3d7070c8	0.058701307
193	0x3de433ac	0.11142668
194	0x3da7426a	0.08166964
195	0xbdeb58ef	-0.11491572
196	0x3d52df9c	0.05148278
197	0xbdab0fde	-0.08352636
198	0x3e0e4226	0.13892421
199	0x3da55064	0.08071974
200	0x3df3b127	0.118990235
201	0xbd9a7827	-0.075424485
202	0x3d73b879	0.0595021
203	0x3dc704e5	0.097177304
204	0x3e03976a	0.12850729
205	0xbd8dd38e	-0.069251165
206	0xbd892432	-0.06696357
207	0x3da60469	0.0810631
208	0xbcd1775d	-0.025569612
209	0x3db4c4be	0.08826588
210	0x3d1286d0	0.0357731
211	0xbd1d40b7	-0.038391795
212	0x3d8691d5	0.06570784
213	0x3e096313	0.134167
214	0xbbb1b196	-0.005422781
215	0x3daabc6b	0.08336719
216	0x3c6c7076	0.01443111
217	0xbd530ac2	-0.05152393
218	0xbce54dcb	-0.027991196
219	0xbdc221d0	-0.094791055
220	0x3cc13b8d	0.023587966
221	0x3d022ff8	0.031784028
222	0x3dea8a32	0.1145214
223	0x3d34c8f8	0.04413697
224	0x3da70f19	0.081571765
225	0xbddc9026	-0.10769682
226	0x3c1863ce	0.009301139
227	0xbdc489ae	-0.09596573
228	0x3d6c3257	0.057665195
229	0xbb11fc1e	-0.0022275518
230	0x3dd8af12	0.10580267
231	0xbdbf3c32	-0.09337653
232	0x3e0cf00b	0.13763444
233	0xbd5fdfbc	-0.05465673
234	0x3dbec326	0.09314565
235	0x3ca0a107	0.019608034
236	0x37ad36e4	2.0648768e-05
237	0x3e0bd418	0.13655126
238	0xbda48083	-0.08032324
239	0xbd9b40fc	-0.07580754
240	0x3d884195	0.06653134
241	0x3be38680	0.006943524
242	0x3d28f6fb	0.041251164
243	0xbcc9f9d5	-0.024655262
244	0xbda01485	-0.07816414
245	0x3d0d46f0	0.03449148
246	0xbb6a6dc3	-0.003577099
247	0x3df8e869	0.12153704
248	0x3d069cc0	0.032864332
249	0x3dc13d1f	0.09435486
250	0x3c1703b0	0.009217188
251	0xbd9d8a0d	-0.07692347
252	0x3c067c19	0.008208298
253	0x3c00ea00	0.00786829
254	0x3b868eb1	0.0041063656
255	0x3df0831f	0.11743759

hidden_layers.2.bias f4 [64]
0	0xbd988592	-0.074473515
1	0xbc2f74e0	-0.0107090175
2	0x3deb5f6c	0.1149281
3	0x3d76d015	0.060257036
4	0xbb68392c	-0.0035434468
5	0xbdfaed42	-0.122522846
6	0x3d45421c	0.04815875
7	0x3d931f52	0.07183708
8	0x3cf9f819	0.03051381
9	0xbd7d42bd	-0.061831225
10	0xbccc3160	-0.024925888
11	0x3cba07ed	0.022708857
12	0xbcfc0a6d	-0.03076669
13	0x3de9181c	0.113815516
14	0x3d1ab9bc	0.037774786
15	0xbdfd85b0	-0.123790145
16	0xbda205a8	-0.07911235
17	0xbaa0cbd8	-0.0012267781
18	0x3de590f6	0.1120929
19	0xbccd0f45	-0.025031695
20	0x3da354a0	0.07975125
21	0xbde569c2	-0.11201812
22	0xbd312c7c	-0.043255314
23	0xbdabd5ba	-0.083903745
24	0xbccca210	-0.024979621
25	0xbd3a4216	-0.04547318
26	0xbd859f24	-0.06524494
27	0x3dcb5d27	0.09929877
28	0x3d64752e	0.055775814
29	0x3da4d87e	0.08049105
30	0x3da4a96f	0.080401294
31	0xbd8aba56	-0.06773822
32	0xbd888f0c	-0.06667909
33	0x3c368ebb	0.011142428
34	0xbcc8c35d	-0.024507219
35	0x3d1e3f11	0.038634364
36	0xbd8b0c52	-0.06789459
37	0x3d5c5aa6	0.053797387
38	0x3b9b7047	0.004743609
39	0x3db5bda0	0.08874059
40	0xbd47a63d	-0.04874252
41	0x3de47cc4	0.1115661
42	0x3d5680fc	0.052369103
43	0x3b88214f	0.0041543613
44	0x3d54ceb3	0.051954936
45	0x3db9ec98	0.0907833
46	0xbdd948b4	-0.1060957
47	0x3cc8a17d	0.024491066
48	0xbdb0c808	-0.08631903
49	0x3cf2f32b	0.029656967
50	0xbd7e79d3	-0.0621279
51	0xbb2c9021	-0.0026331025
52	0x3dc87119	0.09787197
53	0xbd5a4d54	-0.053296402
54	0xbce0bbf4	-0.027433373
55	0xbd9e988a	-0.07743938
56	0x3d76cecd	0.060255814
57	0x3dea78d9	0.11448831
58	0x3dc0e25b	0.09418174
59	0xbd7e4bbe	-0.062083952
60	0x3dcb36d1	0.09922565
61	0x3d9058ca	0.07048185
62	0xbd9e018b	-0.07715138
63	0x3d25d1cc	0.04048328

hidden_layers.3.weight f4 [64, 64]
0	0x3da357b0	0.079757094
1	0xbd8c9024	-0.0686343
2	0x3d82d23e	0.06387757
3	0x3d8f8faf	0.07009827
4	0x3c367073	0.011135208
5	0xbd0e8328	-0.03479305
6	0x3d1e7050	0.03868133
7	0x3dd4d492	0.10392107
8	0xbd9f8c1f	-0.07790398
9	0xbb3375f3	-0.0027383536
10	0xbc787250	-0.015163973
11	0xbc1f988a	-0.009740958
12	0x3d233400	0.039844513
13	0x3d325b34	0.04354401
14	0x3dd20909	0.102556296
15	0xbab82900	-0.0014050305
16	0xbdd4be4b	-0.10387858
17	0xba9f73c4	-0.0012165238
18	0xbd9330a4	-0.07187012
19	0xbd22fce6	-0.039791964
20	0x3e16e5d2	0.14736107
21	0xbd3439e0	-0.044000506
22	0xbd58ac38	-0.052898616
23	0xbdf673be	-0.12033795
24	0x3da39b28	0.07988578
25	0xbd328a7d	-0.043589104
26	0x3dba7c92	0.09105791
27	0x3d743b6a	0.059626974
28	0x3e19e020	0.15026903
29	0xbd71c7b5	-0.059028346
30	0xbd971a64	-0.073780805
31	0x3dd0b98e	0.10191642
32	0x3dbf230f	0.09332859
33	0x3dbab822	0.09117152
34	0xbdb7d780	-0.0897665
35	0x3dd22e32	0.10262717
36	0x3c392390	0.011299983
37	0x3d9cb6e8	0.07652074
38	0xbcf417b5	-0.02979646
39	0x3d145152	0.036210366
40	0x3dc02013	0.09381118
41	0x3cd023d1	0.025407704
42	0x3d8dd12b	0.06924661
43	0xbd8bbe0b	-0.06823357
44	0x3d7c1bcd	0.06154995
45	0xbcac78b2	-0.021053646
46	0xbddc7632	-0.107647315
47	0x3da5b66e	0.08091436
48	0xbdd69b60	-0.10478854
49	0x3d47d9f2	0.048791833
50	0xbc9c7539	-0.019098865
51	0xbded4d26	-0.115869805
52	0xbd4b056f	-0.04956573
53	0x3d0a4584	0.0337577
54	0x3cf89065	0.03034229
55	0xbd8e23b0	-0.069404006
56	0x3dc8f88b	0.09813031
57	0x3d4cfb7a	0.050044514
58	0xbd2d83e3	-0.042362105
59	0x3d62e636	0.055395328
60	0x3db45265	0.08804778
61	0x3cdf7d0f	0.027281312
62	0xbdef10a5	-0.116730966
63	0x3d686584	0.056737438
64	0x3db339e6	0.087512776
65	0xbce0af28	-0.027427271
66	0xbd2305e6	-0.039800547
67	0x3d1afda1	0.037839536
68	0x3cf88490	0.030336648
69	0xbdf6d6da	-0.120526984
70	0xbd0738ae	-0.03301304
71	0x3ada9469	0.001667631
72	0x3dc5f530	0.096659064
73	0xbd838548	-0.06421906
74	0x3d9851e4	0.074374944
75	0xbd921efe	-0.071348175
76	0x3e00dbbf	0.12583826
77	0x3d3474af	0.04405659
78	0x3c833f9f	0.016021548
79	0x3c9f9a20	0.019482672
80	0x3e04fb55	0.129865
81	0x3cb51f5f	0.022109685
82	0xbdb8fed4	-0.090329796
83	0x3d321d0c	0.043484733
84	0x3d5499aa	0.051904358
85	0x3b913240	0.004431039
86	0xbdf4816a	-0.11938746
87	0xbdd02fb8	-0.10165352
88	0x3da648ec	0.081193775
89	0xbd1d8d0a	-0.038464583
90	0xbd5f9834	-0.05458851
91	0xbda0c340	-0.07849741
92	0x3dcb3b25	0.0992339
93	0x3db59243	0.08865788
94	0x3ddb454b	0.10706576
95	0xbcb837d0	-0.022487551
96	0x3dabd947	0.08391052
97	0x3d9b5524	0.07584599
98	0xbd6fc301	-0.05853558
99	0xbd169669	-0.036764536
100	0x3c8ceed0	0.017203718
101	0x3da9a3d3	0.082832
102	0x3dd0219f	0.10162663
103	0x3d59637c	0.05307339
104	0xbd845884	-0.064621955
105	0x3e1516bc	0.14559454
106	0xbd60b165	-0.054856677
107	0xbd874e0f	-0.06606685
108	0x3dea14d5	0.11429755
109	0x3c65b779	0.014020794
110	0x3cdac9a8	0.026707485
111	0xbc28d2ed	-0.010304195
112	0xbd7ba27c	-0.061434254
113	0xbd1b9635	-0.037985045
114	0x3d69b4be	0.057057135
115	0xbdf50a8d	-0.11964903
116	0x3e059ed7	0.13048874
117	0xbd97c48d	-0.07410536
118	0xbaaa4751	-0.0012991225
119	0x3dbe302a	0.0928653
120	0xbd671d7c	-0.056424603
121	0x3df9587d	0.12175081
122	0xbd9bcdaf	-0.076075904
123	0x3e1a0e57	0.15044533
124	0x3d3e55f7	0.0464687
125	0x3dadeef7	0.084928446
126	0xbc973f6a	-0.018462855
127	0x3dab60ab	0.08368047
128	0x3dc20c02	0.094749466
129	0x3d53e6c8	0.051733762
130	0x3d55b06c	0.052170202
131	0xbbda7270	-0.006666474
132	0xbccdc7c4	-0.02511967
133	0xbdc18578	-0.09449285
134	0x3dbd7790	0.0925132
135	0x3dcebe68	0.10094911
136	0x3d15bc28	0.036556393
137	0x3db7f992	0.08983149
138	0x39c04000	0.00036668777
139	0x3dd176ce	0.10227738
140	0x3d5cdf7a	0.05392406
141	0x3d921525	0.07132939
142	0x3db425b8	0.08796257
143	0x3dd06a1a	0.10176487
144	0xbd84b05d	-0.06478951
145	0x3c1cc61d	0.009568718
146	0x3d118670	0.0355286
147	0x3d82a427	0.06378966
148	0x3adf1b26	0.0017021641
149	0xbdd45f18	-0.103697
150	0xbda56f2c	-0.08077845
151	0x3de2646e	0.11054312
152	0x3cb37ad8	0.021909162
153	0xbd954ef7	-0.07290452
154	0x3c23b470	0.00999175
155	0xbda096f0	-0.07841289
156	0xbda3506e	-0.07974325
157	0x3d001b7d	0.031276215
158	0xbd80d1ba	-0.06290002
159	0x3d44c404	0.048038498
160	0x3d97618c	0.073916525
161	0x3dddb663	0.10825803
162	0x3db1a992	0.08674921
163	0xbdeccae7	-0.11562138
164	0xbdc8851c	-0.097910136
165	0xbdcfae35	-0.10140649
166	0xbcba93c2	-0.022775535
167	0xbd5d81f6	-0.05407902
168	0xbdc326c4	-0.09528878
169	0xbbab4e97	-0.0052278745
170	0x3c933938	0.01797162
171	0x3da8f323	0.082495
172	0xbd25d141	-0.040482763
173	0xbda95774	-0.082686335
174	0xbd96bff4	-0.07360831
175	0x3c8fc6d4	0.017550863
176	0x3b8c56c0	0.0042828023
177	0x3d9ff30f	0.078100316
178	0x3dbaf96b	0.09129604
179	0xbd7ecd3c	-0.062207446
180	0x3dcfa6fa	0.1013927
181	0xbdbe757c	-0.09299752
182	0xbd8208a8	-0.06349307
183	0xbc908910	-0.017643481
184	0x3da0670e	0.07832156
185	0xbda0e660	-0.078564405
186	0x3c12115c	0.008915272
187	0x3cc834b1	0.024439188
188	0xbd532ae1	-0.051554564
189	0xbe00b738	-0.12569892
190	0xbbb4a71f	-0.0055130864
191	0x3cb64da8	0.022253826
192	0x3dd3b6c2	0.10337593
193	0x3ce86ae0	0.028371274
194	0xbd47a285	-0.048738975
195	0xbc19a490	-0.009377614
196	0xbd3482d7	-0.04407009
197	0xbdecc41a	-0.11560841
198	0xbbc9548e	-0.006144113
199	0xbd3470fa	-0.044053055
200	0x3d6de68c	0.058081195
201	0xbde9e42f	-0.11420476
202	0x3dc75d8a	0.09734638
203	0x3ca66215	0.020310441
204	0x3db03a4e	0.08604871
205	0x3e00312e	0.1251876
206	0x3e2986cf	0.16555332
207	0xbdb8575a	-0.09001036
208	0xbabb6bb8	-0.001429907
209	0xbdb24103	-0.08703806
210	0xbd763399	-0.0601078
211	0xbdaa7cde	-0.08324598
212	0x3ce70a24	0.028203078
213	0x3d9e95e8	0.07743436
214	0xbc9c64c0	-0.01909101
215	0xbda99014	-0.08279434
216	0xbd98a398	-0.07453078
217	0x3c9f61e7	0.019455863
218	0x3d5d2178	0.053986996
219	0xbd59f68a	-0.053213634
220	0x3da2d04f	0.07949888
221	0xbd44c27b	-0.048037034
222	0xbddea2a3	-0.10870864
223	0xbc979a50	-0.0185062
224	0x3d862c4e	0.06551419
225	0xbd694a38	-0.056955546
226	0x3ba46219	0.005016577
227	0xbde17e8c	-0.11010465
228	0xbd964426	-0.07337217
229	0xbd129054	-0.035782173
230	0x3dc27184	0.09494308
231	0x3d863624	0.06553295
232	0x3d71911d	0.05897628
233	0x3d5e8442	0.05432535
234	0xbdeab132	-0.114595786
235	0x3df13f51	0.11779655
236	0xbd09322e	-0.03349512
237	0xbc62c1ad	-0.013840121
238	0x3d9e7278	0.07736677
239	0x3d966408	0.07343298
240	0x3d96b0d6	0.073579475
241	0x3d80b6e4	0.062848836
242	0x3dd53161	0.10409809
243	0x3ceeb2c3	0.029137975
244	0x3d98bdf8	0.07458109
245	0x3c862e5f	0.016379533
246	0x3d822995	0.063555874
247	0x3d077b58	0.033076614
248	0x3b8a98f4	0.004229659
249	0x3c313040	0.010814726
250	0x3d40defc	0.047087654
251	0x3d2628e1	0.04056633
252	0x3e14ed3d	0.14543624
253	0x3d9bc7fc	0.07606503
254	0xbdd3c1b4	-0.1033968
255	0xbd8303d8	-0.063972175

hidden_layers.3.bias f4 [64]
0	0x3dccd747	0.100019984
1	0x3cb27814	0.021785773
2	0xbd7f414d	-0.062318135
3	0x3cdeb530	0.027186006
4	0x3c36aec0	0.011150062
5	0x3cbd4808	0.023105636
6	0x3dec82ed	0.115484096
7	0xbdf15024	-0.11782864
8	0xbc9f8f88	-0.01947762
9	0x3d17a4c7	0.03702238
10	0xbdd0d2f0	-0.10196483
11	0x3d78af81	0.06071425
12	0x3e037a84	0.12839705
13	0x3e032882	0.12808421
14	0x3d592dec	0.05302231
15	0xbd367b1a	-0.044550993
16	0x3dac0d54	0.0840098
17	0x3da872a2	0.082249895
18	0xbd86f5da	-0.06589861
19	0xbd4368b8	-0.04770729
20	0xbdaee411	-0.08539594
21	0xbddafb99	-0.1069252
22	0x3d3d8bf7	0.04627606
23	0x3d75dbac	0.06002395
24	0x3bad9aee	0.00529801
25	0x3db6176c	0.08891186
26	0xbda4d75e	-0.080488905
27	0x3b94a780	0.004536569
28	0xbd9bf446	-0.07614951
29	0x3ddf8226	0.10913496
30	0x3d9252dd	0.07144711
31	0x3d4d03dd	0.050052512
32	0xbb27f3ab	-0.0025627415
33	0x3df9f599	0.12205047
34	0xbded709f	-0.115937464
35	0x3cd0d01e	0.025489863
36	0xbd5b6fec	-0.053573534
37	0xbdab7a58	-0.083729446
38	0xbd1095ee	-0.035299234
39	0x3d2798b9	0.040917132
40	0x3d205ff4	0.039154008
41	0x3deecbd9	0.116599746
42	0x3df68d1f	0.120386355
43	0x3cb87649	0.02251734
44	0x3c8f07fe	0.017459866
45	0xbce8e88f	-0.028431205
46	0xbdeb1ac1	-0.11479712
47	0x3dd958d2	0.10612644
48	0x3c780491	0.0151378075
49	0xbda9e62b	-0.08295854
50	0x3db33032	0.08749427
51	0x3c16c680	0.0092025995
52	0x3d099ce8	0.033596903
53	0xbd978059	-0.07397527
54	0xbdd5e188	-0.10443407
55	0x3db83f30	0.08996427
56	0x3c1fb634	0.00974803
57	0xbbdcf412	-0.0067429626
58	0x3dc4a481	0.09601689
59	0x3dceb273	0.1009263
60	0x3c89d2b0	0.016824096
61	0x3e0b0519	0.13576163
62	0xbda8862f	-0.082287185
63	0xba6538e2	-0.0008744133

output_layer.weight f4 [2, 64]
0	0x3d8b12bc	0.06790683
1	0x3de9df69	0.11419565
2	0xba953ba2	-0.001138557
3	0x3e222576	0.15834603
4	0xbbc856c0	-0.006113857
5	0xbd900620	-0.07032418
6	0x3d7cb461	0.06169546
7	0xbb45cdc6	-0.0030182465
8	0x3da00d0d	0.07814989
9	0xbc286d8d	-0.010280025
10	0xbdc9eeba	-0.098599866
11	0x3da647d1	0.08119167
12	0x3d8fb3a5	0.07016686
13	0x3cc38a97	0.023869796
14	0x3e2397b1	0.15975834
15	0xbdf7c364	-0.12097815
16	0xbc916a8a	-0.017750997
17	0x3e07ac60	0.1324935
18	0x3d937890	0.0720073
19	0x3dc83e9f	0.09777569
20	0xbdbd3cee	-0.09240137
21	0x3b9cf6b7	0.004790153
22	0xbcea8d67	-0.028631879
23	0xbd153f95	-0.03643759
24	0x3d834450	0.06409514
25	0x3bae36c4	0.005316587
26	0xbdbdd68a	-0.09269436
27	0x3e3335b3	0.17500953
28	0xbd772d54	-0.060345963
29	0xbd1d0350	-0.038333237
30	0xbd48cbb7	-0.049022403
31	0xbd8d556c	-0.069010586
32	0x3d423c99	0.04742107
33	0x3de6d327	0.11270743
34	0xbdcd3c6a	-0.10021289
35	0xbca90c09	-0.020635622
36	0xbd6b01e4	-0.05737485
37	0xbd8eb568	-0.06968194
38	0x3e076b5d	0.1322455
39	0x3df12eca	0.117765024
40	0xbdc6bd1f	-0.09704041
41	0x3e0f9fbd	0.14025779
42	0x3deec99a	0.11659546
43	0xbda3e01c	-0.0800173
44	0x3dcc659d	0.09980319
45	0x3d1c08f7	0.038094487
46	0x3d52714c	0.05137758
47	0x3db88533	0.09009781
48	0xbde632ba	-0.11240144
49	0xbda9c8a9	-0.08290226
50	0xbdaaaba2	-0.083335176
51	0xbd930674	-0.07178965
52	0xbdd6825b	-0.10474082
53	0x3e07df36	0.13268742
54	0xbdf834fa	-0.121194795
55	0x3e0783d7	0.13233887
56	0x3d575087	0.05256703
57	0x3d9ff71f	0.078108065
58	0xbb339518	-0.00274021
59	0x3d1e107b	0.038589936
60	0xbd3e469c	-0.046454057
61	0x3d08e898	0.033424944
62	0xbdd88617	-0.105724506
63	0xbd43c180	-0.047791958
64	0xbd00f02b	-0.031479042
65	0xbd232ee4	-0.03983964
66	0xbd8acb64	-0.06777075
67	0xbd623c9d	-0.055233587
68	0xbdd2b9aa	-0.10289319
69	0xbdbbb7a0	-0.09165883
70	0xbdd9abc0	-0.10628462
71	0x3d62c14f	0.055360135
72	0xbd1dd0b0	-0.038529098
73	0xbbca4477	-0.0061727124
74	0xbd60aab4	-0.054850295
75	0xbca147b0	-0.019687504
76	0xbdbae1ce	-0.091251
77	0xbc7f8275	-0.015595068
78	0x3de44daf	0.111476295
79	0x3d31cb19	0.04340658
80	0x3d4e01cd	0.050294686
81	0xbaced208	-0.0015779147
82	0x3de2d6e0	0.110761404
83	0xbde1e2ff	-0.11029624
84	0xbdc76258	-0.097355545
85	0xbdf1be41	-0.11803866
86	0xbd909c23	-0.07061031
87	0xbd1b2746	-0.03787925
88	0x3c7e0e46	0.015506333
89	0xbc91d5a4	-0.017802067
90	0xbcac9a10	-0.021069556
91	0x3c6bebb0	0.014399454
92	0xbc621370	-0.01379858
93	0x3d21c886	0.039497875
94	0x3d730818	0.05933389
95	0xbd2c1dae	-0.042020492
96	0xbdae91ea	-0.08523925
97	0x3dfbb7a0	0.12290883
98	0xbd2f84d1	-0.042851273
99	0x3d359ef3	0.04434104
100	0x3d946e4e	0.072476014
101	0x3ceffd28	0.029295519
102	0x3d9f7c37	0.07787364
103	0xbd4b1efc	-0.049590096
104	0x3ddc650e	0.10761462
105	0x3dbe392d	0.09288249
106	0xbc9104dd	-0.017702514
107	0xbd304d2f	-0.043042358
108	0xbd0e5ecd	-0.034758378
109	0xbd87f86d	-0.0663918
110	0xbdb7f71c	-0.08982679
111	0xbdaf8c86	-0.085717246
112	0x3d140706	0.03613951
113	0x3bb5b03c	0.0055446904
114	0xbd45489e	-0.048164956
115	0xbd83b09c	-0.0643017
116	0xbdb064c3	-0.08612969
117	0xbddf23c1	-0.108954914
118	0x3d91aab4	0.07112637
119	0xbdf94b9a	-0.12172623
120	0xbcddeade	-0.027089532
121	0xbd45bc44	-0.048275247
122	0xbcbcacb8	-0.023031577
123	0x3db4db67	0.0883091
124	0x3d3b06d8	0.045660824
125	0xbdb94cd9	-0.09047861
126	0x3cce9326	0.02521665
127	0xbcee31e4	-0.029076524

output_layer.bias f4 [2]
0	0x3dc8d230	0.09805715
1	0xbcfec1ae	-0.031098213
