abc_env_raw/saved_models/phi_only_0.5.pt (torch, 72199 bytes, 12 tensors)

input_layer.weight f4 [64, 3]
000000 1d 58 53 3e d1 56 f5 bd fa 4a ab 3e 7d 9a b8 3e
       0.20639081 -0.119794495 0.3345564 0.36055365
000010 aa e4 eb bd 74 b3 ed bd 92 11 0d 3f a5 03 0a bf
       -0.115182236 -0.116064936 0.55104935 -0.5391181
000020 01 28 d1 bd d1 5f 4a be ed 62 00 3e 2d 42 22 be
       -0.10212708 -0.19763114 0.12537737 -0.15845557
000030 ce 0c 3b 3e c4 b2 a9 3e 73 44 88 3e 4f d7 67 3e
       0.18266603 0.331442 0.26614723 0.22640727
000040 2e b8 fb be 15 0a 1f 3c a2 0b 0f bc af d3 c3 3e
       -0.49163955 0.009706994 -0.008730801 0.3824744
000050 1f 15 f1 be 6c 55 09 3f f0 9c df 3e f3 f0 90 3e
       -0.47086427 0.5364597 0.4367442 0.2830883
000060 29 ac a9 be c6 d1 0b 3f 49 b1 a3 3d 5f cd 8c be
       -0.3313916 0.54616964 0.07992799 -0.27500436
000070 9b 93 03 be b3 74 06 3f 6e 2f 89 be b7 53 77 bd
       -0.12849276 0.5252182 -0.26793998 -0.06038257
000080 30 f7 17 be f9 08 bc 3e b5 50 f8 be 32 78 ed 3e
       -0.14840388 0.36725596 -0.48499075 0.46380764
000090 60 19 f9 3e 31 fa a2 3e a7 3e c0 be 64 07 01 be
       0.48652172 0.31831506 -0.375478 -0.12600476
0000a0 94 26 de bd 99 a3 14 3f ba da d9 bc 1b 9c df 3e
       -0.10847202 0.5806213 -0.026593555 0.43673787
0000b0 85 3e 57 3e d9 8c cc be 49 18 f5 3c e4 96 55 3e
       0.21019943 -0.39951208 0.029918807 0.20858341
0000c0 7c 0e 0f bf d5 3c 50 3e cc 88 70 be c6 ce 04 bf
       -0.55881476 0.20335706 -0.23489684 -0.5187801
0000d0 8f b4 7d 3e df 52 7d be 5d 9c 83 3e d3 59 77 bd
       0.24775909 -0.24738644 0.25705233 -0.060388397
0000e0 9b 8b 86 3c ee b4 10 bf 22 5e a9 bd c7 95 76 3e
       0.016423991 -0.56526077 -0.082699075 0.24080573
0000f0 84 b7 80 bb 1b de f5 be 0d f3 3d bd 25 5e d6 3e
       -0.003928127 -0.48021016 -0.04637437 0.41868702
000100 df 0b 37 be 1f e7 fe 3e 54 a2 d4 be f9 9b 2e 3e
       -0.17875622 0.49785706 -0.41530097 0.17051686
000110 b1 40 d8 3e 7f 1b ef bc 4b e5 f6 be 9e 19 d4 3e
       0.42236856 -0.029187916 -0.48221812 0.41425794
000120 db 40 97 3e 68 93 85 3e c7 96 fc 3e a9 e6 0b 3f
       0.29541668 0.26089025 0.49333784 0.54648834
000130 cd 88 b4 3e 76 ff f8 bd b6 66 82 be 43 ea da 3e
       0.3526062 -0.121581 -0.25468987 0.42756853
000140 b7 40 00 be 92 99 2d 3e 6e 4c 8a 3e 04 61 89 be
       -0.12524687 0.16953114 0.27011436 -0.2683183
000150 e0 f1 c1 3b c2 1b 10 3f d3 ed c1 3e b1 34 f6 3e
       0.0059187263 0.56292355 0.37876758 0.48087075
000160 d6 e7 e9 be ee 4e 55 3e d3 5c b7 3d 57 84 3f 3e
       -0.4568469 0.2083089 0.08953252 0.18702827
000170 7b bf 0e 3f 6c da 3a be 1f 0c 17 3e 4a 39 e3 bc
       0.55760926 -0.18247384 0.14750718 -0.027737278
000180 2d 67 de be ea 95 8d be fe 03 14 3f c2 f4 ab 3e
       -0.43438092 -0.27653438 0.5781859 0.33585173
000190 e2 8e e0 3e 71 ef c9 be d3 59 ee be e3 35 76 be
       0.4385901 -0.39440492 -0.46552905 -0.24043994
0001a0 d5 4d ce be cb 47 01 bd a4 fc 88 3d 80 f2 8e be
       -0.40293756 -0.031562608 0.066888124 -0.27919388
0001b0 73 e0 87 3e 0a 4c 84 be 79 86 0e 3f df ce f6 be
       0.2653843 -0.25839263 0.5567394 -0.48204705
0001c0 72 9e 66 3e 68 3f 94 be be 4d 01 bd 54 04 e9 3e
       0.2252138 -0.28954625 -0.03156828 0.45511115
0001d0 d8 54 0f bf b2 07 13 be 3a 08 39 3e 8f f8 cf 3e
       -0.55988836 -0.14358404 0.18069544 0.40619323
0001e0 c9 0e e5 3e b9 49 e9 3e d7 8a 93 bd 35 d7 df bd
       0.44737843 0.45564058 -0.07204216 -0.10929719
0001f0 8e 45 c1 3d 10 ba 07 3f 8f 43 ce be ee e4 41 3e
       0.09437095 0.53018284 -0.40285918 0.18934986
000200 7a f6 5d 3e ba 23 df be a2 fe bd 3e 22 ac 14 3f
       0.21676055 -0.43581945 0.37108332 0.58075154
000210 f0 78 b6 3e d4 11 eb 3e c2 22 00 3f 5d 41 a6 3e
       0.35639143 0.4591204 0.50053036 0.32471743
000220 f9 54 88 be d3 61 18 3b c1 40 c1 3e ac 2b eb 3e
       -0.2662733 0.0023251667 0.37744716 0.45931756
000230 d5 14 05 be d5 67 87 be 6b 92 00 3f bd bc 16 bf
       -0.12996228 -0.26446405 0.50223416 -0.5888174
000240 4a 28 c8 bc ac e6 4c 3e 52 8b bb 3e 06 9d a0 3d
       -0.024433274 0.2000987 0.3662973 0.0784245
000250 5b a3 8c be 7a b6 0d 3f ea 0a f1 be 28 ed b7 bd
       -0.2746838 0.5535656 -0.4707864 -0.08980781
000260 99 a0 5d 3c 52 ab ec 3e 3e e5 ca be f8 1d 52 be
       0.013527059 0.46224457 -0.39628023 -0.20519245
000270 b5 08 ac 3d e8 8a f5 be 73 31 fd be 06 5c 69 be
       0.08400098 -0.4795754 -0.4945179 -0.2278901
000280 8b da e2 be d7 98 d2 be 62 ef 06 be cb a6 f1 3e
       -0.4430736 -0.41132233 -0.13177255 0.47197565
000290 39 2b c6 be 7b bd 03 be e0 b4 b2 3e 1a 37 19 bf
       -0.3870485 -0.1286525 0.34903622 -0.59849703
0002a0 e0 4b 65 3e bf 56 4a 3d 3f 90 e6 3e bf c8 b8 3d
       0.22392225 0.049399134 0.45031926 0.09022664
0002b0 40 41 63 3e 60 0c a6 3e b9 b6 d6 be f7 b9 8f be
       0.2219286 0.32431316 -0.4193628 -0.28071567
0002c0 36 b6 11 bc 09 4a a5 3e 98 02 20 3e 03 e2 f6 bd
       -0.00889354 0.32283047 0.1562599 -0.12054827
0002d0 e8 c8 a2 be 80 f5 f9 bd 51 29 93 be 0c b6 84 3d
       -0.31793904 -0.122050285 -0.2874246 0.06480035
0002e0 4b d9 e1 be 45 c5 e3 bd 34 69 7e be e5 7e f4 3e
       -0.44111094 -0.111216106 -0.2484482 0.47753063
0002f0 c4 4f 14 bf c4 63 c3 3e 7e 05 b5 be 41 14 cd be
       -0.5793421 0.38162053 -0.35355753 -0.40054515

input_layer.bias f4 [64]
000000 6f 45 a9 bd b9 e8 94 3d ce 35 d5 be 5e 15 81 3e
       -0.082651965 0.07270951 -0.41642612 0.25211614
000010 0b a1 89 3e 5d d2 d7 3e b7 3d 1b be 77 28 b7 be
       0.2688068 0.42152682 -0.15160261 -0.3577306
000020 61 49 35 3e f5 46 dd be 0a 2f 0e 3f a6 32 9d 38
       0.17703773 -0.43218198 0.55540526 7.4957774e-05
000030 f9 27 4f 3e 19 1a 79 3c 0b e8 fe 3e e7 38 72 3c
       0.20230092 0.015203976 0.4978641 0.014784074
000040 1c f3 a9 be 40 43 e8 3e 55 12 a4 3e 63 b5 96 3e
       -0.3319329 0.45363808 0.32045236 0.29435262
000050 02 57 13 3f 41 4d 08 3f 8e 88 d1 3e 2f 73 14 3f
       0.5755464 0.5324288 0.40924495 0.57988256
000060 7d 3e b4 be 58 06 10 bd 0e 8f 20 be 86 52 5b 3d
       -0.35203925 -0.0351623 -0.15679571 0.053545497
000070 8f 39 b4 3e 0e cc 05 bf a0 7b 02 bf 23 ef b7 be
       0.35200164 -0.5226449 -0.50969887 -0.35924634
000080 d1 4f 15 3f 01 00 cf be 14 39 0e 3f 09 e1 9f 3e
       0.58324915 -0.4042969 0.55555844 0.31226376
000090 4c ac a1 be 8d 50 a3 3e cf 11 c5 be 12 3f 26 3e
       -0.31576765 0.31897393 -0.3849015 0.16234997
0000a0 8b d4 e6 3e d0 8e 44 3e 79 9f 9b 3e 1a 0b ed 3e
       0.45084032 0.19195104 0.30395105 0.46297532
0000b0 8d cf 88 bd d6 27 80 3e 99 5a 0c be cb d9 97 be
       -0.06680212 0.25030392 -0.13706435 -0.2965835
0000c0 91 bd 94 3e 4e d6 f4 be 30 9b 42 be 54 be 9b be
       0.29050878 -0.47819752 -0.19004512 -0.30418646
0000d0 6e 44 83 be 8c fa b2 3e 2e 87 6c be 88 0c 95 be
       -0.25638145 0.34956777 -0.23098442 -0.29111123
0000e0 54 58 b6 be 52 cb 93 3d 8c 74 75 be 08 5b a8 3e
       -0.35614264 0.07216515 -0.2397024 0.3288195
0000f0 eb f3 83 be c6 0c 39 be 58 ac 9b bd 76 34 29 3e
       -0.25772032 -0.18071279 -0.07601231 0.16523919

hidden_layers.0.weight f4 [64, 64]
000000 50 b2 7a 3c 00 48 50 b9 fe a5 d8 bd e8 ab c2 bc
       0.015301302 -0.00019863248 -0.105785355 -0.023763612
000010 fe 44 91 bd e0 ef 69 bd 68 69 b6 3c ca f8 96 bd
       -0.07093237 -0.05711353 0.022267058 -0.073716715
000020 a2 63 9e 3d 7c a4 7e bd 2a fc d7 3d fa 6f f7 bd
       0.07733847 -0.062168583 0.10546143 -0.12081905
000030 10 31 f4 bc 78 cb 5a bd d0 ad 09 3d 6a 71 87 bd
       -0.029808551 -0.0534167 0.033613026 -0.06613429
000040 0c c7 ae bd c2 46 97 bd 30 1a f7 bd 68 6a 9e bd
       -0.08534059 -0.07386543 -0.12065542 -0.07735139
000050 30 35 1c 3c a0 df 93 bd 10 99 1e bd e6 0c b0 bd
       0.009534165 -0.072203875 -0.03872019 -0.0859621
000060 90 81 76 bd 90 c0 10 bd 2e ce f6 3d f8 97 52 bd
       -0.060182154 -0.035339892 0.120510444 -0.05141446
000070 70 c1 09 3c 10 5c f9 bc 10 e6 8f bd 58 20 98 3c
       0.0084079355 -0.030439407 -0.07026303 0.01857011
000080 b8 7e 8f 3c 34 ec 59 3d 8a 92 ed 3d dc 91 60 bd
       0.017516479 0.053203776 0.11600216 -0.054826602
000090 60 d7 35 bc 22 c0 fb bd 28 c7 d5 bc 50 e4 d5 3d
       -0.011098713 -0.12292506 -0.026095942 0.10443938
0000a0 60 dc 2a bc f6 29 ac 3d 4c a2 6f bd ac 1e f8 bd
       -0.010428518 0.08406441 -0.058504388 -0.12115225
0000b0 f0 e9 9e bd 38 b3 ea bd ca 17 9c 3d 72 0f ed bd
       -0.07759464 -0.114599645 0.07621725 -0.115752116
0000c0 2e c0 9a bd 0c 90 fc bd 52 f4 c8 bd f0 50 b6 3c
       -0.075561866 -0.12332162 -0.098122254 0.02225539
0000d0 20 0d 03 3d f8 b1 c5 bc ec 09 d6 3d f4 38 09 bd
       0.03199494 -0.024132714 0.10451111 -0.03350158
0000e0 4a 15 cd bd dc c5 54 bd 6c 58 fd 3d 2c a0 25 3d
       -0.10013826 -0.051946506 0.12370381 0.040435955
0000f0 5c 6b 11 3d c8 30 fe 3c a4 89 66 bd b4 5b b9 bd
       0.035502777 0.03102912 -0.056283608 -0.09050694
000100 e9 c2 85 bd c7 99 a5 bd b4 a5 b0 3c ce eb 85 bd
       -0.06531317 -0.08085971 0.021563388 -0.06539117
000110 9e ee 93 bc 89 ed e4 3c 63 12 df 3d 93 1c 06 3e
       -0.018058117 0.027945297 0.10892179 0.13096838
000120 4a e7 6a 3c 87 ea 38 3c 46 40 2f 3d 5c df a8 bd
       0.01433737 0.011286384 0.042785905 -0.082457274
000130 cb da 3e 3d d0 5e 71 bd cb b6 0e 3d 99 cf ad 3c
       0.046595376 -0.05892831 0.034842294 0.021217154
000140 c8 0d aa bd 56 68 e6 3d 12 38 3d 3d b1 d0 b9 bd
       -0.0830341 0.11250369 0.04619605 -0.09073008
000150 fe 81 91 bd a8 ea bf 3c b0 90 ce bb 3d 62 db bd
       -0.07104872 0.023427323 -0.006303869 -0.10712097
000160 31 4c a4 bd ce e9 7d bd f1 2a ff 3c 99 60 e6 3d
       -0.08022345 -0.06199055 0.031148406 0.11248893
000170 fe c2 ab 3d 2b b3 23 3e 52 97 4e bd b1 ca 40 3c
       0.08386801 0.15986316 -0.05043728 0.011767075
000180 75 8a 98 3d 17 2e ba 3d 20 3a 39 bc 8c f3 aa bd
       0.074482836 0.09090822 -0.011305362 -0.08347234
000190 25 5d ec 3d 80 2a 0f 3e 63 f7 71 bc 23 1f e3 3d
       0.115412034 0.13981056 -0.014768454 0.11089923
0001a0 41 74 9b 3d 08 77 ab bd 77 d1 23 bd 28 ba f2 3d
       0.07590533 -0.08372313 -0.039994683 0.11851913
0001b0 fe 13 b9 bd 27 04 dd 3d 33 a4 d8 3d 09 f4 2a 3c
       -0.09037016 0.107918076 0.105781935 0.010434159
0001c0 e3 d0 d1 bc 01 1b f5 3c 9b 87 92 bd dd e0 0d bd
       -0.0256123 0.029920103 -0.07154771 -0.034638274
0001d0 d4 67 33 3e a1 ba 18 3e 5e 0c 36 bd 23 b2 05 3e
       0.17520076 0.14914943 -0.044445388 0.13056235
0001e0 83 19 82 3d 3d 86 d4 bb 1d e3 1f bb 05 73 01 bc
       0.06352522 -0.006485729 -0.0024396845 -0.007900958
0001f0 3b 6f 2f bc b6 9d 4c 3e 63 46 d3 3d d6 f7 ae 3d
       -0.010707672 0.19982037 0.103161596 0.08543365
000200 a3 4a 98 3c e7 22 da bc 60 02 06 3e 8b d0 d9 bc
       0.018590277 -0.02662797 0.13086843 -0.026588699
000210 d3 62 ba bd d5 46 bb bd db 6c 9a bd 21 e3 e2 3c
       -0.091008805 -0.091443695 -0.07540294 0.027696194
000220 a7 0e c4 bd 49 33 85 3d 34 be 39 3d d6 85 23 bd
       -0.09573107 0.065039225 0.045347407 -0.039922558
000230 d4 ff e8 3d e7 c9 49 3c 6c 11 f0 3d f1 e9 a8 3d
       0.1137692 0.012316204 0.11722073 0.08247746
000240 4a 51 01 3e ef 5c b8 3d 9d b2 5f bd e0 66 3f b6
       0.12628666 0.09002101 -0.0546137 -2.85211e-06
000250 02 1d 1c bd b7 37 1b 3d 30 af 6b bd 4e 51 85 bd
       -0.0381136 0.03789493 -0.05754012 -0.06509648
000260 f0 a6 da bd 3b 72 18 bd 02 84 29 3d 1b 3d ab bb
       -0.10676372 -0.037218314 0.041385658 -0.00522579
000270 73 33 94 bc be 70 2a 3c a6 24 68 3d 3d fb 74 3d
       -0.01809094 0.010402856 0.056675576 0.059809912
000280 a0 6c de 3d fe f1 9a bd 12 18 41 bd bd 55 5e bd
       0.10860562 -0.075656876 -0.047142096 -0.054280985
000290 8e cd ea 3d 50 5d f0 3c 87 ed 59 bd 45 2c bc bb
       0.11464988 0.02934137 -0.05320504 -0.005742582
0002a0 20 d2 40 3d 28 c2 df bd 06 1e a7 3d 67 66 f5 3d
       0.04707539 -0.10925704 0.081600234 0.11982422
0002b0 03 78 a4 bd ee be b1 bd d2 33 b0 3c 24 f0 b5 bd
       -0.08030703 -0.08678995 0.021509085 -0.08883694
0002c0 ef 84 98 bc 95 a6 34 bd 00 bd 76 3d 1c d7 ce 3c
       -0.018618075 -0.044104178 0.06023884 0.025249057
0002d0 53 2c e2 3d a8 6a f6 bd da 28 8d bd 6e 4a 4e 3c
       0.110436104 -0.12032062 -0.068925574 0.012590988
0002e0 23 7f c8 3d 62 54 59 3d 6d 17 71 3d 4c 9d d7 ba
       0.097898744 0.05305899 0.05886023 -0.0016450076
0002f0 2f b4 3c 3e f4 d3 84 3d d9 a9 48 bd d2 2f 87 3d
       0.1842811 0.06485739 -0.048990104 0.06600918
000300 6a 86 bd 3c e4 1f b7 bd 44 8a d3 3d 82 3c 42 3d
       0.023135383 -0.089416295 0.103291065 0.047420986
000310 73 f4 0b 3e 02 2e 7e 3d 55 7a 12 3e 9c 5e 07 3e
       0.13667469 0.062055595 0.14304478 0.13219684
000320 00 91 01 3e f4 1b 0d bd c4 d4 2f bd c1 5e cc bd
       0.1265297 -0.034450486 -0.04292752 -0.099790104
000330 5d 2d cd bb 6d 4f 87 3d bf 3d b1 3d 7c 12 ac 3d
       -0.0062615112 0.06606946 0.08654355 0.08401963
000340 33 90 aa bd 7f d8 29 3d e9 18 19 bd 30 31 6c 3b
       -0.08328285 0.041466232 -0.03737727 0.003604006
000350 1c 61 00 3e e6 13 23 3d 3b 1e 30 3d b7 93 63 3d
       0.12537044 0.0398139 0.04299758 0.055560794
000360 b3 20 2d bd 28 9f a6 bd e5 30 47 3d 18 4b 31 bc
       -0.042267513 -0.081358254 0.048630614 -0.010821126
000370 aa a1 c5 3c 52 30 68 bc b3 31 e9 3d ae dc f4 39
       0.024124939 -0.014171677 0.113864325 0.00046703726
000380 44 93 c1 bd 8c bd 8b bd ae 83 9b 3c 8a 4e d2 3d
       -0.09451917 -0.068232626 0.018983688 0.102688864
000390 9c d3 30 3d ef e8 ca bd 4a 8b b5 3d 31 8e 45 bd
       0.043170556 -0.0990771 0.08864458 -0.048231307
0003a0 79 dd ab bd dc e6 49 3b 52 3d 69 bd 20 1b 72 bd
       -0.08391852 0.003080777 -0.056943245 -0.0591079
0003b0 bc 4f 33 bd 43 b5 08 3b e9 8c 24 bc 4e 4e af bd
       -0.043777213 0.0020859994 -0.010043361 -0.08559857
0003c0 75 6c 24 3d 92 fa 0f 3d b1 bb cf 3d 9c 22 ea 3d
       0.040142495 0.03515107 0.10143221 0.114323825
0003d0 1c c9 29 bd d5 17 25 3d 47 a6 33 bd 18 fd 97 3c
       -0.04145156 0.04030593 -0.043859746 0.018553302
0003e0 6d aa d3 bd a5 f8 4f 3d 00 f8 73 bd b6 15 01 3d
       -0.103352405 0.050774235 -0.059562683 0.031514846
0003f0 46 7f a2 bd cb e3 f3 3d 76 9b 02 3e 3f e3 39 ba
       -0.07934432 0.119086824 0.12754616 -0.0007091052

hidden_layers.0.bias f4 [64]
000000 e0 9b c2 bd 53 e5 a1 bd 44 99 c7 3d 02 c2 8d 3d
       -0.09502387 -0.07905068 0.0974603 0.0692177
000010 b9 fe fa bd 97 10 aa 3d 6c 56 17 3d c9 27 95 bc
       -0.12255616 0.083039455 0.036947653 -0.018207448
000020 9d a5 85 bd 54 f6 93 3d 39 de f5 3d 21 96 12 bc
       -0.06525729 0.07224718 0.12005276 -0.008946926
000030 83 e4 e8 3d f0 2a bd bd 2f 74 42 bd 39 17 69 3d
       0.1137171 -0.09236705 -0.047474083 0.056906912
000040 9e 3a d3 3d a1 57 d3 bc f6 4c 0d 3e 69 b2 18 bd
       0.10313915 -0.02579862 0.1379889 -0.03727952
000050 1a 64 ae 3c 05 eb 04 3e 2e 46 fc bd 1c 62 61 bd
       0.021287967 0.12980278 -0.12318073 -0.055025205
000060 10 3c 04 bd 93 80 0c bd e0 60 20 bd 75 36 85 bd
       -0.032283843 -0.034302305 -0.039154887 -0.065045275
000070 64 41 88 3d fc 10 11 be d3 9a 82 bb 83 ed 02 bd
       0.06653097 -0.14166635 -0.0039857416 -0.03196479
000080 cd 62 17 3e d2 b6 0f bc 16 57 b9 bd fe 38 53 bd
       0.14783783 -0.008771615 -0.090498134 -0.051568024
000090 27 7a 75 3d 1e 68 bc 3c c1 b2 9e 3c 75 80 e2 3d
       0.059930947 0.022998866 0.019372346 0.110596575
0000a0 2d 92 56 3d 56 f2 68 3d d3 04 c8 bd 0b 2c b3 3d
       0.052385498 0.056871735 -0.09766545 0.08748635
0000b0 ec 8f 92 3d 2a 8d 2f 3d 79 16 01 3e 8e a0 48 3c
       0.07156357 0.042859234 0.12606229 0.0122453105
0000c0 20 d1 b5 bd 5b 48 28 3c f8 26 3c 3c 7c 20 67 3d
       -0.08877778 0.010271157 0.0114839 0.056427464
0000d0 55 6a a4 3d e2 a4 b5 bd 82 e1 cc 3d ca b0 0d 3d
       0.08028094 -0.088693395 0.1000395 0.034592427
0000e0 9b cd 82 3d 65 c8 0e 3e ee f5 47 3d d8 e6 43 3d
       0.063868724 0.13943632 0.04881852 0.04782757
0000f0 4d 4e 21 3c f9 1d cc bb 9c a1 45 3d 66 80 22 bd
       0.0098453285 -0.006229159 0.048249826 -0.03967323

hidden_layers.1.weight f4 [64, 64]
000000 e4 c9 4f bd af 3f b1 3d a8 85 92 3d 43 47 17 bd
       -0.050729647 0.08654725 0.07154399 -0.036933195
000010 1c bd 40 bd 66 19 a5 bd cf 6e aa bd 10 4e 9d bd
       -0.04705535 -0.08061485 -0.08321916 -0.07680905
000020 67 3a f9 3d 0c 4e 00 3e 3b 80 98 bd 49 9c b6 bd
       0.121693425 0.12529773 -0.07446333 -0.08916528
000030 5a 98 9f 3d d8 d6 eb 3c 41 ac 18 bc 7c b4 fb bc
       0.07792731 0.028788969 -0.009318412 -0.03072571
000040 dd 45 4e bd c5 ce 9e bb a9 33 c4 bd fc 30 e3 bd
       -0.050359596 -0.004846426 -0.09580166 -0.110933274
000050 85 26 02 3e 84 1d f6 3d 9a 5a c3 bd d8 8f 43 bc
       0.12710007 0.120173484 -0.09538765 -0.0119361505
000060 98 a6 f2 bc d8 30 a1 bd 9e 12 14 3e 4a 70 14 bd
       -0.029620454 -0.07870644 0.14460227 -0.0362399
000070 0c 73 4c 3e b2 4b 0a 3d 4b 8e d6 bd 8d 70 00 3d
       0.19965762 0.033763595 -0.10476359 0.031357337
000080 31 6c dd 3d 08 66 b9 bc 55 39 2f bc 17 cb 8d 3d
       0.108116515 -0.02263166 -0.010694821 0.06923502
000090 b8 cf f4 3d 36 28 cb 3d 60 c2 cf bc c6 a7 93 3d
       0.11953682 0.09919779 -0.02536124 0.072097346
0000a0 a2 0d 8d bc 07 18 55 bd ff 24 f3 bc ee c8 95 3d
       -0.017218415 -0.052024867 -0.029680727 0.07313715
0000b0 83 75 96 3d a7 53 fd 3c 85 aa df bc 02 f4 f8 3d
       0.07346632 0.030923678 -0.02730299 0.12155916
0000c0 2c 27 99 bd 46 21 a8 bd 36 b4 a6 bc 95 74 12 3d
       -0.074781746 -0.082094714 -0.020349603 0.035755713
0000d0 fd ea a4 3d 55 9c 86 3d 23 8a f0 3d 17 ca 3b 3d
       0.08052633 0.06572787 0.117450975 0.045847025
0000e0 37 31 8d bd 54 e7 01 3e 28 61 3d 3d 2a ef 9c 3d
       -0.068941526 0.12685901 0.046235234 0.076628044
0000f0 0f 70 86 3d c3 97 0c 3e 46 c2 8c 3a f0 24 f5 3b
       0.06564342 0.13729768 0.001073905 0.00748121
000100 a6 84 98 3d dc 35 e5 3b 03 bb 05 3e 68 e8 a1 3d
       0.07447176 0.006994946 0.1305962 0.07905656
000110 5f 2c 7c bd 5a 9c 3f 3c 31 61 8e 3c 4d 9b ad 3d
       -0.061565753 0.011694992 0.017380329 0.08476887
000120 11 22 6d bb 75 50 ff bc e9 ac 19 3e 1f ed 56 3b
       -0.0036183635 -0.031166295 0.15007366 0.0032795144
000130 bf b6 43 3d d0 59 ad 3d 90 a0 3e bd a4 38 75 bc
       0.047781702 0.08464396 -0.046539843 -0.014967117
000140 cc b4 b9 bd 55 60 7e 3d 24 49 a7 bd e0 f5 10 3e
       -0.090676874 0.062103588 -0.08168247 0.14156294
000150 aa 03 b4 bd 78 73 11 3e a6 f5 ab 3d c8 5b d1 3c
       -0.08789761 0.14204204 0.08396463 0.02555646
000160 d8 05 2e bd 16 5d 42 3d 54 71 34 3e 96 35 15 3e
       -0.04248604 0.047452055 0.17621356 0.14571223
000170 e6 05 ed 3c 7e 9c 24 bd d3 b0 1c 3d 38 be 9e bd
       0.028933477 -0.040188305 0.03825457 -0.07751125
000180 af 73 b2 3d d6 73 32 3c 26 fa da 3c 2b b2 7a bc
       0.08713471 0.010891875 0.026730608 -0.015301268
000190 1e 1f 13 bc d8 33 48 bd f5 61 90 39 89 1f b7 bb
       -0.008979587 -0.048877567 0.00027538804 -0.005588476
0001a0 34 ef c4 3d 2f fa 63 bd 25 a1 03 3e 92 58 0f 3e
       0.09615937 -0.055658516 0.1285444 0.1399863
0001b0 07 da bb bd 08 1d ce bc 09 f4 93 bd 9d d0 97 bd
       -0.09172445 -0.025160328 -0.072242804 -0.07412837
0001c0 c0 17 da bd c1 3a 68 3d 1c 17 7d bd 3d 74 f1 3d
       -0.10649061 0.056696657 -0.061789617 0.11789749
0001d0 d6 9b 06 3e 29 9d 0e bd 1e 7b 8b 3d f2 a7 28 bc
       0.13145384 -0.03481785 0.06810592 -0.0102939475
0001e0 1e e9 0f 3e 89 dc 61 3d a6 3f 61 bd bf 89 21 bb
       0.14053771 0.05514196 -0.05499234 -0.0024648753
0001f0 14 b6 c6 bc bd bc e2 bb 3f e9 22 3d 56 47 00 3e
       -0.024256743 -0.006919472 0.039773222 0.12527213
000200 a4 f0 aa 3d 89 ac 91 3c d8 dc e8 bd 57 cd 00 bc
       0.0834668 0.017782466 -0.113702476 -0.007861457
000210 41 64 58 3d b0 e4 b4 bd 76 44 a7 bd 8c f3 0f 3d
       0.052829985 -0.08832681 -0.08167355 0.035144374
000220 24 dd e5 3d db 61 ee 3c ef 55 e9 3c 24 6b 0d 3c
       0.1122382 0.029099395 0.02848336 0.008631501
000230 19 14 c9 3d 78 01 ef bd e6 7a 6f bd 56 8c e7 3d
       0.098182864 -0.11670202 -0.058466814 0.11306064
000240 31 fd dd 3d cc 5a ff 3d 24 87 38 bd 6d 21 20 3d
       0.10839308 0.1246849 -0.045050755 0.039094377
000250 5b 42 84 bc 95 54 a3 3d 58 3a 52 bd 87 fa 85 bd
       -0.016144922 0.07975117 -0.051325172 -0.06541925
000260 18 56 05 3d cf 30 ff 3d 4e 8c 22 3e 03 58 d6 3c
       0.03255281 0.124604814 0.15873834 0.026165014
000270 82 0b 73 bd 28 6f 7f bd 75 29 4d bd 65 27 c1 bc
       -0.059337147 -0.062361866 -0.050088365 -0.023578355
000280 f4 dd d8 3c d8 47 31 3b a6 1b ce bc 35 c7 e0 3d
       0.026473023 0.002705088 -0.025159668 0.10975496
000290 38 12 3e 3d 7f 0e 8a 3d 0f b8 87 bd 3c 3c 03 3e
       0.046404094 0.06741046 -0.06626903 0.12815946
0002a0 a1 1a d8 3d ea 73 e7 3d e5 c1 82 bb 99 0b 98 bd
       0.10551954 0.11301406 -0.003990399 -0.07424087
0002b0 29 77 bf 3d a8 a9 bc 3d 9b 88 9a 3d 43 67 3c 3d
       0.093489 0.09212047 0.07545587 0.045996916
0002c0 58 1e f9 3d 4e f7 08 3e e0 23 05 3d d2 2e e8 3d
       0.12163991 0.13375589 0.032504916 0.11337055
0002d0 88 be 65 bd 41 6a 8d bd 6e 8f fd bc 80 af a4 3d
       -0.056089908 -0.06905032 -0.030952182 0.080412865
0002e0 4e 5d 83 bd 5b e3 96 bd e1 ca 4d 3d e7 9f 4a bd
       -0.06414281 -0.07367583 0.05024231 -0.0494689
0002f0 40 f7 35 3d 22 84 83 bd e0 36 b1 bb ad 4c 10 3d
       0.04442525 -0.06421687 -0.005408153 0.035229374
000300 74 8d a3 3d 94 64 bc bc 0a 60 42 3d 5e 17 d3 3d
       0.079859644 -0.022997178 0.04745487 0.10307191
000310 17 8c c7 3d 4e ad 2b bc 75 e2 0e bc c0 28 bc bc
       0.09743517 -0.010478331 -0.008720984 -0.02296865
000320 f9 4c cc bd 50 96 e7 3c e7 2a c3 bb 0e 22 18 bc
       -0.09975619 0.028269917 -0.005956042 -0.009285463
000330 c5 47 03 bd b8 1d cb bc 82 ec 84 bd cc d3 99 bd
       -0.032050867 -0.024794444 -0.06490423 -0.075111
000340 92 a5 cd bb c0 65 7e 3d 42 44 2e 3d 8e 51 fe 3d
       -0.006275841 0.062108755 0.042545564 0.12417899
000350 9e e0 13 3d e6 7f 29 bd 70 95 61 3d ea 81 78 bd
       0.036102884 -0.04138174 0.055074155 -0.06067077
000360 36 e7 f7 3d 6d 2c 0a 3e 8d 5b 7c 3c e1 d3 11 3e
       0.12104647 0.1349351 0.015402687 0.14240982
000370 01 ff 8d 3d cc 18 9a bd 59 4b 47 bd 1e 29 84 bd
       0.06933404 -0.07524261 -0.04865584 -0.06453155
000380 f2 39 17 3d ce e6 9f bd 20 ee c0 3d 1c 22 8e bd
       0.036920495 -0.078076944 0.09420419 -0.069400996
000390 4e 93 11 3c 8b be 0f 3d 8a e9 df bc 83 8f b1 3d
       0.008885218 0.035093825 -0.02733304 0.08669951
0003a0 3d f1 38 ba 84 97 e1 3c 07 d5 aa 3d 45 cc 85 bc
       -0.000705499 0.027538069 0.08341413 -0.016332755
0003b0 20 77 bd bd ee ad 4a bd e1 75 8c bd 42 2d e3 3d
       -0.09251237 -0.04948228 -0.06858421 0.110926166
0003c0 86 be b5 3d 34 32 54 3c d5 07 43 3d 93 39 07 bd
       0.0887423 0.0129514225 0.04761489 -0.03301389
0003d0 91 76 a5 3d 0f fa df 3d 8f 03 c4 bd 4d 13 48 3d
       0.08079255 0.10936367 -0.09570991 0.04884653
0003e0 20 74 94 3d 6f 24 5d bd 8b 34 f6 bc 39 a1 96 bd
       0.072487116 -0.053989824 -0.030054351 -0.073549695
0003f0 f8 d2 7c 3d 97 23 84 3d 2c 78 f4 bc 68 30 ac 3c
       0.061724633 0.06452101 -0.029842459 0.021019176

hidden_layers.1.bias f4 [64]
000000 f6 b1 ee 3d 3d dc ae 3c 76 e4 d6 3b dd de 1d 3d
       0.11655037 0.021345252 0.0065579964 0.038542617
000010 51 38 e1 bc be 3e 32 3c cc d6 08 3d 32 dc e6 bc
       -0.027492674 0.010879217 0.03340797 -0.02818117
000020 7f 1e 6a 3c 50 cc 63 3c 7f 86 f9 bc 04 54 c6 3d
       0.014289497 0.013903692 -0.03045964 0.096839935
000030 e5 51 cc 3d 2a 86 e1 3d de cf 83 3d 5e b9 eb bd
       0.09976558 0.11011918 0.06436132 -0.11509965
000040 b7 c9 85 bd 68 8b bf bc b2 59 2d bc c6 7f 45 3d
       -0.06532615 -0.023381904 -0.010580467 0.048217557
000050 39 bd b0 bd 98 a8 a4 3d 29 b5 83 bc f7 35 a8 bd
       -0.08629841 0.08039969 -0.016077595 -0.08213418
000060 01 e9 15 bd d6 ba b9 3d 3e 75 69 3d d2 7f 82 bd
       -0.036599163 0.09068839 0.056996576 -0.06372036
000070 af f8 d1 3d 0c 66 f1 3b 04 f2 76 bd 0c 66 f2 bd
       0.10252511 0.0073669013 -0.060289398 -0.1183587
000080 b7 01 b1 bc 77 f3 f9 3c 13 2a b0 bd d8 7a 17 3c
       -0.021607263 0.0305116 -0.08601775 0.009245597
000090 09 58 2e bd 42 b4 b8 bd 10 6c 6e bd ed d6 14 bd
       -0.042564426 -0.090187564 -0.058208525 -0.03633778
0000a0 e7 ab ea bc fb e5 c1 bd 2f 3f 05 3c 8b 0f 7d 3d
       -0.028646423 -0.094676934 0.00813274 0.0617824
0000b0 58 da 87 3d 35 0e f6 3d 16 d6 aa bc fd b0 05 3d
       0.06633443 0.120144285 -0.020854037 0.032639492
0000c0 0a fd d7 3d 07 46 1b 3d c6 c5 9e bd c7 56 6d 3d
       0.1054631 0.03790858 -0.07752566 0.057944085
0000d0 7c 81 1f bb ce c6 da bd 20 75 54 bd eb 55 a2 bc
       -0.0024338653 -0.1068245 -0.05186951 -0.01981636
0000e0 f3 26 9c 3d f4 fa be bd 76 96 ed 3d c9 bb d6 bb
       0.076246165 -0.09325209 0.11600964 -0.0065531475
0000f0 a9 48 b8 bd 98 1e 8a 3d b0 8e 88 bc a8 53 78 bd
       -0.08998234 0.067441165 -0.016669601 -0.060626656

hidden_layers.2.weight f4 [64, 64]
000000 98 cf 90 bc 78 b4 73 bd 5e f4 9d 3d 00 b9 89 bb
       -0.017677113 -0.05949828 0.07712625 -0.004202962
000010 6c 8d 25 bd 00 6f 03 3b 40 84 d5 bb 80 80 39 bb
       -0.040418074 0.0020055175 -0.0065160096 -0.0028305352
000020 dc 6b 70 bd 60 9f cd bb 0c 53 b4 3d 82 f3 fa 3d
       -0.058696613 -0.0062751025 0.088049024 0.12253477
000030 ac d4 54 3d 30 08 b3 bc b8 df 00 bd 40 25 e8 bd
       0.051960632 -0.02185449 -0.031463355 -0.1133523
000040 8c 29 60 bd 30 d3 4a 3d be b8 ed bd b0 a3 97 bc
       -0.054727122 0.04951781 -0.116075024 -0.01851067
000050 ac 49 dc 3d 04 1f 7c bd e0 c0 f7 bb 80 02 47 bd
       0.10756239 -0.061553016 -0.0075608343 -0.04858637
000060 02 7b f1 bd b0 fc a1 bd c8 d5 1b 3d c0 f1 9a bc
       -0.1179104 -0.079095244 0.038045675 -0.018914104
000070 da 92 d2 3d e2 b9 9c bd 84 09 9c bd 62 51 b4 3d
       0.10281916 -0.07652642 -0.076190025 0.08804585
000080 a8 ba b6 bd d4 83 f1 bd 14 74 88 3d d0 45 53 bd
       -0.089223206 -0.11792722 0.06662765 -0.05158025
000090 e8 f4 f0 3c c0 4f 3b bc f8 55 fa 3d 60 a1 a2 3c
       0.029413655 -0.011432588 0.122234285 0.01985234
0000a0 f2 23 c7 3d b0 6b ea bc 18 e0 b5 bc 80 b9 dd bb
       0.09723653 -0.028615803 -0.022201583 -0.006766498
0000b0 48 15 ad 3c 82 f6 bd bd 46 1b a4 bd 20 07 2e 3c
       0.021128312 -0.09275533 -0.080130145 0.010621816
0000c0 a0 89 80 3c 2a a2 8d 3d d0 a6 60 bd 78 41 d7 bc
       0.015690625 0.06915696 -0.054846585 -0.026276335
0000d0 3c 6c 30 3d ee 3e a7 3d f0 51 b4 3c 20 2d 31 bd
       0.04307197 0.081663 0.022011727 -0.043255925
0000e0 a0 18 88 3c 80 53 b0 bd 88 62 e6 bc 06 05 bb bd
       0.016613305 -0.08609676 -0.028123155 -0.091318175
0000f0 50 0a 2e bc cc 75 33 3d fc ac 2a 3d 90 6a 9e bc
       -0.010622576 0.04381351 0.041668877 -0.019337922
000100 85 8c e1 3c ef a0 11 3e 7b 99 05 bd ce 7f a8 3d
       0.027532825 0.14221548 -0.032617074 0.08227502
000110 45 67 80 3d 60 36 bd bd 29 09 93 3c f4 df 67 3d
       0.06269697 -0.09238887 0.017948704 0.056610063
000120 b3 03 0d 3e 1f da e6 3c ef f7 6d 3d f2 54 08 3e
       0.13770942 0.02818018 0.058097776 0.13313654
000130 56 5c a9 3d 53 87 77 bd c8 57 ae bd 23 b1 de 3d
       0.08269565 -0.06043179 -0.08512837 0.1087363
000140 fc 3b 16 bd c8 4a ba 3d ac d5 ba 3d 02 3a f7 3d
       -0.0366783 0.09096295 0.09122786 0.12071611
000150 33 60 b6 3d 5e 93 cd 3d fa cd dd bd 4e 76 bf bd
       0.08905067 0.10037874 -0.108303025 -0.09348737
000160 35 38 c2 bd f7 f8 ff 3d d0 04 d4 3d b8 bf 85 3d
       -0.09483377 0.12498658 0.103524804 0.06530708
000170 12 26 14 3e bb de 87 3c 50 85 0c 3d 68 f5 c5 3d
       0.14467648 0.016585698 0.034306824 0.09665948
000180 49 7d 7c bc eb 58 3b 3c 61 fc d2 bd f3 8a 3e 3d
       -0.01541073 0.011434774 -0.10302044 0.04651923
000190 83 ec cd 3d d0 9f 3c 3d 70 b2 18 bd 69 42 6a 3a
       0.10054877 0.046050847 -0.037279546 0.00089362875
0001a0 c9 b5 97 3d f1 a3 a0 3d 99 89 17 3c 2c 5b db 3c
       0.0740772 0.07843769 0.009249114 0.026776873
0001b0 46 7a 2d bc 15 2c ca 3d b2 8e 0c 3e ce 68 55 bc
       -0.010588234 0.09871689 0.13726309 -0.013025476
0001c0 3d 35 db 3c 58 9c a0 bd 12 57 b9 3d c0 bc 90 3d
       0.026758784 -0.0784232 0.090498105 0.07067251
0001d0 f8 15 ce 3d c8 83 bc bc 21 4a ac 3d b6 8b 9d 3d
       0.10062784 -0.023012057 0.084125765 0.07692663
0001e0 e3 49 0d bd f6 31 a0 3b 99 bc 95 bd ee a3 1a 3d
       -0.034494292 0.0048887683 -0.07311363 0.03775399
0001f0 34 92 a9 3d 4b 92 c5 3d 94 89 12 bd b1 79 22 bd
       0.08279839 0.09647044 -0.035775736 -0.039666835
000200 c3 25 29 3d 9d 14 b8 bd 73 cb 92 bd 7b 47 ab 3c
       0.041295778 -0.08988307 -0.07167711 0.020908108
000210 50 34 aa bd 2b f6 ed 3d 3d 07 91 bd 3e 70 56 bd
       -0.08310759 0.116192184 -0.07081459 -0.052353136
000220 14 72 28 3c c5 7d ff 3d 9e cf e9 bc a0 0f d5 bb
       0.010281105 0.124751605 -0.028541382 -0.006502107
000230 83 5b 03 bb b7 f4 17 bc be d7 91 3d ca 8b 5c 3d
       -0.002004356 -0.009274653 0.07121228 0.05384425
000240 d5 6a 16 bd ec 0d 9e 3d 87 24 f9 3c d4 64 02 3e
       -0.036722977 0.07717499 0.030412925 0.12733775
000250 2a 2c b3 bc 61 36 93 3d e0 0a 8b 3c 7d e7 c7 bd
       -0.021871645 0.07188106 0.016972959 -0.0976095
000260 1d b3 0e bd 94 7f 1e 3d cc 38 12 bd 3b e3 2b bd
       -0.034838784 0.038695887 -0.035698697 -0.04196475
000270 18 1e 1f 3d c9 05 d7 bd 44 19 27 3d a8 92 3e 3d
       0.03884706 -0.1049915 0.04079558 0.04652658
000280 b4 2f 33 3e 0c a6 b6 bd d8 b8 01 3e 2c 84 be 3d
       0.17498666 -0.0891839 0.12668169 0.093025535
000290 58 13 d6 3d a0 4e 8b bd 84 0d 78 3d 0d 61 8f 3d
       0.10452908 -0.06802106 0.060559765 0.07000933
0002a0 68 7a 0a 3d 1d 5c d3 3b 02 db 17 bd 0f 18 07 3e
       0.033808142 0.0064501897 -0.037074097 0.13192771
0002b0 4f af 01 bd a1 63 d9 3c fc 01 04 3e 09 0d 96 bd
       -0.031661328 0.026536765 0.12891382 -0.07326705
0002c0 52 82 f8 bd 89 b7 92 bd eb ca c5 bd 4a 2b d6 3d
       -0.121342316 -0.07163913 -0.09657844 0.104574755
0002d0 cc 6d cd ba 75 a5 d9 3d d8 3b d0 3d cb 17 5e bd
       -0.0015672981 0.106272615 0.10167664 -0.05422191
0002e0 85 d3 c9 3d 7a fc 3e 3d 06 12 09 3d 66 6b 7a 3a
       0.09854797 0.0466275 0.033464454 0.0009552747
0002f0 38 3f 85 bb 8e 1e 91 bd 2c 55 7d 3d cb bd 4c 3d
       -0.004066374 -0.07085906 0.061848804 0.04998569
000300 f6 6f 89 3d 06 b7 8b bd 6d 76 fa bc 54 47 bf bd
       0.06710808 -0.06822018 -0.030574048 -0.09339777
000310 45 80 a3 3d c8 d6 8f 3d 7b 69 0a be d2 a4 b3 3d
       0.0798345 0.07023388 -0.135168 0.08771671
000320 18 bc bc 3d 54 39 01 be 50 06 87 bd 88 9b b3 3d
       0.092155635 -0.12619525 -0.06593001 0.087698996
000330 3e a6 a2 3a 8e cb de 3d 44 59 02 bd 00 f4 df bd
       0.0012409163 0.10878669 -0.03182341 -0.10935211
000340 bb cb 20 3d 36 4a ab 3d 8f 70 20 bd 34 7f 21 3d
       0.039256793 0.08363764 -0.039169844 0.03942795
000350 74 2f 13 bd ec eb b4 bd 77 b9 30 3d 10 f3 41 bd
       -0.035933927 -0.08834061 0.043145623 -0.047350943
000360 80 78 60 bd 68 59 07 3d 17 84 4f 3c e2 9c 3f 3d
       -0.054802418 0.03304425 0.01266577 0.046780474
000370 59 f1 52 bd 64 b3 70 3b d4 1f af 3d 2e ef b0 bd
       -0.0514997 0.003672802 0.085509926 -0.0863937
000380 2d 3b c6 bd 3f 34 8d bd 37 6e 59 3c 21 4d 8e bd
       -0.09679256 -0.06894731 0.013270906 -0.06948305
000390 dc 06 ac bd 60 e2 da 3d 3e 34 8b 3d 76 59 9d bc
       -0.08399746 0.10687709 0.06797074 -0.019207697
0003a0 af 41 02 be 20 6d 5b 3c 8a 87 8e 3d 8e 46 d2 bd
       -0.12720369 0.013392717 0.06959446 -0.102673635
0003b0 ca 88 b4 bd b3 82 c2 bd 92 4d d7 3d f8 22 8f bd
       -0.08815153 -0.09497585 0.10512842 -0.06989092
0003c0 8e d1 68 3d 4c a8 aa bd 8a 8c db bd 9d 3c 92 bc
       0.056840472 -0.08332881 -0.10720165 -0.017851168
0003d0 f0 3d 41 3d 22 6e c3 3d 94 bc b3 3d 30 ca fa bc
       0.04717821 0.095424905 0.08776203 -0.030613989
0003e0 81 d8 07 be 40 75 8a bd cc ad f9 bb fb 9d 84 3d
       -0.13266183 -0.06760645 -0.007619595 0.06475445
0003f0 ec 1e 4c 3d fa 48 11 bd 6e f0 b7 bd 4f 07 cd 3d
       0.049834177 -0.035469986 -0.08981405 0.1001116

hidden_layers.2.bias f4 [64]
000000 2c 4a a3 bd 75 12 f9 3d b1 c7 c5 bb 8f 09 bc 3d
       -0.079731315 0.121617235 -0.006035768 0.09181511
000010 ce 9b f4 3a db ef 59 ba e4 33 03 3e 2e 00 a0 bd
       0.0018662156 -0.00083136343 0.12812763 -0.07812534
000020 23 8a 93 3d 69 f0 b9 bc 3e e5 9e 3d 0a 9d a7 bb
       0.07204082 -0.022697644 0.07758568 -0.005115156
000030 2b 1c 4c 3c 24 1f 64 bd cc f9 9b 3c 36 f3 55 bc
       0.012457888 -0.05569376 0.01904001 -0.013058474
000040 76 98 e3 bd e8 65 d2 bd 58 c0 01 3d bb 8e 87 bd
       -0.11113064 -0.10273343 0.031677574 -0.066190206
000050 0f 0c ac bc 74 5e ac 3d 1d 57 df bd a6 b3 f0 bd
       -0.021001844 0.08416453 -0.109052874 -0.11753015
000060 40 24 84 bd e6 17 ae bd 1f bb ab 3d 42 c0 e9 3d
       -0.06452227 -0.08500652 0.083853 0.114136234
000070 e1 dd f5 3d b1 c6 5a 3c 4e 1d f2 3d 33 90 b0 3d
       0.12005211 0.013353036 0.11821996 0.08621254
000080 7a ca 81 3d a5 76 63 ba 36 eb 2c bd c1 e9 e0 3d
       0.063374475 -0.0008677042 -0.042216502 0.10982085
000090 4e 33 c8 bd e4 f9 43 bc ba 9a 08 3e 25 aa 4b 3d
       -0.097754106 -0.011961434 0.13340273 0.04972281
0000a0 00 87 f4 bb 66 73 e7 3d f8 4a d1 bd f7 85 1c 3d
       -0.0074623823 0.113013074 -0.10219377 0.038213696
0000b0 52 b3 96 3d 74 13 3a 3d 76 7d 1d 3d 79 8c 14 bd
       0.073584214 0.04542871 0.038449727 -0.036266778
0000c0 50 b4 93 bd c3 e3 8e 3d d6 90 f2 bd c5 ef cc bd
       -0.07212126 0.06977036 -0.118440315 -0.1000667
0000d0 71 38 3f bd fe c8 a5 3c dc f2 98 3d b3 e3 4e 3c
       -0.046684686 0.020237442 0.07468197 0.01262753
0000e0 f8 9d fc 3d 82 2b fd 3d 19 34 cc bc 8b 1a 56 3d
       0.12334818 0.12361814 -0.024927186 0.052271407
0000f0 12 b1 7b bd 42 d9 42 3d fb f3 5f bb 84 b5 dc 3d
       -0.061448164 0.047570474 -0.0034172523 0.10776809

hidden_layers.3.weight f4 [64, 64]
000000 58 5a c8 3c 19 ae 80 3d 9c e3 74 bd ca 8c 04 bd
       0.024457142 0.062832065 -0.059787378 -0.03236083
000010 90 89 1f 3d 7b 68 01 be ef a3 f1 ba 98 55 c4 bd
       0.03894955 -0.12637512 -0.0018435697 -0.09586638
000020 7b 7a ac 3c f6 44 eb 3d 2a e2 d2 3d 4b dc e3 bd
       0.021054497 0.11487763 0.102970436 -0.11126002
000030 40 cb 7c bb b4 c9 a9 bd 9c b5 f0 bc db fc 06 3b
       -0.0038573295 -0.08290425 -0.029383473 0.002059749
000040 ea 72 af 3d f8 b1 bd bc 6a 80 90 bc 68 9c 34 3d
       0.0856684 -0.023156151 -0.017639358 0.044094473
000050 6f 17 23 3d 28 b2 bc bd 2a 6c fc 3d 8e ed 8a bd
       0.03981727 -0.09213668 0.12325318 -0.06783591
000060 00 ac 0f bc 8e e1 ce 3d 14 80 6e 3d 84 51 ff 3a
       -0.008769035 0.10101615 0.058227614 0.001947925
000070 dc 7d 08 3d 45 8f df bd 93 ef d3 3c f1 44 aa bd
       0.033323154 -0.10915998 0.025871074 -0.08313931
000080 5e 54 d5 3d bd 56 bb bc 86 92 62 bb e4 69 2f bd
       0.104164824 -0.022868508 -0.0034572198 -0.042825595
000090 96 76 d7 bd 71 a7 8f 3d a7 86 b2 3d 6b 65 2f 3d
       -0.10520665 0.07014359 0.08717089 0.04282133
0000a0 d0 0d f9 bd 1f 37 89 bd 90 e7 cb bc c1 08 ed 3c
       -0.12160838 -0.06699967 -0.024890691 0.028934838
0000b0 32 3d 97 bd 0d a4 04 be 85 63 cc bc 46 07 cf bd
       -0.07384719 -0.12953205 -0.024949798 -0.10108809
0000c0 8c 4b ab bd 1b 5a 94 3d 18 51 3f bd 67 eb 40 bd
       -0.08364019 0.07243749 -0.046708196 -0.047099497
0000d0 51 74 9f 3d 52 75 c5 bd 79 2a df bd b0 5e 3c bc
       0.077858575 -0.09641518 -0.10896773 -0.011497185
0000e0 02 15 8f bc 53 3e e5 3d ac 73 64 3d 42 de 04 be
       -0.017466072 0.11193528 0.055774376 -0.1297541
0000f0 2e 90 e2 bd 06 84 aa 3d 9e 02 cf bd fb 63 a8 bb
       -0.11062656 0.08325963 -0.10107921 -0.0051388717
000100 98 7b d0 bd 6a d3 9f bd de 59 db 3d eb 14 1f 3d
       -0.10179824 -0.07803996 0.107105 0.03883831
000110 99 02 4d bc af 14 c5 bd 0a 32 48 bc bc 73 98 3d
       -0.012512826 -0.09623086 -0.0122189615 0.074439496
000120 67 37 00 3e b2 1d 03 3d 79 ae 0c 3e 43 90 60 3d
       0.12521134 0.03201074 0.13738431 0.05482508
000130 5f 8e 64 3d dc 74 a3 bd c2 b0 9d bd c2 ad 85 bd
       0.05579984 -0.079812735 -0.076997295 -0.06527282
000140 62 d9 72 bd 82 52 ad 3d 6d 0b a8 3d 25 b5 d8 bd
       -0.059289344 0.08463003 0.08205304 -0.105814256
000150 a0 6a b3 3d e1 de bb 3d 63 90 76 3d 94 7f 3f 3d
       0.087605715 0.0917337 0.06019629 0.046752527
000160 0c 79 d2 bc 90 81 ea 3c c5 7a 5f 3d 82 d6 3f bd
       -0.025692485 0.028626233 0.05456044 -0.04683543
000170 8f 4d db 3b 2a 79 32 3d 59 13 86 3d 38 c2 60 bc
       0.0066925953 0.043572582 0.06546659 -0.01371818
000180 8c 3c 43 bd 42 f0 e1 3d 08 8d e1 3d 5b 6b 1b 3d
       -0.047665164 0.11032154 0.11013228 0.03794418
000190 3c 1c 82 bd ec b1 cd bd ee 5c 18 3d 6b bd 05 3c
       -0.063530415 -0.100437015 0.037198 0.008162837
0001a0 a4 18 b6 bd 21 50 ca bb e0 7f 58 bc 9d c2 6f 3c
       -0.088914186 -0.006174103 -0.0132140815 0.014633802
0001b0 b4 d1 47 3d 8d 51 83 bb d7 ce ef bc 93 10 82 3d
       0.048783973 -0.0040075243 -0.029273434 0.063508175
0001c0 08 d7 b4 bc 01 ea 59 3d 16 f2 87 bb b9 f3 4d bd
       -0.022075191 0.05320168 -0.004148732 -0.05028126
0001d0 e6 70 f3 3d 39 a3 8c 3d 80 e1 b6 3d ac a7 9c 3d
       0.11886768 0.0686707 0.089297295 0.07649168
0001e0 f0 95 ac bd b5 bf bd 3d 05 32 9e 3c 92 b2 e2 ba
       -0.08427036 0.09265081 0.01931096 -0.001729565
0001f0 3d 92 e9 3b c1 c5 7a bd a9 ca d5 bd b4 0d 7d 3d
       0.0071280287 -0.06122375 -0.10439045 0.061780646
000200 70 41 06 3c 1f d6 cc bd 82 0d ce bd 36 7e fc bd
       0.008194312 -0.10001778 -0.1006117 -0.1232876
000210 2c d9 f6 bd 59 7c fd bd 02 3f 93 3d c6 84 98 3d
       -0.12053141 -0.12377233 0.07189752 0.074471995
000220 e0 39 cf bd 90 ed 38 3d 02 44 d6 bd 09 20 9c 3c
       -0.10118461 0.045148432 -0.1046219 0.019058244
000230 40 27 f9 bc 40 80 c2 bb c2 e0 d4 3d f0 16 7d bd
       -0.030414224 -0.0059356987 0.10394432 -0.061789453
000240 44 19 94 bd b0 cb 55 bc 6f 94 5f bd f0 2f a5 bc
       -0.072313815 -0.013049051 -0.054584917 -0.02016446
000250 78 d1 9b 3c a7 7b 2e b9 92 7b bc 3d 80 d9 99 bb
       0.01902078 -0.00016639997 0.09203257 -0.0046951175
000260 34 89 02 bd 06 b9 ff 3d 87 da 8c 3d 75 b7 58 bd
       -0.03186913 0.12486462 0.06877618 -0.052909333
000270 6c cc 71 3d 00 f3 f9 bd 3e 90 c1 3d 12 89 79 3c
       0.059032843 -0.12204552 0.0945134 0.015230434
000280 e9 50 0a 3d a2 9c 06 3c 7a a1 bb bd 40 b3 f4 3d
       0.03376857 0.008216055 -0.091616586 0.11948252
000290 1e 34 b4 bd 10 5c ac 3d 5b 06 f9 3b 4e da 42 3d
       -0.08799003 0.08415997 0.0075996346 0.047571473
0002a0 d0 16 b3 3c e9 d5 a9 3d 00 99 83 3b 4c c5 24 3c
       0.021861464 0.08292753 0.0040160418 0.010056805
0002b0 30 9c 09 3c 67 b8 62 3d a7 1b 88 3c bb 3a 96 ba
       0.008399054 0.05535164 0.016614748 -0.0011461595
0002c0 d8 d8 9f bd 6e 0b ba bd 7a e1 c3 bd f1 68 b4 bd
       -0.078050315 -0.09084211 -0.095644906 -0.088090785
0002d0 36 36 c6 bd 12 c9 5f bd 4b 4e 95 3c 08 ca da 3d
       -0.09678309 -0.054635115 0.01822581 0.10683066
0002e0 0a bb 71 bd df 5a 86 bd cb 7d ee bd fa 0d d1 bd
       -0.059016265 -0.06560301 -0.11645087 -0.10207744
0002f0 c4 c2 90 3d dd 75 96 3c e9 5a 83 3d 69 d8 f3 bc
       0.070683986 0.018366748 0.06413824 -0.029766278
000300 1c 12 43 3d 19 8e 93 bd 7d 42 86 3c dd 9d 94 bb
       0.047624692 -0.07204837 0.016389126 -0.0045354203
000310 9c 5b d0 3d c8 05 9f 3d 00 34 85 3d 46 c2 de 3c
       0.10173723 0.077647746 0.06504059 0.027192246
000320 14 27 00 3d 3d 70 7d bd c6 9e d1 bd 7d 5b 90 3d
       0.031287268 -0.061874617 -0.10235362 0.070487
000330 89 15 bb bb 9e 85 e9 3d 60 38 1c bd 06 74 b2 3d
       -0.0057093543 0.114024386 -0.0381397 0.08713536
000340 12 e9 99 3b b0 29 e1 3c 8d 7f bf bc 86 a8 ba bc
       0.0046969736 0.027485698 -0.02337625 -0.022785436
000350 99 4d 83 bd 4d 0c b8 3d e2 4b 8c 3c f5 dc 77 bd
       -0.06411285 0.08986721 0.017126027 -0.060513455
000360 b6 c7 2d 3d e0 94 ad bc 2a c9 a5 3d f5 e4 d7 bb
       0.042426787 -0.021189153 0.080950096 -0.006588573
000370 09 5e 97 bb 80 54 8c 3d 3a 9f eb 3d 43 9b 9b 3c
       -0.004619364 0.068520546 0.115049794 0.018994933
000380 2c b8 f2 3d 89 e1 f6 3d 6d 8e 26 3d a7 7b a7 bd
       0.11851534 0.12054736 0.04066317 -0.08177882
000390 d6 b4 5e bd d2 c6 41 bc 71 7c 46 b8 cf b2 98 3d
       -0.054371677 -0.011827188 -4.7322774e-05 0.0745598
0003a0 ee 01 bc bd 25 cf 46 bc 16 c9 97 bd 9c dc 94 3d
       -0.091800556 -0.012134348 -0.07411401 0.072686404
0003b0 86 d3 b8 3d 9c f6 00 3d b6 d7 0e bd fe fe 24 3d
       0.0902472 0.031485185 -0.034873687 0.040282242
0003c0 4a 6c 8d bd 10 50 ac bd 77 d9 ae bd 3a 03 2c 3d
       -0.0690542 -0.08413708 -0.08537572 0.041995265
0003d0 04 ee 5c bd 8d 14 e1 bd 5b 52 fd 3d ea 93 af 3d
       -0.053937927 -0.10990248 0.12369224 0.08573134
0003e0 5e f1 b6 bd aa 3b dd 3d 7a 30 72 3d 42 5a 79 bc
       -0.08932756 0.10802396 0.059128262 -0.015219273
0003f0 73 6e af bd a1 00 05 bd ca 31 e7 3d 8f 9c 06 3e
       -0.085659884 -0.032471303 0.112887934 0.1314566

hidden_layers.3.bias f4 [64]
000000 c0 53 42 3d 45 c8 30 3d 1f 2b 4a 3d 41 4c db 3d
       0.04744315 0.043159742 0.04935753 0.10707904
000010 ac f1 89 bd 4f 52 dc 3d 34 8b b3 bb b3 a8 c4 bc
       -0.067355484 0.107578866 -0.005479241 -0.024006223
000020 b0 47 a5 bc b9 a7 c4 3d ce b1 53 3d 5a a4 66 3d
       -0.020175785 0.09602303 0.05168324 0.05630908
000030 bf 42 31 bd c0 76 5f 3d cf c3 51 bd 94 c6 5b bd
       -0.043276545 0.05455661 -0.05121213 -0.053656176
000040 20 2b f8 3b ca d8 bc bd 6b 24 25 bd aa 37 0d 3e
       0.0075735003 -0.09221037 -0.040317934 0.13790765
000050 e0 46 8e bd 8e fb ca bd b2 be 65 3d 78 29 27 3d
       -0.06947112 -0.099112615 0.056090064 0.040811032
000060 07 c2 2e 3d 9e ef ad bd 28 1d b6 3c 96 74 83 bd
       0.042665508 -0.08492969 0.0222307 -0.064187214
000070 00 12 de bd fd c0 23 3d 9b 82 57 3c 02 50 a5 bd
       -0.10843277 0.03997897 0.013153697 -0.08071901
000080 cc ca f0 bd 0d 70 ec bd 7e d1 53 bc 48 08 c5 bd
       -0.117574304 -0.115448095 -0.012928365 -0.0962072
000090 87 b2 a8 3d 58 bd ba bd bb c6 f1 bd 65 54 a5 bd
       0.082371764 -0.09118146 -0.11805483 -0.080727376
0000a0 1b 6a ac bd 28 37 78 bd d3 9e 37 3c 51 fc a0 bd
       -0.084186755 -0.060599476 0.0112073 -0.078606255
0000b0 17 2d 90 bc b8 ea 12 bd 53 b0 d9 3d 0e a0 89 3c
       -0.017599626 -0.035868376 0.10629334 0.016799953
0000c0 39 e3 c0 bd c2 39 9a 3d f2 2a e4 bb a8 14 cb bc
       -0.09418339 0.07530548 -0.0069631273 -0.024790123
0000d0 dc 0a da 3b b8 7a a5 bd a0 d6 23 3d 01 b4 0f bd
       0.0066541266 -0.08080047 0.039999604 -0.035083774
0000e0 d8 ca 68 3d cc 91 b2 bd e4 26 3a 3d af c6 8a bd
       0.056834072 -0.08719215 0.045447245 -0.06776177
0000f0 4a 83 74 3d 1e 3e b7 bd 10 74 ee 3d 09 92 d6 3d
       0.05969552 -0.08947395 0.11643231 0.10477073

output_layer.weight f4 [2, 64]
000000 d5 0a 22 3d 35 78 37 bd 71 b6 a7 bd ef 3a 82 bd
       0.03956111 -0.044792373 -0.08189095 -0.06358897
000010 84 c3 b4 bd d1 f9 fd 3d 41 16 8c bc bf f8 a0 3d
       -0.08826354 0.12401164 -0.017100455 0.078599446
000020 26 f7 d2 3d c8 8f 06 bd f1 46 fa 3d ef 94 bf bc
       0.10301046 -0.032851964 0.12220562 -0.023386447
000030 88 02 dc 3d df 40 a7 bd f7 cb e8 bd 30 3c bf 3c
       0.1074267 -0.0816667 -0.11367028 0.02334413
000040 48 18 bc bd 70 8a ec bc 4a 47 af bc da 14 99 3b
       -0.09184319 -0.028874606 -0.021396298 0.004671675
000050 7f 6e ad bc a0 d7 ac bd af 39 9b bd 6c 06 73 bd
       -0.021170853 -0.08439565 -0.07579362 -0.059332296
000060 14 e8 19 bd ca c9 e0 bd 58 75 25 3d 4c a1 29 bd
       -0.037574843 -0.10975988 0.04039511 -0.04141359
000070 5a de 8e 3d 2c 98 cf bd e0 f7 c7 bd 5a ed c1 3d
       0.06976004 -0.10136446 -0.09764075 0.09469099
000080 5d c2 16 bd 20 15 e2 3d ae a1 d8 3c be f2 ae 3d
       -0.036806453 0.110391855 0.026444282 0.08542393
000090 bf 9c 66 3d 54 a1 d2 bd 81 9e bd 3d 15 1b ce 3b
       0.05630183 -0.10284677 0.09258748 0.0062898495
0000a0 27 c5 c3 3d e6 5c ed bd a6 7e 8d bd 63 e8 f5 3d
       0.09559088 -0.115899846 -0.06908922 0.12007215
0000b0 b8 c9 c6 3c 41 8b ee 3d d8 4c 47 bd dc 98 07 3d
       0.024266109 0.11647654 -0.04865727 0.033104762
0000c0 8d 54 35 3d 65 04 47 bd 44 aa 3e bd 44 c2 dc 3d
       0.044270087 -0.048588175 -0.046549097 0.10779241
0000d0 e5 c3 9d bd 4e 82 98 bd 81 a8 bc 3d a0 18 e5 bd
       -0.077033795 -0.07446729 0.09211827 -0.111863375
0000e0 88 bd c0 bc ed 66 00 be 14 0c fe bc 1c 7c cc 3b
       -0.023527876 -0.12539263 -0.031011619 0.006240381
0000f0 8e ea 05 3e d0 44 44 3d 6e 02 6b 3b 3d 39 c2 bc
       0.13077757 0.047917187 0.0035859603 -0.023708934
000100 d6 32 13 3d 2d b1 b2 bd f4 01 e0 3c 09 92 bc bc
       0.035937153 -0.087252 0.027344681 -0.023018854
000110 f0 13 ab 3d 8c d6 47 bd 6d 16 f2 bd 03 bc 4d bd
       0.08353412 -0.048788592 -0.11820684 -0.05022813
000120 31 c3 df 39 39 1f 12 be d0 75 f5 bc cb cb f5 bd
       0.00042679303 -0.14269723 -0.029963404 -0.12001761
000130 6e 5b 29 3c dd 52 f3 3c e2 92 e0 3d ce f8 aa 3d
       0.01033674 0.029702598 0.10965516 0.08348237
000140 e0 24 54 3d c0 bf da 3d 8f db 78 bd dc 85 45 bd
       0.05179298 0.10681105 -0.060756262 -0.04822336
000150 db 22 bf 3d 64 b5 67 bd 4f f2 d7 3d e1 42 10 be
       0.0933282 -0.056569472 0.105442636 -0.14088012
000160 61 f7 fa 3d a0 30 1b 3c 34 26 47 bd 2c 3b 1a bd
       0.12254215 0.009472042 -0.048620418 -0.037654087
000170 00 83 4c bd c7 91 0a be 6e 7e 85 3d 44 af 2c 3d
       -0.04992962 -0.13532172 0.06518255 0.042159334
000180 5e c5 22 bd 85 3c 1d 3b db a6 1a bd 52 f8 c4 3d
       -0.039739005 0.0023992371 -0.037756782 0.09617676
000190 f1 33 11 be 18 16 5f bd 8b 74 62 bd 64 da e1 bd
       -0.1417997 -0.05446443 -0.055286925 -0.11027983
0001a0 f9 91 1c bd f0 e4 a9 bc c9 77 0d be 81 53 27 3d
       -0.038225148 -0.020739049 -0.13815226 0.04085112
0001b0 a7 65 4f 3b db e5 cd bd 6a e6 01 3e af 22 4c 3d
       0.0031646283 -0.10053607 0.12685552 0.049837764
0001c0 66 ab 46 bd 68 53 5a bb 72 8c e6 3c a0 94 d0 bc
       -0.048503302 -0.0033313874 0.028143141 -0.025461495
0001d0 93 67 a2 3d 98 4c 54 3d ef 08 0e 3d da 98 91 3d
       0.079299115 0.051830858 0.03467649 0.07109232
0001e0 ca 5e 95 bd 0c a0 9e 3c 74 4a 4a 3d 61 4a df bc
       -0.0729347 0.019363426 0.04938741 -0.027257146
0001f0 21 7a 2a bc e8 ed 96 3d 03 96 6b 3d 3b d4 82 bd
       -0.010405094 0.07369596 0.05751611 -0.06388136

output_layer.bias f4 [2]
000000 6d a1 ac 3d 94 d1 f4 bb
       0.08429227 -0.0074712727
