abc_env_raw/saved_models/phi_only_1.2.pt (torch, 72199 bytes, 12 tensors)

input_layer.weight f4 [64, 3]
00000000: 1a50 eabe b2f1 033f 76aa 043e 1542 d33c
00000010: 5c3c aabe 3add 023f 6c71 efbe f850 96be
00000020: f124 873e 56f1 e8be af2a 11bf 2c23 d83c
00000030: c086 463d 4436 273e cf2e e6be cbb9 babe
00000040: 735f 90be 7268 b13d 0e16 523e 1cc7 88be
00000050: 11cf bf3d 9db4 80bd 9758 13bf 2710 87be
00000060: d505 803e 1d37 cabc 23c9 cf3e 2627 c0be
00000070: e8ec a2bb 8c15 8a3e dbb5 4c3e 3ece 49be
00000080: 9aaa ccbe 92f4 2f3e 5ee9 ab3e 1477 e43e
00000090: d9eb 0dbf 067f 01bf 607b db3d 0ac8 31be
000000a0: e4de 93be ab84 c03d 7075 193e 6807 1cbe
000000b0: c4a0 febe 3636 c03e 8d76 86be 6fd4 cfbb
000000c0: e5a4 c83e 6cc2 7d3e 4b50 11bf 3464 dbbe
000000d0: 4b4e 063f b5e7 eb3d 50aa c0be 8d20 d53d
000000e0: 61f4 123f 4eef 2dbe 0966 9d3e af6a 0f3e
000000f0: b662 95be ef2f b23e cbe4 9f3e 02a2 c53e
00000100: 9e80 47be 563c d0be 8d4d 143f 5e8d 9cbe
00000110: 07df b8be 78c3 933e d21e 043f 54b6 92bc
00000120: de05 a6bd c353 eabe 9dd3 7abd cfea 05bf
00000130: 1232 92be b58a e43e d95e 843c 20b7 863d
00000140: ef11 f4be 6423 773e 2cf2 c8be b428 493c
00000150: c886 97be f046 5a3d 8812 cd3d d283 153f
00000160: 0b5c 05bf 5637 c43e 6c14 143f 3071 f0be
00000170: 4e57 8f3e af06 b1be a750 57bb 8b4d b3be
00000180: cd3f 8dbe a7e2 3e3d 0c2e bdbe daa7 e4be
00000190: e081 693e 7d4b 48be 34f7 d13e 85ce 5f3e
000001a0: 2dfd f8be b2e7 bebe 3a78 8cbb 7b7a 293e
000001b0: 56c5 11bd 3315 a3be 8832 afbe b492 f2bd
000001c0: 4b5a 1fbc cf8e 123f e4d4 e7be 29d7 a33e
000001d0: 2164 53be fdf0 f53c e974 ffbe 8bc1 753e
000001e0: 89b7 933e e612 bc3c 64e7 c23e c061 b0be
000001f0: e1b8 c73e 7e86 933e bea4 02bf 775a 8dbc
00000200: 93f5 ff3e 1dc7 963e 72d6 e83e f951 cf3e
00000210: 747e 023f 7fc5 bdbe 27e2 553e 58b4 cfbe
00000220: 7332 bbbd fbe8 d1be 4447 8dbd b239 fdbe
00000230: 8978 b0be c879 9b3e 5284 09be 7b0c 95be
00000240: 0312 b2bc 335c b73e 5d3c 63be f97f c7bd
00000250: f7ee 1dbe 982d e83e 4456 a73d bfbb 123f
00000260: 165d a7bc 2a91 fabe eaa4 983e 131b 0e3f
00000270: 3218 83be 0c4b e93e a969 603e 6827 dfbe
00000280: 7302 05bf aeb6 e13e a817 9e3e cba8 36be
00000290: d75d e83d 2d53 0ebf 5941 c03e c7a8 083f
000002a0: 7348 febe 6cba aa3e f1dd fd3d 2ea8 70be
000002b0: c2df b63c f1b2 453d b872 09bf f1ca db3e
000002c0: eda8 623e fe76 04bf 6dfb 033f f5b5 283e
000002d0: 20fd 803e bf2f 6abe bd8c cdbe 0536 b0be
000002e0: 5c01 363d c531 f7be 2191 95be 18c3 b4be
000002f0: 3179 bebc 4e60 823e add0 6dbe 73bd f7be
-0.45764238 0.5154067 0.1295565 0.025788346 -0.33249176 0.51118815 -0.46766222 -0.2935865
0.26395372 -0.45496625 -0.56705755 0.026383959 0.04846835 0.16329294 -0.44957587 -0.36469874
-0.28197822 0.086624995 0.20516226 -0.26714408 0.09365667 -0.06284449 -0.5755705 -0.2637951
0.2500445 -0.024684483 0.40583143 -0.37529868 -0.004972089 0.26969564 0.19991247 -0.19707581
-0.3997391 0.1718314 0.33576483 0.446221 -0.55438 -0.5058445 0.10716891 -0.17361465
-0.2888099 0.094003044 0.14986205 -0.152372 -0.4973203 0.3754136 -0.26262322 -0.0063424627
0.39188305 0.24781197 -0.5676314 -0.42849886 0.52463216 0.11518804 -0.37629938 0.10406599
0.5740414 -0.16985819 0.3074191 0.1400554 -0.29176873 0.34802195 0.31229243 0.38600165
-0.19482657 -0.40671033 0.57930833 -0.30576605 -0.36107656 0.28860068 0.5160953 -0.017909206
-0.08106588 -0.4576703 -0.061236966 -0.52311414 -0.28553826 0.44637075 0.016158508 0.06577897
-0.47669932 0.24134594 -0.39247262 0.012277771 -0.29595017 0.053290308 0.100133 0.58404267
-0.5209357 0.38323468 0.5784366 -0.46961355 0.27996296 -0.34575412 -0.003285447 -0.35020098
-0.2758774 0.04660287 -0.36949193 -0.4465931 0.2280345 -0.19560046 0.41008914 0.21856125
-0.48630658 -0.37286144 -0.004286793 0.16550629 -0.035588585 -0.3185211 -0.3421824 -0.11844388
-0.009726117 0.5724916 -0.4527961 0.32000092 -0.20643665 0.030022139 -0.49893883 0.23999612
0.28850964 0.02295823 0.38067162 -0.34449577 0.3900824 0.28813547 -0.51032627 -0.017255051
0.49992046 0.29448786 0.4547611 0.40492228 0.509742 -0.3706474 0.20887052 -0.4056728
-0.09140482 -0.40998062 -0.068983585 -0.4945808 -0.3446696 0.3036635 -0.13429382 -0.29111084
-0.021737104 0.3581253 -0.22190996 -0.09741206 -0.15423189 0.45347285 0.08170751 0.5731773
-0.020430129 -0.48938876 0.2981332 0.5551006 -0.25604397 0.4556507 0.21915306 -0.43584752
-0.5195686 0.44084686 0.30877423 -0.17837827 0.113460235 -0.55595666 0.37549856 0.53382534
-0.4966465 0.33345354 0.123958476 -0.23501655 0.022323493 0.048266355 -0.5369067 0.4292827
0.22134753 -0.5174407 0.5155552 0.16475661 0.2519312 -0.22869776 -0.40146437 -0.34416214
0.04443489 -0.4828016 -0.29212287 -0.35305095 -0.023251148 0.254641 -0.23224135 -0.48386726

input_layer.bias f4 [64]
00000000: c7a6 063f 78f4 1a3f 6572 a6be e13f 7d3c
00000010: b0dd 6e3e 37a2 043f 7ec7 0f3f 24ef f13e
00000020: 81a3 b8be 0c7a b3bd daea 12bf b123 0f3f
00000030: 9496 9fbe 9741 dfbe 8292 0a3d 3f39 f3be
00000040: 69ac ca3e 25ea d3be c3d8 70be 408a 70be
00000050: 149d dd3e 1f4f dbbd 965e c2be 1335 853e
00000060: 84e1 85bd 21bc 2fbd 5e5b 69be 5712 973e
00000070: c1ca afbd ed7a 3b3e 30b6 9e3e d93d a83e
00000080: 06c2 cdba 040c f63d bcfa 073f 269c 363c
00000090: fb49 b13d b802 9f3e 4cc0 d3bd 0e2d ca3e
000000a0: 7ecb 113f 5485 b9bd 1677 a33e 3298 1b3f
000000b0: 5bec 78bd cfe3 5bbe b964 593e 03e7 1a3f
000000c0: 6fd1 6abd 0ced f1be 869f f3be 71a5 adbe
000000d0: 1c8a 07be 905b 24be 26d3 e93e 7abc c63d
000000e0: 811c d53e bb85 813e 47ff 963e 9f45 ba3e
000000f0: ca56 9b3c 0acd 0f3f ffb7 473e 5a00 033f
0.5259823 0.6052928 -0.3250915 0.015457124 0.23326755 0.5181002 0.56163776 0.47252762
-0.36062244 -0.08763513 -0.57389605 0.55913836 -0.3116957 -0.4360473 0.033831127 -0.47504613
0.39584664 -0.41389576 -0.23520188 -0.23490238 0.43283904 -0.107084505 -0.37962788 0.26017055
-0.06537154 -0.042904023 -0.2278876 0.2950618 -0.08583594 0.18308611 0.30998373 0.32859686
-0.0015698082 0.120140105 0.53116965 0.011145627 0.08656689 0.31056762 -0.10339412 0.394875
0.5695113 -0.090586334 0.31926793 0.60779107 -0.06077228 -0.21473621 0.21229829 0.60508746
-0.057328638 -0.47251165 -0.47582644 -0.33915284 -0.13236278 -0.16050553 0.45668906 0.09703918
0.4162331 0.2529734 0.29491636 0.36381242 0.018962283 0.5617224 0.19503783 0.5117241

hidden_layers.0.weight f4 [64, 64]
00000000: ddf5 edbc 1536 aabd 091e 003e 68a1 9abd
00000010: 0af8 923c 1bba 78bd f633 37bd 8445 98bd
00000020: ac3b 2c3d 03cd 793d e089 ae3c 6726 cdbd
00000030: 7d36 443c 89da 55bd e80c c8bd 503b 6d3c
00000040: c662 8ebd 9d2f ecbd 768f 33bd 515c c5bd
00000050: a573 b23d 90a7 cc3c e465 e0bd 28fb b43d
00000060: a4d2 1b3d 6fe9 ddbd 5b0d cb3c c4d2 8ebd
00000070: 270e 913d 805b 6c3d b478 243d 51ac 5abd
00000080: 7a02 6fbd d934 ae3c f89b 8bbd 9ad9 943d
00000090: ba0b ca3d 45ec 633d 5d9a 9d3b 24b4 f03d
000000a0: 7ca8 64bd 85a2 333b 988c f43c b247 30bc
000000b0: 680b 37bd 4b95 cebb 7027 e2bd 5506 d33d
000000c0: 37ab a0bd 76a9 e7bc 5597 e1bd 81db 293c
000000d0: 894e 04be dca1 363d bf54 01be 6544 943d
000000e0: 2356 3d3d 7650 46bd 460d 943d afc2 f73c
000000f0: 30ed 4abc b3d5 e5ba 30a4 093d ef9a f13d
00000100: 7020 bcbd 706c 2cbc bc7c 4cbd 4c7d 1b3d
00000110: 28ac 9e3c 0c59 17bd 805e 24bb 14bf 31bd
00000120: dc1d e53d c862 b8bc 588a 4b3d 000c 013a
00000130: 806c eb3b 0a46 c53d b0b7 73bc 2ed6 d23d
00000140: f8d8 be3c e092 0f3d e0bc e1bb d4ca 733d
00000150: 005c 583c 16f1 d4bd 886b 02bd 7648 f5bd
00000160: 885f a43d 14d9 803d 321c f23d 4452 9abd
00000170: 50cd f2bc 002d b3bc 9078 80bd 44e1 90bd
00000180: ecb8 eebd 1eac f8bd 24be 693d f041 323c
00000190: 3cd9 dd3d 9c31 703d e0f7 52bc 80d6 1c3d
000001a0: a6d6 e1bd e2f2 9fbd 90b6 51bc 8e62 c5bd
000001b0: b03a e7bc 6454 a1bd 7c63 e6bd 300e 8b3c
000001c0: a8c1 813c fc78 cfbd 20f9 1b3c 0057 f2bc
000001d0: 7c29 24bd f074 e4bd 1cf6 9fbd 6e29 d13d
000001e0: 16a7 fbbd 0026 e03d 2479 d9bd 2e8e c4bd
000001f0: 50c8 5a3d 500c 8e3d 84a9 003d 58e6 3ebd
00000200: ce81 aa3d 99fc e03d 1fe1 c73c e422 913d
00000210: 9878 9b3c 910d e23d fdba 0c3d a6d9 e6bc
00000220: 8894 f43d aedc 383d aa19 5d3d 9992 cb3d
00000230: f531 02bd d9a2 893c 448b 483d d808 b23c
00000240: 67d9 4abc 0f5d 8c3d 11f5 203d 7786 793d
00000250: c19e aa3c 49c2 063e 083b 41bd b85a b3bc
00000260: 45eb 903d dd66 f73d 8275 95bd dac2 0a3e
00000270: 5a23 97bc b75f adbc 38ff 6c3d 7fa8 7f3c
00000280: 8d3d 6d3d d1a3 07bd faf7 83bd 89c9 a7bc
00000290: 12f1 7c3d 0e47 7d3c 5b37 893d e0df be3d
000002a0: 0eda 9f3d 751b 9e3d da97 8f3d 0373 8f3d
000002b0: 111a 97bc bbaf b73d 36c2 bf3d 2da9 44bd
000002c0: 33ed 7f3d a429 a3bb 8c54 433d 9355 99bd
000002d0: 9d62 c13d ad6f 2cbd 7ff2 b83d 58f9 a23d
000002e0: 3ae1 653b 49d8 62bd 3634 a9bd 3c1c ce3d
000002f0: a7c3 ed3d 8bf4 48bd 8521 383d df28 9bbd
00000300: c25e 3fbc 1480 8d3d 62c4 c93d 75ff 7cbd
00000310: 142a 26bd 2075 e4bb 66c2 413d 9a85 e3bc
00000320: fbdf cf3c ea90 e63c 47c2 593d 0dcb 2dbd
00000330: a6f7 9e3d dfc1 f5bd 282b ca3d cba2 a2bc
00000340: f7e0 84bd a0c2 d23d af7e ee3d 735d 913d
00000350: 0931 c93d 2806 c33d dddb b1bd a515 d8bd
00000360: bb92 9c3d 2896 47bd 0a01 8e3d c823 2b3d
00000370: 27eb ec3d 68dd 05bd a32d b13d 2248 f33c
00000380: 6266 3bba 4b9f b63d 56c7 bdbc 9d6e 02be
00000390: 3be4 3d3d cd43 bf3d 855c b43d 381e a53c
000003a0: a67d d3bd 8fc8 0c3d b78a e7bd 85de 26bd
000003b0: b5fb 8f3d c41a 8a3d a6bf 8abb 092a 963c
000003c0: 5233 bbbd bec8 a53c 4f5a 37bc 407c cc3d
000003d0: 4d6c f73c 6997 fd3d b764 923d 7958 cb3d
000003e0: b00a 5d3d 61d1 833d ad1e 7f3c 56ac a23d
000003f0: ece3 dd3d 33d7 f3bd ce56 c43d 2bd5 94bd
-0.0290479 -0.083110966 0.12511458 -0.07550317 0.01794054 -0.06072436 -0.04472729 -0.07435134
0.042049095 0.06098653 0.021305978 -0.1001709 0.011975882 -0.052210364 -0.09768087 0.014479473
-0.06952433 -0.11532519 -0.043837987 -0.096367486 0.08713464 0.024982244 -0.10956934 0.08836967
0.03804268 -0.108355395 0.024786642 -0.06973794 0.070827775 0.05770445 0.040154174 -0.05338699
-0.05835197 0.021265434 -0.06816858 0.07268067 0.09865518 0.055645246 0.0048096613 0.11753109
-0.05582474 0.0027410102 0.029852197 -0.010759281 -0.044688612 -0.006304418 -0.11042678 0.10303942
-0.07845157 -0.028279047 -0.110151924 0.010367275 -0.12920584 0.044587955 -0.12629984 0.07239608
0.046224725 -0.048416577 0.07229094 0.0302442 -0.0123856515 -0.0017535001 0.033603847 0.11797129
-0.091858745 -0.0105239 -0.049923643 0.03796129 0.0193692 -0.036950156 -0.002508074 -0.043395117
0.11187336 -0.02250804 0.04969248 0.00049227476 0.007184565 0.096324995 -0.0148753375 0.10294758
0.023296818 0.03505218 -0.0068889707 0.059519604 0.013205528 -0.10397546 -0.03184083 -0.119767115
0.08026034 0.06291404 0.11821784 -0.07535222 -0.029638916 -0.021872044 -0.062729955 -0.07074216
-0.11656365 -0.12142204 0.057066098 0.010879979 0.1083245 0.05864106 -0.012876481 0.0382905
-0.11027269 -0.07809998 -0.012799874 -0.096379384 -0.028226227 -0.07877424 -0.11249444 0.016974539
0.015839413 -0.10130498 0.009519845 -0.0295825 -0.040078625 -0.111551166 -0.078106135 0.1021298
-0.122877285 0.10944748 -0.10618809 -0.09597431 0.05341369 0.06935942 0.031411663 -0.04660639
0.083255395 0.10985679 0.024399338 0.07086733 0.018978402 0.11037744 0.034358013 -0.028179955
0.119423926 0.04513233 0.053979553 0.09940071 -0.031785924 0.016801285 0.04896094 0.021732733
-0.012380934 0.06853687 0.039296214 0.06091925 0.020827653 0.13160051 -0.047175437 -0.021893844
0.07076124 0.120801665 -0.072978035 0.13550892 -0.018449474 -0.021163804 0.057860583 0.015604137
0.057920028 -0.033115212 -0.06443782 -0.020481842 0.06175334 0.015458835 0.06700011 0.093200445
0.078052625 0.07720081 0.07011385 0.070043586 -0.018445047 0.08969065 0.09363215 -0.0480129
0.06248207 -0.004979329 0.047688052 -0.07487025 0.09442637 -0.04209869 0.090306275 0.07957715
0.0035076872 -0.055382047 -0.082619116 0.10063979 0.11609583 -0.04906134 0.04495384 -0.07576155
-0.011680307 0.069091946 0.0985191 -0.06176706 -0.040567473 -0.00697197 0.047304533 -0.027773667
0.025375357 0.028145272 0.053163793 -0.042429972 0.07762079 -0.119998686 0.09871513 -0.019853016
-0.06488221 0.10291028 0.11645257 0.07097902 0.09823806 0.095226586 -0.08684514 -0.10551003
0.07645174 -0.048727185 0.06933792 0.04178217 0.11568289 -0.032681853 0.08651283 0.029697482
-0.000714874 0.089171015 -0.02316634 -0.12737508 0.046360236 0.09339104 0.08806709 0.020156011
-0.103267 0.034370955 -0.11305755 -0.040739555 0.07030431 0.067433864 -0.004234272 0.01833059
-0.09140648 0.020237323 -0.011190965 0.09984636 0.030203009 0.12382395 0.07148116 0.09928984
0.05396527 0.0643642 0.0155712785 0.07943027 0.10834488 -0.1190628 0.09586869 -0.07267221

hidden_layers.0.bias f4 [64]
00000000: 080f 06bd 8c8a 77bd 4593 0f3e dfea 8fbd
00000010: 4470 343e b500 163c 5a17 e93d 2db4 e73d
00000020: 445e 18bd 614b b0bd 3779 7c3d 5583 033e
00000030: 473d ebbd 7d94 103e 91f6 59bd d94e e33d
00000040: 19da 2d3e 2447 723d 9c9a 9b3d 837f 183e
00000050: 2cc3 773d f0ea c93d 5f77 c53d 8625 2f3e
00000060: 4b36 2c3e 021d d43d ff2d 5abd 7397 823c
00000070: 0379 cfbd bcc0 713d 1ee7 983d 8633 1c3d
00000080: 8ba3 b3bd cb57 fa3c 31c9 533d 497e 073e
00000090: 210f 84bd b030 d5bc 7f2e 3dbd 42ff d2bb
000000a0: fbfe 293e e48b 123d 879b 63bd df60 483d
000000b0: e616 c9bd 1e08 ec3b 7586 113c d32e 9fbd
000000c0: d5c7 e83d 4575 d13d c014 73bd bb6b 013e
000000d0: a0b4 6f3c 8095 89bc 6b68 df3d bf12 ecbd
000000e0: f1c4 98bd cb4a 97bc e3bd 57bd 15c3 b53d
000000f0: 13e5 9bbd 6aa2 ad3d 4ed6 ea3d eb6a ea3c
-0.03272918 -0.060434863 0.14021023 -0.0702722 0.17620951 0.009155442 0.11381407 0.11313663
-0.037199274 -0.086081274 0.061639037 0.12843068 -0.11486297 0.14119144 -0.05321366 0.11099023
0.16977729 0.059149876 0.07597849 0.14892392 0.060488865 0.09859264 0.09641909 0.17104158
0.16817586 0.10357095 -0.05326652 0.015941357 -0.10130503 0.059021696 0.07465957 0.038135074
-0.08771428 0.030559441 0.051705543 0.13231768 -0.06448198 -0.026024193 -0.04618692 -0.0064391205
0.16601174 0.03577794 -0.055568244 0.04892051 -0.09818821 0.007203116 0.008882155 -0.07772603
0.1136624 0.102274455 -0.05934596 0.12638752 0.014630467 -0.01679492 0.10908588 -0.11527013
-0.074594386 -0.018468281 -0.052671324 0.088750996 -0.07612052 0.08478244 0.114666566 0.028615436

hidden_layers.1.weight f4 [64, 64]
00000000: dc14 5fbd 74aa 1dbd c2dd 8e3d 62db 80bd
00000010: b44b c63d c1d3 1f3e 6f18 7bbd 43b9 22bd
00000020: 2e33 debd c691 a13c 15b2 003e 2bd8 0b3e
00000030: 07e2 52bd abdb 8f3c c14f fe3d 2c02 8e3d
00000040: af9a c33d 12d3 7bbd a419 1a3c f17b ea3d
00000050: c85a 523d a0a3 fb3d a6db 19bd 4ebf f03d
00000060: 09ea 71bc d899 5bbd 29ab cebc aca2 44bd
00000070: 62ce debb 873b 72bb 86df 893c 2ecb 883d
00000080: 22cc e73d ffa0 92bd 1931 c8bc 3563 cbbc
00000090: 57b2 e23c 4024 843b d6be e23d 3a81 edbc
000000a0: aeb3 2e3c 38bd 013e de05 b7bc 5b67 e43c
000000b0: f29f 6a3d 0507 813c 3f12 bdbc ba23 643d
000000c0: e72b 793d fcc2 ac3d 7d15 cd3d 9408 cc3c
000000d0: 8656 cb3d 9b6b 1cbd f12c a6bc 8fa5 a7bd
000000e0: 19a1 7d3d 63ad 213e 68eb 023d 1904 d23d
000000f0: b03b 3cbc 6f32 813d 955b 393e d14f 33bb
00000100: dd5b edbd 74d4 d93d 2bf3 2fbd 4244 68bc
00000110: 042f 5b3d fd4a 6cbd e792 2fbd cdec 9e3b
00000120: e4dc c7bd e026 c33d eda7 52bd ff5d 60bc
00000130: b3db cebd be55 1b3c 2004 083e 7666 5d3d
00000140: a442 8f3c 8875 943d 8fc4 aebd f7d1 e03d
00000150: a4e6 57bd 1b3f 323c cfc7 a83d 36ca 623d
00000160: bbe3 c83d 1cf2 363d 1e32 b4bd e632 91bc
00000170: f325 c7bc 3653 303e 3e0f 543d 8e0d 073d
00000180: c207 dcbd 799d 83bd c8e6 373d 1a5e e4bc
00000190: 03e1 883d 9858 b7bd 0055 c3bd 83bf 49bd
000001a0: fea7 953d 2b1f d03d ee4e ddbd 1d12 41bd
000001b0: 1ee4 cbbd 9c34 b13c 6392 2ebd 164e ddbd
000001c0: d0e1 1b3e 2501 7b3d d4b8 a23d 11d8 0c3e
000001d0: 98d5 75bd 05bb fc3d 5190 39bd 2803 e03d
000001e0: 7893 2f3d 6a6c 133c fed6 953d e2d5 e03d
000001f0: d6b6 233d d9bd 8c3d 3df7 fe3d 77a6 403d
00000200: 1534 db3d fe20 c13d 79a4 50bd b180 0abd
00000210: 4ead 01bd 8d05 913d 040c 283d a4aa f93d
00000220: e4b7 d43d 75b8 283d 935d 38bd 28a1 fb3d
00000230: 30df 4b3d fb7e 2c3e 9ea9 673d cc0f 153e
00000240: 0664 a93d e910 d43d 046e f7bc 9c5f f5bc
00000250: 90d1 433d 692e 19bd 56ac be3d 3f6f 0f3e
00000260: 738e d93d 60d8 f6bb da99 003e fee8 94bc
00000270: b6fd 583d d864 95bd ca9d 643d 317c 113e
00000280: 61e1 4c3d f08a 8cbc 5907 633c ba7f 2a3e
00000290: aa95 b73d 727c f4bd 3ebf 92bd 3efe 9dbd
000002a0: da23 76bd 701d 66bd fa6a ccbd 89f0 ca3d
000002b0: 5446 a73d bf0a bdbd 65cb babd d2c1 c3bd
000002c0: 83e8 a93c f9ee 1a3e aa07 2b3d 04a4 623c
000002d0: 8013 263b 86b8 0b3e 8902 803d 8b9e e5bd
000002e0: f0c0 1a3e 5707 213e bb20 90bb c56c 183e
000002f0: 88f4 ed3c ddbb 57bd 7ffb 5f3d ef64 143d
00000300: c943 003d 28a3 213d 3f3e e73d 2107 013d
00000310: 738c 9abd 473f 4c3d 6ab4 96bd 79f6 bc3c
00000320: 7ed6 9dbd 4933 453d 3a64 20bd 8043 26bd
00000330: cb32 d43d 5ace b0bd 0b32 733c 0ed9 9dba
00000340: ddb9 e63d 1ee6 013d e04c 103e 6438 173e
00000350: 8aaf 96bd 36e7 093e 60a9 a53c 07aa 52bc
00000360: b424 8dbd 8e03 98bd 3d72 51bd b763 8fbd
00000370: 42da d43d b60b 87bd b92a 8fbd 7ad6 9cbd
00000380: 5641 7cbd 94c1 50bd 0022 54bd fbec f63c
00000390: a56d 093c 3653 f0bd af4e b53c 61ee 103e
000003a0: a940 e43c 6552 81bd b885 a83d 96ca be3d
000003b0: 2936 3d3d a478 df3a 78f7 f53d 3347 21bd
000003c0: f099 60bd 52da c43d 5f07 eebc cad0 0c3e
000003d0: 72bd c93d b77e 9d3b 419c 713b 4479 57bd
000003e0: e4cf b03c 6dcf a7bd 70a4 f0bd 85b1 cc3d
000003f0: fffe b4bd 51e8 4abc 6753 69bb c3e9 153e
-0.054463252 -0.038492635 0.06975891 -0.06291844 0.09682408 0.15608121 -0.0613026 -0.03972746
-0.108496055 0.01972283 0.12567933 0.1365668 -0.051485088 0.0175608 0.124175556 0.06934008
0.09550988 -0.06148059 0.009405527 0.11449421 0.051356107 0.12287068 -0.03756299 0.117552385
-0.014765271 -0.053613514 -0.0252281 -0.0480067 -0.006799505 -0.003696175 0.016830217 0.066793784
0.11318232 -0.07159614 -0.024437474 -0.024827579 0.02767293 0.0040326416 0.11071555 -0.028992284
0.010662956 0.12669837 -0.022341665 0.027881315 0.057281442 0.015750417 -0.02307999 0.055698134
0.060832884 0.08435628 0.10013864 0.024906434 0.099286124 -0.038188558 -0.020285102 -0.08185875
0.061921213 0.15788798 0.031962782 0.10254688 -0.01148884 0.063084476 0.18101342 -0.0027360807
-0.11589787 0.10636225 -0.042956512 -0.01417643 0.053511634 -0.057688702 -0.042864706 0.004850006
-0.097589284 0.09528899 -0.051429678 -0.013694285 -0.10100498 0.009480892 0.13282824 0.054052792
0.017487831 0.0724898 -0.08533584 0.109775476 -0.05271019 0.010879303 0.082412355 0.055368625
0.09809061 0.044664487 -0.087986216 -0.017724466 -0.024310088 0.17219242 0.05177235 0.03297191
-0.10743667 -0.0642652 0.044897825 -0.027876902 0.066835426 -0.08952445 -0.09537697 -0.049254905
0.073074326 0.10162195 -0.1080607 -0.047136415 -0.09955619 0.021631531 -0.042620074 -0.10805909
0.1522286 0.06128039 0.079454094 0.13754298 -0.060018152 0.12340359 -0.045303646 0.10938102
0.042865247 0.008998016 0.07316397 0.10978295 0.039969288 0.06872148 0.12449501 0.047033753
0.10703293 0.09430121 -0.050938103 -0.033814136 -0.031659417 0.07081137 0.041027084 0.1219075
0.10386637 0.041191537 -0.045011114 0.122865975 0.049773395 0.16845314 0.056558244 0.14556807
0.08271031 0.10354788 -0.030203827 -0.029952817 0.047807276 -0.037397776 0.09310214 0.14007281
0.10622873 -0.007533118 0.1255869 -0.018177506 0.052976333 -0.07294625 0.055814542 0.14207532
0.050019626 -0.017156094 0.013856732 0.16650286 0.08964093 -0.119377986 -0.07165383 -0.077145085
-0.060092784 -0.056180418 -0.09981342 0.0990916 0.08167711 -0.09230565 -0.09120826 -0.09558453
0.020740753 0.15130223 0.041755356 0.01383305 0.0025341213 0.13644609 0.062504835 -0.1121188
0.15112662 0.15725456 -0.004398433 0.14885242 0.029047266 -0.052669395 0.054683205 0.03622907
0.031314645 0.03946224 0.112911694 0.03150094 -0.0754632 0.049865033 -0.0735863 0.023066746
-0.07706927 0.048144612 -0.039158083 -0.040591717 0.103612505 -0.086331084 0.014843474 -0.0012042837
0.11265919 0.031713597 0.14091825 0.14767605 -0.073577 0.13467106 0.020222366 -0.0128579205
-0.06891766 -0.07422553 -0.051134337 -0.07001441 0.10393192 -0.065940306 -0.069905706 -0.07658096
-0.061585747 -0.05096586 -0.051790237 0.030142298 0.008387958 -0.11734621 0.022132246 0.14153434
0.027862864 -0.06314544 0.0822863 0.09315984 0.04619423 0.0017049504 0.120100915 -0.03937454
-0.054834306 0.09611954 -0.02905625 0.13751522 0.09850587 0.0048063654 0.0036866816 -0.052605882
0.021583505 -0.0819386 -0.11750114 0.09994797 -0.08837699 -0.01238449 -0.003560269 0.14639954

hidden_layers.1.bias f4 [64]
00000000: cad6 4d3d e67a 2a3e 016c b63d 77af ba3d
00000010: 8083 f83d 9a6d a53c 4b05 b03c a9fe ad3d
00000020: b495 563c 5ca0 763c 17f6 f1bc f8ec 563d
00000030: af55 853d fb4d bb3d 2ff0 1f3e 26f9 1f3e
00000040: 3815 f43c 7c61 88bd 792f a8bd de49 2e3e
00000050: cff2 193e 1026 76bd 60c3 3bbd 1263 96bd
00000060: d0cc 58bd d0e2 9abc 50cb 5a3b 26e5 44bd
00000070: eb95 253d 3058 d9bd c237 5ebc 0418 00bd
00000080: e0ab 253d 5efe fe3d ba41 553d 28fe 233e
00000090: 3a74 51bc 2dd0 953c 7f8d 323d f79f d73d
000000a0: a8a9 c0bd c381 83bd c059 e33d 998f 4fbb
000000b0: a49c d83d a55c 733d 27cf d83d 5ae1 8abb
000000c0: 84b8 0c3d 2a0d 01be bcdc 7ebd ac4d 6fbd
000000d0: a0d9 13bd ed4c 74bd 581f a53d a08c 06bd
000000e0: 6b7d 293e f52c 31bd 6eea bb3d 60ed 2b3e
000000f0: d534 44bd 280d a8bd 7c5a bd3d 1288 6b3b
0.050253667 0.16648445 0.08907319 0.091154985 0.12134457 0.020193864 0.021486899 0.08495838
0.013097215 0.015052881 -0.02953629 0.052472085 0.065104835 0.09145733 0.15618967 0.15622386
0.029795274 -0.06659219 -0.0821218 0.17020366 0.1503403 -0.060094893 -0.04584062 -0.07343115
-0.0529297 -0.01890698 0.0033385344 -0.048070095 0.040426176 -0.106125236 -0.013563098 -0.031272903
0.040447116 0.124508604 0.052064635 0.16014922 -0.012784058 0.018287743 0.043591972 0.10528558
-0.09407359 -0.064212345 0.11101103 -0.0031671284 0.10576752 0.059414525 0.10586386 -0.00423829
0.034355655 -0.12602678 -0.062222227 -0.058423683 -0.036096215 -0.059643675 0.08062619 -0.032848954
0.1655175 -0.043255765 0.09175573 0.1678977 -0.047901947 -0.08205634 0.09245774 0.0035939259

hidden_layers.2.weight f4 [64, 64]
00000000: 5238 9ebd ddc9 17be 7382 953b d20e 10bd
00000010: 301c 05bd 1014 8dbd 761d 783b 6e72 553d
00000020: 7057 513d 0eb3 f2bd 796e 85bd f71a 2d3d
00000030: eb50 363c 331c 04be aee0 af3d 01b6 8a3b
00000040: ef00 3c3d 3688 9f3c 4015 193c bb0b 6ebd
00000050: 406e 2d3d 78d0 f0bc 3b4b 2e3d b524 bfbd
00000060: 80ab e3bd 0260 d53d b523 6a3d ce30 623d
00000070: acf8 953d e0d5 583d 6814 153d bc91 61bd
00000080: 22da b63d 5620 32bc bcd5 afbd 79b7 313c
00000090: a4fc acbd 0c6a 523c c1fd 83bd dba1 ad3c
000000a0: 290a a93d 4f05 ab3d 483b d23d 00a3 54bd
000000b0: 7e2c dc3d f0aa eebd 5eca e2bd ef1d c43d
000000c0: b5f7 923c 5827 853d ac90 57bd a8c6 493d
000000d0: a0ae 50bd 947c bdbd 9f75 60bd 0da7 53bd
000000e0: e568 643c 7a6a 873d 932a b53d 968b a23a
000000f0: 6f13 b43b 8d2a f33c 7961 943c 4436 25bc
00000100: 608e e13d 48ad aebc eac2 c3bd a829 91bd
00000110: 28d3 d03d de5f 8c3d e0cd c0bd 2836 80bc
00000120: 0e61 c6bd 848c 8dbd f415 933d 84b5 1bbd
00000130: faeb f5bd bc4c 443d e09c a3bb 88a9 96bd
00000140: 9e31 fcbd 0000 9ab5 3a4c d13d 64e1 08bd
00000150: 1c4e 39bd 3c80 14bd 00d1 433c 0096 393a
00000160: 2cfe 9abd feca c7bd 90f1 413c e0f4 0abc
00000170: 48bd 91bd c497 57bd 6835 b73d 4ca8 b73d
00000180: bc78 e2bd b6b1 eabd ba87 8b3d 48de d23d
00000190: 687c a63c e0ae bdbd 74d8 933d c02e 173c
000001a0: 4064 fc3d 6c06 d33d 5e89 a33d fcb7 1bbd
000001b0: 98be 213d 5ca1 be3d 105e 273d 50d3 bc3d
000001c0: a6ae b4bd c0f2 aebc c4ba 3e3d 984a 7f3d
000001d0: 68a8 d13c 183e da3c d066 be3d ce4e e33d
000001e0: 5c21 33bd f80b 34bd a0e7 b73b 207d 8e3c
000001f0: 2406 57bd 00b9 79bc 123a ae3d 1222 9cbd
00000200: b8de 68bc 8e48 c33d 09ac 843d 4afc bc3d
00000210: 120a f33d 1fa2 dbbc 83ef 6e3c d8bd e7bd
00000220: a6cd ed3c 2307 4c3d a967 e23d 7530 fe3c
00000230: b0e9 11bd ef9c b2bd 7183 c23d cf58 123d
00000240: 30a0 043e 3e8b cf3d 3a8a 0a3a 9356 e7bc
00000250: 1bcb ec3d 342f b6bd 8e60 d13d 5eec 273c
00000260: 9361 543d b8e3 17bd e659 91bd 21d3 b8bd
00000270: c773 5cbd 1855 36bd 8cc8 debd a0a6 aabc
00000280: ac4f bf3d 318d 073e a347 9ebd 5aa7 913c
00000290: e527 573d d611 6d3d 5f21 163d 87d4 583d
000002a0: 5374 11bc 648c eb3d 616c 85bb a0f0 9e3d
000002b0: 641d fe3d 13cd 8739 7396 263d 01e3 0d3e
000002c0: 4434 9e3d 9fb8 60bd 2291 c03d d4ed 033d
000002d0: 46db 91bd f713 aebd 0fa5 92bc a1ee b2bd
000002e0: edcf 47bc 68f9 213d a80f b23d 5f4b ec3d
000002f0: 8755 7a3d d2de 95bd e588 423d 7c3f 9a3d
00000300: c4de 523d 7ef3 2e3d c49a ebbd fb36 babc
00000310: 2162 d2bd ff59 893d 8d0b 943d 3311 c6bd
00000320: 3e39 9dbd 58bf 4abd f313 a9bd 8f73 d63d
00000330: b1a7 a8bd 1912 bfbd 8e7c 08be c58a 9b3d
00000340: 77d3 6e3d a310 6d3c 19e6 d7bd 60e5 483d
00000350: 6cfa 0b3d aedd 89bd bf10 abbd eb69 993d
00000360: 15a4 f7bd 980d 393d 7177 933d 925b 8aba
00000370: 8161 b13d b412 e73d e33b ed3d 404a 21bb
00000380: 7021 e03c 43a5 0e3d 9fe9 2b3d a2ca f5bd
00000390: c078 9abc 9882 543d 7665 ac3c 7f33 b83b
000003a0: 9a5b 083d 666b c83c ee93 a03d 5be2 f2bd
000003b0: 0c8f 3ebd 478f 2d3c 842f c33d 1751 03bd
000003c0: fa06 a93d 3447 48bd eee8 f2bd 7461 6abd
000003d0: c894 91bc afb4 a1bd 4e7a dc3d 83b8 8d3d
000003e0: 3c95 a93d 341b 73bd 6b10 223d 6266 14bc
000003f0: f689 773c 4f93 f8bd 3987 09be 87a4 4ebc
-0.07725586 -0.14823098 0.00456267 -0.035170384 -0.032497585 -0.06888592 0.0037859357 0.05211108
0.051108778 -0.11850558 -0.065152116 0.042262044 0.011127691 -0.12901382 0.08587776 0.0042331223
0.045899328 0.01947413 0.009343445 -0.058116656 0.04234147 -0.02939628 0.042552214 -0.09333173
-0.111166954 0.10418703 0.05716296 0.055222325 0.07322821 0.052938342 0.036396414 -0.055070624
0.08928324 -0.010871967 -0.085856885 0.010846966 -0.08446625 0.012842666 -0.06444884 0.021195343
0.08253891 0.08350622 0.10265213 -0.05191326 0.10750674 -0.116536975 -0.11073755 0.09576022
0.017940382 0.06501645 -0.052628204 0.04926172 -0.050947785 -0.09252277 -0.054799672 -0.051672984
0.013941024 0.06612106 0.08846011 0.0012401219 0.0054954807 0.029683376 0.018112885 -0.010083739
0.11013484 -0.021322861 -0.09558661 -0.070880234 0.10196525 0.06854223 -0.094142675 -0.015650824
-0.096864805 -0.06911567 0.071819216 -0.038014904 -0.120078996 0.047924742 -0.004993066 -0.07356554
-0.12314151 -1.1473894e-06 0.10219617 -0.033418074 -0.045240507 -0.036255106 0.011951685 0.00070795417
-0.07568011 -0.097555146 0.011837378 -0.008481234 -0.07116181 -0.05263497 0.08945733 0.08967647
-0.110581845 -0.11459677 0.06812997 0.10296303 0.020322993 -0.092618704 0.072190195 0.009227455
0.12323809 0.10303959 0.07985185 -0.038017258 0.039488405 0.093081206 0.04086119 0.09219992
-0.08822374 -0.021355987 0.046564832 0.062326998 0.025592998 0.026640937 0.09296954 0.11099015
-0.043732986 -0.043956727 0.0056123286 0.017393649 -0.05249609 -0.015241861 0.0850717 -0.07623686
-0.014213257 0.09535323 0.064781256 0.09227808 0.11867155 -0.026810704 0.014583471 -0.11315507
0.029028725 0.049811494 0.11054928 0.031028965 -0.035623252 -0.08721339 0.09497727 0.035729226
0.12951732 0.1013398 0.00052848796 -0.028239524 0.11562177 -0.08895722 0.102234945 0.010249225
0.051850867 -0.037082404 -0.07097225 -0.09024645 -0.05382135 -0.044514745 -0.10878095 -0.020831406
0.09341368 0.13237454 -0.07728507 0.017779995 0.05252828 0.057878338 0.03665292 0.052937057
-0.0088778315 0.11501387 -0.0040717577 0.07760739 0.124079496 0.00025902 0.040670823 0.13856126
0.077248126 -0.05486357 0.09402682 0.032209232 -0.07121901 -0.08499902 -0.017900972 -0.08736921
-0.012195569 0.039544493 0.086943924 0.115378134 0.06111672 -0.0731789 0.047493834 0.0753164
0.051481977 0.04271268 -0.115041286 -0.022731295 -0.10272623 0.067066185 0.07228766 -0.09671249
-0.07676934 -0.049498886 -0.08255758 0.1047126 -0.082351096 -0.09329624 -0.13328764 0.075948276
0.058307137 0.0144692985 -0.105419345 0.049046874 0.034174368 -0.06731735 -0.083528034 0.074909054
-0.12091843 0.04517898 0.07200516 -0.0010555855 0.086611755 0.11282864 0.11583688 -0.0024610907
0.027359694 0.034825575 0.041970845 -0.1200154 -0.018856406 0.051882356 0.021044474 0.005621373
0.033290483 0.024465274 0.07840715 -0.1185958 -0.04652314 0.010593242 0.09530547 -0.032059755
0.08253284 -0.04889603 -0.11860834 -0.057221845 -0.01777114 -0.07895791 0.10765515 0.069199584
0.08280417 -0.059352115 0.03956644 -0.009057613 0.015108576 -0.12137472 -0.1343049 -0.012612469

hidden_layers.2.bias f4 [64]
00000000: db64 0c3d 2435 a9bd ad04 973b e8ce 003d
00000010: 17a2 ffbd 1d34 c63d 9de7 233e 15f0 c7bc
00000020: 1d15 e83d 9974 833c 13fc 203e b8ec 8bbd
00000030: 9278 133e a5bc 06bc d564 2ebd 0f6e c93d
00000040: 70bf bdbd 4417 4bbd 4194 993c 7469 9c3d
00000050: 6daf 213e ca4b 5439 4a50 5d3d ec07 0f3e
00000060: f75b efbc 240d dbbd bec6 d73c 718a 48bd
00000070: 1220 0a3c 4490 a7bd 6734 21bd 0ef5 e0bc
00000080: 0387 f63d fc12 89bd 608e b93b 2cfd e53d
00000090: ae32 a83c 404f 33bc 6ffe 4bbd 78ae 373d
000000a0: 6bea b23d d0d6 b8bc 7f00 9b3d c355 203e
000000b0: fc11 9cbb 386d 16bd 5de0 f33d 57c4 78bb
000000c0: 3cb7 c1bc 48ff ee3d 2bbd 043e 14f3 45bd
000000d0: dfd1 8c3d e0ab f9bc 9128 85bb 94e4 d43d
000000e0: 3427 32bd 3fb1 fbbd e0b3 1a3e 2018 f13d
000000f0: e5cf 8e3d d69a 09bd 2c0f e83d b2e5 aabd
0.03427587 -0.08262089 0.0046087117 0.03144732 -0.12482088 0.096779086 0.16006322 -0.024406472
0.11332152 0.016046809 0.15721159 -0.0683226 0.14401463 -0.008223687 -0.04257663 0.09835445
-0.092650294 -0.049582735 0.01874745 0.07637301 0.15789576 0.00020246129 0.054031648 0.13967866
-0.029218657 -0.10695866 0.026339885 -0.048960153 0.008430498 -0.08181813 -0.039356615 -0.027460601
0.1203747 -0.06693074 0.0056627244 0.11229929 0.020531978 -0.010944188 -0.049803194 0.04484412
0.08736118 -0.022563368 0.07568454 0.15657715 -0.004762886 -0.036725253 0.11908028 -0.0037958825
-0.023646943 0.11669785 0.12962787 -0.04832752 0.06875967 -0.030477464 -0.004063674 0.1039516
-0.04349442 -0.122896664 0.1510768 0.117721796 0.069732465 -0.03359493 0.11331019 -0.08344592

hidden_layers.3.weight f4 [64, 64]
00000000: 3a0b a3bd d223 c5bd 1daa 043d 713c 383c
00000010: c507 af3d 22e6 f7bd 60c4 4bbc 2968 f6bd
00000020: 2ae6 493d a54c f0bd ec91 22bd 92a0 ee3d
00000030: 60bb b33c 1ec4 de3d d2d3 833d 069d e03d
00000040: 393d 5c3d 38bd e2bd 6404 253d ab7f 32bd
00000050: 600e 37bd a0bc 15bc c021 0e3b fcea 523d
00000060: 80f5 663d 10d4 693c 3388 53bd f212 c73c
00000070: 5841 a9bd 7264 bbbd 32ca e33d 5368 ffbd
00000080: e37a 12bc 145e a73d 4c56 8b3d e22c a83d
00000090: 31fd 713d b894 44bd 57f2 933d 5aed e2bd
000000a0: f53a 91bd e0d6 ca3d fc0d 0b3d f4f0 9c3d
000000b0: ca57 d13d a6c5 b0bd 8b5e a1bd 0914 fa3d
000000c0: 4c69 71bd 1387 003d 1690 82bc 698e 98bd
000000d0: d8b8 2a3d b02c 6b3d 0b9d 913d 64ca 0b3d
000000e0: 9e05 dcbd d828 8c3d 0b35 f9bd 49c4 913d
000000f0: 9022 153d 1c14 0ebd b732 e9bd 10ab 2c3c
00000100: c4e1 79bc 2c44 153d 1778 0f3e 6fb5 c2bc
00000110: 03d9 983d e9b0 e73d 4c9d f53d 7e2f ce3d
00000120: dda2 4c3d e6f2 27bd cf12 4e3d f051 4cbc
00000130: 7207 b1bc 7249 b13d 4c58 55bd cd3c f33d
00000140: d9f9 1e3d a4a4 ee3d 62a8 0c3e 8a0b 1e3d
00000150: c6ca b5bb 2f74 9a3d 58d4 f9bc 8c00 dd3d
00000160: 8276 b23d 3c5e 6e3d 4b3b 66bd 9299 453d
00000170: 7b6f 40bd 0818 1c3e 0539 aebd 3f6e bb3d
00000180: ce54 113d 4602 583d 0e6b d9bd 5aee c4bc
00000190: 3155 aabd 10ea e7bd 31dc ba3d 2cd3 a3bd
000001a0: d36f 403d 9c51 743d 347d ba3d 873b a8bd
000001b0: 4c6d 30bd a68c f5bc 2093 b83d 6802 d03d
000001c0: f425 ef3d 5d77 afbd 4f29 153e 114d 28bd
000001d0: dfcc d6bc acbf 89bd c19f 2a3c d5c9 c2bd
000001e0: 180f 253d e295 acbd 1554 6fbd 3944 c8bd
000001f0: 0068 66bd 20ad 623d 18c5 053d 08da abbd
00000200: c48d b4bd 40ff 9d3b 54ce 603d b65e 9c3d
00000210: 8a69 e9bd 3381 203e 75e3 f53c e744 943d
00000220: b9eb 003d c32a 043e 2ad1 5a3d ceb5 84bd
00000230: bac4 6abd 6eb8 2c3e 4973 423d a9cb 77bc
00000240: b40f e13d 583c 9f3c 64cc 913d 790d 0b3e
00000250: 8bb1 8bbd 7b7d cf3d f00e 47bd 38f5 ea3d
00000260: 9208 9fbd e042 6bbd 0b44 81bd 399c 423d
00000270: 935b 97bd b8d4 a1bc a43e 463d 9bdc a53d
00000280: 1cca 113e 574b f1bc 3082 523c 2937 703d
00000290: d51e 003e a882 7abd d501 1f3d d632 053b
000002a0: ec5d 9f3c 54ee fabd f31f 4f3d 1f2c 0c3e
000002b0: 3c69 223e cf96 ae3d ec04 043e 9b83 0b3e
000002c0: fee3 0e3e 876b b1bd 572e 5ebd 42fa 5f3d
000002d0: 8706 ff3d 8812 be3c 9f1a 553d 0b2d 48bd
000002e0: 74f8 e1bd 3ca6 d6bd 8560 af3d 4014 8dbc
000002f0: 62e3 71bd b1cc 87bd 434e 25bd be73 bbbd
00000300: 4b65 d3bd ac36 3a3d 5fa2 a43d 65e5 b2bd
00000310: e1a7 a03b 9c8a 70b8 7115 f73d 872f 083e
00000320: 4ef8 bdbd 0c00 003e 10a7 803d 900d 9f3c
00000330: bf6d f6bc d728 9f3d 048a 333c dc44 203e
00000340: 29af 36bd 284f 963d 3b84 543d 7886 fe3c
00000350: 06e3 a13d c52d 9fbc 07d2 b8bd c7f7 d0bb
00000360: d86f 8cbd d8fa 92bd 5094 aabd 2cf6 353b
00000370: 3f41 abbb a769 253e 9d8e f63d cbc0 17bd
00000380: 067b 8e3d 6e8a cabc 88b5 e7bc bd63 48bc
00000390: e8d8 573d 0efc cfbd a0fe 903d 1a79 92bc
000003a0: 0aa6 e8bc 680d 9a3d 5c06 a93c 96f5 373d
000003b0: e8e4 1b3d 0dbb e33d 9d12 813c 5f2a 9e3d
000003c0: e49d 3c3e 9478 e4bd a9dd 443d 17e9 c63d
000003d0: 03ec 5c3d 98fe 2abd 357d 81bd e07e 0e3e
000003e0: 5c74 4e3d 8c0a d03d 8feb f53d 6164 f93d
000003f0: e3eb 40bd d009 17bd 7ed3 7a3d 925b dd3d
-0.07961126 -0.09625973 0.032388795 0.011244879 0.08546404 -0.12104441 -0.012436956 -0.12031586
0.049291767 -0.11733369 -0.039689943 0.1165172 0.021939933 0.1087725 0.06436886 0.1096745
0.053769324 -0.11071247 0.04028739 -0.043578785 -0.044691443 -0.00913921 0.0021687597 0.05149363
0.05638647 0.014271751 -0.05164356 0.024301026 -0.082644165 -0.09150018 0.1112255 -0.1247107
-0.008940431 0.08172241 0.06803569 0.08211686 0.059079353 -0.04799339 0.07223957 -0.110804275
-0.07091323 0.099042654 0.033948883 0.07663146 0.102218226 -0.086314484 -0.07879361 0.12210853
-0.05893831 0.031378817 -0.015937846 -0.074490376 0.041680187 0.057415664 0.07110032 0.03412856
-0.10743259 0.06843728 -0.1216832 0.071175165 0.036409914 -0.034687147 -0.11386626 0.010538831
-0.015251581 0.036441967 0.14010654 -0.023768155 0.07463267 0.1131304 0.119928926 0.10067652
0.049960006 -0.04100313 0.050310906 -0.012470707 -0.021609996 0.08656587 -0.05208616 0.11876831
0.038812492 0.116524965 0.13736108 0.038585223 -0.005547854 0.075416915 -0.030496761 0.1079112
0.0871401 0.058195338 -0.05620889 0.04824216 -0.046981316 0.15243542 -0.08506969 0.09151887
0.035481267 0.052736543 -0.10616122 -0.024039436 -0.0831703 -0.11323941 0.091240294 -0.07999262
0.046981644 0.05964814 0.09105912 -0.08214479 -0.043072984 -0.029974293 0.09012437 0.10156709
0.11677161 -0.085676886 0.14566539 -0.04108912 -0.026220737 -0.06726012 0.010414065 -0.09511153
0.040297598 -0.084270254 -0.058429796 -0.097786374 -0.056251526 0.055340886 0.032658666 -0.083911955
-0.08816102 0.004821688 0.05488427 0.07635252 -0.11397083 0.15674286 0.030015687 0.072397046
0.031474803 0.12906937 0.05342213 -0.06479989 -0.05731652 0.1686723 0.047473226 -0.01512424
0.10989323 0.019437954 0.071190625 0.13579358 -0.06820973 0.101313554 -0.04859823 0.11472553
-0.077653065 -0.057436824 -0.06311806 0.047512267 -0.07390513 -0.019754753 0.048399583 0.08098718
0.14237255 -0.02945487 0.012848422 0.058646355 0.12511761 -0.06115976 0.038820107 0.002032449
0.019453965 -0.12252489 0.05056758 0.13688706 0.15860456 0.08524858 0.12892503 0.13624422
0.1395416 -0.08663087 -0.054243412 0.054682024 0.12452417 0.023202196 0.05202734 -0.04887108
-0.11033717 -0.104809254 0.085633315 -0.01722157 -0.05905474 -0.06630839 -0.04035784 -0.091529354
-0.103220545 0.045462295 0.08038782 -0.0873516 0.004902825 -5.734955e-05 0.120646365 0.1329938
-0.09275876 0.12500018 0.06281865 0.019415647 -0.030081628 0.077714615 0.010958198 0.15651268
-0.04460064 0.073393166 0.051883917 0.03106998 0.079046294 -0.019431004 -0.090244345 -0.0063771936
-0.0685727 -0.07176751 -0.083290696 0.0027765138 -0.005226284 0.16153584 0.1203892 -0.037049096
0.069570586 -0.024724212 -0.028284803 -0.012230811 0.052697092 -0.101554975 0.07079816 -0.017880011
-0.028399486 0.07522088 0.020632915 0.044911943 0.0380601 0.111196615 0.015755946 0.077229254
0.18419605 -0.11155811 0.048062954 0.09712427 0.053936016 -0.041746706 -0.063227095 0.13915586
0.050403938 0.10158262 0.1200782 0.12177349 -0.04709996 -0.036874592 0.06123685 0.10808481

hidden_layers.3.bias f4 [64]
00000000: 169a 3cbd 40d0 87bd 627c 0ebd 1683 de3d
00000010: 8b1f 413d baf7 ab3d eab0 e9bc 3c6c 5a3d
00000020: c6c1 c73c 6858 1b3e 24b8 c9bd 7cb1 d3bd
00000030: a3c0 413d 9f58 2c3d d6a1 e3bd 004b e0bd
00000040: 61cf 99bb 0fbd e83d a06b c9bd ad54 0b3e
00000050: ef33 8dbd 42de 83ba 025d e83d 342d 213e
00000060: 6b39 8eba a4bd 5d3c f395 cfb8 c200 143d
00000070: 1936 243d 68aa dbbd ac8c 143e a40d a1bc
00000080: b6cd 95bd ca6f a33d a6ce fcbd 6f09 2a3d
00000090: 082d 833d a99d 7b3d 8745 d4bd 80c4 08bd
000000a0: f08e 22bd 80d1 673c b0e2 c8bc 3d05 da3d
000000b0: 26f5 72bd d0e4 993d 26a6 ac3d 8887 9abc
000000c0: e853 ab3d 65eb 68bd fc0a 1c3e 92cb bebd
000000d0: 0ab1 943d 5857 7cbd 43f6 d53b 508a 66bd
000000e0: 98f8 c93d b43a 57bd 5c45 bcbd b6d7 80bd
000000f0: 1b4d cfbd 3c50 4cbd 98c0 24bd 6261 773d
-0.046045385 -0.066315174 -0.03478659 0.108648464 0.047149222 0.083968595 -0.028526742 0.053325877
0.02438439 0.15170443 -0.09849575 -0.10336587 0.047302853 0.042076703 -0.11114852 -0.10951805
-0.004693911 0.11364185 -0.09834981 0.1360652 -0.06894671 -0.0010060745 0.11345865 0.157399
-0.0010850852 0.013533983 -9.8984594e-05 0.036133535 0.040090654 -0.10725862 0.14506787 -0.019659825
-0.07314627 0.079803064 -0.123441026 0.041512903 0.064050734 0.061429653 -0.10364824 -0.033390522
-0.039687097 0.01414907 -0.024522156 0.106455304 -0.059315823 0.07514346 0.08430128 -0.018863454
0.08365613 -0.056865115 0.15238565 -0.09316172 0.0726033 -0.061606735 0.006529601 -0.05628425
0.098618686 -0.052546218 -0.09192917 -0.062911436 -0.101221286 -0.049881205 -0.040222734 0.060395606

output_layer.weight f4 [2, 64]
00000000: 56c3 f5bd da6a c63d e81a 293d dc16 c13d
00000010: 815f dabd 3c7b 4ebd 643d 343e d7ef 0ebd
00000020: 0c2a 343d 24f0 dd3d ce14 a9bd 0623 de3d
00000030: 99f8 edbd 190c 773d f8e2 e3bc 2a63 3bbc
00000040: 2bf7 3cbd 8ce8 093e 9ef9 a63d 6673 273d
00000050: 23a3 063e 576d 96bd 2202 0f3d 1d52 aa3d
00000060: c235 d93d ddee 193e 8848 e5bd 0b03 7f3d
00000070: 1473 2a3e 25bd eabd 20bb f53d f8d2 233e
00000080: c47d fe3d 2194 bb3d 38f1 49bd 0194 cbbd
00000090: 9af2 b23d a09e 9a3d 62ce 81bd 1819 443d
000000a0: ea97 9f3d b2ae dcbd 1824 8ebc fa1c 0c3d
000000b0: 99d9 0dbd 710f d8bc 59c8 d2bd 60a8 b93b
000000c0: b5fd 173d 2e99 783c c10c 053e e866 ed3b
000000d0: c593 e33d 3a73 83bd 0538 e0bd 90a5 62bc
000000e0: 50a3 7a3d d0b1 eb3d a202 debd 56a4 f43d
000000f0: 8fc0 e73c 908a 04bd c44f ecbd a6db 3d3d
00000100: 90ae e63d 402f 423d 2de5 a6bd 30c0 08bd
00000110: 2865 953d b3d1 dabd bdfe f0bd dc3e b6bd
00000120: dd90 b53d 94b3 3bbd f021 313d b838 0cbd
00000130: da4c 7abd db9d 823d 6a2c e2bd a0d3 debd
00000140: dbe0 d63d 4fe3 373d 7071 19bc b72b aabd
00000150: b5f0 633b 3aa4 223c c62d 53bb 82b2 8cbd
00000160: b89f 15be 95df 103d bafd d23d b064 83bd
00000170: 2d7a 59bd 620f c5bd 6380 a8bd 4a0f cfbc
00000180: a3bc 73bc e071 02be 04a8 243d 9cab 68bd
00000190: 023c bc3d b552 c3bd 7426 0abe fe37 8abd
000001a0: 4cf7 58bd 2060 b83b c2b0 ddbd aef6 8abd
000001b0: 086e c53c a820 d13d 19cb d13d 006b cb3d
000001c0: ccc2 fabc 1e4a e0bd 6def 96bd be37 8f3d
000001d0: 3ca2 193c 9cee 8ebd 1b85 e1bd bc98 de3d
000001e0: 443e 0abe a49e 03bd 40cd e6bd 0e83 b6bd
000001f0: 9cc5 0c3d a83b d4bc 3c1b 46bd d016 a9bd
-0.12000148 0.09688349 0.041285425 0.09428188 -0.10662747 -0.050410494 0.17601544 -0.034896698
0.04398541 0.10836819 -0.08255921 0.10846524 -0.11619682 0.06031427 -0.027818188 -0.011437217
-0.046134155 0.13467616 0.081530795 0.040881537 0.13148169 -0.07345074 0.034914143 0.08316443
0.106059566 0.15032525 -0.11195475 0.06225876 0.16645461 -0.11461858 0.11998582 0.15998447
0.12426332 0.09159113 -0.04930231 -0.09940339 0.08737679 0.075497866 -0.063381925 0.047875494
0.07792647 -0.10775508 -0.017351195 0.03420732 -0.034631345 -0.02637455 -0.102921195 0.005665824
0.03710719 0.01517324 0.12993146 0.0072449334 0.11112169 -0.06418462 -0.10948185 -0.0138334185
0.061190903 0.115085244 -0.10840346 0.11945407 0.028290061 -0.032358706 -0.115386516 0.04635205
0.11263764 0.047408342 -0.081491806 -0.03338641 0.07294685 -0.10684528 -0.117673375 -0.08898708
0.08865521 -0.045825556 0.043245256 -0.03423378 -0.061108448 0.06377765 -0.110436276 -0.10880208
0.104921065 0.044894513 -0.0093654245 -0.08309119 0.0034780924 0.00992685 -0.0032223328 -0.06869985
-0.14611709 0.035369474 0.10302301 -0.06415689 -0.05309503 -0.09622075 -0.08227613 -0.025275845
-0.0148765175 -0.12738752 0.040199295 -0.056804284 0.09191133 -0.095372595 -0.13491231 -0.06748961
-0.052970216 0.0056266934 -0.108247295 -0.06785332 0.024100319 0.10211307 0.10243816 0.09932518
-0.030610465 -0.10951637 -0.073698856 0.06993054 0.009377059 -0.06979105 -0.11011716 0.108689755
-0.13500315 -0.032133713 -0.11269617 -0.089117154 0.034368142 -0.025907353 -0.048365816 -0.08256304

output_layer.bias f4 [2]
00000000: 8c2b 01bd 5ea0 af3c
-0.03153567 0.021438774
