abc_env_raw/saved_models/phi_only_0.7_untuned.pt (torch, 72311 bytes, 12 tensors)

input_layer.weight f4 [64, 3]
000000 3b 53 4f bd 77 55 ba be fa eb aa be e7 e5 51 be
       -0.050616484 -0.3639333 -0.3338316 -0.20497857
000010 e4 bf d8 3d da 05 8b 3e 9d 76 e0 3e 1b d8 26 be
       0.10583475 0.27152902 0.43840495 -0.16293375
000020 e4 69 82 3d fa f6 fa 3e 23 fd 20 3d e0 69 91 be
       0.06367853 0.49016553 0.03930391 -0.2840109
000030 64 7d 80 be 6b 03 80 be c4 fd d0 be 17 f1 c3 be
       -0.25095665 -0.25002608 -0.40818608 -0.38269874
000040 ad f8 b5 be ce 38 6f 3e d0 1d 17 3f 53 44 3a be
       -0.35541287 0.23361513 0.59029865 -0.18190126
000050 ac 06 01 bf 27 d2 d8 bd ed 0c fa be be b4 60 be
       -0.50400805 -0.105869584 -0.48837987 -0.21943948
000060 89 26 f6 3e f0 fb 16 3f 8a 65 85 3e f9 d4 d5 be
       0.48076275 0.58978176 0.2605403 -0.41764048
000070 39 97 42 be 14 82 a4 3e 7e e9 87 be 91 21 f8 bd
       -0.19003 0.32130492 -0.26545328 -0.12115777
000080 dd 14 01 bf 8a fb 21 be 01 c7 00 3f 30 90 5d 3e
       -0.5042246 -0.15818611 0.50303656 0.21637034
000090 90 a8 b1 bd a2 6d d5 3e 35 ae 8b be 76 1a e9 be
       -0.08674729 0.41685206 -0.27281347 -0.45528
0000a0 f2 43 c9 be 33 72 aa be 00 70 17 3f a7 cb 3a be
       -0.3930965 -0.33290252 0.59155273 -0.1824175
0000b0 c5 1f 8e bd 3f ae 39 3e 72 db 1d be bc b1 60 bd
       -0.06939653 0.18132876 -0.15415743 -0.054857
0000c0 e7 b7 ae 3e 35 15 f3 3e e0 16 b7 3e c9 cd e8 be
       0.3412468 0.47477117 0.3575964 -0.45469502
0000d0 1e f4 92 be 41 e7 f1 be 68 2d d9 be 1b 86 06 3f
       -0.28701872 -0.47246745 -0.42417455 0.5254838
0000e0 2a 75 03 3f 50 a1 d0 bd ac e1 16 3f 6b 09 e9 3e
       0.51350653 -0.10187018 0.589381 0.45514998
0000f0 40 4b ef be bf d5 c0 3c 89 53 14 bf 8e c2 f0 3e
       -0.467371 0.023539422 -0.57939965 0.47023433
000100 5c 26 91 3e 2c a6 50 be bd a0 04 bf 82 ca f5 be
       0.28349578 -0.2037589 -0.5180777 -0.48006064
000110 c7 0b 90 3e 94 66 7d be e7 a2 66 3d c2 eb f8 be
       0.28133985 -0.24746162 0.0563077 -0.4861737
000120 6f 92 eb bd ce 72 1b 3e 97 c3 09 bf b2 ff d8 be
       -0.11502539 0.15180513 -0.5381407 -0.4238258
000130 dc c8 af bd f4 5d 0a 3f 91 9b 62 bc 52 fc 0b be
       -0.08583233 0.5404961 -0.013831035 -0.13670471
000140 25 9e e7 be 84 47 a3 3e 95 84 9f 3d da 23 9b be
       -0.45237842 0.318905 0.0778896 -0.3030079
000150 f1 9d 76 bd 34 a1 f8 3e 4b 8c 90 3e a2 a0 bf 3e
       -0.06020922 0.48560488 0.28232035 0.3742724
000160 6b 58 6c 3e e1 9f 08 3f 14 e2 d1 3c 00 3c dd bd
       0.23080604 0.53368956 0.025620498 -0.1080246
000170 51 a8 a9 3d 94 59 09 be 5c 2d 8d 3e a8 d8 89 3e
       0.08284057 -0.13413078 0.2757367 0.26923108
000180 1d bb 70 3c 37 41 d7 be 8b 26 05 3f d8 ca 31 3c
       0.014693049 -0.42041942 0.52011937 0.010851584
000190 f4 8b 09 3e 22 3c 06 bf 26 4e e1 be ce 89 14 3d
       0.13432294 -0.52435505 -0.44004935 0.036264233
0001a0 05 07 d2 bd 43 6c bc be 30 b0 8e 3e a7 af 6e 3e
       -0.10255245 -0.36801347 0.27868795 0.23309194
0001b0 45 f8 eb be d6 81 87 3e a0 e7 0e 3f e5 95 0b bf
       -0.46087852 0.26466244 0.5582218 -0.54525596
0001c0 a0 4c 4e 3c 9a 3e 00 bf 6b d1 f5 be c1 7e e8 bd
       0.012591511 -0.5009552 -0.48011336 -0.113523014
0001d0 51 9e 1b 3d 78 57 62 be c1 6e b9 bd 5b 4a b3 3e
       0.03799278 -0.22103679 -0.09054328 0.35017666
0001e0 a8 79 ae be eb b5 c5 be a2 19 44 3e 45 99 07 3f
       -0.3407719 -0.38615355 0.19150403 0.52968246
0001f0 ed 6e 9c be 7e 31 18 3f 53 37 c6 be 34 33 e4 be
       -0.3055338 0.5945052 -0.38714084 -0.44570315
000200 1d 46 7a bd a9 f2 52 3e f8 31 f0 bd 2d 86 2f 3c
       -0.06110202 0.2060038 -0.11728281 0.010713142
000210 e3 9c 0e 3f b5 37 02 bf 5e 5d f8 be 0f 0c c7 bd
       0.5570814 -0.5086625 -0.48508734 -0.09719097
000220 5e 8e c6 3c 9a 85 fa be 69 61 e1 3e 05 cf 8d 3c
       0.024237808 -0.48930055 0.4401963 0.017310629
000230 82 44 9d bd 37 56 b9 3e 99 2d 40 be b6 50 0f be
       -0.076790825 0.3619859 -0.18767394 -0.13995633
000240 ce ed f4 3d e2 f0 9e be 65 02 12 3f 73 8f fa 3e
       0.1195942 -0.31043154 0.57034904 0.48937568
000250 ae 56 41 3e 59 4e 7d 3e 97 5a 96 be 4a 3e 9f 3e
       0.18880722 0.24736919 -0.2936599 0.3110221
000260 5e 96 be be 30 a6 8b bd b9 9f 9a 3e 66 76 b2 3d
       -0.37224096 -0.06818807 0.30199984 0.08713989
000270 04 e3 11 be 5c d2 2b be 3d e8 85 3e 4a 3b c1 3d
       -0.14246756 -0.16779464 0.26153746 0.094351366
000280 62 4f e5 be d9 c4 40 3d 7f b4 db 3d 85 51 11 bf
       -0.44787127 0.04706273 0.10727786 -0.56765014
000290 33 d8 7b be 30 15 95 be 93 b9 bd 3e 48 0b b3 3c
       -0.24594192 -0.29117727 0.37055644 0.021855965
0002a0 4b 06 f0 bd 0f 84 f5 be ee 71 9c 3e 1a 57 4c 3e
       -0.1171995 -0.47952315 0.3055567 0.19955102
0002b0 49 fe 0a 3f dd 66 7e 3d e8 7a 1d 3e c2 bb 80 3e
       0.5429426 0.062109817 0.15378916 0.25143248
0002c0 dd 97 f5 be 5b bc 90 bc f9 83 f5 3e 71 47 d3 be
       -0.47967425 -0.01766794 0.4795225 -0.41265443
0002d0 2f 98 10 3f 39 5f 08 bf 6c d3 c2 3e 03 b7 c3 3e
       0.56482214 -0.532703 0.38051927 0.38225564
0002e0 df 24 3b 3e f7 c0 d5 be 3a 3e 05 bf e3 de d1 be
       0.18275784 -0.41748783 -0.52048075 -0.40990362
0002f0 ae 20 58 3e d3 10 e1 be bf f1 18 be 5f 0e fa 3d
       0.21106216 -0.43958148 -0.14935969 0.12209772

input_layer.bias f4 [64]
000000 de d0 ce be 30 cf ae be e7 6d 89 3e 31 05 0a bf
       -0.40393728 -0.34142447 0.2684166 -0.5391417
000010 f9 fb bd 3e 59 4c e1 be 08 08 22 bd 2a 86 7a 3e
       0.37106302 -0.4400356 -0.03955844 0.24465242
000020 02 29 7a 3d d0 56 f2 be ca 12 12 3e 4f 11 5e 3d
       0.061074264 -0.47331858 0.1426498 0.054215726
000030 57 36 06 be 99 ed 8d be 62 4a 75 be f9 45 32 3e
       -0.13106667 -0.27720335 -0.23954156 0.17409505
000040 35 10 c4 be 03 b4 96 3e ba 32 8a 3e 0b 7b 84 bc
       -0.38293615 0.29434213 0.26991826 -0.016171953
000050 6a 67 90 3e d2 44 57 bd 59 ae 07 bf b4 ed 0b 3f
       0.282039 -0.052555867 -0.5300041 0.5465958
000060 95 6f fc be c3 b3 50 3e de 2b f2 3e e5 35 84 be
       -0.4930388 0.20381074 0.47299093 -0.25822368
000070 5f a7 17 3f 10 c9 82 3e 9d 71 f4 3e a0 a9 da be
       0.59239763 0.25544024 0.4774293 -0.4270754
000080 5b ca 90 3d d4 66 a8 3e 21 7b 00 bf 87 be a4 3e
       0.07069846 0.32890952 -0.5018788 0.3217661
000090 39 07 11 bf 03 17 96 be c8 bb 06 bf e1 9f 09 3d
       -0.56651646 -0.29314432 -0.5263028 0.033599738
0000a0 b6 27 0d bf e7 cd 38 3e 93 45 a6 bd 97 bb 0b 3e
       -0.5513872 0.18047296 -0.08118739 0.13645779
0000b0 4f 54 a6 3e de e3 bc bd 12 a5 62 be 79 f4 79 3e
       0.32486197 -0.0922315 -0.22133282 0.24409665
0000c0 c3 23 eb 3e 2b de 86 be ff c1 1a 3f fb 7e 1b 3f
       0.45925722 -0.26341376 0.60452265 0.6074063
0000d0 df bd 6c be 5b 69 ac 3d 35 c0 91 3d 25 c4 b3 be
       -0.23119305 0.084185325 0.07116739 -0.35110584
0000e0 73 62 14 3f 28 d5 97 be c5 67 db 3e 7c 1d b3 3e
       0.5796272 -0.29654813 0.42852607 0.34983432
0000f0 91 50 b8 be 59 8d 06 3f e9 8e 16 bd 05 99 0e bf
       -0.35998967 0.5255943 -0.036757383 -0.5570224

hidden_layers.0.weight f4 [64, 64]
000000 40 78 19 bd 08 da 82 bc bd d2 ef 3c c4 cf 02 bd
       -0.037468195 -0.015973106 0.029275293 -0.031936422
000010 6f 3e e6 bd 88 a1 ca bc c3 6b 24 bd a6 cc 77 bd
       -0.11242377 -0.024735227 -0.040141832 -0.060497902
000020 78 a8 eb bd d0 b4 6f 3c 08 c6 ec bc a0 36 02 3d
       -0.11506742 0.014630511 -0.028903022 0.031790376
000030 f8 19 02 3e 70 1f a6 3c 5d 53 f6 bd 9a 1e 5a 3d
       0.12705219 0.020278662 -0.12027619 0.05325184
000040 2c a9 3b bd 7a 97 04 3d f7 02 ac bd d9 88 cb 3d
       -0.04581563 0.03237102 -0.08399003 0.09938211
000050 95 0d 4a bd 31 d1 86 bc 4c 88 bd 3d a4 5a 0e 3d
       -0.04932936 -0.016457172 0.09254512 0.03475441
000060 8d ae 6a 3d 59 97 12 3d f9 bd 33 bd f2 b3 ab 3d
       0.05729537 0.035788868 -0.043882344 0.08383931
000070 dd 23 42 bd 69 3a 41 bd c4 c2 34 3d a0 b5 dd 3b
       -0.047397483 -0.047174845 0.044131055 0.006766036
000080 84 d5 26 bd b1 2e 26 3d bb e8 02 3e dd 6b 92 3d
       -0.040730968 0.040571872 0.12784092 0.071494795
000090 e6 93 b9 3d 10 da 05 3e 5a 1a f1 bc f3 f2 c5 bd
       0.090614125 0.13071465 -0.02943151 -0.096654795
0000a0 80 d9 fb bd 66 9e d0 3d f7 84 f5 3b 67 8a c7 bd
       -0.12297344 0.10186462 0.0074926573 -0.09743195
0000b0 4b fe 43 bd 15 55 2b 3d 78 41 9e bc fa 94 e5 3c
       -0.047849935 0.041829187 -0.019318327 0.02802514
0000c0 6a c6 13 bc 9c 05 b7 3d ce a4 25 3b d6 59 a5 bd
       -0.009019474 0.08936617 0.0025275233 -0.080737755
0000d0 5c 5c 82 bd ee 28 89 3d a8 28 de 3d b7 11 73 bd
       -0.063652724 0.0669726 0.10847598 -0.059343066
0000e0 d1 eb 25 bd ad c6 cf bc ac 13 cc 3d ec 45 fd 3d
       -0.040508095 -0.02536329 0.099646896 0.12366852
0000f0 80 32 e1 bb 71 2e da 3d 0c f9 03 3c 50 04 16 bd
       -0.006872475 0.10653389 0.008054983 -0.036625206
000100 40 67 9a bd 03 ac 7d bd 61 e0 cc 3d 70 5a f9 3d
       -0.075392246 -0.06193162 0.100037344 0.12175453
000110 f0 45 03 3e 20 76 4f bd 90 6d ae bd 0a 26 fa 3d
       0.12819648 -0.050649762 -0.08516991 0.122142866
000120 d8 4c 92 bd 3b b6 d5 bd b7 ab e6 3b bf 34 d7 3d
       -0.07143563 -0.10435148 0.007039513 0.105081074
000130 e2 fd 6d bd 74 25 ac 3d 30 5e 26 3d 51 a0 f7 3d
       -0.05810345 0.08405581 0.040617168 0.12091125
000140 c4 1c 9a 3d e2 a5 5d 3d d7 3e 61 bd 68 a5 0e 3e
       0.07525018 0.054113276 -0.05499157 0.13930285
000150 5d fd e0 3d 79 e1 6d 3d da 74 88 3d 66 30 5a bd
       0.10985825 0.058076356 0.06662913 -0.053268813
000160 10 69 85 bc cf b6 02 bd a9 94 81 bc a1 7e aa 3d
       -0.01628545 -0.03191262 -0.015817957 0.08324934
000170 e6 ea 18 3e 5b 35 12 3e a1 a8 b9 3d 26 96 86 3d
       0.14933357 0.14278166 0.090653665 0.06571607
000180 bd f7 4b 3d a1 a6 94 3d 45 5a aa 3c 78 d9 08 3e
       0.04979681 0.072583444 0.020794997 0.13364208
000190 db 38 c3 bd cb 29 a2 bd 47 26 93 bd f2 ff 08 3e
       -0.09532329 -0.079181276 -0.07185035 0.13378885
0001a0 f0 14 66 3d d9 d6 5d bd 5b 95 b5 3d 03 0f 41 3d
       0.05617231 -0.054159973 0.08866378 0.047133457
0001b0 0f 46 7f bd a9 32 ec bd c8 ec aa 3d 36 1f c5 3d
       -0.062322672 -0.115331 0.08345944 0.09625094
0001c0 17 7c 08 3e 69 ad f6 3d d9 83 12 bc de da f1 bb
       0.13328587 0.12044794 -0.008942568 -0.0073808273
0001d0 5a 0d cb bd 91 ae a5 bd a1 63 48 3d a1 dc 55 bd
       -0.09914656 -0.080899365 0.04892314 -0.05221236
0001e0 39 37 d9 3d 10 a0 35 3d c9 9a e9 3d fe 7f 5a bd
       0.10606236 0.0443421 0.11406476 -0.05334472
0001f0 ac 4b 2e bd ea 22 06 3e 82 33 c7 ba 4c bf 20 3d
       -0.042552635 0.13099256 -0.0015197846 0.039244935
000200 c0 e0 23 bc 90 93 f2 3c 87 3e 1b 3d c2 eb 9a bd
       -0.010002315 0.029611379 0.037901428 -0.075644985
000210 79 c1 6f 3d 86 3c 9e bd 84 08 5a 3d 3b 94 28 3e
       0.05853412 -0.07726388 0.053230777 0.16462795
000220 0e 76 85 3d 88 3c 26 3d 87 8d c5 3d 70 ce db 3d
       0.06516658 0.04058507 0.09646135 0.10732734
000230 a1 5c 00 bd ef b5 01 3e bc 98 c6 3d 7b 32 b1 3d
       -0.031338338 0.12667058 0.096971005 0.086522065
000240 59 09 c9 3d 28 62 81 bd c2 31 59 bc e4 0e 2c 3c
       0.09816236 -0.0631755 -0.013256492 0.010501597
000250 43 30 8f 3d a6 e3 a1 bd 84 00 63 3d 48 ab 8e 3d
       0.06991627 -0.079047486 0.055420414 0.06966263
000260 79 47 e3 bd 45 53 1a 3e d8 4a 9a bd 5d fe 9d bd
       -0.11097617 0.15070827 -0.075338066 -0.077145316
000270 b8 01 d4 3d 4a 6f db 3d 07 ca 70 bc 2b b4 aa 3d
       0.1035189 0.10714586 -0.014696605 0.083351456
000280 d5 e7 62 3d 19 dd de 3d 68 db 7a bd ae c6 21 3e
       0.055396874 0.10882015 -0.0612444 0.15798447
000290 5f be af bd ef 71 95 bd 59 17 45 bd 90 c0 73 3c
       -0.08581232 -0.07297122 -0.04811797 0.014877453
0002a0 67 81 90 3d e3 f8 0d bc 04 4a 79 ba f1 6b cc 3d
       0.070559315 -0.008665296 -0.00095096254 0.09981526
0002b0 dd 49 13 3d e2 d4 75 3d 85 26 0c bc a7 76 74 bd
       0.035959113 0.060017474 -0.008554106 -0.05968347
0002c0 cd 65 21 3e b1 26 d4 3d 69 e0 67 bc 7f 5f 0e 3e
       0.1576149 0.10358942 -0.014152625 0.13903616
0002d0 6d 0b 2c 3c 22 f7 bb 3b 7e 16 9c 3d 95 12 42 bd
       0.010500771 0.0057362476 0.076214775 -0.047381002
0002e0 92 08 27 3e 6d 18 39 bc 32 0e c0 3c 71 8f 13 3e
       0.16311863 -0.0112973275 0.023444269 0.14410187
0002f0 38 6e f2 3c 80 a4 94 3d b8 cb db 3d 13 a0 fb 3d
       0.029593572 0.072579384 0.10732216 0.12286391
000300 80 cd 12 bb dc f1 a4 3d a1 d7 05 3c 88 05 88 bc
       -0.002240032 0.080539435 0.008169086 -0.0166042
000310 cf 25 af bd 9c c3 29 bd d2 36 d8 3d f2 24 74 3d
       -0.08552133 -0.041446313 0.10557331 0.059605546
000320 ca b8 97 bc 98 3f c6 3d 44 0e 4e bd d8 24 05 bd
       -0.018520731 0.09680098 -0.050306574 -0.03250584
000330 a4 60 b8 3d 40 3c a6 3c eb 0c 39 b8 c1 34 9f 3d
       0.09002808 0.020292401 -4.4119468e-05 0.07773734
000340 f4 85 89 3d 08 d1 bf 3d 82 62 d1 bd 46 4b e4 3d
       0.06715003 0.093660414 -0.10223867 0.1114717
000350 de 25 aa bd c2 e4 f4 3d 74 ff 29 3d 58 60 8c bd
       -0.08308004 0.119576946 0.041503385 -0.068543136
000360 e4 cc 29 bd a9 03 c6 bc 65 55 b2 bd 36 6b c0 bd
       -0.041455165 -0.024171667 -0.08707694 -0.09395449
000370 2c 3b c4 3b 80 4d 33 bd 62 bb 84 bc 2a d8 97 3d
       0.005988499 -0.04377508 -0.016202632 0.07414277
000380 7b 14 b7 3d 4e af 57 3c 46 5d dc 3d ce c0 03 bd
       0.08939453 0.0131643545 0.10759978 -0.032166295
000390 34 86 50 3d 50 4c ca bd 4a 5d 8a bd d2 39 21 bd
       0.050909236 -0.09877837 -0.06756075 -0.039361782
0003a0 13 9b c4 3d 8e 96 e4 3d fe 7a d9 3d 95 58 c2 3d
       0.095998906 0.111615285 0.10619162 0.09489552
0003b0 ec 72 37 3c 98 49 eb bc 31 bc ff bc 14 75 bb 3d
       0.011196833 -0.028721616 -0.031217666 0.0915319
0003c0 a7 f4 60 3d 3d b3 e2 bd e6 fd f2 bc 0b c3 a1 bd
       0.05492082 -0.11069343 -0.029662084 -0.078985296
0003d0 0d 56 a9 3d b0 cd fa bd 09 15 b6 3d e0 06 0f 3d
       0.08268366 -0.12246263 0.08890731 0.034918666
0003e0 25 25 3a bc 08 e5 a8 bc 3f cc 0a 3d 60 1f 85 3d
       -0.011361395 -0.020617023 0.03388619 0.06500125
0003f0 ae 61 01 bd 00 17 fd bd eb 5f 1f bd 00 ec e1 3b
       -0.031587295 -0.123579025 -0.038909834 0.0068945885

hidden_layers.0.bias f4 [64]
000000 ec ad c1 bd 6b 36 20 3d 0a 3d 2f 3d 44 91 ec bd
       -0.09457001 0.039114397 0.04278282 -0.11551145
000010 7e ca 8e bb 9f 78 f7 3d c9 62 ec 3c 85 08 56 bd
       -0.004357635 0.120835535 0.028855698 -0.05225422
000020 f6 01 2a 3e c9 48 14 bc 39 25 74 bd 2d b4 01 3e
       0.1660231 -0.009050556 -0.05960581 0.12666388
000030 74 1d b4 bd fa 15 4c bd f1 fe 1c bd fc 79 ba 3d
       -0.0879468 -0.049825646 -0.03832907 0.09105298
000040 65 ed 9b 3d 3a 39 b6 3d e1 84 a9 3d 1f 9e 9a bc
       0.07613639 0.08897634 0.08277298 -0.018874226
000050 48 de 82 bd 76 d1 a7 bd 02 4a cf bc e4 ab 6b bd
       -0.06390053 -0.081942484 -0.025303844 -0.057536975
000060 c2 53 c1 3d 3f cf 25 3d 79 5f a2 3c 00 60 ba bd
       0.09439804 0.04048085 0.019820916 -0.09100342
000070 c9 0d bf 3d 93 e8 da bc 34 a2 03 3d d3 c2 8e 3c
       0.09328801 -0.026722228 0.03213711 0.017426884
000080 c9 d2 07 bd 20 89 d7 3d 45 0e 5e 3b f6 f4 5b bc
       -0.033160005 0.105242014 0.0033883017 -0.013425102
000090 bb f6 17 bd f4 78 55 bd 78 17 d6 bd 5d f0 6e 3d
       -0.037100535 -0.052117303 -0.10453695 0.058334697
0000a0 ef cf d9 3d 43 fa 10 bd aa f9 bb bd 1c 69 6a bd
       0.10635363 -0.03539492 -0.09178479 -0.057229146
0000b0 5f e2 aa 3d 5f ff 9f bd 99 32 dd 3d 0f 61 ce 3d
       0.08343958 -0.0781238 0.10800666 0.10077106
0000c0 12 98 fd 3d ca 6d a8 3d c8 53 48 3c dc 14 25 3e
       0.12382521 0.082240656 0.012227006 0.16121238
0000d0 aa 33 97 bc 44 e7 5a 3d 55 3e ce bb 90 90 a8 3d
       -0.018457253 0.05344321 -0.0062940517 0.08230698
0000e0 aa de 94 3c 7d 6d 6e 3c ea 38 04 3b 58 31 cf 3d
       0.01817258 0.014552471 0.0020175525 0.101168334
0000f0 cc 95 81 3d 25 e8 01 3e de 6b 9b 3d d6 a4 f7 bd
       0.063273996 0.12686212 0.075889334 -0.12091987

hidden_layers.1.weight f4 [64, 64]
000000 cf 4a 25 3a db 76 b2 3c ae ae 82 3d 52 a5 bf bd
       0.0006305398 0.02178519 0.06380974 -0.09357704
000010 ae 93 f3 bd ea f0 75 bd 4b 0c 23 3d 6f 7c 90 bd
       -0.11893402 -0.060044207 0.039806645 -0.07054984
000020 db 2a b9 bd 59 83 d9 3d 4f 30 a1 bd 63 1c 53 3d
       -0.09041377 0.10620756 -0.07870542 0.051540744
000030 a0 3b b5 3c 16 03 d3 3d 5d da 7f bd 54 b0 f3 bd
       0.022123158 0.10303323 -0.062464107 -0.11898866
000040 c9 f5 ef bd 05 c6 96 3d c5 c7 a0 bd aa 20 80 3c
       -0.11716802 0.07361988 -0.07850603 0.015640575
000050 67 bf 9b bd 55 2b d0 3d ff dc 17 bd 08 b9 8a 3d
       -0.076048665 0.10164515 -0.037075993 0.06773573
000060 7b ee 0f bd a9 24 90 3d 43 17 a8 3d 78 6b ca 3c
       -0.035139542 0.07038242 0.08207562 0.024709448
000070 95 32 a5 3d c4 98 e5 bd d8 b5 81 3d 80 81 f3 3d
       0.080662884 -0.11210778 0.06333512 0.118899345
000080 0e bc 87 3b 74 d5 a2 bd 6e f2 87 3d 88 3a 99 3d
       0.004142291 -0.07950869 0.06638037 0.07481867
000090 4f 6d 86 3d ec 6f e3 3d 27 b6 b1 3d da 4a a3 bd
       0.06563818 0.11105332 0.08677321 -0.07973261
0000a0 5c 4e e3 bc fc f1 44 3d 0d 04 d0 3c e0 33 3a bd
       -0.027747326 0.048082337 0.025392557 -0.045459628
0000b0 44 47 dd 3b 7f 4f b8 bc 22 db 98 bd fd c0 70 3c
       0.0067528803 -0.022498844 -0.07463671 0.0146944495
0000c0 2a 5b c3 3d 8c 9c 9f 3d 6f ff b4 bd fa 24 82 3d
       0.095388725 0.07793531 -0.088377826 0.06354709
0000d0 2b 71 ed 3c 9c bb ca 3c f7 5c dd bc ec 00 a4 3d
       0.028984627 0.024747662 -0.027021868 0.08007988
0000e0 78 50 03 bd 5a 4a 82 3d 02 c8 dd 3d 3a 1d 4e bd
       -0.032059163 0.06361838 0.10829164 -0.05032084
0000f0 fd 68 4b bd fa bd 19 3c 30 85 02 be d8 22 c9 3d
       -0.04966067 0.009383673 -0.1274612 0.09821099
000100 0e 00 82 3d 9a 88 3b 3e 45 ba 41 bd 94 76 9e bd
       0.06347667 0.18313828 -0.04729678 -0.07737461
000110 d3 99 e0 3d 25 91 d0 3d 36 01 38 bd 29 c3 ef bb
       0.1096684 0.10183934 -0.04492303 -0.007316966
000120 d6 da c9 3d fb 94 e3 bb 40 3c d7 3c ba 9f 14 3e
       0.09856193 -0.00694525 0.026273847 0.14514056
000130 b4 5d d3 bd ab 75 c7 3c 0f 7d 0c 3d e5 fb 16 3e
       -0.10320607 0.0243481 0.034298953 0.14744528
000140 ed bc 16 3e 13 e0 b4 bc e5 a3 05 3e 99 c9 b5 3d
       0.14720507 -0.022079503 0.13050802 0.08876342
000150 1d 0b da 3d 59 0e ba bd 78 cf 33 3d 17 56 da 3d
       0.10646651 -0.09084768 0.04389903 0.106609516
000160 ee 73 24 3e 81 37 eb 3d 57 8c be 3d 64 27 42 3d
       0.16059849 0.11485196 0.093041115 0.047400847
000170 da dd ad 3d a5 55 76 3d 50 cb 18 3c 15 30 d4 3d
       0.084895805 0.06014027 0.009325817 0.103607334
000180 a1 c2 15 3e b0 63 fa 3d 28 64 b0 3d 83 51 50 bd
       0.14625026 0.12226045 0.08612853 -0.050858986
000190 a2 a7 a4 3c c6 51 9f 3d 0d e5 6b 3c 72 d7 31 bd
       0.020099465 0.07779269 0.014397872 -0.043418355
0001a0 54 06 69 3c 18 25 e6 bd b9 ce 06 bd d9 77 bc 3d
       0.0142227 -0.11237544 -0.03291199 0.092025466
0001b0 57 29 10 3e 9a f7 b5 bd 74 c8 ea 3c b9 cc 04 bd
       0.1407827 -0.08885117 0.028660037 -0.0324218
0001c0 2e 30 98 3d ee b6 cb 3d 1a 57 fd 3d 8b cb 8a bd
       0.074310645 0.099470004 0.12370129 -0.06777104
0001d0 79 c7 f3 3d c4 b9 ce bd 0b b0 96 bd 8c ae a2 3d
       0.11903281 -0.10094026 -0.07357796 0.079434484
0001e0 74 1e ce 3d 83 ad 83 bd 0d 6d c3 bc d9 7d c2 3d
       0.10064402 -0.06429579 -0.02385571 0.0949666
0001f0 24 4b 95 bd b2 1f f4 3d 7a e4 49 bc d0 6a b1 bc
       -0.072897226 0.11920108 -0.012322539 -0.021657377
000200 4b b5 28 bc df d1 bf bd 0d 43 0d bd 99 ed 2f bc
       -0.01029713 -0.093662016 -0.034487773 -0.0107378
000210 76 48 c1 ba 1f f6 4f bd 7e 83 c4 bd f2 2b 56 3d
       -0.0014746326 -0.05077183 -0.09595393 0.052288003
000220 6f cd 8c bd c7 66 71 bc 6f 5d f6 3d 23 46 96 bd
       -0.06875121 -0.014733977 0.1202954 -0.07337596
000230 c0 eb bb 3c e3 af bc 3d f8 82 e1 bd 13 4d cb bd
       0.022939563 0.09213235 -0.110113084 -0.0992681
000240 79 80 9d bd 29 5c d1 3d 8a be 04 3d 6d 4a aa bd
       -0.0769052 0.10222656 0.032408275 -0.08314977
000250 ab be e9 3d d4 53 f5 3d 18 c5 a9 bd 34 6e ab 3d
       0.1141332 0.119788796 -0.08289546 0.08370629
000260 9c 06 8c 3d cc 71 02 3d c2 14 cc 3d e0 e7 29 3d
       0.06837198 0.031846806 0.09964897 0.0414809
000270 bf 25 81 bd cc 3b 37 3d 5a 02 ae bb 68 01 9b bd
       -0.063060276 0.04473476 -0.005310339 -0.075686276
000280 44 86 84 3d 0d b5 b0 3d 7f 72 d6 bd 35 3b d2 bc
       0.06470922 0.08628283 -0.10471057 -0.025662998
000290 dc 1a 9b 3d ba 5b 94 bd 3d 88 76 3d 66 35 4e bc
       0.075734824 -0.07244058 0.06018852 -0.012585973
0002a0 a7 f8 f5 bd 20 0a 31 3d 14 05 4c 3d 04 03 58 bc
       -0.12010317 0.043222547 0.04980953 -0.013184313
0002b0 ce f1 81 bd ba f5 e9 3d 7c f7 e5 bd 29 c3 2d 3d
       -0.06344949 0.11423822 -0.112288445 0.042422447
0002c0 75 56 bb 3b 4e 40 e8 bd 94 22 61 3d e8 d4 80 bc
       0.0057170936 -0.1134039 0.054964617 -0.015726522
0002d0 89 0a ac 3d 7f 27 b9 bd ad 4d 39 bd 78 2e 61 bd
       0.08400447 -0.090407364 -0.045240093 -0.054975957
0002e0 fd 94 4b 3d 03 2e 86 bd 2f 14 75 3d 48 b8 ca b8
       0.049702633 -0.06551745 0.0598337 -9.666436e-05
0002f0 55 94 f8 bc c5 c7 e5 bd 38 a9 cd 3d 60 2a 51 3c
       -0.030344168 -0.11219744 0.100420415 0.012766451
000300 ae 18 7e 3d 4d 37 85 bd 7e 6f 5c 3d 5c 79 32 bd
       0.062035255 -0.065046884 0.053817265 -0.04357277
000310 46 de 04 3e 75 84 b6 3d 03 fc 27 3d c4 5f d3 bc
       0.12975416 0.08911983 0.04101182 -0.0258025
000320 45 31 8d bd ff 90 81 3d 94 46 39 bc 5b 5b 33 3d
       -0.06894163 0.06326484 -0.011308331 0.043788295
000330 5c 9f 17 3d 96 73 92 3c 53 de 58 3c 35 ae 3a 3d
       0.03701721 0.017877381 0.0132366 0.045576293
000340 fb d1 2a 3d 4c a0 8f 3d 8e d9 89 bd d5 56 b8 bd
       0.04170416 0.07012996 -0.067309484 -0.09000937
000350 6d b7 9f 3c 63 8a d0 3d fb 9a fd 3d 8c a7 c5 bd
       0.019496644 0.10182645 0.12383076 -0.09651098
000360 06 76 62 bd 14 d4 00 bd bb 48 2c bd 74 36 51 bd
       -0.055288337 -0.031452253 -0.04206155 -0.05107732
000370 15 ff c8 bd 96 9a 35 3d 39 42 bb 3d 08 d3 f5 3d
       -0.09814278 0.044336878 0.0914349 0.12003142
000380 c0 0a d6 3c b8 18 5e bd 5c 6c 86 3d d4 3f 29 bd
       0.026128173 -0.054222792 0.06563637 -0.041320637
000390 b8 8c 4a bd d4 a7 78 bd 45 b4 b5 bc a8 de c4 bd
       -0.049450606 -0.06070693 -0.022180686 -0.09612781
0003a0 11 e6 89 3d 6d 17 af 3d 10 f2 f9 bd 3a 38 dd bd
       0.06733335 0.0854939 -0.12204373 -0.1080174
0003b0 87 a3 b3 bc 88 50 b7 bc a7 2b 01 3e 0d 81 82 3d
       -0.021928562 -0.022377267 0.12614308 0.06372271
0003c0 e0 a3 bf 3d e0 fb 8e bd d7 a1 e2 3d 35 26 82 bc
       0.093574286 -0.06981635 0.11066025 -0.01588736
0003d0 54 fa 7b 3b 11 d4 c2 bd 49 6f 8c bd 9c 5f 44 bd
       0.0038448768 -0.09513105 -0.068571635 -0.047942743
0003e0 9e ce 0a bd 29 53 e1 bc c3 56 a4 3c fa 02 e5 bd
       -0.03388845 -0.027505474 0.020060902 -0.11182208
0003f0 86 0e 92 bc 93 07 48 ba 29 41 f2 3d 0c 88 7e 3d
       -0.017829191 -0.0007630523 0.118288346 0.062141463

hidden_layers.1.bias f4 [64]
000000 dd 1d ee bc 54 f6 c8 bc f6 06 51 3a 9f d8 bb bd
       -0.029066974 -0.02453152 0.00079737545 -0.091721766
000010 a3 ec a6 3d f1 5d d7 3d 9d 5c a7 bd 4a 5f a4 3d
       0.081506036 0.10515965 -0.081719615 0.080259874
000020 be b5 8e 3d 1f c5 fc bc 35 d9 59 bd 72 ce e7 3d
       0.06968258 -0.030855713 -0.05318566 0.11318673
000030 16 10 f0 3d c5 c0 52 3d 5b d3 8a 3d a1 91 32 3d
       0.11721818 0.05145337 0.06778594 0.043595914
000040 db f3 da bc 86 fb 8d bd 21 63 df 3d 20 c0 2d 3e
       -0.026727607 -0.0693274 0.10907579 0.16967821
000050 af a9 05 3e f8 eb c9 3c 3b aa b3 3c 7c f8 d2 3c
       0.1305301 0.024648651 0.021931758 0.025753252
000060 7b ea 0b 3c a1 17 2d 3d 92 aa dc bd 12 d4 af bd
       0.008539791 0.042258862 -0.10774721 -0.08585371
000070 73 99 d0 3c 44 c9 58 3d d4 d8 8e bd 1e 52 a6 bd
       0.025463795 0.052926317 -0.069749504 -0.08121131
000080 89 af 0e 3e 54 24 bd 3d 4e c7 ed bd e0 dc 5a bc
       0.13934149 0.09235445 -0.1161028 -0.013358325
000090 30 f2 a8 bc 08 57 a3 3d 24 7a b3 3c d2 ca e0 3d
       -0.020623296 0.07975584 0.021908827 0.10976185
0000a0 e6 82 23 3e 77 1a f4 3b 94 9d a4 3d 96 5a 03 bd
       0.15967903 0.007449444 0.08037868 -0.03206881
0000b0 2e 0f 00 bd 28 71 92 bd 11 99 1b 3e 94 50 01 3e
       -0.031264476 -0.07150489 0.15195109 0.12628394
0000c0 f4 37 db 3c 4f c2 68 3b ea 13 19 3e e2 96 e6 bb
       0.026760079 0.0035516208 0.14949003 -0.0070370296
0000d0 5a 49 67 bb 3f 46 86 3d aa 45 f8 bd d7 df 7d bc
       -0.0035291524 0.06556367 -0.12122662 -0.015495262
0000e0 20 ca f5 3b ed 45 86 3c 7d c0 3b bd d3 2a f7 3d
       0.007500902 0.016390765 -0.045837868 0.12068715
0000f0 88 3d bd 3d f7 c9 90 3d 5e 6c a9 bb ea 75 18 3e
       0.09240252 0.07069772 -0.005170389 0.1488873

hidden_layers.2.weight f4 [64, 64]
000000 b8 09 df bd 18 19 ba 3d b8 df 96 bd 60 28 da bb
       -0.108905256 0.090868175 -0.0736689 -0.006657645
000010 98 06 d7 bc 3c 14 e4 bd a0 fd 79 bd 30 d3 ed bc
       -0.026248261 -0.11136672 -0.06103289 -0.029031366
000020 1a 93 f3 3d 98 b2 76 3d 58 c3 63 3d 26 52 db bd
       0.11893292 0.060228914 0.055606216 -0.10709028
000030 c0 85 54 3c 98 33 ff bd ca 1c db bd 16 a5 d8 3d
       0.012971342 -0.124610126 -0.106988505 0.10578363
000040 38 3e bc bc 9c 6b ca bd f0 72 6b 3c 74 ef 10 bd
       -0.022978887 -0.09883806 0.014370665 -0.03538461
000050 e8 cf f4 bc 8c 4f d3 bd 40 31 66 3d 00 22 e0 39
       -0.029884294 -0.10317907 0.056199312 0.0004274994
000060 4c 0a fa bd 60 21 71 bd 7a d0 f0 3d 9c 7f d5 bd
       -0.12208995 -0.05886972 0.11758514 -0.1042473
000070 70 b7 5a bd 64 6f b0 3d 84 ef 04 bd 3c ff b1 bd
       -0.053397596 0.08614996 -0.032454982 -0.0869126
000080 c8 ee 88 3c 70 48 4e bd 84 b9 4f 3d d0 46 ec bd
       0.016715422 -0.05036205 0.05071403 -0.11536944
000090 20 30 43 3c 10 cf a9 bd 68 8c f5 bd 58 23 02 3d
       0.011913329 -0.08291447 -0.11989671 0.031771988
0000a0 8a a7 d0 bd 60 e1 7e 3d a0 15 6d bc 40 59 2a bc
       -0.101882055 0.062226653 -0.014470488 -0.010397255
0000b0 00 30 96 bc 64 f2 b7 bd 32 1e ab bd 98 00 90 bc
       -0.018333435 -0.08981779 -0.08355369 -0.017578408
0000c0 7c 66 66 bd fc ad 59 3d 28 b5 c9 3d 66 de 94 3d
       -0.05625008 0.05314444 0.09849006 0.07268982
0000d0 80 d9 e9 bb 50 37 f5 3d 6c 5d d5 bd d0 b8 8f 3d
       -0.0071365237 0.11973441 -0.104182094 0.07017672
0000e0 08 95 d9 bd d0 5e 8a bc c2 84 e1 3d 10 f6 30 bc
       -0.106241286 -0.016890913 0.1101165 -0.010800853
0000f0 e0 75 d9 bb 50 ef 65 3c f2 46 fc 3d 20 20 7a bc
       -0.0066363662 0.014034107 0.12318219 -0.015266448
000100 20 94 9a 3d 97 4f 89 bd 7f c6 df bd 00 84 96 bd
       0.07547784 -0.06704634 -0.10926532 -0.07349396
000110 e3 c6 9a 3d e8 20 c4 bd 8a df ba 3d 2a 9e 45 3c
       0.07557466 -0.09576589 0.09124668 0.012061635
000120 f2 80 ec 3d 57 76 b9 3d 05 7f 8a 3d 34 55 04 bc
       0.11548032 0.09055775 0.06762508 -0.008076955
000130 e0 ef 5a 3d f7 77 73 bd 35 d6 93 3d f7 15 a1 3a
       0.05345142 -0.05944058 0.07218591 0.0012289871
000140 d1 a6 b6 3d 7e a5 bb 3d 13 2b 9f bd e5 eb bc bd
       0.089185365 0.091624245 -0.07771888 -0.09224681
000150 ac 4e e8 bb 3a 4d ae bd e3 e8 24 bd 19 f5 08 be
       -0.0070894565 -0.085108235 -0.04026116 -0.13374747
000160 77 a7 19 3d 58 1f e1 3d 2c c3 e7 bd 10 09 98 bd
       0.037513223 0.109923065 -0.11316523 -0.074236035
000170 3b df bd 3d 9a fb 51 bd 9c f1 96 bd 11 9a 88 3d
       0.092710935 -0.051265337 -0.07370302 0.06670011
000180 fd a2 a0 3d f3 dd 4d 3d 9a 55 f7 bd a4 35 36 3d
       0.078435875 0.050260495 -0.12076874 0.04448475
000190 ca 31 dd bd ea ec 86 bc d7 03 85 bd a8 39 14 3d
       -0.10800512 -0.016470391 -0.06494873 0.036187798
0001a0 bf 68 17 bc bb be 99 3d 2d 1e f5 3d b1 bb e4 3d
       -0.009241282 0.07507082 0.11968646 0.11168612
0001b0 7c ca 95 3c 28 b7 97 bd 6e 9b a8 3d fe 16 db bd
       0.018285029 -0.07407981 0.08232771 -0.10697745
0001c0 5a f1 7c bc 0d 7a ea bd 60 ba f3 bd 2c db b5 bd
       -0.015438402 -0.114490606 -0.119007826 -0.08879694
0001d0 ba 81 0d bd 03 74 32 bd c4 b6 1e 3d de 9b 76 3d
       -0.034547545 -0.04356767 0.038748518 0.06020724
0001e0 94 9f 2c 3d d9 59 ee 3d 30 b8 c0 3d c0 84 09 3d
       0.042144373 0.11638231 0.09410131 0.033573866
0001f0 2c 7a 72 3d 88 5f 9a 3c c8 7d aa 3d 1d 2d 30 bd
       0.059198543 0.018844381 0.08324772 -0.043011773
000200 4c 45 be 3d a4 e2 af bc 9d a6 86 3c e6 af e0 bd
       0.09290561 -0.021470375 0.01643687 -0.1097105
000210 b2 dd d9 3c 26 93 8b bd 28 17 d3 bc 7b 52 9d bd
       0.02659497 -0.06815176 -0.025767878 -0.076817475
000220 d8 3a f1 3d 23 65 4d bd a4 43 0e bd af 90 b3 bd
       0.11778802 -0.05014528 -0.034732476 -0.087678306
000230 b4 f0 b6 bd e8 9a 85 3c 23 09 32 bd b2 48 8f bd
       -0.08932629 0.016309217 -0.043465745 -0.069962874
000240 2c 56 23 3c 5f 2c a5 3b 94 ae e7 3d b3 9c 97 3c
       0.009969275 0.00504069 0.11312595 0.018507337
000250 02 0e ec 3d a0 63 9b bd 48 a6 a9 bc 96 fd d2 3d
       0.11526109 -0.07587361 -0.020709172 0.10302274
000260 1c 45 cd bd aa df ca bd 1c 0b 42 3d 78 e0 cf 3d
       -0.10022947 -0.09905942 0.047373876 0.10150236
000270 e6 ab e7 3d bf 4f d2 3d 72 44 fe bd 05 50 96 bd
       0.11312084 0.102691166 -0.12415399 -0.07339481
000280 fc 69 bb bb 03 cf f3 bd 80 dc c8 3c 90 8f fd bd
       -0.0057194214 -0.11904719 0.024519205 -0.12380898
000290 20 f9 d5 bd b6 0e 3d bc 61 6a 7e 39 6c 91 d5 3d
       -0.104479074 -0.011539152 0.00024262957 0.10428128
0002a0 91 a6 9a bd 99 df 90 bd f3 cf 22 bd 3b 40 8b 3d
       -0.07551301 -0.07073898 -0.039749097 0.0679936
0002b0 a0 b8 45 3d 50 e6 91 bc 4c f0 91 3d d3 2f 90 3d
       0.048271775 -0.017810017 0.07125911 0.07040372
0002c0 a0 9a 84 bd 88 85 93 3d 8e bc e8 bd 29 b7 c4 3d
       -0.06474805 0.072032034 -0.11364089 0.096052475
0002d0 6a a4 0c 3b 0e 8a 02 be d4 a7 65 bd f5 db e5 3d
       0.0021460303 -0.12747976 -0.056068256 0.11223594
0002e0 08 72 f5 3c ed e0 13 bd ad 75 c4 bd d8 f4 f7 bd
       0.0299616 -0.036103178 -0.095927574 -0.12107247
0002f0 da eb 6d 3d 73 e1 cd 3a ed 38 a2 3a b3 7b b4 3c
       0.058086254 0.0015707448 0.0012376584 0.02203164
000300 2a fa a9 3d 74 b5 b8 3b 81 03 22 3d c4 c5 ee bb
       0.08299668 0.0056368653 0.039554123 -0.007286759
000310 dc 38 96 3d 8f 38 ab 3d 23 3f 03 be 60 9a e8 bd
       0.07335064 0.08360397 -0.12817053 -0.1135757
000320 bc 99 b4 bd f8 b5 24 3c 4b 47 6e 3a 37 bc b7 3d
       -0.08818385 0.01005315 0.0009089603 0.08971446
000330 26 65 26 3c 54 9e 93 3d 53 21 04 3d 9e 75 dc bd
       0.010155952 0.07207933 0.032258343 -0.10764621
000340 cf 31 89 3c da 4f a6 3d 05 f6 38 3b 3f 09 ae bc
       0.016747383 0.08120699 0.002822281 -0.021244643
000350 95 2a fd bd 8c 83 07 bd bb bd 80 bd da 6f d1 bd
       -0.123616375 -0.033084437 -0.06286188 -0.10226412
000360 ba 10 a7 bd 03 22 34 3d e4 a0 c2 bd ca e2 88 bd
       -0.08157487 0.04397775 -0.09503344 -0.066838816
000370 4f 22 a7 3d bb da 85 3d a0 8c d5 bd a4 fc 83 3d
       0.08160841 0.0653586 -0.10427213 0.06444672
000380 96 c6 d6 3d 59 bb 5d 3d e0 ef b3 3c be cb f8 bd
       0.10487096 0.054133747 0.021964967 -0.12148236
000390 ea fd ae 3d 91 75 dc bb ae 27 e9 bc 5f fd a1 bc
       0.08544524 -0.006727882 -0.028461304 -0.019774137
0003a0 da 12 89 bd cc e1 27 bd 72 89 d5 3d 5d fb 8e bc
       -0.06693049 -0.04098682 0.10426606 -0.017453844
0003b0 18 dd d7 3d 45 58 82 bc a3 bd 8e 3d ba 36 90 3d
       0.10540217 -0.01591123 0.06969764 0.07041688
0003c0 ee 3b fc bd a8 ae 96 bd 95 3d 9c bd 2d 08 c0 bd
       -0.12316118 -0.07357532 -0.07628933 -0.093765594
0003d0 99 37 e9 bd 10 13 bb 3b 80 66 4c 3b 8d 27 b9 bb
       -0.113875575 0.0057090595 0.0031189024 -0.005650467
0003e0 86 cf f7 3d 3b c1 ba 3c 67 62 e1 bd 3d 68 0c bd
       0.12100129 0.022797218 -0.11005097 -0.034279097
0003f0 22 e6 99 3c 2b e7 10 3c d2 83 fa ba 1d 9f 71 bd
       0.018786494 0.008844177 -0.0019112772 -0.058989633

hidden_layers.2.bias f4 [64]
000000 4c e5 50 bd 1b d6 07 bd ee b2 7c 3c 4d ec 46 3d
       -0.050999925 -0.03316317 0.01542352 0.048565198
000010 e6 0d 3f bc 3e 44 8e 3d ec 40 8d 3d b3 ff f7 3d
       -0.0116610285 0.0694661 0.068971485 0.12109318
000020 b6 ce af 3d 94 78 e8 3d cc 60 0f 3e a7 41 35 bd
       0.08584349 0.113511235 0.14001769 -0.044252064
000030 2e 87 00 bd 1c bb 1b 3e 96 e2 f5 bc 39 13 4e 3c
       -0.031378917 0.15208095 -0.030015271 0.012577825
000040 ce 50 11 3d 63 11 a4 3d 19 46 9e 3d f7 68 b6 3d
       0.035477452 0.08011129 0.07728214 0.08906739
000050 ae dc bf 3d 58 d9 cb bc 5a a4 40 3c 53 1e 8d 3d
       0.09368263 -0.024883911 0.0117579345 0.068905495
000060 31 de 9a bd 3e 45 95 bd 2b d6 5d 3d ba af 0a 3b
       -0.07561911 -0.072885975 0.054159325 0.002116187
000070 e9 42 6d 3c 2d ed cf 3d 0a 59 ee 3d cc 1e c5 bd
       0.014481285 0.101526596 0.116380766 -0.09625015
000080 a8 d4 09 bd f5 4a e6 3d 66 61 e7 bd ca b7 11 3e
       -0.03365007 0.11244766 -0.11297874 0.14230266
000090 56 40 5b bd ee 57 ca bd 5b 5d 0f 3e e6 54 f2 bd
       -0.053528152 -0.098800525 0.14000456 -0.11832599
0000a0 f3 42 04 3e 2b 50 0f 3d 6a 89 8a bd 2a fc 8c bd
       0.12916164 0.034988564 -0.06764491 -0.06884034
0000b0 7e 30 8e bd b8 af 90 bc 48 83 9a bd 44 2c 56 bd
       -0.06942843 -0.017661914 -0.07544571 -0.05228831
0000c0 ed d2 df 3d 9a 32 e4 3d f6 12 48 3d 41 ac c2 bd
       0.10928903 0.11142464 0.048846208 -0.09505511
0000d0 f5 18 d5 3d be 98 7a 3d 3a fd 1d 3e 2e 11 e1 bd
       0.10405151 0.061180823 0.1542863 -0.10989605
0000e0 b1 d2 44 3d 7c 9b aa bd 3e 6b 7a 3d f9 9c b6 3d
       0.048052493 -0.083304375 0.06113743 0.08916659
0000f0 5b 63 98 bd 54 d9 60 3c f3 e3 1a 3e 8e 68 7a 3d
       -0.074408256 0.01372369 0.15126018 0.061134867

hidden_layers.3.weight f4 [64, 64]
000000 d8 73 89 3c ac e7 3c 3d d4 f6 d2 bd 22 69 fc bc
       0.016778871 0.046119377 -0.10300985 -0.03081185
000010 1c eb e3 bd 2e 4e 2a bd d5 ac 16 bc f6 78 51 3d
       -0.11128828 -0.041578464 -0.00919648 0.051140748
000020 7f 61 ae bd cc dc 0c 3e b2 00 c3 3c c8 27 cf 3a
       -0.0851469 0.13756102 0.023804042 0.0015804702
000030 3b 46 f2 bd e7 a3 3b 3b a8 b5 a8 3d 85 d6 e0 3d
       -0.11829802 0.002863163 0.08237773 0.10978416
000040 69 74 5e 3c df e6 c9 3d eb a0 f3 bd ee c4 5e 3d
       0.013577559 0.09858488 -0.11895927 0.054387026
000050 bc 58 c6 bd 18 c2 b2 3d 61 2a 9c bd 90 ff 26 bd
       -0.096848935 0.08728427 -0.07625271 -0.040771067
000060 d6 61 a8 bd a3 bc 3a bd b5 b7 8f bd a2 73 a1 3d
       -0.08221786 -0.045590054 -0.07017461 0.07883383
000070 c5 4d 5f bd 3a c3 60 3d 00 8e 26 3c f0 76 2b bd
       -0.054517526 0.054873683 0.010165691 -0.041861475
000080 e0 90 bb bd 11 a5 23 3d 4c 91 94 bd 26 8c ce bd
       -0.09158492 0.03995234 -0.07254276 -0.10085325
000090 b3 e1 b9 3d a0 7c d1 bc 6b 12 a7 bd 94 3a ab 3d
       0.09076252 -0.025572121 -0.0815781 0.08360782
0000a0 22 6e 7b bd 98 d9 64 3c 94 34 a9 3d 4e 17 fc 3d
       -0.061384328 0.013967894 0.082619816 0.123091325
0000b0 05 7a fc bb 20 99 48 3d 04 0e 34 3d e6 cd 89 3d
       -0.0077049755 0.048974156 0.04395868 0.06728725
0000c0 6c 93 c9 3d b4 28 e2 3c 76 4e a5 bd f4 f0 be 3d
       0.098425716 0.0276073 -0.08071606 0.09323302
0000d0 47 46 f8 bd ce 05 86 bd 9a f7 0a 3e f0 d5 28 3c
       -0.12122779 -0.06544076 0.13571015 0.010304913
0000e0 57 a2 f6 3d 74 32 9c 3d 3c d6 b1 3d 28 f1 0a 3e
       0.120426826 0.07626811 0.0868344 0.13568556
0000f0 cb d2 51 bb 53 4d 69 3d 0a 5f ae 3c 01 3d ef 3c
       -0.0032016512 0.056958508 0.021285553 0.029203894
000100 68 2c 98 bd 41 8f a4 bd 61 c5 67 3c 26 0a 88 bc
       -0.07430345 -0.08035136 0.01414618 -0.016606402
000110 8b 18 63 bd f5 82 96 3d c7 7a aa 3d c5 b0 7b bd
       -0.055443328 0.07349197 0.08324199 -0.061447877
000120 f6 da 04 ba 63 96 aa bc f0 5a 47 bb 97 67 bf 39
       -0.0005068028 -0.020823663 -0.0030419193 0.0003650754
000130 69 63 fe 3c 16 a5 42 bd cf 51 b8 3d 9c 6c 48 bd
       0.031053262 -0.04752072 0.08999979 -0.048931703
000140 0e d4 eb 3c 92 fe 22 3e 9d a0 03 3e 4d f4 94 3d
       0.028787639 0.15917423 0.12854238 0.07273159
000150 3c 93 db 3c e8 53 95 bd fe 35 89 bd ec 85 54 3d
       0.026803605 -0.072913945 -0.06699751 0.05188553
000160 83 4e b9 bd a2 d5 09 3e 5a 50 df bc e4 36 cb 3d
       -0.09048178 0.134604 -0.027259994 0.09922579
000170 c5 00 a5 3d 32 bb d8 3d 49 c9 7f bc 6a b3 9f 3d
       0.080567874 0.1058258 -0.015611955 0.077978924
000180 8a 67 b3 3d 74 02 eb 3c 02 4f e5 bd 08 93 03 3e
       0.08759983 0.028687693 -0.1119671 0.12849057
000190 92 08 41 3d 76 24 ea bd 8f d8 86 bd 5c bd c6 3d
       0.047127314 -0.114327356 -0.06584274 0.09704086
0001a0 81 c3 54 3c 05 52 71 bd e0 8f 65 3c be 5f a5 3d
       0.012986065 -0.05891611 0.014011353 0.08074902
0001b0 b7 27 ae bb 50 db b8 bc 90 f6 61 bc 4c 6f d4 bd
       -0.005314793 -0.022565514 -0.013791695 -0.10372791
0001c0 11 ee 1d 3e c0 3f b0 3d d9 41 7c 3d 1d 11 4e bd
       0.15422846 0.08605909 0.061586235 -0.05030929
0001d0 f0 ad 9a bd 01 15 b2 3d 5f 9c bc bc e8 94 91 bd
       -0.07552707 0.086954124 -0.023023782 -0.0710848
0001e0 e3 88 9a 3d b0 d6 54 3c a9 71 59 3c a0 87 7f bd
       0.0754564 0.012990639 0.013271728 -0.0623852
0001f0 61 e2 9d bd 87 8d 08 3e 73 5f 08 bd fc f1 46 bd
       -0.07709194 0.13335238 -0.033294152 -0.048570618
000200 f4 b5 af 3d 01 e9 57 bd 74 16 cf 3d ee 0d dd 3d
       0.08579627 -0.052712444 0.101117045 0.107936725
000210 15 24 a3 bd 46 b7 c9 3c dd 67 27 3d 52 4f 07 3e
       -0.079658665 0.024623524 0.040870536 0.13213852
000220 da 46 17 3d 16 b5 b5 3d 75 15 c1 3d 40 4b 1f 3e
       0.036932804 0.0887243 0.09427921 0.1555605
000230 54 6a 00 3e e0 14 2d 3e e7 88 32 3e 59 54 e0 bc
       0.12540561 0.16902494 0.17435037 -0.02738397
000240 5a 3c a8 bd d1 61 02 3e 50 aa ed bd 50 95 19 3e
       -0.08214636 0.12732626 -0.1160475 0.14998364
000250 8a 73 2e bd 36 96 e3 bd ed 60 f8 3d 21 af 1f 3e
       -0.042590655 -0.11112635 0.12127862 0.1559415
000260 6c fd 0f bd fc cd 80 ba dd 0a 8d 3d 21 43 f0 bc
       -0.03515379 -0.0009827013 0.06886838 -0.029328885
000270 d4 46 66 3d b6 1c 12 3e f3 f2 1d bd a9 0d 00 3c
       0.05621989 0.14268765 -0.038561773 0.007815757
000280 bf 72 16 3d 16 46 3e 3d b0 6c 20 bd fd f6 03 bd
       0.036730524 0.046453558 -0.039166152 -0.03221797
000290 43 2c 04 3e 0c 89 29 3d e3 29 46 bd 5c cb b1 3d
       0.1290751 0.041390464 -0.04837979 0.08681366
0002a0 16 ff 12 3e 52 f5 ca 3d c0 76 19 3c 1a 15 31 bd
       0.1435512 0.099100724 0.009366691 -0.043233015
0002b0 4b bf 32 bc e0 97 94 3c 4e 11 c1 3d 0c 43 7b bd
       -0.010909866 0.018138826 0.09427129 -0.061343238
0002c0 f3 69 a9 3d ca e1 1c 3e 9c 78 33 3e a6 75 ed bd
       0.08272161 0.15320507 0.17526478 -0.11594705
0002d0 9b a5 2f bd 0d 48 d2 3d 25 7c 2d 3e 30 45 fa bc
       -0.042882543 0.10267649 0.16941889 -0.03055057
0002e0 ac 2f 27 bd 48 68 48 3d ad 84 94 3d 94 6d 75 3d
       -0.040816948 0.048927575 0.072518684 0.059918955
0002f0 9c b2 24 3e a8 ff d1 3d 88 ce 30 3c 73 e6 1f 3e
       0.16083759 0.10253841 0.010791428 0.15615253
000300 dc 1e 6e 3d 37 66 e3 3d 75 cc 2b 3d d4 07 57 3d
       0.0581349 0.1110348 0.041943032 0.0524977
000310 59 ff 8c 3d 42 4b 01 bd 40 a4 f2 3d cb 4f fd bd
       0.06884641 -0.031565912 0.118477345 -0.12368735
000320 28 7c 13 3d 32 89 85 ba 7f 40 4f bd 8e c6 4e 3c
       0.036007077 -0.0010187982 -0.050598618 0.012620581
000330 00 fe fe 3d 29 35 21 3d 0b 6c 29 bc 09 ff 89 bd
       0.124507904 0.039357338 -0.010340701 -0.06738097
000340 31 fe 6a 3c 8a 33 15 3d ab 60 5e 3d b1 69 6c 3d
       0.0143428305 0.036426105 0.05429141 0.057717983
000350 74 96 1c bd e2 ce be bd 77 b2 36 3d 75 38 d6 3d
       -0.03822942 -0.093168035 0.04460379 0.10459987
000360 c8 2f b6 bc 7e 63 c6 bd c8 75 fa bc 34 52 a5 bc
       -0.02223958 -0.096869454 -0.03057374 -0.020180799
000370 0e 67 ab 3c 7a c1 14 bd ff 08 4f 3c 1d 0f 8d bd
       0.020923164 -0.036317326 0.012636422 -0.06887648
000380 4d 60 5b bd 50 30 1a bd 34 db 18 bd 68 65 c7 3d
       -0.053558636 -0.03764373 -0.037318423 0.097361386
000390 ce b9 29 3d 10 bd 69 3d 00 53 85 bd 30 e7 03 3c
       0.041436963 0.05706507 -0.065099716 0.008050725
0003a0 e7 38 87 3d 81 47 38 3d 26 36 c2 bd f4 f4 b1 3c
       0.0660265 0.044990066 -0.09482984 0.021723248
0003b0 ce 2a 57 bd f4 9c 6c bd 58 bd a9 bd 64 bc 24 3d
       -0.052531056 -0.05776687 -0.082880676 0.040218726
0003c0 51 8d 68 3c ae d5 a3 3d fc 36 e3 3d 04 ea 0b bd
       0.014193849 0.079997405 0.11094472 -0.03415872
0003d0 6a 81 08 3d 0f 54 99 bd 9c bb 89 bd 04 7c 02 bd
       0.033326544 -0.07486736 -0.06725237 -0.03185655
0003e0 1a d5 47 3d c6 b5 c6 bd b8 7d 80 3d 9e 9d 10 3d
       0.048787214 -0.09702639 0.06273979 0.035306565
0003f0 1f 05 d5 3b 27 d3 a9 bd e7 03 78 bd 35 c5 ee bd
       0.0065008546 -0.08292227 -0.060550597 -0.11658708

hidden_layers.3.bias f4 [64]
000000 2f 9d f4 3d f2 56 d7 3d 29 4c 26 3e ea 6e eb 3c
       0.11944043 0.105146304 0.1623999 0.028739411
000010 2a f3 05 be 5e 08 b6 bd 69 64 a1 3d 54 3f 16 3e
       -0.13081041 -0.08888315 0.0788048 0.14672595
000020 63 2e 55 bb b0 e3 db bd f1 c9 4b bd c0 34 74 bc
       -0.003252887 -0.10736787 -0.049753133 -0.014905155
000030 37 71 d2 3d a0 3a 15 3c 7c 65 67 bd 4e 6c c5 bc
       0.102755 0.009108216 -0.056493267 -0.024099495
000040 33 a1 16 3d 7c fb cb bd 10 77 37 3d 25 40 93 bd
       0.036774825 -0.09960076 0.04479128 -0.07189969
000050 a6 99 b0 3d 0b 8b d6 3d 4e e9 b3 3d bd a0 77 3c
       0.08623056 0.10475739 0.08784734 0.015114007
000060 73 8d ac 3d 77 f6 f0 3d 94 55 be bd bc 13 b7 3d
       0.08425417 0.117657594 -0.092936665 0.08939311
000070 81 dd 17 3e 44 2b 9e bd 94 7b 25 bd 10 bb 43 bd
       0.14830591 -0.07723096 -0.040401056 -0.04778582
000080 70 b8 9b bd fd f6 f4 3d 97 7d 2a 3d 9b 2e 33 bd
       -0.07603538 0.11961172 0.041623678 -0.04374562
000090 54 54 ca bd 1f 56 88 3d 79 22 c8 3d c0 e5 22 bd
       -0.098793656 0.06657051 0.097722 -0.039769888
0000a0 19 b2 1d bd 5f b0 cc bc 7d 01 c0 bc 5d fa cb 3d
       -0.038499925 -0.024986444 -0.02343821 0.099598624
0000b0 98 7a 2f 3d 5c a0 b9 bd 79 45 4d bc 30 6d b6 bd
       0.042841524 -0.09063789 -0.012528771 -0.089075446
0000c0 18 80 8f 3c 02 b0 9a bb b2 ea fc 3d f2 3b 4c bd
       0.017517135 -0.004720689 0.12349452 -0.049861856
0000d0 03 ed 1b 3e b5 34 b5 3d 51 15 d3 3d 1a c1 e3 3d
       0.15227132 0.08847944 0.103068 0.111208156
0000e0 ca 43 1e 3d 27 b4 53 3c 84 35 21 bd bb 3c dc 3d
       0.038638867 0.01292137 -0.039357677 0.10753771
0000f0 cf d5 7f 3d 93 31 8d bd 7c 16 6b 3d 69 86 db 3c
       0.062459763 -0.06894221 0.05739449 0.02679749

output_layer.weight f4 [2, 64]
000000 7e e4 9b 3d b4 cc c5 3d 41 16 04 3e 2e 30 48 3d
       0.07611941 0.09658185 0.12899114 0.048874073
000010 cd 59 99 3c 00 03 9a 3a a4 2a d9 bc 3d c9 5c 3d
       0.018719578 0.0011750162 -0.02650959 0.053902853
000020 84 53 8b 3d 62 3c f0 3d 5f 47 bd bd e0 13 2e 3c
       0.06803039 0.11730267 -0.092421286 0.010624856
000030 09 04 b8 bc d4 22 c7 bd 14 a5 a9 bd 82 a2 02 bd
       -0.022462862 -0.0972344 -0.08283439 -0.03189326
000040 73 32 21 3e 00 9a 36 3c 18 d4 47 3d 3c 30 97 3d
       0.15741901 0.011145115 0.048786253 0.07382247
000050 61 f1 81 bb 7d 18 aa bc 6f c4 d9 bd c9 55 d1 bc
       -0.003965542 -0.02076363 -0.1063317 -0.0255536
000060 47 af 7f bd ce e1 9e 3d 28 4d 30 3d a8 56 1e 3e
       -0.062423017 0.077579126 0.043042332 0.15462744
000070 35 7e 48 3d a0 9c e8 3d 88 71 71 bd 54 f9 8d bd
       0.048948485 0.11357999 -0.058946162 -0.06932321
000080 b8 f7 9e bd fd e6 ff bc d8 2b 09 bd 87 43 05 3d
       -0.07762092 -0.031238073 -0.03348908 0.032535102
000090 6a 23 92 3d 59 1a a3 bd 0f 7c b1 bd c8 65 e9 bc
       0.07135661 -0.0796401 -0.086662404 -0.028490916
0000a0 05 53 09 3e fd 86 eb bd 43 2c 23 3e 5a 8f 0b 3e
       0.13410576 -0.11500356 0.15934853 0.13628903
0000b0 68 51 19 3d 50 77 91 3c ae 24 bd 3d c0 e8 dc 3c
       0.03743115 0.017757088 0.09235512 0.026966453
0000c0 fc 4f bc 3d 28 ab 8b 3d 9f aa 01 3e 2f fc cc bd
       0.09194943 0.06819755 0.12662743 -0.10009038
0000d0 eb bf 24 3e 49 86 20 3e e3 c9 20 3e 83 0c ed 3b
       0.16088836 0.15676226 0.15702014 0.0072341575
0000e0 6d 17 ca bd 0a 4d 30 3e f0 e7 a6 3d 50 0c 22 bd
       -0.09867749 0.17216888 0.08149707 -0.039562523
0000f0 ff 50 d0 3d 69 b4 ac bd 89 a8 83 3d 26 07 c0 3d
       0.10171699 -0.08432848 0.0642863 0.093763635
000100 2a 74 6d 3d e0 10 6e 3c 67 52 e7 bc c4 8d e5 3d
       0.05797211 0.0145303905 -0.028237535 0.1120868
000110 55 dc 81 3d 50 6f 8f 3d 4a 67 2b bd 05 6b 3e bc
       0.06340853 0.07003653 -0.04184655 -0.011622195
000120 a8 2a eb bd 00 bc be bc a5 63 c7 3d 00 58 46 b9
       -0.114827454 -0.023283005 0.097358026 -0.00018915534
000130 70 74 90 bd e0 06 d2 3b 00 cd 42 3b 97 90 b0 bd
       -0.07053459 0.006409511 0.002972424 -0.08621328
000140 74 7e 36 3d b8 4f 67 3d b4 d4 78 bd 84 bf bf 3d
       0.04455419 0.05647251 -0.060749725 0.093627006
000150 62 7b b9 bb 62 41 8d 3d cd 90 aa bd c9 bd 4e 3d
       -0.0056604603 0.068972364 -0.083284 0.050473962
000160 4a ef b9 3d 34 db d3 3d 28 25 f8 bd 77 95 d2 bd
       0.09078844 0.10344544 -0.12116462 -0.102824144
000170 1c b7 12 ba f0 aa 84 3c 28 9c 2b 3d 40 06 87 3c
       -0.00055967434 0.01619479 0.04189697 0.016482472
000180 59 80 c9 3d 78 01 ee 3d 00 41 99 bd d0 d3 7a bd
       0.098389335 0.11621374 -0.07483101 -0.061237156
000190 b0 c9 05 3d 5f f4 98 bd 12 ea fb 3d b4 23 32 bd
       0.032663047 -0.07468485 0.12300505 -0.04349108
0001a0 3f 40 98 bd fb ba a2 3c 94 45 b0 3d b9 f5 ec bd
       -0.07434129 0.01986455 0.08607021 -0.115703054
0001b0 18 4c 80 3d 90 97 ac bc 48 5e 1d 3b 22 85 ff bd
       0.06264514 -0.021068364 0.0024012495 -0.12476565
0001c0 90 1a 4f 3c 26 09 f5 bc 2c 17 81 3b a0 0c 3c 3d
       0.01264061 -0.029911589 0.00393953 0.045910478
0001d0 a6 ad 42 bd d5 34 c5 3d 1c 75 90 bc 45 5a c7 3d
       -0.047528885 0.096292175 -0.017633967 0.097340144
0001e0 51 0c 01 be 06 85 25 bd e8 8d 86 bc bd 73 5a bd
       -0.12602355 -0.040410064 -0.016425088 -0.053333033
0001f0 de 32 73 bd 41 d4 b7 3d 15 a8 e6 bd 1b 45 8e bd
       -0.059374683 0.08976031 -0.11262528 -0.069467746

output_layer.bias f4 [2]
000000 1c b8 e0 3d 9a e6 ce bd
       0.10972616 -0.101025775
