abc_env_raw/saved_models/phi_only_0.7 copy.pt (torch, 72199 bytes, 12 tensors)

input_layer.weight f4 [64, 3]
0	0x3d92e52d	0.07172618
1	0x3f12753e	0.5721015
2	0xbee6788f	-0.45013854
3	0xbde076b4	-0.10960141
4	0x3d00c58a	0.031438388
5	0x3d85c556	0.065317795
6	0xbec04050	-0.37549067
7	0x3e48f25b	0.19623701
8	0x3e951452	0.29117066
9	0xbe809de1	-0.25120452
10	0x3e9b2b77	0.303066
11	0x3d087c67	0.033321764
12	0xbe9c3030	-0.30505514
13	0x3ed05aa1	0.40694144
14	0xbec4db4f	-0.3844857
15	0xbedcb001	-0.4310303
16	0xbf0dd039	-0.5539585
17	0xbee102ad	-0.43947354
18	0xbe5fa4d0	-0.21840215
19	0x3eda637c	0.42654026
20	0x3e3c00e4	0.18359715
21	0x3f03fff7	0.51562446
22	0xbecce337	-0.400171
23	0xbd0fc5aa	-0.035100617
24	0xbdd45e77	-0.1036958
25	0xbf10d272	-0.56571114
26	0x3dbb2343	0.09137585
27	0xbe8f4fc4	-0.27990544
28	0x3eed3f86	0.46337527
29	0x3d820a1c	0.063495845
30	0xbecefd45	-0.40427604
31	0xbed1cfb5	-0.4097878
32	0x3ea36cfb	0.31919083
33	0x3dfe8527	0.124277405
34	0x3e99a567	0.30009004
35	0x3f006704	0.5015719
36	0x3ea8ec77	0.32992908
37	0xbe20a394	-0.156874
38	0xbe89999e	-0.26875013
39	0x3d30ab80	0.043132305
40	0x3f11bf72	0.5693275
41	0x3ea291b2	0.31751782
42	0xbee58f90	-0.44836092
43	0x3e73dae1	0.23813964
44	0x3d28b074	0.041183904
45	0xbeec5966	-0.46161956
46	0x3e35c551	0.17751051
47	0x3f0504c4	0.51960397
48	0x3ebb4818	0.3657844
49	0xbd77dc33	-0.060512733
50	0x3e268f9e	0.16265723
51	0x3e67fb19	0.2265438
52	0xbda0bc55	-0.078484215
53	0xbda885c5	-0.082286395
54	0x3db23657	0.08701771
55	0x3e4ebdaa	0.20189539
56	0xbdf6a53f	-0.12043237
57	0xbc89dca4	-0.016828842
58	0xbe076d5c	-0.13225311
59	0x3ef41f8e	0.47680324
60	0x3d3c9fd2	0.046050854
61	0x3ed04aa0	0.40681934
62	0x3d9a690d	0.07539568
63	0x3e41375a	0.18868771
64	0x3ea01328	0.31264615
65	0x3e55ffdb	0.20898382
66	0xbe949477	-0.2901952
67	0xbeac7045	-0.33679405
68	0xbf0095d1	-0.502286
69	0x3c321c87	0.010871059
70	0x3ee84e3f	0.45372197
71	0xbe9f0117	-0.3105552
72	0x3ecebbb9	0.40377596
73	0xbc70a483	-0.01468766
74	0x3e2c2c8e	0.16813871
75	0x3ebd00bc	0.36914623
76	0xbe8a130b	-0.26967654
77	0x3e45821c	0.19287914
78	0xbe884c5a	-0.26620752
79	0xbeb21335	-0.3478028
80	0x3d4007c9	0.046882425
81	0xbee84e34	-0.45372164
82	0xbd700e3c	-0.058607325
83	0xbdffd0be	-0.12490986
84	0x3e696b2c	0.22794789
85	0xbea23b00	-0.31685638
86	0x3ee11b3e	0.43966097
87	0x3e03b89e	0.12863395
88	0xbef242bc	-0.4731654
89	0x3ebf7c70	0.37399626
90	0xbec90c01	-0.3926697
91	0x3e321974	0.17392522
92	0xbefb1c8e	-0.49045223
93	0x3e35bf3e	0.17748734
94	0xbebe7da7	-0.3720524
95	0xbeb8cac2	-0.36092192
96	0xbe84164d	-0.25798264
97	0x3e5daa78	0.2164706
98	0x3e183d9e	0.14867255
99	0x3dfb8410	0.12281048
100	0x3d496eb8	0.049177855
101	0x3ec08b8d	0.3760647
102	0xbf019ccf	-0.50629896
103	0x3ef37613	0.4755102
104	0x3ebcd454	0.36880744
105	0xbeafc847	-0.34332487
106	0xbb4afe91	-0.0030974487
107	0x3ead2fa6	0.33825415
108	0x3ee4662f	0.4460921
109	0xbd802fe7	-0.06259137
110	0xbf05c51d	-0.52253896
111	0x3ec39f88	0.3820765
112	0xbee71392	-0.45132118
113	0x3eb61851	0.35565427
114	0xbec56bab	-0.38558707
115	0x3cf895e3	0.030344909
116	0x3ea62e79	0.3245733
117	0xbe2d8534	-0.16945344
118	0xbf002442	-0.50055325
119	0xbeec8bdb	-0.4620045
120	0x3ef9e006	0.4880373
121	0xbf153233	-0.5827972
122	0x3f050733	0.5196411
123	0xbeb52f76	-0.35387772
124	0xbec7f4a8	-0.39053845
125	0xbe71e092	-0.23620823
126	0xbee3c73c	-0.4448794
127	0x3ea421a8	0.32056928
128	0xbcce0178	-0.025147185
129	0xbf0671c0	-0.5251732
130	0xbe7e7825	-0.24850519
131	0x3eaaa82b	0.33331427
132	0xbeda90bd	-0.42688552
133	0xbeb119e8	-0.34590077
134	0x3f058aa0	0.5216465
135	0xbe8e1f16	-0.27758092
136	0x3dbb194f	0.091356866
137	0xbed2d55c	-0.41178405
138	0xbf028d61	-0.5099698
139	0xbee00560	-0.437541
140	0x3deca049	0.115540095
141	0xbd99c086	-0.07507424
142	0x3d4e650d	0.05038934
143	0xbef2b00a	-0.47399932
144	0xbefa6da0	-0.48911762
145	0x3d6d3777	0.057914224
146	0xbea05be6	-0.31320113
147	0x3e740629	0.23830475
148	0x3caff7e8	0.021480516
149	0xbea9bcce	-0.3315186
150	0x3e06ad52	0.13152054
151	0x3ed2b3c3	0.41152772
152	0xbd936594	-0.07197109
153	0xbf14ea5f	-0.5817012
154	0x3d92394f	0.07139837
155	0x3eccf592	0.40031105
156	0x3f033614	0.5125439
157	0xbef17350	-0.4715829
158	0x3cf14539	0.029451953
159	0xbd8c48bd	-0.06849811
160	0xbee69cca	-0.45041496
161	0x3f0ac4b7	0.54206413
162	0xbda59a8d	-0.08086119
163	0xbddeb347	-0.10874038
164	0xbf001167	-0.50026554
165	0x3d338084	0.043823734
166	0xbdea20c5	-0.114320315
167	0xbeacb294	-0.33729994
168	0xbed5f594	-0.41788924
169	0x3e650fa2	0.22369245
170	0xbf0acfcd	-0.5422333
171	0x3ee1b0b4	0.44080126
172	0xbecc458f	-0.3989682
173	0x3ea08480	0.3135109
174	0xbedf1ff6	-0.43579072
175	0x3e45fd3a	0.1933488
176	0x3e6db6ff	0.23214339
177	0xbeb01169	-0.34388283
178	0xbda547b7	-0.08070319
179	0x3f0ba5aa	0.5454966
180	0xbe82d9b7	-0.25556728
181	0x3ea63f3f	0.32470128
182	0x3e9a5504	0.30142987
183	0xbec0eb57	-0.3767955
184	0x3d0b391f	0.03399002
185	0x3ef8c088	0.4858439
186	0xbec0ac86	-0.37631625
187	0xbeab45fd	-0.33451834
188	0x3e865261	0.26234725
189	0x3f0701b5	0.5273698
190	0x3f07f9a0	0.5311527
191	0x3e537943	0.20651726

input_layer.bias f4 [64]
0	0x3c19cf5b	0.009387816
1	0x3f043b12	0.51652634
2	0x3e91c0be	0.28467363
3	0x3ea83fc0	0.32861137
4	0x3dd9d3cb	0.106360994
5	0x3e2b1b45	0.16709621
6	0x3e29728c	0.16547602
7	0x3e460ec2	0.19341567
8	0x3ee454d0	0.44595957
9	0xbe785689	-0.2425176
10	0xbc05017c	-0.00811803
11	0xbee25b97	-0.44210503
12	0x3ea00b66	0.31258696
13	0xbe0f9ed3	-0.1402543
14	0x3c4c5aff	0.012472867
15	0xbe3083e0	-0.17237806
16	0x3edc97e3	0.4308463
17	0xbe694aeb	-0.22782485
18	0x3ee7fd0b	0.45310244
19	0xbef8c001	-0.48583987
20	0x3e9f5bd7	0.31124756
21	0xbe980c14	-0.29696715
22	0xbe98e338	-0.29860854
23	0xbdad2934	-0.084551245
24	0x3ec23331	0.3792968
25	0x3ea607fa	0.3242796
26	0xbf05580f	-0.5208749
27	0xbe6174f0	-0.22017264
28	0x3e3fd4d9	0.18733539
29	0xbf0747aa	-0.52843726
30	0x3ea0a725	0.3137752
31	0xbe26d0c5	-0.16290577
32	0x3eeb06cb	0.4590362
33	0xbeed702f	-0.46374652
34	0x3f11ecba	0.5700184
35	0x3ed425f5	0.4143521
36	0x3ead0b47	0.33797666
37	0x3ec463d7	0.38357422
38	0xbebc5641	-0.36784557
39	0xbed05d81	-0.40696338
40	0x3e0504d0	0.12990117
41	0x3e065873	0.13119678
42	0x3e4d129d	0.20026632
43	0xbeadddb9	-0.33958223
44	0x3f0cdfea	0.55029166
45	0x3e5ace0d	0.21367665
46	0xbcf4d02a	-0.029884417
47	0x3efdbcdb	0.49558148
48	0x3ef4e632	0.47831875
49	0xbeb7fef5	-0.35936704
50	0xbdae246f	-0.08503043
51	0x3de4f766	0.1118
52	0x3ee72d61	0.4515181
53	0x3e203661	0.15645744
54	0x3e914202	0.28370672
55	0xbe955dc3	-0.29173097
56	0x3b813005	0.003942492
57	0x3ddc2830	0.10749853
58	0x3f03a82b	0.5142848
59	0x3e6e8c06	0.23295602
60	0xbed6735b	-0.41884884
61	0xbe81496e	-0.25251335
62	0xbe82604d	-0.25464097
63	0x3e88f44a	0.26748878

hidden_layers.0.weight f4 [64, 64]
0	0xbc6039b7	-0.013685635
1	0xbde03e08	-0.109493315
2	0x3db1cd43	0.08681729
3	0xbda64165	-0.08117942
4	0x3d3e6b9b	0.04648934
5	0xbbc1b740	-0.0059117377
6	0x3dc17506	0.094461486
7	0xbd3a57fe	-0.045494072
8	0x3dd73bad	0.10509429
9	0xbd3bd21c	-0.045854673
10	0xbda24460	-0.07923198
11	0xbda7c2e6	-0.08191471
12	0x3d0c6bf9	0.03428266
13	0x3b0210b5	0.0019846384
14	0xbc64d010	-0.013965622
15	0xbd3b7634	-0.045767024
16	0x3d0ec292	0.034853525
17	0xbdcf61ec	-0.10126099
18	0xbd9891b9	-0.074496694
19	0xbdff6342	-0.12470104
20	0x3de53936	0.11192553
21	0xbd59058d	-0.05298381
22	0x3dc9c01e	0.098510966
23	0xbd8266f1	-0.06367291
24	0x3d9abfed	0.07556138
25	0x3c8cb8e3	0.017178005
26	0xbdafa204	-0.08575824
27	0x3ca95488	0.02067019
28	0x3d2f591e	0.0428096
29	0xbdca8462	-0.09888531
30	0xbdd873f5	-0.10568992
31	0xbbcaa0a0	-0.006183699
32	0x3df77cd9	0.1208436
33	0x3df65b5a	0.12029143
34	0x3d98c030	0.07458532
35	0xbd38cdcb	-0.045118134
36	0xbc638379	-0.013886326
37	0xbdedad68	-0.1160534
38	0x3d7520e0	0.059845805
39	0x3dd789dc	0.105243415
40	0x3c79ca55	0.015245994
41	0x3d8c58ce	0.06852876
42	0xbdf1bec7	-0.11803966
43	0xbd1861fc	-0.03720282
44	0x3baa0e85	0.005189719
45	0x3dd2c9e8	0.10292417
46	0xbd02dd6c	-0.031949446
47	0xbd7aae4e	-0.061201386
48	0x3dbaf266	0.09128265
49	0xbde4ee6a	-0.111782864
50	0x3dcff0ac	0.101533264
51	0x3b6ada90	0.003583584
52	0xbd4628b3	-0.048378658
53	0x3d200a73	0.039072465
54	0xbdd4961d	-0.10380194
55	0xbdca8e8c	-0.0989047
56	0xbde17f1a	-0.11010571
57	0x3ba388d0	0.0049906746
58	0xbdd38d4b	-0.10329684
59	0xbe007cb8	-0.12547576
60	0x3da634ec	0.08115563
61	0x3dd7b0e8	0.10531789
62	0xbda4f682	-0.0805483
63	0x3d1cf048	0.038315088
64	0xbd33c626	-0.04389014
65	0x3cb1723d	0.021660918
66	0xbd47627f	-0.048677918
67	0x3d8beb45	0.068319835
68	0x3d357605	0.044302005
69	0x3c3ed0e8	0.011646487
70	0x3d7a3dee	0.061094217
71	0x3dc3a1a1	0.09552313
72	0x3d4c4cd9	0.049877975
73	0x3d6c5d58	0.057706207
74	0x3c5baa09	0.013407239
75	0xbdce78b2	-0.100816146
76	0xbdaa92a0	-0.08328748
77	0xbce97c70	-0.02850172
78	0xbd4dc465	-0.050236125
79	0x3d933bc1	0.071891315
80	0x3d8ab3f7	0.06772607
81	0xbd06c7f1	-0.032905523
82	0x3d4a024b	0.049318593
83	0xbc87a105	-0.016556272
84	0xbd2b786f	-0.0418629
85	0xbdeb86d4	-0.11500326
86	0x3d4f8d17	0.050671663
87	0xbda02437	-0.078194074
88	0xbc8bbb27	-0.017057015
89	0xbc8b6d0e	-0.017019775
90	0xbdcd2f52	-0.10018791
91	0xbdc70452	-0.09717621
92	0xbdd9fb88	-0.10643679
93	0x3de4fd40	0.11181116
94	0x3d7dc766	0.06195774
95	0x3df0ed50	0.11764014
96	0x3d2e6018	0.04257211
97	0x3d747eee	0.059691362
98	0xbdd52538	-0.104074895
99	0x3d50a093	0.050934386
100	0x3d4ec7c5	0.050483484
101	0x3c1f6821	0.009729416
102	0x3d30a680	0.043127537
103	0xbde6f341	-0.11276866
104	0x3d1a2aca	0.037638463
105	0xbc6ab62f	-0.0143256625
106	0x3d896671	0.06708992
107	0xbd9c7d54	-0.07641092
108	0x3d4b1084	0.049576297
109	0xbde8c60e	-0.11365901
110	0xbd8e4209	-0.06946189
111	0x3cd4c78f	0.025974063
112	0x3d8ec7b2	0.069716826
113	0xbdadd9b2	-0.08488788
114	0x3da37753	0.07981744
115	0x3db2da37	0.087330274
116	0xba0b6905	-0.00053180783
117	0x3d33ea29	0.043924484
118	0xbd5987f6	-0.053108178
119	0x3c59b8c3	0.0132886795
120	0xbdff83a4	-0.1247628
121	0xbd387f49	-0.045043264
122	0xbdb6dd23	-0.08928897
123	0xbdd78261	-0.10522915
124	0x3db5ef60	0.08883548
125	0xbd8447e9	-0.06459028
126	0xbd90d360	-0.070715666
127	0xbc8e9cf1	-0.01740882
128	0xbdcf4f60	-0.101225615
129	0xbd709dbe	-0.058744185
130	0xbd47e0dc	-0.048798427
131	0xbd5c6333	-0.05380554
132	0x3df1ab80	0.11800289
133	0x3e0f0558	0.13966882
134	0x3dd193d9	0.10233278
135	0xbca19e8f	-0.019728927
136	0x3dc692a0	0.09695935
137	0xbc95ab69	-0.018270211
138	0x3e043f68	0.12914813
139	0xbd5f6752	-0.054541893
140	0x3c57b5ea	0.01316593
141	0x3d0cb383	0.034350883
142	0x3d704230	0.05865687
143	0x3d9b1512	0.07572378
144	0x3db61948	0.08891541
145	0xbd29006b	-0.041260164
146	0xbd9d7d0a	-0.07689865
147	0x3c934f5d	0.01798218
148	0xbdc41f77	-0.09576314
149	0x3db706ac	0.089368194
150	0x3def73ae	0.11691986
151	0xbdc34e77	-0.0953645
152	0x3e02a1b5	0.12756999
153	0x3caaa1f8	0.020829186
154	0x3d812604	0.06306079
155	0x3dc8cadb	0.098043166
156	0x3d98a17b	0.07452675
157	0xbd33c369	-0.04388753
158	0xbdd787e1	-0.10523964
159	0x3c6463b4	0.013939787
160	0x3da3ce14	0.07998291
161	0x3d6df4c0	0.05809474
162	0xbc747579	-0.014920586
163	0x3e1096f5	0.14120086
164	0xbd6b1d96	-0.057401262
165	0x3d83dde8	0.0643881
166	0xbd9bca3a	-0.07606931
167	0x3d7760d2	0.06039507
168	0x3d665c56	0.056240402
169	0xbdb63c08	-0.08898169
170	0x3d7d2358	0.061801285
171	0xbd15be8b	-0.03655867
172	0xbceca734	-0.028888322
173	0x3dc5a37b	0.09650322
174	0xbde8f062	-0.113739744
175	0xbcbb0007	-0.022827161
176	0x3d54adc7	0.05192354
177	0x3dea24b2	0.1143278
178	0x3db34bc0	0.087546825
179	0xbd4afdef	-0.049558576
180	0xbc307d68	-0.010772087
181	0xbca2e19d	-0.019882971
182	0x3c9a87af	0.018863527
183	0x3c3043a5	0.010758315
184	0x3dd3210a	0.10309036
185	0xbb5bea20	-0.0033556297
186	0x3d75a741	0.05997396
187	0xbd0b62ec	-0.034029886
188	0xbd948d0a	-0.072534636
189	0x3d288b9f	0.041148778
190	0xbdb6c5d9	-0.08924455
191	0x3e1369db	0.1439585
192	0x3dab46eb	0.08363136
193	0xbd8ebed7	-0.069699936
194	0xbd354e74	-0.04426427
195	0xbd27bb65	-0.040950198
196	0xbbad95cf	-0.0052973996
197	0xbda99ad5	-0.08281485
198	0xbd155ce4	-0.03646554
199	0x3cf45994	0.02982787
200	0xbd04a44f	-0.03238326
201	0xbdb06dec	-0.08614716
202	0x3d28db33	0.04122467
203	0xbd05b038	-0.03263876
204	0x3ce45bfb	0.027875891
205	0xbb8dbde0	-0.0043256134
206	0xbdd23ac8	-0.10265118
207	0xbd7a53a8	-0.061114937
208	0xbddd666f	-0.10810553
209	0x3dfc4201	0.12317277
210	0xbd3f609e	-0.046723
211	0x3de4d6a4	0.11173752
212	0x3cecf690	0.028926164
213	0xbd936c74	-0.0719842
214	0x3db7e64f	0.08979475
215	0xbc9f72b1	-0.019463869
216	0x3d0d4a21	0.034494523
217	0x3db59539	0.088663526
218	0xbd81dc56	-0.06340854
219	0x3a927f80	0.0011176914
220	0x3d8afb64	0.0678623
221	0x3d135be1	0.035976294
222	0xbd68e3ab	-0.056857746
223	0x3db8a30b	0.09015473
224	0xbde7b8d7	-0.11314552
225	0xbdeab777	-0.114607744
226	0xbdb2cfe9	-0.08731062
227	0x3d67b090	0.056564867
228	0x3dab53f9	0.08365626
229	0xbdcef023	-0.10104396
230	0x3ddc1430	0.10746038
231	0x3d102736	0.035193644
232	0x3bf4d718	0.0074719302
233	0xbdbeb958	-0.09312695
234	0xbde35180	-0.11099529
235	0x3d09a06d	0.03360026
236	0xbd4514fd	-0.04811572
237	0x3cb35d37	0.021895034
238	0x3db152d6	0.08658378
239	0x3d8526ad	0.065015174
240	0xbd1ffc28	-0.039058834
241	0x3ddcc3cd	0.107795335
242	0x3d0ad5a6	0.033895157
243	0x3df09bef	0.11748492
244	0xbb960dd6	-0.004579286
245	0x3cae86a0	0.021304429
246	0xbd95958e	-0.07303916
247	0xbcf244de	-0.029573854
248	0x3d6486de	0.055792682
249	0x3c1ef71e	0.009702472
250	0x3d4d3565	0.05009975
251	0x3dd7219a	0.10504456
252	0x3bcc6300	0.0062373877
253	0xbd698714	-0.057013586
254	0x3c31b7b5	0.010847022
255	0xbc6fe8e7	-0.014642931

hidden_layers.0.bias f4 [64]
0	0xbd923067	-0.07138138
1	0xbdf7de43	-0.1210294
2	0x3d4e9197	0.050431814
3	0x3d5895dd	0.052877296
4	0x3cb06bc3	0.02153576
5	0x3dd6bfa6	0.10485773
6	0x3dddf337	0.10837405
7	0x3d9a4e70	0.07534492
8	0xbca4c047	-0.020111216
9	0x3e03bf9a	0.12866059
10	0x3d7f9742	0.06240011
11	0x3d0c14e3	0.034199607
12	0x3c925c8e	0.0178664
13	0xbde88ce0	-0.11354995
14	0xbd4cf93c	-0.050042376
15	0x3d9edf8e	0.077574834
16	0xbdc530bb	-0.09628435
17	0x3d8d4e5a	0.0689971
18	0xbdd1af53	-0.102385186
19	0xbd8ec7df	-0.06971716
20	0x3d16ce70	0.036817968
21	0xbdc8b791	-0.098006375
22	0x3e0f8387	0.14015017
23	0x3e005339	0.12531747
24	0x3da94f28	0.08267051
25	0x3d434f11	0.047682825
26	0x3d61e181	0.055146698
27	0x3b94ab98	0.004537057
28	0xbd54878e	-0.051887088
29	0x3d978d45	0.07399992
30	0x3d9b6bcf	0.07588922
31	0x3e13e1ea	0.14441648
32	0x3e0b091a	0.1357769
33	0x3dd00dc0	0.101588726
34	0x3e0bc084	0.13647658
35	0x3da64898	0.08119315
36	0x3cb2f02a	0.021843035
37	0x3dd676e3	0.104718946
38	0x3e0c94b5	0.13728602
39	0x3de4cb02	0.11171533
40	0x3d766ea6	0.060164116
41	0xbd14568c	-0.03621535
42	0xbd922e2a	-0.07137711
43	0x3d105578	0.03523776
44	0x3c84348f	0.016138343
45	0x3e0dc8a4	0.1384607
46	0xbddc4c37	-0.10756724
47	0xbdc39fa1	-0.09551931
48	0x3dceeda6	0.101039216
49	0x3d597ee1	0.053099517
50	0x3e1398a6	0.144137
51	0xbb253d5e	-0.002521358
52	0xbcfe5f51	-0.03105131
53	0x3d8f6789	0.0700217
54	0x3a2332df	0.0006225537
55	0xbde3f8e8	-0.111314595
56	0x3dc9028d	0.0981494
57	0x3ddabfc9	0.10681111
58	0xbc922eb8	-0.017844543
59	0x3b7e375a	0.0038790316
60	0x3d7a1ba4	0.061061516
61	0x3e254bcb	0.16142194
62	0x3d5cdb59	0.053920124
63	0x3d44e977	0.048074212

hidden_layers.1.weight f4 [64, 64]
0	0xbc503109	-0.012707003
1	0xbd70efc1	-0.058822397
2	0x3e075c44	0.1321879
3	0x3da5edc1	0.081019886
4	0x3bcad234	0.006189609
5	0x3e169cd4	0.14708263
6	0x3e1fa505	0.15590294
7	0x3e14c188	0.14526951
8	0xbd3623a3	-0.04446758
9	0xbca3a470	-0.01997587
10	0x3cd875f2	0.026423428
11	0x3be80f23	0.0070818826
12	0x3e1c2315	0.15247758
13	0xbd1370ac	-0.035996124
14	0x3d0f8020	0.0350343
15	0xbb32bf2d	-0.0027274594
16	0xbd73b880	-0.059502125
17	0xbdc850ee	-0.09781061
18	0xbd9393f8	-0.07205957
19	0x3db6cfe5	0.089263715
20	0xbd4697da	-0.04848466
21	0x3d3dcd6c	0.046338484
22	0x3dc92a48	0.09822518
23	0x3d926842	0.07148792
24	0x3d0ebf33	0.03485031
25	0x3c2fcbcc	0.010729741
26	0x3ca7dbae	0.020490494
27	0xbdb5634f	-0.08856832
28	0xbdb58d58	-0.0886485
29	0xbdb0e1d0	-0.0863682
30	0x3ca83fff	0.020538328
31	0x3df5153d	0.119669415
32	0xbc8ebe6e	-0.017424788
33	0x3dc2616e	0.094912395
34	0x3d5b0115	0.05346783
35	0xbd00c6b5	-0.0314395
36	0xbda0d380	-0.078528404
37	0x3d7119f7	0.058862653
38	0xbc87bd38	-0.016569719
39	0x3bad3419	0.0052857515
40	0x3e0f5e5e	0.14000842
41	0xbd5dbe59	-0.054136608
42	0xbd952b48	-0.07283646
43	0x3c1df29b	0.009640361
44	0x3dd009b2	0.10158099
45	0xbd76eace	-0.06028252
46	0x3d62e4d9	0.055394027
47	0xbc608aae	-0.013704939
48	0x3df2b2c3	0.11850502
49	0x3e182684	0.14858443
50	0x3cd8ee7d	0.026480908
51	0x3dd3a808	0.10334784
52	0x3d4d9886	0.050194286
53	0x3b93d3dd	0.00451134
54	0x3d9b0f2c	0.07571253
55	0x3de92cfe	0.11385535
56	0x3dc7b832	0.09751929
57	0x3dd9dd22	0.10637881
58	0xbdfc9282	-0.12332632
59	0x3debe552	0.11518349
60	0x3da53b1a	0.08067913
61	0x3caaeac9	0.020863907
62	0x3d9ed19b	0.07754823
63	0x3d7bdb95	0.061488707
64	0xbdca096a	-0.09865077
65	0xbd0aad7b	-0.03385685
66	0xbd0b521e	-0.03401386
67	0x3d386690	0.045019686
68	0x3c3c83fa	0.011506075
69	0xbd0e0734	-0.03467484
70	0x3d972b14	0.073812634
71	0x3d18923b	0.03724883
72	0x3d86af18	0.06576365
73	0x3d040278	0.032228917
74	0x3cc9c128	0.024628237
75	0xbdb049a2	-0.08607794
76	0xbd100ff4	-0.035171464
77	0x3d8dfc86	0.06932931
78	0xbd037900	-0.032097816
79	0x3db9e226	0.090763375
80	0xbd866a30	-0.065632224
81	0x3d55505d	0.052078594
82	0xbd991f1c	-0.07476637
83	0xbd3a78bb	-0.045525294
84	0xbda6965b	-0.08134147
85	0xbd91b806	-0.07115178
86	0x3e0203b7	0.1269673
87	0x3dae34fb	0.08506199
88	0x3d6fb89c	0.058525667
89	0x3dfff0b5	0.12497083
90	0x3e2b550f	0.16731666
91	0x3dfa1c0b	0.1221238
92	0x3d84a220	0.064762354
93	0xbc4f0b4b	-0.01263697
94	0x3d603002	0.054733284
95	0x3c20a1f3	0.009804237
96	0x3e216279	0.1576022
97	0x3d3bfbb6	0.045894347
98	0xbda93b88	-0.08263308
99	0xbcc86080	-0.024460077
100	0x3d9e1efe	0.07720755
101	0xbd8e85c4	-0.069591075
102	0x3cc3fa07	0.023922933
103	0x3dd48b2b	0.10378107
104	0x3dabb031	0.08383215
105	0xbc580648	-0.013185091
106	0xbde165c7	-0.110057406
107	0xbd2480b8	-0.04016182
108	0x3d8c6b3a	0.06856389
109	0x3c551310	0.013005033
110	0xbd4582c8	-0.048220426
111	0xbd7d949c	-0.061909303
112	0x3dfcb851	0.12339843
113	0xbd02b07d	-0.031906594
114	0x3dc1bd09	0.09459884
115	0x3d8f09e0	0.069843054
116	0x3dde7c12	0.10863508
117	0x3e0ba693	0.13637762
118	0x3e1dd83a	0.15414515
119	0x3d7820d0	0.060578167
120	0xbc6db45e	-0.014508335
121	0x3e16d45e	0.14729449
122	0x3d90a75e	0.07063173
123	0xbd9560ac	-0.07293829
124	0xbb804f94	-0.0039157365
125	0xbd801dd9	-0.06255693
126	0xbd16722a	-0.03672997
127	0xbb2c0a31	-0.0026251192
128	0x3c93375b	0.017970731
129	0x3df3012c	0.11865458
130	0x3db37db0	0.08764207
131	0x3de35ae9	0.11101324
132	0x3dd2fbab	0.10301908
133	0xbd46ec0f	-0.048564967
134	0x3db1436a	0.08655436
135	0xbcb567ba	-0.022144187
136	0xbca9ec77	-0.020742638
137	0x3d59eb8f	0.05320316
138	0xbc6e9328	-0.014561452
139	0x3db08be0	0.08620429
140	0xbc1d50c5	-0.0096017765
141	0xbd8de5be	-0.069285855
142	0xbdb23f4c	-0.08703479
143	0x3d2e8b1d	0.042613138
144	0x3db25193	0.08706965
145	0xbc812139	-0.015762912
146	0x3dbaea60	0.09126735
147	0x3db37b73	0.087637804
148	0xbda2819d	-0.07934878
149	0xbdf2e8d9	-0.118608184
150	0xbb02321c	-0.0019866293
151	0x3e1c1c97	0.15245281
152	0xbd7e7be9	-0.06212989
153	0xbdb1ce32	-0.08681907
154	0xbc1fe127	-0.00975827
155	0xbdc6e5fd	-0.097118355
156	0xbc10155b	-0.008794154
157	0x3da7d90b	0.081956945
158	0x3d3d95c0	0.04628539
159	0xbd49e9b4	-0.049295142
160	0xbc77413d	-0.015091238
161	0x3e1c1ace	0.152446
162	0x3e0d5c34	0.13804704
163	0xbcadae91	-0.021201404
164	0x3d6f39c4	0.0584047
165	0x3d1ea8ec	0.038735315
166	0xbda218f7	-0.07914918
167	0x3d72f624	0.05931677
168	0x3dab968f	0.08378326
169	0xbd899aae	-0.06718956
170	0x3df068ee	0.11738764
171	0x3dff6be8	0.12471753
172	0x3dcfe6a2	0.101514116
173	0xbd1b0f6e	-0.03785651
174	0xbd885a41	-0.066578396
175	0xbd052dc3	-0.032514345
176	0xbd5c0e03	-0.0537243
177	0x3cd0a2e2	0.025468294
178	0x3d9e9a5f	0.07744288
179	0x3d077e55	0.033079464
180	0x3e017bde	0.12644908
181	0x3de76519	0.1129858
182	0x3e1a1bf3	0.15049724
183	0x3d890942	0.06691219
184	0x3df1a1ca	0.11798437
185	0xbcd5d1b2	-0.026100967
186	0x3cab2a18	0.020894095
187	0x3da3b4a4	0.07993439
188	0xbd9ee977	-0.07759374
189	0xbbae3ba7	-0.0053171697
190	0xbcf322e9	-0.029679732
191	0x3e1c41ef	0.15259527
192	0xbdbad177	-0.091219835
193	0xbcf5798f	-0.02996519
194	0x3e11fb2d	0.14255972
195	0xbd6c5d14	-0.057705954
196	0x3d37f812	0.044914313
197	0xbd9c155b	-0.07621261
198	0xbd9f3626	-0.07774
199	0x3dd27741	0.10276652
200	0xbcbe13f3	-0.023202872
201	0x3e179c8d	0.14805813
202	0x3c1c84bb	0.00955313
203	0xbd93c982	-0.07216169
204	0xbb1458d2	-0.002263595
205	0x3c762870	0.0150242895
206	0x3d9e2314	0.07721534
207	0x3d3f7b5f	0.046748515
208	0xbde7b787	-0.11314302
209	0xbd8f432b	-0.06995233
210	0xba9ae392	-0.0011817089
211	0x3d427bcd	0.047481347
212	0x3d802508	0.06257063
213	0xbd4a2d93	-0.04935987
214	0xbd09dd12	-0.033658095
215	0x3d1440a8	0.036194474
216	0x3cbfc851	0.023410948
217	0xbd11be22	-0.035581715
218	0x3c61094b	0.013735126
219	0xbd0eba03	-0.034845363
220	0x3d897b0e	0.06712924
221	0x3e11ae4e	0.14226648
222	0x3deef6f0	0.11668193
223	0x3de84804	0.11341861
224	0x3e1c78a3	0.15280394
225	0x3ce3b0cf	0.02779427
226	0xbd5b562b	-0.053548973
227	0x3e11d4b9	0.14241304
228	0x3e032014	0.12805206
229	0xbcd2af27	-0.025718285
230	0x3ded5484	0.11588386
231	0x3d982395	0.07428662
232	0x3dd202e0	0.102544546
233	0xbcf1433b	-0.029451003
234	0xbd193e12	-0.03741271
235	0xbda4cbc5	-0.080466785
236	0x3db36a5e	0.08760522
237	0x3cf8dc22	0.030378405
238	0x3d3483c9	0.044070993
239	0xbd303fda	-0.043029644
240	0x3c822a97	0.015889449
241	0xbd09e3ce	-0.033664517
242	0xbd716eed	-0.058943678
243	0x3d9574f3	0.07297697
244	0xbd9375df	-0.072002165
245	0x3cf80f63	0.030280774
246	0xbdbbd8a7	-0.091721825
247	0x3db4d8fe	0.088304505
248	0xbd00d241	-0.031450514
249	0x3dd1be68	0.10241395
250	0x3db2220a	0.08697899
251	0x3dddf911	0.10838521
252	0xbdd3e04c	-0.103455156
253	0x3d842ead	0.06454215
254	0x3df3e199	0.11908264
255	0x3e0a1b27	0.1348692

hidden_layers.1.bias f4 [64]
0	0xbdcb9610	-0.099407315
1	0x3dd16d7a	0.10225959
2	0x3e009b29	0.12559189
3	0xbce2e47c	-0.02769684
4	0x3e058a8b	0.13041131
5	0x3d00dc0d	0.031459857
6	0x3dc73e2a	0.09728654
7	0xbd7efc03	-0.062252056
8	0xbdb71a59	-0.08940572
9	0xbca6cc76	-0.020361166
10	0xbdbd1967	-0.09233361
11	0x3d418956	0.047250114
12	0xbd2442ee	-0.04010289
13	0x3d47011c	0.048585042
14	0xbdebcc84	-0.11513618
15	0x3da5c03b	0.08093306
16	0xbd29e014	-0.041473463
17	0xbd497410	-0.04918295
18	0x3d84e24a	0.06488474
19	0xbde09da4	-0.109675676
20	0xbdcec7a0	-0.10096669
21	0x3d57e0f5	0.05270477
22	0x3d07acdb	0.033123832
23	0x3d52a1d0	0.051423848
24	0x3df21876	0.11821072
25	0x3dc54904	0.09633067
26	0xbda94100	-0.08264351
27	0x3e0c4683	0.13698773
28	0x3cf25f7b	0.029586544
29	0x3de0585a	0.10954352
30	0x3dcd83f7	0.10034936
31	0x3cd06ef0	0.025443524
32	0x3da3ef9e	0.08004688
33	0xbddafdbd	-0.10692928
34	0xbdd8d4b1	-0.10587443
35	0x3c090499	0.008362913
36	0xbd193fdc	-0.037414417
37	0xbdad5c4c	-0.0846487
38	0x3cb5f912	0.022213493
39	0xbd77dc36	-0.060512744
40	0xbde41064	-0.11135939
41	0xbd75e288	-0.06003049
42	0x3dda2906	0.10652356
43	0x3db00af9	0.08595843
44	0x3c889398	0.01667194
45	0x3e19bfe6	0.1501461
46	0xbd5d2ef0	-0.05399984
47	0x3e12b1dd	0.14325662
48	0x3c58852b	0.0132153435
49	0x3d85858b	0.06519612
50	0xbdaed3de	-0.08536504
51	0xbd466823	-0.048439156
52	0x3df00a7a	0.11720748
53	0x3d8f7abe	0.07005833
54	0x3dccfff7	0.10009759
55	0x3ddc9549	0.107706614
56	0xbd3347aa	-0.043769516
57	0xbdc5198b	-0.096240126
58	0xbce6dfb3	-0.02818284
59	0x3c09d800	0.008413315
60	0x3d862856	0.06550662
61	0xbd882e33	-0.06649437
62	0x3cc11eab	0.023574194
63	0xbd1016a1	-0.03517783

hidden_layers.2.weight f4 [64, 64]
0	0x3d8aaab5	0.06770841
1	0x3e230f4b	0.15923803
2	0x3def2d24	0.11678532
3	0xbd7bb48c	-0.06145148
4	0xbc8ba78e	-0.01704767
5	0x3d84b030	0.064789176
6	0x3ce3d8cc	0.027813338
7	0xbd4fe027	-0.050750878
8	0xbde44614	-0.11146179
9	0x3d9f844c	0.077889055
10	0x3db12d59	0.086512275
11	0x3dc3437f	0.09534358
12	0x3df35f37	0.11883395
13	0x3d1f1625	0.038839478
14	0xbd90d558	-0.07071942
15	0x3e065604	0.1311875
16	0xbd9b639f	-0.075873606
17	0x3b5a640c	0.0033323793
18	0x3b9ee0e3	0.004848586
19	0x3de26d4c	0.11056003
20	0xbd97f92a	-0.07420571
21	0x3df2e19d	0.118594386
22	0xbd1195af	-0.03554314
23	0x3d1bb3fb	0.03801344
24	0x3e11ddf9	0.14244832
25	0x3dba1984	0.09086898
26	0xbd501bcc	-0.05080776
27	0x3d5655ce	0.052327923
28	0xbdbe5caf	-0.09295022
29	0x3d05edd9	0.032697532
30	0xbcdd1448	-0.02698721
31	0x3dcad3a2	0.09903647
32	0xbdc05444	-0.093910724
33	0xbd0c31c8	-0.034227163
34	0x3d9b52eb	0.07584175
35	0x3c9f3c20	0.01943785
36	0x3d971356	0.07376735
37	0xbd9234bf	-0.07138967
38	0x3c3c4822	0.011491807
39	0xbcf88438	-0.030336484
40	0x3b330dad	0.0027321384
41	0x3de4a572	0.11164369
42	0xbdac2102	-0.08404733
43	0xbd2ee1fa	-0.042695977
44	0xbbcd17a0	-0.00625892
45	0x3c189827	0.00931362
46	0xbdb372e6	-0.087621495
47	0x3df74ab1	0.12074793
48	0x3e13c0ae	0.1442897
49	0x3d86d43b	0.065834485
50	0xbccab033	-0.024742221
51	0xbc02e652	-0.007989483
52	0xbd862188	-0.06549364
53	0xbd528ca9	-0.051403675
54	0x3bf01137	0.007326271
55	0x3d9750b8	0.07388443
56	0x3dee3bd0	0.11632502
57	0xbb540000	-0.0032348633
58	0x3d58f828	0.052971035
59	0x3c8dd048	0.01731123
60	0xbc273e60	-0.010207742
61	0x3cdc5b99	0.026899146
62	0x3dadc152	0.084841385
63	0x3e0675b2	0.13130835
64	0x3e03330a	0.12812439
65	0x3d458696	0.048224054
66	0xbd0dcc6d	-0.034618784
67	0x3dce361a	0.10068913
68	0x3ddf767a	0.109112695
69	0x3dadd2ab	0.08487447
70	0xbd6f49e3	-0.058420073
71	0xbd8dbb6f	-0.06920516
72	0x3c13a835	0.009012272
73	0xbd60423e	-0.054750673
74	0xbd88ed0a	-0.066858366
75	0xbbf133ab	-0.0073608956
76	0x3d02f772	0.031974263
77	0x3d0d6b44	0.034526125
78	0xbd12e14f	-0.035859402
79	0x3dd8fd8a	0.10595234
80	0x3d2ba836	0.041908465
81	0x3bafe0db	0.005367381
82	0xbdb8601d	-0.09002707
83	0x3d3596f8	0.04433343
84	0xbda90e90	-0.08254731
85	0x3d89f559	0.067362495
86	0xbdb1ab5f	-0.086752646
87	0xbdde1066	-0.108429715
88	0x3dcd3ac0	0.10020971
89	0xbc4b6bc0	-0.012415826
90	0xbddc04ec	-0.10743126
91	0x3ddd5305	0.1080685
92	0x3c8846b4	0.016635276
93	0x3c75df49	0.015006849
94	0x3e13fffe	0.14453122
95	0xbdb90049	-0.090332575
96	0xbd377813	-0.044792246
97	0xbd01877c	-0.03162335
98	0xbd0c6fb5	-0.03428622
99	0x3d3ca809	0.04605869
100	0xbd7ab730	-0.061209857
101	0x3dab2b5d	0.0835788
102	0x3e05be67	0.13060914
103	0xbd650949	-0.05591706
104	0xbdd0b5bd	-0.10190914
105	0x3cffd580	0.031229734
106	0xbdb1ee7b	-0.08688065
107	0x3bd09453	0.006365338
108	0xbdc35242	-0.09537174
109	0x3da392f5	0.07987014
110	0xbccbba30	-0.024869055
111	0x3d1d8b58	0.038462967
112	0xbd25dd03	-0.040493976
113	0xbcedd660	-0.029032886
114	0xbbd895b5	-0.0066096433
115	0xbdabc609	-0.083873816
116	0x3a4e8385	0.00078778743
117	0x3b9cf8d8	0.0047904067
118	0xbd455e17	-0.048185434
119	0x3dccb1fa	0.09994884
120	0x3d49944d	0.049213696
121	0xbd6eefad	-0.05833404
122	0x3e0480ae	0.12939712
123	0xbdb6efcc	-0.089324564
124	0x3e066812	0.13125637
125	0x3a9b5c9b	0.001185316
126	0x3d94c8d0	0.072648644
127	0x3e0d5c4d	0.13804741
128	0xbda0e090	-0.07855332
129	0xbd902dc6	-0.070399806
130	0xbd17a328	-0.037020832
131	0x3c53fc40	0.012938559
132	0x3d324eac	0.04353206
133	0xbdb4ccca	-0.08828123
134	0xbd82d03c	-0.06387374
135	0xbac93d80	-0.0015353411
136	0xbd88bfc8	-0.06677204
137	0x3db8ed8e	0.09029685
138	0x3d0fe0f4	0.03512664
139	0xbd517b18	-0.051142782
140	0xbcecbf68	-0.028899863
141	0x3dc8fb00	0.098134995
142	0xbd7e83a4	-0.06213726
143	0xbdd656aa	-0.104657486
144	0xbdbc2834	-0.09187356
145	0xbc5cb300	-0.013470411
146	0x3d3e6618	0.046484083
147	0xbdf03006	-0.1172791
148	0xbbf93d80	-0.0076062083
149	0x3de57ec0	0.11205816
150	0xbd1f395c	-0.03887306
151	0xbd6113d8	-0.054950565
152	0xbd759ab4	-0.05996199
153	0xbd8afe02	-0.067867294
154	0xbd51fb90	-0.0512653
155	0x3ddf9cf8	0.10918611
156	0xbc830e88	-0.01599814
157	0x3ca8b840	0.02059567
158	0x3d0ddf54	0.03463681
159	0xbd0c6774	-0.034278348
160	0xbc9b4d08	-0.01895763
161	0x3c5c90f0	0.01346229
162	0xbd8ea82a	-0.069656685
163	0xbc19dc80	-0.00939095
164	0xbde39414	-0.11112228
165	0xbd02dd9c	-0.031949624
166	0xbdc3f5b2	-0.09568347
167	0x3c8d2c30	0.017232984
168	0x3d57b0d8	0.052658886
169	0xbce14310	-0.027497798
170	0x3cf7eaa0	0.030263245
171	0xbce2c488	-0.027681604
172	0x3d2d2d48	0.04227951
173	0x3db9613a	0.090517476
174	0x3cc76ab0	0.024342865
175	0xbdc285cc	-0.09498176
176	0x3cf80350	0.030275017
177	0x3d60cb88	0.054881603
178	0xbda8243e	-0.08210038
179	0xbdf92818	-0.121658504
180	0xbd29c74c	-0.04144983
181	0x3dfd502a	0.12368806
182	0xbd1ed570	-0.03877777
183	0xbd960fb8	-0.07327217
184	0xbd8fc888	-0.0702067
185	0xbdfb5d96	-0.122737095
186	0xbdb995fc	-0.090618104
187	0xbc8a0820	-0.016849577
188	0xbdcfeed8	-0.10152978
189	0x3ced1428	0.028940275
190	0x3cb65308	0.02225639
191	0xba355c00	-0.0006918311
192	0x3dd3845f	0.10327982
193	0xbbc17a23	-0.0059044524
194	0x3d544c38	0.0518305
195	0x3d23460b	0.03986172
196	0x3d7a3fe8	0.061096102
197	0xbb05e06a	-0.002042795
198	0xbdb3146e	-0.08744131
199	0x3db3c67b	0.087780915
200	0xbdbe6e31	-0.09298361
201	0x3db26816	0.08711259
202	0xbdf4ed90	-0.11959374
203	0xbdf160b4	-0.11786023
204	0xbd653dfc	-0.055967316
205	0xbd022672	-0.031774946
206	0xbd970b16	-0.07375161
207	0x3cf7ac78	0.030233607
208	0x3d8c49d3	0.06850018
209	0x3cab416e	0.020905223
210	0xbb7d0065	-0.0038604971
211	0x3db484c6	0.08814387
212	0x3ceba5a0	0.0287655
213	0xbd7021da	-0.058626033
214	0xbcf77230	-0.030205816
215	0xbdef27bc	-0.116775006
216	0x3d9426b5	0.07233945
217	0xbde1b578	-0.110209405
218	0xbcdadb20	-0.026715815
219	0x3a26de23	0.00063654984
220	0x3db735bb	0.08945795
221	0xbd464426	-0.048404835
222	0xbdc17b7a	-0.094473794
223	0x3d4d0f8d	0.05006366
224	0x3ba9d907	0.0051833424
225	0xbdd4b45f	-0.103859656
226	0x3c7bccfb	0.015368695
227	0x3ddaa3b8	0.10675758
228	0x3db945f2	0.09046544
229	0x3d33aaa1	0.043863896
230	0xbce9b922	-0.028530661
231	0xbceb4200	-0.028717995
232	0xbd26b518	-0.04070005
233	0x3c34b050	0.011028364
234	0x3d12842c	0.03577058
235	0xbca5aa50	-0.020222813
236	0xbd627b90	-0.05529362
237	0xbe0142ff	-0.12623213
238	0xbd957414	-0.07297531
239	0xbd26207c	-0.040558323
240	0xbbf6e92c	-0.0075351205
241	0x3da1bf69	0.07897837
242	0xbddc59cf	-0.10759317
243	0x3cd37256	0.025811356
244	0x3ddd241e	0.107979044
245	0x3d990db0	0.07473314
246	0x3db8054f	0.089853875
247	0xbcdab5f0	-0.026698083
248	0xbd2f1111	-0.042740885
249	0xbc0bcc80	-0.008532643
250	0x3d656720	0.05600655
251	0x3d37279c	0.04471551
252	0xbdacd9a6	-0.08439951
253	0xbd998ca9	-0.07497532
254	0xbb3ba711	-0.0028633515
255	0xbdb2f333	-0.08737793

hidden_layers.2.bias f4 [64]
0	0xbc3ac41b	-0.011399294
1	0xbd293177	-0.04130694
2	0x3c390160	0.011291832
3	0xbd8e87c1	-0.06959487
4	0xbdd6b948	-0.10484558
5	0xbd58416c	-0.052796766
6	0xbdf6aa42	-0.12044193
7	0xbdfc896e	-0.123309
8	0xbcfd5840	-0.03092587
9	0x3da0c9c8	0.07850987
10	0x3db9e6a4	0.09077194
11	0xbd18d814	-0.037315443
12	0xbc029b70	-0.0079716295
13	0x3b9042e0	0.0044025034
14	0x3df6a525	0.120432176
15	0xbd9f07f3	-0.07765188
16	0x3d6c4922	0.057686932
17	0x3ca015d7	0.019541664
18	0x3df8ab85	0.1214209
19	0x3dbdce83	0.092679046
20	0xbcb7b807	-0.022426618
21	0x3deb236a	0.11481364
22	0xbdd975b6	-0.10618155
23	0xbc52775f	-0.012845843
24	0x3e0291a8	0.12750876
25	0xbdc904d0	-0.09815371
26	0x3dc677d5	0.09690825
27	0x3dc44852	0.095841065
28	0xbd43db0a	-0.047816314
29	0xb9eb96ca	-0.0004493504
30	0x3d97d632	0.074139014
31	0x3d9b0f7f	0.07571315
32	0xbdd9e2c2	-0.10638954
33	0x3dd75a06	0.105152175
34	0xbdf03ee2	-0.11730744
35	0x3da7c354	0.08191553
36	0x3e0036a7	0.12520848
37	0x3dbc80a2	0.09204222
38	0xbde758be	-0.11296223
39	0x3dde4bee	0.10854326
40	0xbde3a242	-0.111149326
41	0x3d94d392	0.07266916
42	0x3a345a4e	0.00068799115
43	0xbd680780	-0.056647778
44	0x3dae30e6	0.085054204
45	0xbdafab08	-0.085775435
46	0x3bd175eb	0.0063922307
47	0xbdbf69bc	-0.09346339
48	0x3d7abf0c	0.061217353
49	0x3d1e82d0	0.03869897
50	0x3e083fb9	0.13305558
51	0xbd82c302	-0.06384851
52	0xbd19ec8e	-0.03757911
53	0x3e00785e	0.12545916
54	0xbd035584	-0.032063976
55	0x3c7108c4	0.014711563
56	0x3df0917d	0.117465
57	0x3db81827	0.08988982
58	0xbd98154c	-0.07425937
59	0xbca290a0	-0.019844353
60	0xbd405547	-0.046956327
61	0xbcc08e10	-0.02350524
62	0x3d5a9024	0.05336012
63	0xbc1e1798	-0.00964918

hidden_layers.3.weight f4 [64, 64]
0	0x3e036369	0.1283089
1	0x3df7b763	0.12095525
2	0xbdb07670	-0.0861634
3	0xbdaaaaf3	-0.08333387
4	0x3cf0e618	0.029406592
5	0xbd3673b0	-0.044543922
6	0x3d32d514	0.04366024
7	0x3bef2780	0.00729841
8	0x3dc0ed5a	0.09420271
9	0x3e0747da	0.13211003
10	0xbdae38ac	-0.08506903
11	0x3e13d7f5	0.1443785
12	0xbc0b3780	-0.008497119
13	0x3d6cf980	0.05785513
14	0x3d5707ad	0.052497555
15	0x3d0ee377	0.034884896
16	0x3d8e0f7e	0.06936549
17	0xbae02aaa	-0.0017102559
18	0x39cfe78e	0.00039654638
19	0x3e1d2e3c	0.15349668
20	0x3df619d7	0.12016647
21	0xbb5db408	-0.003382923
22	0x3da408aa	0.08009465
23	0x3d193f1c	0.0374137
24	0xb9574c8f	-0.00020532518
25	0x3ba08be0	0.004899487
26	0x3d87bdb5	0.066279806
27	0x3d65dbaa	0.05611769
28	0xbda2bd9e	-0.07946323
29	0x3e18eeef	0.14934896
30	0xbd77577b	-0.060386162
31	0x3d8d17df	0.06889319
32	0xbdc71f38	-0.097227514
33	0xbd87f656	-0.06638782
34	0x3dbfbdca	0.09362371
35	0xbdd44e0e	-0.1036645
36	0xbccdb35c	-0.02510994
37	0xbde5bb03	-0.1121731
38	0x3da9bf2c	0.08288416
39	0x3d3982ec	0.045290872
40	0x3d80fa54	0.06297746
41	0x3e11c8b6	0.14236721
42	0x3d948464	0.07251814
43	0xbbb2be40	-0.0054548085
44	0xbcc91e20	-0.024550498
45	0xbc264140	-0.010147393
46	0xbd3f7f71	-0.046752397
47	0xbdc3b286	-0.09555535
48	0x3dc08f80	0.094023705
49	0x3dc18745	0.09449629
50	0xbd543fa4	-0.051818505
51	0xbce54fff	-0.027992247
52	0xbddc6c72	-0.10762872
53	0x3dcc4e9b	0.0997593
54	0x3a612500	0.0008588582
55	0x3d91de3a	0.071224645
56	0xbd18455c	-0.03717552
57	0x3da78ff0	0.08181751
58	0x3dbdbc68	0.09264451
59	0xbc1fb350	-0.009747341
60	0x3e00f3e2	0.12593034
61	0xbbd4b160	-0.0064908713
62	0xbd4ab8c3	-0.04949261
63	0x3dc403b2	0.09571017
64	0x3bbc9a70	0.005755715
65	0xbd01f3ba	-0.031726576
66	0x3c7ea9d0	0.015543416
67	0xbd164729	-0.036688957
68	0xbd8b5b48	-0.0680452
69	0xbd957894	-0.07298389
70	0x3dd5b240	0.10434389
71	0xbd8160d6	-0.06317298
72	0x3dd493ae	0.1037973
73	0xbda22197	-0.07916563
74	0xbc913441	-0.017725112
75	0x3e202561	0.15639259
76	0x3d8500b8	0.06494278
77	0xbc360b10	-0.011111036
78	0x3ddc28ee	0.10749994
79	0x3de89c2d	0.11357913
80	0x3e195011	0.14971949
81	0xbde892b0	-0.113561034
82	0x3dd0463b	0.101696454
83	0x3e044e20	0.12920427
84	0x3daba735	0.083815016
85	0x3e0ca067	0.13733064
86	0xbd892f6c	-0.06698498
87	0xbd3df8e2	-0.04637993
88	0x3e118bd3	0.14213495
89	0x3d8490b4	0.064729124
90	0x3e18947e	0.14900395
91	0x3e05cd1b	0.13066523
92	0x3e18a2d6	0.14905867
93	0x3dafb017	0.08578508
94	0x3e27435c	0.1633429
95	0x3e1c3a75	0.15256675
96	0xbdcee82e	-0.101028785
97	0xbd82e2e8	-0.06390935
98	0xbd5b4360	-0.05353105
99	0xbd3bf768	-0.04589024
100	0xbd216d77	-0.039411034
101	0x3dc2b93b	0.09507986
102	0x3dde84b6	0.10865156
103	0xbc555460	-0.013020605
104	0x3d4707dc	0.04859148
105	0xbd88a2d5	-0.06671683
106	0x3cf625bc	0.03004729
107	0xbd6d564c	-0.057943627
108	0xbca6e47f	-0.020372627
109	0x3c9f2fe8	0.019432023
110	0x3b1ec452	0.0024225903
111	0x3d169514	0.036763266
112	0xbd8f78dc	-0.07005474
113	0xbd3d44a3	-0.046208035
114	0xbda0ed04	-0.07857707
115	0x3c184d4a	0.009295771
116	0x3d96d400	0.073646545
117	0x3d4dbcf8	0.050229043
118	0xbdb856e8	-0.09000951
119	0xbd24eaf9	-0.04026315
120	0x3dd4398e	0.1036254
121	0x3ddcf00a	0.10787971
122	0xbdfdb2e5	-0.12387637
123	0x3d843fdc	0.06457493
124	0x3d093cc5	0.03350522
125	0x3de6c5a0	0.11268163
126	0x3dc79d18	0.0974676
127	0x3dde7ec4	0.108640224
128	0xbddcccb1	-0.10781229
129	0x3dde23c9	0.10846669
130	0xbdb4e630	-0.08832967
131	0x3df03726	0.11729269
132	0xbd3fb6f0	-0.046805322
133	0xbdcbe606	-0.09955983
134	0x3dbcde0c	0.092220396
135	0x3d7cb698	0.061697572
136	0x3da97524	0.08274296
137	0xbdb65fcb	-0.0890499
138	0xbd8573f3	-0.06516256
139	0xbd9c7bca	-0.076407984
140	0xbd07cb68	-0.033152968
141	0xbd4c0ae0	-0.04981506
142	0x3d6bdccd	0.05758362
143	0x3de9ec58	0.11422032
144	0x3d639a0f	0.055566844
145	0xbcd565a0	-0.026049435
146	0x3d95061d	0.07276557
147	0x3d901ddf	0.070369475
148	0x3d91259e	0.07087253
149	0x3dcfcfe8	0.10147077
150	0x3da22cea	0.07918723
151	0xbdb5c37c	-0.08875176
152	0xbde3c564	-0.11121634
153	0x3db2d208	0.087314665
154	0x3d18f093	0.037338804
155	0x3dc5db2e	0.09660946
156	0xbdff2064	-0.1245735
157	0xbd9cb8e4	-0.076524526
158	0xbde36461	-0.1110313
159	0xbc6f258b	-0.014596353
160	0xbdbe4b50	-0.092917085
161	0x3c715dc6	0.01473183
162	0x3a57a300	0.0008225888
163	0x3daa87ff	0.083267204
164	0xbe018e45	-0.12651928
165	0xbd74134f	-0.059588727
166	0x3df5c816	0.12001054
167	0xbdd62b65	-0.104574956
168	0x3df27da8	0.11840373
169	0x3d5e2ddf	0.054242965
170	0xbdb76ebf	-0.0895667
171	0xbd801ec2	-0.062558666
172	0x3d44898c	0.047982737
173	0x3c20fbb0	0.009825632
174	0x3d804eeb	0.062650524
175	0x3dc8a17a	0.09796424
176	0xbddce503	-0.10785868
177	0x3de1c739	0.11024327
178	0x3d02a2a2	0.03189338
179	0xbc47f920	-0.012205392
180	0x3c7effe0	0.015563935
181	0x3d04392f	0.032281097
182	0x3d6b54f4	0.057454064
183	0xbcb84c4f	-0.022497324
184	0x3bf4fb8b	0.0074762753
185	0xbb99672d	-0.004681489
186	0x3c87b4b8	0.016565666
187	0xbc90f868	-0.017696574
188	0xbd78cf94	-0.060744837
189	0x3ddd1bce	0.10796319
190	0xbc04fa3f	-0.008116304
191	0x3d982189	0.07428271
192	0x3c17c140	0.009262383
193	0x3d986fa0	0.07443166
194	0xbddf4f5c	-0.109038085
195	0xbdeb1afc	-0.11479756
196	0xbd430610	-0.047613204
197	0xb9d40000	-0.0004043579
198	0x3cd30fd8	0.02576439
199	0xbd759698	-0.05995807
200	0x3d148d9c	0.03626786
201	0xbd39ef58	-0.04539427
202	0xbd6f65b8	-0.058446616
203	0xbdd670a0	-0.104707
204	0x3df76a9c	0.12080881
205	0xbc44e940	-0.012018502
206	0xbdc12886	-0.09431557
207	0xbd1ab980	-0.037774563
208	0x3b918b20	0.004441634
209	0x3d6af480	0.05736208
210	0xbdb00c88	-0.0859614
211	0xbd97876c	-0.073988765
212	0xbde2416a	-0.11047633
213	0xbdde4ec4	-0.10854867
214	0xbcc078e8	-0.023495153
215	0x3d2e7c28	0.042598873
216	0x3a9aa000	0.0011796951
217	0x3da5b166	0.08090477
218	0xbd0a9d7c	-0.033841595
219	0xbce54140	-0.027985215
220	0xbb8b2800	-0.0042467117
221	0xbdcd5a0e	-0.10026942
222	0x3da52fe6	0.080657765
223	0x3cfc5528	0.030802324
224	0x3d7c6698	0.06162128
225	0xbd341cd0	-0.04397279
226	0x3cfcb910	0.030849963
227	0x3dd1fbf6	0.10253136
228	0xbda27bca	-0.07933767
229	0xbd1c4310	-0.038149893
230	0xbd9aa040	-0.075500965
231	0xbd4aa2a4	-0.049471512
232	0x3da5a882	0.08088781
233	0xbce266e8	-0.02763696
234	0xbce0a310	-0.027421504
235	0xbd691664	-0.05690612
236	0xbd9b33ee	-0.07578264
237	0x3be3a900	0.0069476366
238	0x3dda9b76	0.10674183
239	0x3dcdb5ae	0.10044418
240	0xbd83d06e	-0.06436239
241	0x3dc1bd84	0.09459975
242	0xbc186250	-0.009300783
243	0x3a2cd400	0.000659287
244	0x3d90f7c8	0.070785105
245	0xbd6f3804	-0.05840303
246	0xbd4f5894	-0.050621584
247	0xbd6ca024	-0.05776991
248	0xbc92d978	-0.017925963
249	0xbd3eed6c	-0.046613142
250	0xbd27fcac	-0.04101245
251	0xbc63d2a0	-0.013905197
252	0x3d0b48f0	0.034005105
253	0x3c9b14c0	0.018930793
254	0x3d90e2f2	0.070745364
255	0xbd9302d4	-0.07178274

hidden_layers.3.bias f4 [64]
0	0xbd14fab8	-0.036371917
1	0x3de6eb2a	0.11275323
2	0xbd7a2b26	-0.061076306
3	0xbd8c3714	-0.06846443
4	0x3d45b89b	0.048271757
5	0x3e041982	0.12900355
6	0xbd7d4296	-0.06183108
7	0xbdb8569f	-0.09000897
8	0x3e08427c	0.13306612
9	0xbd74d110	-0.05976969
10	0x3dfbd085	0.12295631
11	0x3d5140f4	0.051087335
12	0x3dfc3927	0.123155884
13	0x3d0b515c	0.034013137
14	0x3bd35526	0.0064493595
15	0xbd3dc09b	-0.04632626
16	0xbda33d3c	-0.07970664
17	0xbddcc2b3	-0.107793234
18	0x3ddff418	0.10935229
19	0x3bc31e40	0.005954534
20	0xbbace020	-0.005275741
21	0x3d774267	0.06036606
22	0x3e11e8ac	0.14248914
23	0x3ac8b600	0.0015313029
24	0xbd416c10	-0.047222197
25	0x3b69fb63	0.0035702817
26	0x3ca077d4	0.019588389
27	0x3d5837fc	0.052787766
28	0xbdc33d96	-0.09533231
29	0x3dd13ef3	0.10217085
30	0xbb879a85	-0.004138293
31	0xbda00706	-0.078138396
32	0xbd181434	-0.037128642
33	0x3df9667e	0.12177752
34	0x3e03b48e	0.12861845
35	0xbd8ea1ed	-0.06964479
36	0xbdcb596c	-0.09929165
37	0x3c14ae8c	0.009074818
38	0x3dc6a6e7	0.09699803
39	0x3ca2a960	0.019856155
40	0xbd878186	-0.066165015
41	0x3da5b595	0.08091275
42	0x3dc9833c	0.09839484
43	0x3de292ef	0.110631816
44	0xbc42e082	-0.011894347
45	0x3e0701ff	0.13184355
46	0x3c9d95a8	0.0192364
47	0x3c18bda0	0.009322554
48	0xbd4fc7a4	-0.0507275
49	0x3dcd4360	0.100226164
50	0x3dc7f935	0.09764329
51	0x3d3d183c	0.04616569
52	0x3c8d1394	0.01722125
53	0xbccd9d58	-0.025099441
54	0x3de33eb8	0.11095947
55	0xbde25439	-0.110512204
56	0xbdadc84f	-0.084854715
57	0xbdc0b42a	-0.094093636
58	0x3da7921f	0.08182167
59	0xbd940d20	-0.07229066
60	0x3e0c9a09	0.13730635
61	0xbdb42558	-0.08796185
62	0x3d8219ba	0.06352563
63	0x3e046ef3	0.12932949

output_layer.weight f4 [2, 64]
0	0x3d4ce2a5	0.050020833
1	0x3c2a8c99	0.010409498
2	0xbd1eec0c	-0.03879933
3	0xbdbb892a	-0.09157021
4	0x3daf4699	0.08558387
5	0x3d398925	0.045296807
6	0xbdb61f7a	-0.088927224
7	0x3cc23322	0.023706023
8	0x3db6dcd0	0.089288354
9	0xbdb1d05b	-0.08682319
10	0xbb718be2	-0.0036857058
11	0x3d8f2baa	0.0699075
12	0x3dda04a0	0.106454134
13	0x3dd0b2b3	0.10190334
14	0xbd5302e9	-0.051516447
15	0xbc8a610c	-0.016891979
16	0xbde46d66	-0.111536786
17	0x3d13f0e7	0.036118414
18	0x3d3ba651	0.04581291
19	0xbd85b656	-0.065289184
20	0xbdd44580	-0.103648186
21	0x3e069fb3	0.13146858
22	0x3dcd2de5	0.10018519
23	0x3d4d8064	0.05017127
24	0x3df7de0c	0.12102899
25	0xbdaa2c3e	-0.0830922
26	0x3c0d162f	0.008611246
27	0x3dca0260	0.09863734
28	0xbdb6b55e	-0.08921312
29	0xbda8a4a3	-0.08234527
30	0x3a85c99e	0.0010207181
31	0xbbf9a1dd	-0.0076181726
32	0x3dfbdd22	0.12298037
33	0x3d3e67d1	0.046485726
34	0x3bb2a37e	0.0054516187
35	0xbc35699d	-0.011072543
36	0xbd9facdc	-0.07796642
37	0x3e10de7b	0.1414737
38	0x3dde86c9	0.10865552
39	0x3d25559c	0.040364847
40	0xbca810e0	-0.02051586
41	0xbd7cb143	-0.061692487
42	0x3da34a0c	0.07973108
43	0x3c6fd705	0.014638667
44	0x3e01e678	0.12685573
45	0x3ddd6aac	0.10811362
46	0x3dbf1816	0.09330766
47	0xbc183914	-0.009290952
48	0xbd4a4c18	-0.049388975
49	0xbdcc8316	-0.0998594
50	0x399f9c36	0.0003044323
51	0xbdb22cec	-0.086999744
52	0xbddb7c32	-0.10717048
53	0xbda0f160	-0.07858539
54	0x3e024622	0.12722066
55	0xbd4a0b52	-0.049327202
56	0x3ce95956	0.028484982
57	0x3bb135e0	0.0054080337
58	0xbd22d14e	-0.03975039
59	0x3d0def80	0.034652233
60	0x3dfdb043	0.12387135
61	0x3db00b9b	0.085959636
62	0xbc9424f6	-0.01808403
63	0x3d3522d5	0.04422267
64	0xbe058d17	-0.13042103
65	0xbd883764	-0.0665119
66	0x3c338f26	0.010959422
67	0xbceb5a80	-0.028729677
68	0xbe0d7a82	-0.13816264
69	0xbd10cab4	-0.035349563
70	0x3da85a31	0.08220328
71	0x3da33c2a	0.0797046
72	0xbcc8491e	-0.024448927
73	0x3db62d98	0.08895415
74	0xbddc65ed	-0.10761628
75	0xbda4e6fe	-0.08051871
76	0x3cac8fe1	0.0210647
77	0x3d6e1f9b	0.05813561
78	0xbd1ea51b	-0.038731676
79	0x3d8f5f14	0.070005566
80	0x3c5283d0	0.012848809
81	0xbdf5e786	-0.1200705
82	0xbe0d00a3	-0.13769774
83	0x3de8307a	0.11337371
84	0xbd900a0e	-0.07033168
85	0xbe18c529	-0.1491896
86	0xbd41dd69	-0.047330294
87	0x3d68314c	0.05668764
88	0x3df5d676	0.12003796
89	0x3df2f99b	0.11864015
90	0xbdf3a1e1	-0.1189611
91	0xbd8f7f3a	-0.070066884
92	0x3d53c2bf	0.051699396
93	0x3c26a7cc	0.010171842
94	0x3d9fa186	0.0779448
95	0xbdf6a49b	-0.12043115
96	0xbd8bcc18	-0.06826037
97	0xbd63f62a	-0.055654682
98	0xbdabe587	-0.08393388
99	0x3dc2051b	0.0947363
100	0xbc305980	-0.010763526
101	0x3c3508be	0.011049448
102	0xbc5a9080	-0.013340116
103	0x3d8de744	0.06928876
104	0xbc87a8d8	-0.016560003
105	0x3d98d5db	0.07462665
106	0xbc34503b	-0.011005457
107	0xbe06e24b	-0.13172261
108	0xbe1c0352	-0.15235642
109	0x3d8c8a0c	0.06862268
110	0xbd9f049e	-0.077645525
111	0x3d69ebc8	0.057109624
112	0x3d47b980	0.04876089
113	0x3de6b777	0.11265462
114	0x3dabfda2	0.08397986
115	0xbbb82ad7	-0.0056203413
116	0x3d4fdc7a	0.050747372
117	0xbdbf4e58	-0.09341115
118	0x3d9647dd	0.073379256
119	0xbdf7aa87	-0.120930724
120	0x3c98babe	0.018643733
121	0xbd5fa914	-0.054604605
122	0xbcc20afe	-0.023686882
123	0xbd4313b4	-0.047626212
124	0x3d78f77e	0.060782902
125	0xbdd4ed99	-0.10396881
126	0x3d5d82fd	0.05408
127	0xbd437313	-0.047717165

output_layer.bias f4 [2]
0	0x3ddd7924	0.10814121
1	0xbd8973da	-0.0671155
