synthetic_flows_raw/saved_models/phi_only_0.1.pt (torch, 16963 bytes, 10 tensors)

input_layer.weight f4 [32, 3]
00000000: e0b5 a23e 5975 113f 860c 08bf 85c4 a6be
00000010: 80f5 b2be d0de d23e f889 d23e 5e2e 78be
00000020: 9275 de3e 952a ec3e 8939 70bd b206 90be
00000030: 4a18 0bbf b90f 853e 7d74 41be 5c15 873e
00000040: af2e abbe e34d a53e adde 5a3e 9753 c4bd
00000050: 4969 c4be b3c8 e7be 8c27 a9bd 6c8d 8f3e
00000060: 7c71 293c ee9b b4be 267b 0e3f 356d 913e
00000070: 5116 88be 2b27 77be 672b 3c3e fb9c 0d3d
00000080: d3dc d9be 1281 7fbe b73b 30be 96a8 0c3f
00000090: 86fc 653e 569d adbe 704b 66bb 3cdf 123f
000000a0: dbae 8cbe b15a 583e e6f2 eb3e 3e15 a13e
000000b0: 7d48 0fbe 174c cabe a6f1 f13e a505 d63d
000000c0: 73f3 dbbe c1f9 993e 76ba 0fbf 67c2 9fbd
000000d0: 3bda aebe 7b70 473d 3931 ee3e 39f2 0e3e
000000e0: 337d 8bbe 53e2 b93e 8518 debe f442 8d3e
000000f0: a1e4 b43e fe0b 42be 8f85 e23e 6fba cdbd
00000100: 401b 82be 7ae3 8cbe a276 cbbd 0174 15bf
00000110: 4df4 68be c754 0b3f 42bc aebd 68f6 ddbe
00000120: 0623 9e3e df31 3f3e 92e6 583e 2b7d 86be
00000130: c811 c9be 12b1 ff3d b77a f93e d2bc b23d
00000140: fc62 71be 3974 e6be 3fd4 a93e e892 053f
00000150: 8449 08be ffa4 52be 5c47 a03e 2573 163f
00000160: 8d22 0cbf 60d0 883e 4221 143f 6bde 453e
00000170: ea81 813e 9904 fbbd 5bef e7be f980 113f
0.31779385 0.56819683 -0.5314411 -0.32571808 -0.34952927 0.41185617 0.41120887 -0.24236438
0.43449074 0.46126238 -0.05864862 -0.28130108 -0.5433394 0.25988558 -0.18892093 0.26383483
-0.33434054 0.32285985 0.21374007 -0.09586256 -0.38361576 -0.4527031 -0.08259496 0.28037584
0.010341998 -0.35275215 0.5565666 0.2840363 -0.26579526 -0.24136035 0.18375932 0.034573536
-0.42551288 -0.2495158 -0.1721028 0.5494474 0.22459611 -0.339091 -0.003514018 0.5737188
-0.27477154 0.21128346 0.46083754 0.3146152 -0.13992496 -0.39511177 0.47254676 0.10450295
-0.42959175 0.3007336 -0.5614389 -0.07800751 -0.34150872 0.048691254 0.4652193 0.13959588
-0.27243957 0.36305484 -0.43378082 0.27590144 0.3533068 -0.18949887 0.44242522 -0.10045325
-0.25411415 -0.275173 -0.09934737 -0.5838013 -0.22749443 0.54426235 -0.08532001 -0.43352056
0.30886096 0.18671368 0.21181706 -0.2626737 -0.3927138 0.12484945 0.48726436 0.08727421
-0.23572916 -0.45010546 0.33169743 0.52177286 -0.13309294 -0.20570754 0.31304443 0.58769447
-0.5474022 0.26721478 0.5786325 0.19323127 0.2529443 -0.12256736 -0.452998 0.5683742

input_layer.bias f4 [32]
00000000: a493 47bd 5471 a3be 14e4 cc3e 6c34 02bf
00000010: 5fc9 c3be 99d2 97be bef4 823e 5dde f83e
00000020: b2fd 03bf cee6 283f b753 f9be 74c5 5cbe
00000030: a7a7 1f3f d666 a23d 6a90 ebbe 3051 4c3d
00000040: 2540 b7bd 8cd9 743d 6fd2 073f 896e 79be
00000050: 1596 92be a434 c43e 7649 ca3e fb8b 903e
00000060: f705 183f 0bc5 093e 2bf0 73be 8c90 163e
00000070: d3f3 e6be 032a 653e 89c0 da3d f097 033f
-0.048724785 -0.319224 0.4001776 -0.5086124 -0.3823957 -0.2965286 0.25577348 0.4860715
-0.51558983 0.6597718 -0.48696682 -0.21559697 0.6236519 0.07929771 -0.46008617 0.049882114
-0.089477815 0.05977778 0.5305547 -0.24358572 -0.28630129 0.38321412 0.3950917 0.28231797
0.593841 0.13454072 -0.23822086 0.14703578 -0.45107898 0.22379307 0.106812544 0.51403713

hidden_layers.0.weight f4 [32, 32]
00000000: 2f15 cb3d 7051 ebbd f0d6 d93d 338d c63d
00000010: 1207 07be ae28 d1bd 7d3e 523d ac19 463e
00000020: c35a 333e 31d2 ec3d 301c 32bd 602c c93c
00000030: 7e5d b3bd de73 bc3d 6e00 e13d 2b3b 453c
00000040: 0fe6 cb3d a9b9 70bd f75a 233e 53a7 24bc
00000050: dd6e f9ba 0eb8 853d 94ee d03c 5b83 a73d
00000060: 3630 5a3e 7156 3d3e accf 3bbd 1481 393e
00000070: 43d3 bc3d bdeb f0bd 48dc 413e 6405 b73d
00000080: 5a03 e7bd 7352 0bbd 6695 1a3e e9c7 d7bd
00000090: 575b ccbd 89c8 403e 743c bc3b c153 1fbc
000000a0: 9a4f adbd e95d b13d a7b4 62bd c801 5abd
000000b0: 76a4 8a3d 9640 1ebe f60f 2dbe 5c89 eb3d
000000c0: 6ab2 b43d 2f31 5dbd e63d 85bd 2961 fe3d
000000d0: 0334 fc3c 0120 423e 1b70 853d 51c3 f7bd
000000e0: 3ce5 363e f437 2ebc 39bd 33be 148d aabd
000000f0: 8986 15be ca85 e23d 8f78 82bd 8f55 983d
00000100: 5b34 0e3d 49f0 483c 8b6d 203d 3422 783d
00000110: 485f 1cbe 6aa6 183e bda1 0b3d 6465 d03d
00000120: b2b7 373e dc1f 623d a4b9 273e 80ec b3bb
00000130: ee5c cd3d f3fe 453e 609a bf3d f9df 71bc
00000140: b8ff 78bd 7258 3b3e e87c 503e e32c 1b3e
00000150: bf2d 193e 560a cabd 5694 a33c 0a6a c53d
00000160: b523 f4ba 7e2d be3d cc00 ddbd 6f38 00be
00000170: 7910 29be 25da 50bc a897 a53c 15b2 4f3e
00000180: d4ec 073e bc6f 033d 8d65 ae3b 6770 e9bd
00000190: 16c3 2f3e 0411 34bc e081 9b3d ccdd cbbc
000001a0: d9df 293e 979c 90ba e72e 95bd 75f0 da3d
000001b0: 511a 29bd 1ad1 1c3d f82b 14be 1471 e8bd
000001c0: 6d54 c33d 108e 223e 2394 26be 1b7d f13d
000001d0: ea8c fb3d 7487 15be 9cde 2a3a b8d4 b23d
000001e0: b9f5 e3bd d157 3bbd ecc1 58bd 097f f639
000001f0: 6ff3 86bb 3258 6c3d 6445 ee3d 74a0 39be
00000200: 0b2d 0abd 8384 c4bb 8690 ebbc 0ac3 ea3c
00000210: 048d e83c 6c72 033e d7a9 18be b3df 1d3d
00000220: c94e 2dbe 8b33 0cbe 5080 883d eaa7 103d
00000230: 7251 f4bd a855 2cbe 5573 c03d dcb7 cbbd
00000240: 5871 30be 0bff 343e de49 4bbc 7452 013e
00000250: 278b a53d 51dc a8bd c2e7 923d 71df 53bd
00000260: c2a7 06be e434 063e 07de 2ebe d2ed 293e
00000270: 7bfe e43c 79cb 20be 6dbf 2bbe 8e55 9cbc
00000280: cc5e a23d 7bcc bdbd 2bf9 4c3e 22cd f33d
00000290: 08fe 633d 9934 d13c 21c1 fdbd 9da9 4b3d
000002a0: c412 df3c 4f2c f13d 5884 193d 282d 8b3d
000002b0: 1f86 e03d a55e 90bd 3d91 cb3d 110d 9a3c
000002c0: 6189 b73d cd6e c9bd 5c65 53bd 9f83 003d
000002d0: 386b 503d 11d7 613e 0a2b 99bd 3f39 05be
000002e0: 0626 aebd 8659 543e 8668 fb3d c7b1 973d
000002f0: de7e cd3c d97e 0b3d 2c86 053e 2eac 443d
00000300: 2ba4 17be 011c 993b adf0 433d 38d7 71bd
00000310: fe36 d83d 4d46 713d 8cce 5dbd b499 013e
00000320: 6607 253e 2622 2dbe 1288 c13b 3fcb 2abe
00000330: de56 2dbe 958a 8dbd d7c4 df3d 986e 7b3d
00000340: fe64 123e d6d0 b8bd 298b 61bd 999d 28bd
00000350: 153b babc bd50 33bd 42a0 a5bd 666c f4bd
00000360: e6f9 c3bd 490a e1bd 7700 4b3d 121d e9bc
00000370: ba40 24be 90ba 32be 36aa 093e 806d 5a3d
00000380: a2fb a5bc 9569 46bc 178a 5f3d 3ad1 3b3e
00000390: bf10 3f3e 1e03 f73d 1c9e 4cbd f43a 713d
000003a0: 3687 b1bd 70cb 123d fedf be3d 648c bbbd
000003b0: aa33 d3bd 5f69 2c3c f407 393e 7595 d03d
000003c0: bd7b e03c fb55 a7bd 16e1 c1bc 3a19 1b3e
000003d0: 3a21 79bd a7cf 4e3e 61fe 273e 4159 8d3c
000003e0: b43f c73d a3d5 203e 9829 bb3d 576c f93d
000003f0: 5f2c 5abd 9a4b dd3c 763e 6ebd 4c92 723d
0.0991615 -0.11490142 0.10636699 0.096949 -0.13186291 -0.10212837 0.051329125 0.1934573
0.17515092 0.11563528 -0.043483913 0.024557292 -0.087580666 0.092017874 0.1098641 0.0120380325
0.099559896 -0.05877081 0.15952669 -0.010049659 -0.0019030232 0.06529246 0.025504388 0.08179351
0.21307454 0.18490006 -0.04585235 0.18115646 0.092199825 -0.117637135 0.18931687 0.08936575
-0.11279936 -0.034014177 0.15096053 -0.10536177 -0.09978359 0.18826498 0.0057445113 -0.009724558
-0.084624484 0.0866049 -0.055348065 -0.053224355 0.0676965 -0.15454325 -0.1690062 0.115008086
0.08823092 -0.054001983 -0.06505947 0.124208756 0.03078652 0.18957521 0.06515523 -0.120978005
0.17860883 -0.010633457 -0.17552651 -0.0832769 -0.14602102 0.110606745 -0.06370651 0.07438194
0.0347179 0.01226432 0.03916697 0.060579494 -0.15270722 0.14907232 0.034089793 0.10175589
0.17941168 0.055206165 0.1637941 -0.0054908395 0.100274906 0.19335537 0.093556166 -0.014762872
-0.060790747 0.18295458 0.20360148 0.15153842 0.14958857 -0.09865253 0.019968193 0.09639366
-0.0018626364 0.09286021 -0.107911676 -0.12521528 -0.1651019 -0.012747322 0.020213917 0.20282777
0.13273937 0.03208898 0.0053221644 -0.11398392 0.17164263 -0.010990385 0.07593131 -0.024886034
0.16589297 -0.0011032996 -0.072843365 0.10690395 -0.041284863 0.038285352 -0.14469898 -0.11349693
0.09537587 0.15874505 -0.16267447 0.1179144 0.122827366 -0.14602453 0.0006518157 0.08731979
-0.11130852 -0.045738045 -0.052919313 0.00047015425 -0.004118375 0.057701297 0.11634329 -0.18127614
-0.033734363 -0.005997242 -0.028755438 0.028657455 0.028387554 0.12836617 -0.14908539 0.038543414
-0.16924585 -0.13691537 0.06665099 0.035316385 -0.11929597 -0.1682955 0.09396998 -0.09947178
-0.17230737 0.17675416 -0.012407748 0.1262911 0.08083182 -0.08245147 0.071731105 -0.051726762
-0.13149932 0.13106114 -0.17076884 0.16594627 0.027953377 -0.15702619 -0.16772242 -0.019083764
0.07928237 -0.09267517 0.20016925 0.1190436 0.055662185 0.025537776 -0.12390352 0.049722303
0.027230628 0.11776029 0.03747973 0.06795722 0.109630816 -0.07049302 0.099398114 0.018805059
0.0896175 -0.09835587 -0.051610336 0.031375524 0.0508835 0.22054698 -0.07478912 -0.13010119
-0.08503346 0.20737275 0.12275796 0.07406955 0.025084909 0.03405652 0.13039464 0.048015766
-0.14808719 0.004672528 0.04783695 -0.05904314 0.10557364 0.058904935 -0.054152057 0.1265629
0.16116104 -0.16907558 0.0059061134 -0.16679095 -0.16927668 -0.06911198 0.10926216 0.061384767
0.14296338 -0.09024207 -0.055064354 -0.04116592 -0.02273325 -0.04377817 -0.080872074 -0.11934738
-0.09569149 -0.1098829 0.04956099 -0.028456245 -0.16040316 -0.1745398 0.13443837 0.053327084
-0.02026159 -0.012110134 0.054575052 0.18341532 0.18658732 0.120611414 -0.049955472 0.058894113
-0.086683676 0.035838544 0.09320067 -0.09157637 -0.103125885 0.010523169 0.1806944 0.10184757
0.027402753 -0.08170696 -0.0236669 0.15146342 -0.060822703 0.201964 0.16405632 0.017254474
0.09728947 0.15706496 0.09138793 0.12178867 -0.05326497 0.027013589 -0.058165036 0.05922155

hidden_layers.0.bias f4 [32]
00000000: da61 2f3e 4212 2a3e e630 c23d 24b0 a5bd
00000010: 75a9 8c3d 0920 023e 67d0 ba3a 4d24 5d3e
00000020: 3496 b1ba 5705 b3bd 51d1 0bbe 81aa 77bd
00000030: 675b bcbd 3c39 ec3d 154c 7dbd abbd ba3d
00000040: fa5b 1fbd d3ae 1e3e 7646 00be 5fc4 023d
00000050: 2617 433e 12e1 4fbd ad74 15be 73d3 f3bd
00000060: c2f1 203e 3c22 a6bc 7c73 8a3d ccec ecbd
00000070: 86df 41bd d584 88bd 2e32 fbbd afd9 57bd
0.17127171 0.16608527 0.09481983 -0.08090237 0.06868259 0.12707533 0.0014252783 0.21595879
-0.0013548792 -0.08741253 -0.13654067 -0.06046534 -0.09197121 0.11534354 -0.061840136 0.091182075
-0.038906075 0.15496378 -0.12526879 0.031925555 0.19051799 -0.050751753 -0.1459529 -0.11905565
0.15717223 -0.020279996 0.06760308 -0.11568603 -0.04733231 -0.06665961 -0.122654304 -0.052697834

hidden_layers.1.weight f4 [32, 32]
00000000: 22fd 8fbb ed24 8cbd 0a15 a5bd 1f49 47bc
00000010: a125 d0bd fd98 11bc e68f 10bc 741e c3bd
00000020: 8788 203e 69f2 52bd 26eb e1bd af83 423e
00000030: e742 883d b6b1 3b3e 822d 1c3d 06a8 433e
00000040: 9961 403e 28b4 233e dfee febd df7b ffbd
00000050: 05fd 483e 9877 c3bd e824 d63d f1c2 913d
00000060: 3fab 2b3e 31a9 333d f4b6 033d 34c0 19be
00000070: ada0 e1bd 5acb ba3d e230 0fbe a148 443c
00000080: 7c0c 203e b15f 863d b9b0 0dbc 6874 83bd
00000090: da14 d8bd 157f 353e a2ce 163d 0f4b 153e
000000a0: de0a 0c3e 8fed 05bd 052d b8bd c12a 273e
000000b0: de92 b33c 4cb8 a5bd 0daa fdbd 6971 fa3c
000000c0: afc4 6abd bd5d 533e f5f8 5bbd 16e8 0bbe
000000d0: 03d5 993d 4a9d 65bc e97f 24bb d746 24be
000000e0: 3837 efbd 6826 96b9 0207 693d 5749 cb3d
000000f0: 0b70 bb3c a011 81bc b572 67bd 898a 1fbe
00000100: 2b9d 773d 497c 5abd 33c5 ac3a 6df3 4c3d
00000110: 6500 eebc 0b2a 7a3c 956f d33d 7008 b9bd
00000120: dd73 d1bd 91f5 c93c adb9 4ebd b96a b93d
00000130: 811d 9b3d e039 00bd 2694 04bc d472 6b3e
00000140: c740 a9bd 4b15 10bd c9a1 103e 7cf5 7fbd
00000150: 8fba c3bc b3aa d0bd 613d 06be 7a66 e9bd
00000160: 64e8 3ebd f6a2 283e a262 7cbd af9a febd
00000170: c113 223d 2740 c33d 77e3 9abd f4a3 bb3d
00000180: 9da7 dd3d b303 303e 97fa 85bd 83ba 5fbd
00000190: 63d5 243e f2d1 bfbd 134c 1f3e c2c4 543c
000001a0: d0aa 893d 1d6a 273e 3283 f9bd dd5f 773d
000001b0: 55b2 b33d 71b7 253e 35a5 12be cad9 3c3e
000001c0: 70e5 883d 8a87 37bd d675 17be 6af0 2a3e
000001d0: 5e6a 1d3e 77c2 2cbe 49f3 38bd d302 edbd
000001e0: 89fa 003e afc2 783d 80e3 0fbe 07d4 29be
000001f0: a3af 29bd dc62 a53d 4090 293e 18e9 b1bd
00000200: 143a e43d c266 cbbd 321f e0bd ba62 a5bd
00000210: d254 3fbd 67df e9bd bf4c 1d3e f902 a0bd
00000220: d81f 6bbd 55ab 323d 1fc0 afbd 41be dfbc
00000230: de7b 02be 2f91 bcbd 479b 78bd e2f9 03be
00000240: 40d8 1bbe 7368 2dbd 2ff0 a4bd 72cc 2a3e
00000250: f5ea d7bd 3a54 053e ff05 153e 5269 5a3c
00000260: 58f3 0b3e 5ff2 12be 8e43 0abe ccb3 a3bd
00000270: 3a71 97bd 359f 19be 3992 66bd 573f c0bc
00000280: 6771 e63d 7512 cebd dbfd 50bd 8597 9d3d
00000290: 1ec0 0abe 13ce 7b3d 257e cc3c 2983 11bd
000002a0: f66f 22bb 6df5 8c3d f057 5e3d f424 a93d
000002b0: 12dc 49bd 195c f7bd aa1c 9dbd ffb3 a43d
000002c0: 5a22 d1bd 0707 953c f589 923d 84dc 80bd
000002d0: 5fe5 f7bd c0d5 133d d231 cdbd 7cab 36bd
000002e0: d220 efbb ff45 163e 579a fdbb 732d a5bd
000002f0: dbcf 253e a92e b8bd 50b8 f0bd 7bbf 7fbb
00000300: dd44 5b3e 0787 3b3d bab8 dcb9 2c59 ba3c
00000310: 7326 873d 730a b8bd 01c6 eabd 558f d63d
00000320: 4ea5 483e 2f9b 39bd 42b4 ac3c 3558 0a3d
00000330: 7db4 b93d e0dd 4a3e cf72 f13d 4200 dbbd
00000340: 2288 0f3e 6a38 e53b 12c3 f3bd 351b 213e
00000350: 1892 3e3e 0380 973d 596e 393d eaf6 063e
00000360: b9b4 cb3d fa54 afbd 8101 0a3e df1f 80bd
00000370: 9f5e 3e3e 37c4 13be 90c4 1c3e 6e6d 383e
00000380: 0714 a7bd 3ecd a0bd e98b 8c3d 538f bc3d
00000390: 4093 2f3e 7959 d0bd bf0d c93d af79 1b3e
000003a0: f69a 18be 338d e93c 367a dc3c d403 a9bd
000003b0: 3687 b13c 9c94 cb3d 1b03 17bd d2e1 943d
000003c0: db0d b7bc c595 00be 8ff5 243d e598 f8b9
000003d0: 48fd 04be ccde 983d 339b f0bb c15c fd3d
000003e0: fb8e 893d 1e94 ee3d f20e fcbd c234 17be
000003f0: 339d 4abe 077a fb3d 32e8 df3b c5ac ef3d
-0.0043941895 -0.068429805 -0.080606535 -0.0121634295 -0.10163427 -0.008886573 -0.008823371 -0.09527293
0.15677081 -0.05150071 -0.11031179 0.18995546 0.066533856 0.1832951 0.038129337 0.19107065
0.1878723 0.15986693 -0.12447905 -0.124747984 0.1962777 -0.09544295 0.10456258 0.0711726
0.16764544 0.043862525 0.0321569 -0.15014726 -0.110169746 0.091208175 -0.13983491 0.011980207
0.15629762 0.065612204 -0.008648091 -0.06418687 -0.10550852 0.17724259 0.036818154 0.14579414
0.1367602 -0.032697257 -0.08992962 0.16324903 0.021920618 -0.080917925 -0.1238595 0.030571656
-0.05731648 0.20641227 -0.05370422 -0.13662753 0.07511332 -0.014014551 -0.0025100654 -0.16042648
-0.11680454 -0.00028638844 0.05689145 0.09926098 0.022880575 -0.015755475 -0.056505878 -0.1558019
0.06045262 -0.053341184 0.0013181329 0.050036836 -0.029052923 0.015268813 0.10324017 -0.090348125
-0.10227177 0.024653228 -0.050470043 0.09053559 0.07573987 -0.031305194 -0.008091962 0.22993022
-0.082643084 -0.035176557 0.14124216 -0.06248997 -0.023892669 -0.10188808 -0.13109352 -0.11396499
-0.046608344 0.16468415 -0.0616175 -0.12431847 0.03956962 0.095337205 -0.07562917 0.09162131
0.10822985 0.17188911 -0.06541937 -0.05462123 0.16097026 -0.09366216 0.15556364 0.012986364
0.06722033 0.16349073 -0.12183227 0.060394157 0.087742485 0.16183259 -0.14320834 0.18442455
0.06684387 -0.044806994 -0.14791045 0.16693273 0.15372607 -0.16871057 -0.04515389 -0.11572804
0.12595572 0.06073254 -0.14051628 -0.16584788 -0.041427266 0.080754966 0.16558933 -0.08687037
0.1114389 -0.09931709 -0.1094345 -0.08075471 -0.04671175 -0.11419564 0.15361308 -0.07813067
-0.057403415 0.043620426 -0.08581566 -0.0273124 -0.12742564 -0.09207379 -0.06069496 -0.12888291
-0.15219212 -0.04233594 -0.08053624 0.16679552 -0.10542861 0.13020411 0.14553069 0.013330774
0.13667047 -0.1435027 -0.13502333 -0.07993278 -0.07394643 -0.15002139 -0.056291793 -0.023467703
0.112520985 -0.10062114 -0.051023345 0.07694916 -0.1354985 0.061475825 0.024962494 -0.035525475
-0.0024785972 0.06882749 0.054283082 0.082590014 -0.04928214 -0.12078113 -0.07671483 0.08042144
-0.1021163 0.018191827 0.071552195 -0.0629206 -0.12104296 0.03609252 -0.10019268 -0.044597134
-0.0072976137 0.14675139 -0.007739346 -0.080653094 0.16192572 -0.08993275 -0.11753905 -0.0039024043
0.21412988 0.04578307 -0.00042099302 0.022747599 0.065991305 -0.08986368 -0.114635475 0.10476557
0.19594309 -0.04531401 0.021082047 0.033775527 0.090676285 0.19811201 0.11789476 -0.106934085
0.14016774 0.0069952505 -0.11902441 0.15733035 0.18610418 0.07397463 0.04527125 0.13180128
0.099465795 -0.0856113 0.13477136 -0.06256079 0.18590783 -0.14430319 0.15309358 0.18010494
-0.08158117 -0.07851647 0.06862623 0.092070244 0.17146015 -0.101733156 0.09817075 0.15183137
-0.14902863 0.028509712 0.026913743 -0.08252683 0.021670919 0.09940454 -0.036868196 0.07269634
-0.022345474 -0.12557133 0.040273245 -0.0004741616 -0.12987244 0.0746437 -0.00734272 0.12371207
0.067167245 0.11649345 -0.12307538 -0.1476622 -0.19786529 0.12279134 0.0068330998 0.11702875

hidden_layers.1.bias f4 [32]
00000000: 1639 b93d d887 0f3d f3e4 6b3e cc74 1d3e
00000010: ff46 15be a89a 533e 100d 5c3e e919 0e3e
00000020: fcb5 a7bd d619 503d b4e7 d03d d89f b93d
00000030: 6d42 323d db95 133e 94a5 0f3e 894b ed3c
00000040: 2ad3 afbd fd69 5b3d 6aa6 21be f63c 3b3d
00000050: c08d 453d a517 3d3d 8eb2 a3bd b35a 853d
00000060: a742 4a3d 579a 03bd 4a39 3f3e 3490 b1bd
00000070: ebf5 1ebe fc8d f3bd a442 2cbe 75b6 0b3e
0.090440914 0.03504166 0.23036556 0.15376586 -0.14577864 0.20664465 0.21489358 0.13877071
-0.08189008 0.05080589 0.10200444 0.09063691 0.04352038 0.14412634 0.14028007 0.028966682
-0.08585198 0.053567875 -0.15786138 0.045712434 0.048230886 0.046165127 -0.07993041 0.0651144
0.04937997 -0.03212961 0.18674198 -0.08670083 -0.15523498 -0.11892316 -0.16822296 0.1364382

hidden_layers.2.weight f4 [32, 32]
00000000: ea1f 9dbd 1568 233e 6b06 0cbe 6708 b43d
00000010: d9b6 36bc ab9b ebbd 2452 0a3b 2640 8fbd
00000020: 2a12 39bd c17c 1dbd ad18 aebc 8253 1fbe
00000030: 302d 8fbd 21c4 babc 3e42 cd3d ac35 18bd
00000040: b56f bc3d ff5a 11be 8d84 a43d f0ac 4d3c
00000050: 1546 8d3d 91a5 883d 8137 e8bd a532 cabd
00000060: 278c acbd b8bf b8bd a143 e3bd 9b34 7abd
00000070: 0cf7 563d be1b 22bd 4cd0 2bbe eefb e93d
00000080: da64 0d3d d242 913d f81e 253d fd06 b83d
00000090: 29ca 92bd cbbd a83d 0006 94bd a962 dd3d
000000a0: 7ccf 283d d91a e5bd 882d 25be fe00 b6bd
000000b0: c823 093e 6b03 cb3d be8e 05bd 0590 ea3d
000000c0: 098c 3a3d ece2 f93b 8cab 94bd efb3 c0bd
000000d0: 062f db3d de28 173e 1f47 013e 26c5 58bc
000000e0: 9a69 ae3d d320 da3d 6d75 f0bd 0c8f 80bc
000000f0: 93e9 1b3d bb75 acbd 599a 25be 5383 dabd
00000100: ba3e 2e3e 999d 3f3d ec5c fe3d 6372 443e
00000110: 6599 133e fa3a 5f3c b38e 883d 5220 5bbc
00000120: a84f 383e c50c 9f3d f6c0 693d 25af 9e3d
00000130: a755 0d3d 2fd4 e03d e1e5 cbbd 6c24 993d
00000140: c3bc bb3d 8c76 0c3e 072b eb3d fc9e 8dbc
00000150: eaba 3d3e 9941 273e 2348 b63a 256b bd3d
00000160: 79e7 453d 30bf 8dbc 831f 503e a8da 34be
00000170: 74f8 973d 855e 223e 9a42 1f3e 2695 5c3e
00000180: 5df9 68bd 51f0 0c3e 7fc5 1c3e fe85 ab3d
00000190: a9ec 1d3e 321b b6bd e8ed c4bd 58ea 183e
000001a0: ad19 87bd 7206 32be d1bf 1b3e 5d4b 263c
000001b0: a4f5 ecbd db82 7dbd ad64 8d3d 19ea 35bd
000001c0: 89b8 6f3d 69eb 1abd e0dd 683d 9fe8 27be
000001d0: 5eeb 263e 2683 2b3e 2f4d 74bd d16a 043e
000001e0: 2836 8ebd 072a 1c3e 42d5 5bbd 690a 2c3d
000001f0: 4250 74bd b1b1 6ebc 315b 24be c14e a8bd
00000200: 2d53 94bd deb4 62bd cf4f 683d c620 b33d
00000210: 5c0a d1bd c679 303d b68d ebbd 249e c53d
00000220: 4016 063e 3889 b63d 8c96 8e3c 2d0b b03d
00000230: b8b8 4bbd 5c74 6ebc 04eb 603d ce3e 6dbd
00000240: f760 6b3d 32aa 8ebd 1116 e3bd 1960 40be
00000250: 624b 0d3e 5ac2 0bbe 3640 eabd 9bef f6bd
00000260: 904a aabd c361 6fbb 4ce9 173e fa6a 0abd
00000270: 36d4 3b3d edd3 bfbd ce88 8f3c cff6 c2bb
00000280: 07a9 c6bc 9cb1 07be 87eb 8fbc 18e1 133e
00000290: e973 f23d 29b2 cfbd e0a5 493d 1e03 653b
000002a0: f0dc 163d ae89 f3bd dc9c 33be de02 0a3e
000002b0: 37e9 b5bd 9bf1 813d 91f0 e63d 4083 acbd
000002c0: 69aa dd3c 87c5 313e d499 22bd ad6a 06bc
000002d0: a860 303e 60a1 233d bc89 31bd 8eef 933d
000002e0: 283d ccbd 1878 d33c e373 4dbd d3e2 70bd
000002f0: 5d06 20be 5df7 b8bd c540 2fbe 612b 29bd
00000300: d900 d03b 86c3 d93d d239 773e 0842 a53d
00000310: 6a15 f8bc e405 fb3d 977d 27bd 7091 d63d
00000320: 94f2 193e ce3a 11be dac2 143d ae2a 8abd
00000330: b951 b8bd b045 b4bb 4139 b43b 85a6 b63d
00000340: 1a4b 0c3e 1dcc 38bd 88c8 1f3e bcad bdba
00000350: ea92 9c3c 4766 cc3d f42a f53d cefc ba3d
00000360: a42b 093e cfb3 203d bacf 4d3d d7bb 2ebd
00000370: 4cd2 243d c472 0a3d c397 df3b 36da bb3d
00000380: 2faf bc3d ec21 063e b406 81bb 36f3 0e3e
00000390: 9f1f b13d 7f42 82bd 2dfd 6d3d a8dd 2e3d
000003a0: 0339 003d 9b97 eebd bcfe dabd 7abb 7bbd
000003b0: 0a06 6a3d f35d ffbd 892e 473d dc0a 3bbd
000003c0: 495a c73d 1989 83bc 9a33 323e 9470 3f3e
000003d0: d063 3c3e 7863 4d3d 3a3a 0ebe 964b d5bd
000003e0: 3966 e93b 996f b03c 9c7b f83d 639d c8bd
000003f0: 4bb7 6f3d 9be3 5b3c 771c 053e 2144 cf3d
-0.07672103 0.15957673 -0.13674323 0.08790665 -0.011151993 -0.11504301 0.0021106089 -0.06994657
-0.04518334 -0.038449053 -0.021252 -0.155592 -0.06991041 -0.0227986 0.100224 -0.03716056
0.09200994 -0.14194869 0.080330946 0.012553439 0.06898133 0.06672204 -0.113387115 -0.09872941
-0.084251694 -0.090209424 -0.110968836 -0.061085325 0.052481696 -0.03957724 -0.16778678 0.11425005
0.034520008 0.07092823 0.040312737 0.08985708 -0.07167465 0.08239325 -0.07227707 0.108098336
0.041213498 -0.111867614 -0.1613065 -0.08886908 0.13392556 0.09912761 -0.032606833 0.11453251
0.045543704 0.007625928 -0.072592825 -0.094093196 0.107023284 0.14761683 0.12624787 -0.013230598
0.08516236 0.10650792 -0.11741147 -0.01569321 0.03806455 -0.08420893 -0.1617216 -0.10669579
0.17016116 0.046781156 0.12420067 0.1918426 0.14413984 0.013624901 0.06667843 -0.013374405
0.17999136 0.077661075 0.057068788 0.0774825 0.034505513 0.10977971 -0.09955955 0.0747765
0.09166863 0.13717097 0.11482816 -0.017287724 0.18528333 0.16333617 0.0013906996 0.09248952
0.048316453 -0.01730308 0.20324521 -0.17661536 0.074204355 0.15856369 0.1555275 0.2154127
-0.056878436 0.13763548 0.15309714 0.08375166 0.1542231 -0.08891906 -0.096156895 0.14933145
-0.06596694 -0.17385271 0.15209891 0.010149804 -0.1157029 -0.06189237 0.06903968 -0.044412706
0.058525596 -0.03782216 0.05685222 -0.16397332 0.16300723 0.16749248 -0.05964392 0.12931372
-0.06943923 0.15250407 -0.053670175 0.042002115 -0.059646852 -0.014568732 -0.16050412 -0.08218146
-0.07242427 -0.05534827 0.056716736 0.087464854 -0.10207054 0.043084882 -0.115016386 0.096493036
0.13094425 0.08912891 0.01740577 0.085958816 -0.04973671 -0.014554109 0.05491163 -0.057921223
0.05746552 -0.06966056 -0.11088193 -0.18786658 0.13798288 -0.13648358 -0.114380285 -0.1205742
-0.08315003 -0.0036526776 0.1483509 -0.033793427 0.045856677 -0.093665935 0.017521288 -0.005949832
-0.02425052 -0.13251346 -0.017568363 0.14441335 0.11838514 -0.10141403 0.049230456 0.0034944485
0.036831796 -0.11891495 -0.17540306 0.13477656 -0.08882373 0.06344911 0.11276353 -0.084234715
0.027058797 0.17360507 -0.039697483 -0.008204144 0.17224371 0.03994882 -0.043344244 0.07223426
-0.09972602 0.025814101 -0.050159346 -0.058810066 -0.15627427 -0.09031556 -0.17114551 -0.041301135
0.0063477573 0.10632996 0.2414315 0.08069235 -0.030283649 0.12256983 -0.040891256 0.10476959
0.15033942 -0.14182588 0.036318637 -0.06746422 -0.08999962 -0.0055014715 0.0054999893 0.0891848
0.13700524 -0.045116533 0.1560384 -0.0014471333 0.019113023 0.09980445 0.11971083 0.0913025
0.13395554 0.03923398 0.05024693 -0.042659607 0.040239617 0.033800855 0.0068235113 0.0917248
0.09213101 0.13098878 -0.0039375667 0.13959965 0.08648609 -0.063603394 0.058102775 0.042691857
0.03130437 -0.1165001 -0.10693118 -0.06145809 0.057134666 -0.12469091 0.048628364 -0.045664653
0.097340174 -0.016056584 0.17402497 0.18695289 0.1839745 0.05014369 -0.13889399 -0.104148075
0.0071227816 0.021537589 0.121329516 -0.09795644 0.05852441 0.013420965 0.1299914 0.101204164

hidden_layers.2.bias f4 [32]
00000000: 4b7f 14be 06dc 39be 3458 a43d d387 10bd
00000010: cd65 ab3c 5da4 d5bc e781 a13d 571a 343c
00000020: 5026 25bd 2ed9 14bd e718 7b3d 7957 1abe
00000030: cf33 0a3e 057d 5bbb 51b6 28bb 9a59 4f3e
00000040: 7469 f03d 5781 0abc ec84 a33d 4bfb b7bc
00000050: 5ae6 103e 335c aebc a709 adbc 8709 30be
00000060: a08b 5abd f254 f13d 9a9c 543d f72f f43d
00000070: 67fa f1bd e32d c3bd 7a70 09be 0fdb 403e
-0.14501683 -0.18150339 0.08024636 -0.035285782 0.020922566 -0.026079351 0.07886105 0.010992608
-0.04031974 -0.03633993 0.061303046 -0.1507243 0.13496326 -0.0033491265 -0.0025743435 0.20249024
0.117388636 -0.008453689 0.07984337 -0.022458693 0.14150372 -0.021284198 -0.021122767 -0.17191134
-0.053355813 0.1178378 0.05190716 0.11923211 -0.118153386 -0.095302366 -0.13421813 0.18833564

output_layer.weight f4 [2, 32]
00000000: bbb3 aabd 3b2a 243d d403 ba3d 4029 293c
00000010: 2219 a3bd ccf4 23be 7594 843d f332 183d
00000020: d46e 933d 1360 503e 2d85 483d 32de 053d
00000030: a9d5 5a3e daf3 263e 3d24 23be e07b 913d
00000040: c29d b6bd 7192 9fbb e4d1 fbbc 6269 523e
00000050: 7d30 643e f49b e43d 146b 0b3c 8e66 1bbd
00000060: 97ab 093e 6857 d5bd c41f 4a3e 4210 98bd
00000070: 59a6 823d adef 19be bf7d 363e 98c6 413d
00000080: 0159 42bd 80af e63d 7e26 d539 d8ac dbbd
00000090: 5d27 01ba 74fe df3c 1410 54be 4aa9 b7bc
000000a0: c318 91bc 9265 303d 6329 85bd 6f72 acbd
000000b0: 917c 1dbe 58bf 9bbd c810 443d 0b65 fbbd
000000c0: 5760 d73d e63d b03d 406e e93d 9cc5 0bbe
000000d0: 0446 87bd aadc 0abe 3c99 133e f6bf 52bd
000000e0: 8ba5 51be 524c 673d 3914 47be 1570 26be
000000f0: fd04 0dbe 1b54 03be 461a 39be 4151 1bbe
-0.08335062 0.040079337 0.090827614 0.010324776 -0.07963778 -0.16011351 0.064736284 0.037157964
0.07198873 0.2034915 0.04895513 0.032682605 0.21370567 0.1630396 -0.15931793 0.071037054
-0.08916809 -0.004869752 -0.030739732 0.20548013 0.22284122 0.11162558 0.008509416 -0.0379396
0.13444363 -0.10417062 0.1973868 -0.07424976 0.063793845 -0.15032835 0.17821406 0.047308534
-0.047448162 0.11263943 0.00040655205 -0.10726327 -0.0004926825 0.027343012 -0.20709258 -0.02241959
-0.017712003 0.043065615 -0.065020345 -0.08420264 -0.1537955 -0.07604855 0.047867566 -0.12275132
0.10516422 0.08605556 0.11397982 -0.136496 -0.06605151 -0.13560739 0.14413923 -0.0514526
-0.20473306 0.05646927 -0.19441308 -0.16253693 -0.13771434 -0.12825052 -0.18076429 -0.15167715

output_layer.bias f4 [2]
00000000: 86f8 93bd 5b17 d4bd
-0.072251365 -0.10356017
