synthetic_flows_raw/saved_models/phi_only_1.4.pt (torch, 16963 bytes, 10 tensors)

input_layer.weight f4 [32, 3]
0	0xbd252f97	-0.04032859
1	0x3cb42a01	0.021992685
2	0xbf1466ec	-0.57969546
3	0xbe9e526a	-0.30922252
4	0x3d9df556	0.0771281
5	0xbef86631	-0.48515466
6	0x3f1042a2	0.56351674
7	0x3f003643	0.50082797
8	0xbf042162	-0.5161344
9	0x3f05b04f	0.5222215
10	0xbe2a7908	-0.16647732
11	0xbee02500	-0.4377823
12	0x3dd4b302	0.103857055
13	0xbf076488	-0.52887774
14	0x3d312907	0.043252017
15	0xbe7a8796	-0.24465784
16	0x3d26bfdc	0.040710315
17	0x3db31dff	0.08745956
18	0xbe4446f5	-0.19167693
19	0x3d845713	0.064619206
20	0x3e5e9c77	0.21739374
21	0x3e85f888	0.26166177
22	0x3ddf6684	0.10908225
23	0x3da99ffc	0.08282468
24	0x3ee897d1	0.45428327
25	0x3ead93fe	0.33901972
26	0xbf06ff05	-0.5273288
27	0x3e28d11a	0.16486016
28	0xbcdf7d9b	-0.027281573
29	0xbe8110c2	-0.25208098
30	0xbed70e2b	-0.42002997
31	0x3f093f1a	0.5361191
32	0x3ef95c8e	0.48703426
33	0xbe8fce39	-0.28087023
34	0x3ddc317e	0.107516274
35	0xbe5ee6c9	-0.21767725
36	0xbce2d9f3	-0.027691817
37	0x3e087fa9	0.13329948
38	0xbec199b3	-0.37812576
39	0xbe9876f0	-0.29778242
40	0x3e8d8881	0.27643207
41	0x3f116853	0.5679981
42	0xbdf21b84	-0.118216544
43	0xbed60d3e	-0.41806978
44	0x3dbb4141	0.091433056
45	0xbf0cea8e	-0.550454
46	0x3f0c27e1	0.5474835
47	0x3e7481f2	0.23877695
48	0x3e4ea565	0.2018028
49	0x3eafc776	0.34331864
50	0xbeb116eb	-0.34587798
51	0x3edfef4d	0.4373726
52	0x3f10c9ba	0.5655781
53	0xbe9fb023	-0.3118907
54	0x3ddf3161	0.1089809
55	0x3e8db4df	0.27677056
56	0xbe8779b2	-0.26460034
57	0xbc67642b	-0.014123003
58	0x3e0cf9e0	0.13767195
59	0x3e61db91	0.22056414
60	0x3eeb5b91	0.45968297
61	0xbc826240	-0.01591599
62	0xbeb1c840	-0.3472309
63	0x3eb06769	0.34453896
64	0x3f0dfb6e	0.55461776
65	0xbf0b57c5	-0.544308
66	0x3ea36a46	0.31917018
67	0xbd8e33ce	-0.06943475
68	0xbe6bd5db	-0.23030798
69	0xbf02de8d	-0.51120836
70	0xbf059227	-0.52176136
71	0xbed6808c	-0.41894948
72	0xbf12efb8	-0.5739703
73	0x3e3862cb	0.18006437
74	0xbec2fba4	-0.38082612
75	0xbe8e10fb	-0.2774733
76	0xbef7ae57	-0.48375198
77	0xbeabdd9d	-0.33567515
78	0xbeb2dc20	-0.34933567
79	0x3e78c64c	0.24294394
80	0x3a1e3311	0.0006034831
81	0x3e14cbb3	0.1453083
82	0x3b484392	0.0030557853
83	0xbeda81c8	-0.4267714
84	0xbcbc8135	-0.02301083
85	0xbea03f80	-0.31298447
86	0x3d442e89	0.047895942
87	0xbe8587b5	-0.260801
88	0xbe063322	-0.13105443
89	0x3e4ef305	0.20209892
90	0x3f133287	0.57498974
91	0x3e0ff51d	0.14058347
92	0x3ec60025	0.38671985
93	0xbee0403c	-0.43799007
94	0xbe9834a5	-0.29727665
95	0x3e9e3b01	0.3090439

input_layer.bias f4 [32]
0	0xbe14442a	-0.14479128
1	0xbdebdb97	-0.11516493
2	0xbe3e55b9	-0.18587388
3	0x3f239374	0.6389687
4	0xbecb4101	-0.39698032
5	0xbe95cf8b	-0.29259905
6	0xbee3a50f	-0.44461867
7	0xbe7b48ea	-0.24539533
8	0xbedd29b4	-0.4319588
9	0x3e7eb614	0.24874145
10	0x3ce9ee4e	0.028556015
11	0x3ebf6ec8	0.37389207
12	0x3ec9d93d	0.39423552
13	0x3dabdad6	0.08391349
14	0xbeb20021	-0.34765723
15	0x3ec4cd36	0.38437814
16	0xbe911db8	-0.28342986
17	0xbba451a0	-0.0050146133
18	0x3ca10f1f	0.01966053
19	0xbec0cc2d	-0.37655774
20	0xbed09020	-0.4073496
21	0xbe07a09b	-0.1324486
22	0x3dc1e679	0.09467787
23	0xbe1cace0	-0.15300322
24	0x3e8064a1	0.25076774
25	0x3f0588e2	0.5216199
26	0x3eee5732	0.465509
27	0xbec4edf1	-0.38462785
28	0xbf04091a	-0.5157639
29	0xbe41e8b7	-0.1893643
30	0xbe788f10	-0.24273324
31	0xbd1849fe	-0.03717994

hidden_layers.0.weight f4 [32, 32]
0	0xbd88a447	-0.066719584
1	0xbe1d2677	-0.15346704
2	0x3e35dc91	0.1775992
3	0xbdc5f4c0	-0.09665823
4	0x3d97cb6f	0.07411849
5	0x3de15b16	0.110037014
6	0xbcb2fb88	-0.021848455
7	0x3e3f8899	0.18704452
8	0xbe2a0b0d	-0.16605778
9	0x3d4990c5	0.04921033
10	0xbe1c8c53	-0.15287904
11	0xbcc8e6be	-0.024524089
12	0xbd09cd45	-0.033643026
13	0x3e216e92	0.15764835
14	0x3addbf36	0.0016917947
15	0x3da94712	0.08265509
16	0xbdd57026	-0.10421781
17	0xbc3a1f64	-0.011360023
18	0x3df9ba1f	0.12193703
19	0x3bffdbdf	0.007808193
20	0xbe05ee95	-0.13079293
21	0x3e3a62c9	0.18201746
22	0x3d136e15	0.035993654
23	0xbb3899d4	-0.002816786
24	0x3ceba0f5	0.028763274
25	0x3c80eee8	0.01573892
26	0xbd2a4418	-0.041568846
27	0xbda92574	-0.08259097
28	0xbd84e391	-0.06488717
29	0x3dda1225	0.10647992
30	0x3e19cd94	0.15019828
31	0x3d4c8cc5	0.049938936
32	0xbe385c16	-0.18003878
33	0xbdc7d6b9	-0.09757752
34	0xbe07fb31	-0.13279416
35	0x3d71b126	0.059006833
36	0x3d83b6fc	0.06431386
37	0xbe2796fb	-0.16366188
38	0x3c1e0f85	0.009647255
39	0x3e114ede	0.14190242
40	0x3c51ff62	0.012817236
41	0xbdf9feec	-0.122068256
42	0xbd7f5e2b	-0.062345665
43	0x3d13c931	0.036080543
44	0xbe06dab5	-0.13169368
45	0xbe155b3e	-0.14585587
46	0x3a9025f3	0.0010997638
47	0xbd45136b	-0.04811422
48	0x3dc656e0	0.09684539
49	0xbdadb918	-0.084825695
50	0x3e06f757	0.1318029
51	0x3e11c3d9	0.14234866
52	0x3de61496	0.11234395
53	0xbdfc466f	-0.12318122
54	0xbccd56dd	-0.025065834
55	0x3d55b257	0.05217203
56	0x3decbd5d	0.11559556
57	0xbdfcec94	-0.12349811
58	0x3d8a5cbd	0.0675597
59	0x3e004073	0.12524585
60	0xbd4cf9f4	-0.05004306
61	0xbd5309d3	-0.05152304
62	0x3d10a6f9	0.035315488
63	0x3e18b1f0	0.14911628
64	0xbdd0d87e	-0.101975426
65	0xbdc8d454	-0.098061234
66	0x3de72f7d	0.112883545
67	0x3e82e770	0.25567198
68	0xbd9a209b	-0.0752575
69	0x3ca0424f	0.019562868
70	0xbe01f65a	-0.12691632
71	0x3dd887e6	0.105727956
72	0x3cb5ea8c	0.022206567
73	0x3e80b44c	0.25137556
74	0x3e39e14e	0.18152353
75	0x3d5c0d0c	0.05372338
76	0x3d7ad0bd	0.061234225
77	0x3e2c250e	0.1681101
78	0x3dc775b6	0.097392485
79	0x3d92d374	0.07169238
80	0x3bcb8ee8	0.006212104
81	0x3db05431	0.08609808
82	0xbc7da400	-0.015480995
83	0xbe28c6cc	-0.16482085
84	0xbcc7dd76	-0.024397593
85	0xbddbc89b	-0.10731622
86	0xbdb0adb3	-0.086268805
87	0x3e1b0188	0.15137303
88	0xbdb2da87	-0.08733087
89	0x3e52bfd1	0.20580985
90	0xbd6d58f9	-0.05794618
91	0xbca1ac68	-0.01973553
92	0x3df4e13d	0.11957023
93	0xbdfc97d5	-0.12333647
94	0x3e3aaa67	0.18229066
95	0xbc82af0a	-0.015952606
96	0x3e163f17	0.14672504
97	0x3cac70a9	0.021049814
98	0x3d7b08a9	0.061287556
99	0xbd911b61	-0.070853
100	0x3daa4f99	0.08315963
101	0x3dcea44f	0.10089933
102	0x3e00da80	0.12583351
103	0x3d64e0ee	0.055878572
104	0x3b864a20	0.004098192
105	0xbd877c64	-0.066155225
106	0xbcb56a45	-0.0221454
107	0xbb469da8	-0.0030306373
108	0xbe1c52fa	-0.15266028
109	0x3db0f9c9	0.08641393
110	0xbd66c9b0	-0.056344688
111	0xbdd07720	-0.10178971
112	0xbd9623cb	-0.07331046
113	0x3d8299c3	0.06376984
114	0x3d82453e	0.06360863
115	0x3def79bf	0.11693143
116	0xbdd85dab	-0.10564741
117	0x3e0da084	0.13830763
118	0xbe1fdc19	-0.15611304
119	0xbe2b1d14	-0.16710311
120	0x3dd5bf5a	0.10436888
121	0xbdcf1802	-0.10112001
122	0x3d139400	0.036029816
123	0xbdcef1c0	-0.10104704
124	0x3d0994d0	0.033589184
125	0xbe289efc	-0.16466898
126	0xbdc3d963	-0.095629476
127	0xbb186704	-0.0023254761
128	0xbd8ba756	-0.06819026
129	0x3dd9d3be	0.1063609
130	0xbdf6e0ca	-0.12054594
131	0x3cd5dff7	0.026107771
132	0x3cefff7d	0.029296631
133	0x3d71482c	0.05890672
134	0xbda176ff	-0.07884025
135	0xbda9b509	-0.08286483
136	0xbddeafc7	-0.108733706
137	0x3de97706	0.11399655
138	0xbcf77608	-0.030207649
139	0xbb0aa630	-0.0021156184
140	0x3d8c2947	0.068438105
141	0x3dc0a864	0.09407118
142	0x3ca6d43e	0.020364877
143	0x3e079f23	0.132443
144	0xbdfda151	-0.12384284
145	0xbdda745f	-0.10666727
146	0xbcdc74d7	-0.026911182
147	0x3d9dec1e	0.077110514
148	0x3cec9284	0.028878458
149	0xbda6e937	-0.08149951
150	0x3bc21a16	0.00592352
151	0x3d1ea4a0	0.038731217
152	0x3dc0b2dd	0.094091155
153	0xbced2abb	-0.02895104
154	0xbe3160fb	-0.17322151
155	0xbc0e5a4e	-0.0086885225
156	0xbe092eee	-0.13396809
157	0xbdba8592	-0.09107508
158	0xbe295d1c	-0.16539425
159	0x3db2bbe8	0.087272465
160	0xbdeb6939	-0.11494679
161	0xbdb0a249	-0.086247034
162	0x3cfea0e7	0.031082584
163	0x3d2c3ae1	0.04204834
164	0x3e180603	0.14846043
165	0xbca642ca	-0.02029552
166	0xba8bffb5	-0.0010681065
167	0xbd037ff9	-0.032104466
168	0xbe0c5e32	-0.13707808
169	0xbcc2ff40	-0.023803353
170	0xbdfb16d0	-0.122602105
171	0xbdc6961b	-0.09696599
172	0xbdfa5f57	-0.12225216
173	0x3de51983	0.111865066
174	0xbd370a7f	-0.044687744
175	0xbdd3bf6c	-0.10339245
176	0xbe1f9b77	-0.15586649
177	0xbdf4b549	-0.1194864
178	0x3db6bb47	0.08922439
179	0x3d6d8c44	0.057995096
180	0xbc3a43e2	-0.011368724
181	0x3d5e9dde	0.054349773
182	0x3e0f54b2	0.13997152
183	0xbd9f5b9e	-0.077811465
184	0x3dce6c52	0.10079254
185	0xbe01ff44	-0.12695032
186	0xbe0b1fa6	-0.13586292
187	0x3dd4b6ba	0.10386415
188	0xbcc8a5ed	-0.024493182
189	0x3d4d1e7d	0.050077904
190	0xbc63996d	-0.01389156
191	0xbe34f1a5	-0.17670305
192	0x3e0a4ea0	0.13506556
193	0xbe05cc79	-0.13066281
194	0xbb22ca66	-0.0024839877
195	0x3d9d1fd1	0.07672084
196	0x3e056108	0.13025296
197	0xbe19faee	-0.15037128
198	0xbde53c11	-0.111930974
199	0xbdce1303	-0.1006222
200	0x3cfdccca	0.03098144
201	0x3e7fe96f	0.24991392
202	0xbd88a7dd	-0.066726424
203	0x3e54d9ae	0.20786163
204	0x3e13df1b	0.14440577
205	0x3e151df8	0.14562213
206	0x3dc43784	0.09580901
207	0x3d7dfccd	0.062008668
208	0xbe2ab13b	-0.1666917
209	0x3dec5ae5	0.11540774
210	0x3dbf5eea	0.09344275
211	0xbdded37e	-0.10880183
212	0x3daf4e5c	0.08559868
213	0xbc9b5142	-0.018959645
214	0xbcaf6831	-0.021411987
215	0x3d1d1a80	0.03835535
216	0x3d6b4241	0.05743623
217	0x3e0db6b2	0.13839224
218	0x3d90da9b	0.07072946
219	0xbddddaca	-0.10832746
220	0x3afce2aa	0.0019293625
221	0xbdc38c22	-0.095482126
222	0xbb578a9a	-0.003288901
223	0x3e326944	0.17422968
224	0xbd693fea	-0.05694572
225	0xbddaec7f	-0.10689639
226	0x3e3a79cf	0.18210529
227	0xbd0d05d5	-0.03442939
228	0x3dcf913b	0.101351224
229	0x3d1880c2	0.037232168
230	0xbc6d7d21	-0.014495165
231	0xbe1a9851	-0.15097167
232	0x3de322ac	0.110905975
233	0x3e49d8bd	0.19711585
234	0xbd78a304	-0.06070234
235	0xbc301901	-0.010748149
236	0x3e226e63	0.15862422
237	0x3e6add2d	0.22935934
238	0x3dcbd378	0.09952444
239	0xbd80ad78	-0.062830865
240	0x3ca4e75a	0.020129848
241	0xbdc7e5cb	-0.097606264
242	0xbb927bc4	-0.0044703204
243	0xbda6af6c	-0.08138928
244	0xbd5cccd0	-0.053906262
245	0x3d95d750	0.07316458
246	0x3e57dfc4	0.21081454
247	0x3e01c0c5	0.12671192
248	0x3ddba0ed	0.107240535
249	0xbbcb5aa0	-0.0062058717
250	0xbcd05612	-0.025431667
251	0xbda1fdd6	-0.079097435
252	0x3e1fc835	0.15603717
253	0xbd3fc4f9	-0.046818707
254	0x3e2da3e2	0.16957048
255	0xbdc7b9c3	-0.09752228

hidden_layers.0.bias f4 [32]
0	0xbdcf9cc1	-0.1013732
1	0x3c014f24	0.007892404
2	0xbd852625	-0.06501416
3	0xbde179ea	-0.110095814
4	0xbda8863d	-0.08228729
5	0xbe23c476	-0.15992913
6	0x3d5369a1	0.051614407
7	0x3e6aa4ad	0.22914381
8	0x3dfebae7	0.124379925
9	0xbcddef75	-0.027091721
10	0xbc650152	-0.013977366
11	0x3df303c9	0.11865956
12	0x3d37ed2b	0.044903915
13	0x3e5c4cd7	0.21513687
14	0x3ccd0f22	0.02503163
15	0xbdfa38e4	-0.12217882
16	0xbe3e2afa	-0.18571082
17	0x3cf38156	0.029724758
18	0x3dcb5d21	0.09929872
19	0x3de4c877	0.11171048
20	0x3db63069	0.08895952
21	0xbde5df18	-0.112241924
22	0x3e5b02c1	0.2138777
23	0xbdc4d2df	-0.09610533
24	0xbcd91c4f	-0.026502756
25	0x3cabfb5a	0.020993877
26	0x3e6df6ad	0.2323863
27	0x3e6e8bc8	0.2329551
28	0x3e0407cc	0.128936
29	0xbcbb4f9b	-0.022865107
30	0x3d9ace3e	0.07558869
31	0xbbe2f589	-0.0069262427

hidden_layers.1.weight f4 [32, 32]
0	0x3e313da3	0.17308669
1	0xbd3b2cf1	-0.045697156
2	0x3dc2e5de	0.095165
3	0x3b3ae413	0.002851729
4	0xbd8f3fde	-0.069946036
5	0x3d5329c7	0.051553514
6	0xbbc7e894	-0.0061007235
7	0x3e7c7c07	0.24656688
8	0x3d289dc9	0.0411661
9	0x3e129714	0.14315444
10	0x3e45f917	0.19333301
11	0x3e5bd3fe	0.21467587
12	0x3e6336ac	0.22188824
13	0x3dbb6b93	0.091513775
14	0xbdddd62e	-0.10831867
15	0xbd9e22d7	-0.07721489
16	0xbcc10a1b	-0.023564389
17	0x3e417176	0.18890938
18	0x3e13ad63	0.1442161
19	0xbe1ff0f9	-0.15619268
20	0x3c0622cd	0.008187008
21	0x3d62717d	0.055284012
22	0x3d7a6f78	0.06114146
23	0xbe303819	-0.172089
24	0x3d184245	0.037172575
25	0xbcdc68e0	-0.026905477
26	0x3e1daa1b	0.15396921
27	0x3da42cf8	0.080163896
28	0x3dd30b78	0.10304922
29	0x3df10289	0.11768062
30	0xbdc98b98	-0.098410785
31	0xbb19acb9	-0.0023448898
32	0x3cee21b5	0.029068807
33	0x3d895cf0	0.067071795
34	0x3decaacf	0.11556017
35	0x3d57c23b	0.052675467
36	0xbd8c644e	-0.06855069
37	0x3dd88f94	0.1057426
38	0xbe138a64	-0.1440826
39	0xbd3f0666	-0.04663696
40	0xbdccaa80	-0.09993458
41	0xbe2ebd82	-0.17064479
42	0xbd818bdf	-0.063255064
43	0x3dc6a48b	0.09699353
44	0xbd28460d	-0.04108243
45	0xbe1c5ed8	-0.15270555
46	0x3d7681fd	0.06018256
47	0xbb129957	-0.002236923
48	0xbe15fcd1	-0.14647223
49	0xbded74cc	-0.11594543
50	0x3c1bf6f6	0.009519329
51	0xbe1e8b9c	-0.15482944
52	0xbde80358	-0.11328763
53	0xbdc86c38	-0.09786266
54	0xbe076cce	-0.132251
55	0xbdc5ef40	-0.09664774
56	0x3b9c7c6d	0.004775575
57	0xbdabcdd8	-0.08388871
58	0x3e33252f	0.17494653
59	0xbde8dcea	-0.11370261
60	0xbd9a6f12	-0.07540716
61	0x3cfe8e41	0.031073691
62	0x3d73f57b	0.05956028
63	0xbdc6d59f	-0.09708714
64	0x3c1fd122	0.009754451
65	0xbbabe543	-0.005245836
66	0xbd7c6f2f	-0.06162947
67	0xbd2996bd	-0.04140352
68	0xbd4d9f46	-0.050200723
69	0xbdad9821	-0.08476282
70	0x3d83f0ff	0.06442451
71	0x3e002401	0.12513734
72	0x3b6fcc03	0.0036590106
73	0x3dd9943a	0.10623975
74	0xbbc14ea2	-0.0058992663
75	0x3e4e8868	0.20169222
76	0x3e6a7d36	0.22899327
77	0x3c195783	0.009359243
78	0xbdf4fce0	-0.119622946
79	0x3d7abacb	0.061213296
80	0xbe2072ef	-0.15668844
81	0x3dd7dfac	0.10540709
82	0xbdfa2645	-0.122143306
83	0x3d5309d6	0.051523052
84	0x3d275adc	0.040858135
85	0x3e347648	0.17623246
86	0x3de81d7e	0.1133375
87	0x3e05288b	0.13003747
88	0x3d1e01f1	0.03857607
89	0xbd9d5b5f	-0.07683443
90	0x3e2be009	0.16784681
91	0x3e0abbcb	0.135482
92	0x3d69e860	0.057106376
93	0x3e224479	0.15846433
94	0x3e0e071e	0.13869902
95	0xbe0e1326	-0.13874492
96	0x3da910fd	0.082551934
97	0x3e181c69	0.14854588
98	0xbdf17ff9	-0.11791987
99	0xbd774a8f	-0.06037384
100	0x3dfd1879	0.123581834
101	0xbbaf8430	-0.005356334
102	0xbc5994ef	-0.013280137
103	0xbd0f14b0	-0.03493184
104	0xbdad2c51	-0.08455718
105	0xbdef4d15	-0.11684624
106	0x3da28555	0.07935587
107	0x3e1c2aac	0.15250653
108	0xbbfa21bd	-0.0076334164
109	0xbe319d03	-0.17345051
110	0x3df736a2	0.12070967
111	0x3e0a642c	0.13514775
112	0xbe2f7d9b	-0.17137758
113	0xbd700407	-0.05859759
114	0x3e178327	0.14796124
115	0x3e19733a	0.14985362
116	0x3e2491fe	0.16071317
117	0x3d57a6a1	0.052649144
118	0xbd9fce6c	-0.07803044
119	0xbb98db33	-0.0046648025
120	0x3e1d21b6	0.15344891
121	0x3d9231a6	0.07138376
122	0x3d14aa73	0.036295366
123	0x3dc8ef08	0.098112166
124	0x3e0ec832	0.13943556
125	0x3d595032	0.053054996
126	0xbdf2472c	-0.11829981
127	0x3d10aabc	0.035319075
128	0x3dc27822	0.0949557
129	0x3e2ddc1a	0.16978493
130	0x3deb994d	0.11503849
131	0xbddb4e58	-0.10708302
132	0xbdf50add	-0.11964963
133	0x3de8a77c	0.1136007
134	0x3dbedea4	0.09319809
135	0x3e68adb7	0.22722517
136	0x3e306f43	0.17229943
137	0x3e2020ca	0.15637508
138	0x3d844421	0.06458307
139	0xbdba4cd0	-0.09096682
140	0x3e6b1348	0.22956574
141	0x3e0188af	0.12649797
142	0x3e2c89b9	0.16849412
143	0xbd22bd36	-0.039731227
144	0xbdbd938c	-0.09256658
145	0xbd14d856	-0.036339127
146	0x3ca980fd	0.02069139
147	0x3e2be3e4	0.16786152
148	0x3e471188	0.19440281
149	0xbe21d7ce	-0.15804979
150	0x3e496951	0.19669081
151	0x3d6f9aed	0.058497358
152	0xbd145ac8	-0.03621939
153	0xbcd837a5	-0.02639372
154	0x3dca7456	0.098854706
155	0xbddb8eaf	-0.10720574
156	0x3e38825e	0.18018481
157	0x3de8ecb1	0.1137327
158	0x3d95abc4	0.07308152
159	0xbdf58c33	-0.119896315
160	0xbe0fff7a	-0.140623
161	0xbcc579ce	-0.024105933
162	0xbd84f1fa	-0.06491466
163	0x3df154c2	0.117837444
164	0xbcfeb2d8	-0.031091139
165	0x3e20ca6a	0.15702215
166	0x3db09137	0.086214475
167	0x3d701049	0.05860928
168	0xbd53a203	-0.05166818
169	0x3d9aee92	0.07565035
170	0xbe0802d1	-0.13282324
171	0xbdd5186a	-0.10405047
172	0xbe29e6ae	-0.16591904
173	0x3ce65ef5	0.02812145
174	0xbddd1290	-0.10794556
175	0x3e0781b7	0.13233076
176	0xbdb1f9af	-0.086902015
177	0x3db20bf8	0.08693689
178	0xbd10315c	-0.035203323
179	0xbd5224e2	-0.051304705
180	0xbde40840	-0.11134386
181	0x3de55998	0.11198729
182	0xbde17fc4	-0.110106975
183	0x3dbff772	0.09373368
184	0xbc99b925	-0.018765042
185	0xbc1a5db9	-0.009421759
186	0xbd7baa39	-0.061441634
187	0x3df34eb1	0.118802436
188	0xbd334e91	-0.0437761
189	0xbdcd073e	-0.10011147
190	0x3e02cd2b	0.12773578
191	0xbd75e3cb	-0.060031693
192	0xbbd6ebfa	-0.0065588923
193	0xbd92490a	-0.07142837
194	0xbd5ab407	-0.053394344
195	0xbc32e436	-0.010918668
196	0xbe195bde	-0.14976451
197	0x3c1a9305	0.009434466
198	0x3dbb660e	0.09150325
199	0x3d4e99ff	0.05043983
200	0x3da2c146	0.0794702
201	0xbdf8bde7	-0.12145596
202	0x3dbed0f5	0.09317199
203	0xbdca225c	-0.09869835
204	0xbe257f5a	-0.16161862
205	0xbd25af3a	-0.040450312
206	0x3df14fda	0.117828086
207	0xbe177eab	-0.14794414
208	0x3e3434cd	0.17598267
209	0x3df0da32	0.117603675
210	0xbd68b3a5	-0.056811947
211	0x3e1312a2	0.14362577
212	0xbcbffb75	-0.023435334
213	0xbdd3a77e	-0.10334681
214	0xbd3cefa1	-0.046126965
215	0xbd1fbda4	-0.038999215
216	0xbd666525	-0.056248803
217	0xbdda5eae	-0.1066259
218	0xbd1e34f4	-0.03862472
219	0xbd448aa5	-0.047983784
220	0xbd6980c0	-0.05700755
221	0xbe18cf77	-0.14922892
222	0xbe074822	-0.1321111
223	0x3dae9027	0.08523589
224	0x3e05cd33	0.13066559
225	0xbd8ec599	-0.069712825
226	0xbdb96d90	-0.090541005
227	0xbd87fe57	-0.06640308
228	0xbd4f5ae5	-0.050623793
229	0xbdc5ddaa	-0.0966142
230	0x3e15d500	0.14632034
231	0x3e53101d	0.20611615
232	0x3de38f3c	0.11111304
233	0x3e5ea474	0.21742421
234	0xbd06b931	-0.032891456
235	0x3e5fb9a1	0.21848156
236	0x3e39df29	0.18151535
237	0x3e081cc0	0.13292217
238	0x3de1e57c	0.11030099
239	0x3ccb9618	0.024851844
240	0xbda982c5	-0.082768954
241	0x3dca0121	0.098634966
242	0x3d0fd54a	0.035115518
243	0xbdcfead0	-0.10152209
244	0xbd8bf966	-0.06834678
245	0x3e3d0fe5	0.18463095
246	0x3de54162	0.111941114
247	0xbe08f20a	-0.1337358
248	0xbdca008d	-0.09863386
249	0xbdd3e594	-0.10346523
250	0x3de9dee9	0.1141947
251	0x3e329277	0.17438684
252	0x3caa66d5	0.020800987
253	0xbcdf3ac2	-0.027249698
254	0x3d42e462	0.047581084
255	0xbdd6d42e	-0.10489689

hidden_layers.1.bias f4 [32]
0	0x3e0b3be5	0.13597067
1	0xbe0e5584	-0.13899809
2	0xbd9bd08f	-0.07608139
3	0xbd1dffb1	-0.038573924
4	0xbd103b89	-0.035213027
5	0xbe10e55b	-0.14149992
6	0xbdab01eb	-0.08349975
7	0x3cd5ac23	0.026083058
8	0xbdeb83fd	-0.11499784
9	0xbdc5a29c	-0.09650156
10	0xbd1a3f3b	-0.037657958
11	0x3d116510	0.03549677
12	0xbe0b2e72	-0.13591936
13	0x3ddd8cc5	0.10817865
14	0x3cae6901	0.021290304
15	0x3e3a4441	0.181901
16	0x3e44822f	0.19190286
17	0xbdd52a83	-0.10408499
18	0xbe2b054b	-0.16701238
19	0x3decf8e4	0.115709096
20	0xbe3657b8	-0.178069
21	0x3e2238d5	0.15841992
22	0x3d49a8c5	0.049233217
23	0xbe308b2d	-0.17240591
24	0x3e42410c	0.18970126
25	0x3cbbcd79	0.022925125
26	0x3d86df46	0.06585555
27	0xbd2869b3	-0.041116428
28	0xbd4788e9	-0.048714552
29	0x3c85cd32	0.016333196
30	0x3e49926b	0.1968476
31	0x3dad9fb6	0.08477728

hidden_layers.2.weight f4 [32, 32]
0	0x3d03effa	0.03221128
1	0x3cc7c136	0.024384122
2	0x3dc1fd20	0.09472108
3	0xbe071afd	-0.13193889
4	0x3de57140	0.11203241
5	0x3e0e395f	0.13889073
6	0x3d8016bd	0.06254337
7	0xbe032fd1	-0.1281121
8	0xbd3159de	-0.043298595
9	0x3df5c3fc	0.12000272
10	0x3d88f2e3	0.06686952
11	0xbe372acd	-0.17887421
12	0xbd2e9d26	-0.042630337
13	0xbd3c9a7b	-0.04604576
14	0x3d331cb4	0.043728545
15	0x3e237a2e	0.15964577
16	0x3d4985c9	0.049199853
17	0xbba6ed4a	-0.005094205
18	0x3cdb0bc7	0.026739014
19	0xbc1bff97	-0.009521387
20	0x3dbc1f8a	0.09185703
21	0xbc670771	-0.014100895
22	0x3d81ee36	0.06344263
23	0xbd9f74d5	-0.07785956
24	0x3c46321b	0.012096907
25	0x3e1f75c7	0.15572272
26	0x3d315bf0	0.04330057
27	0xbd8c8b0d	-0.06862459
28	0x3c0f8c53	0.008761483
29	0xbd9bd021	-0.07608057
30	0x3ddbaaf3	0.10725965
31	0x3dcddb37	0.100515775
32	0x3e1d6079	0.15368833
33	0xbe3490b5	-0.17633326
34	0x3dc82f82	0.097746864
35	0x3e1e1def	0.15441106
36	0xbd8334ef	-0.06406581
37	0xbde79a38	-0.11308712
38	0x3cdcc3ff	0.026948927
39	0xbd49efc6	-0.04930093
40	0x3dd840ae	0.10559212
41	0xbda243a2	-0.07923056
42	0x3e0b39af	0.13596223
43	0x3cbcc3cc	0.023042582
44	0x3ced0262	0.0289318
45	0x3d6cd1ac	0.057817146
46	0x3e15e03d	0.14636321
47	0x3e2d3f97	0.16918789
48	0x3e13dcdc	0.1443972
49	0x3d24b215	0.040208895
50	0x3d9da082	0.0769663
51	0x3e33dc71	0.1756456
52	0xbd8bdc6a	-0.0682915
53	0xbe1d30ac	-0.15350598
54	0x3dd6c9e9	0.1048773
55	0xbd820403	-0.063484214
56	0xbdaf05bf	-0.08546018
57	0x3df6ee81	0.1205721
58	0x3cfddbc9	0.03098859
59	0xbd274579	-0.04083774
60	0x3db8fe63	0.090328954
61	0x3d946da8	0.07247478
62	0x3e4343ec	0.19068879
63	0xbdaec9a1	-0.085345514
64	0x3ccd99c6	0.025097739
65	0x3d41ad17	0.047284212
66	0x3e534a1c	0.20633739
67	0xbe173275	-0.14765342
68	0x3dfacab7	0.12245696
69	0x3d56751e	0.052357785
70	0xbafaea49	-0.0019143309
71	0x3e4a1639	0.1973504
72	0x3e31d1e5	0.17365225
73	0xbdd8dd2d	-0.10589061
74	0x3e379b8a	0.17930427
75	0xbc76a14d	-0.015053106
76	0xbd8d1b01	-0.06889916
77	0x3ded566f	0.115887515
78	0x3d9edbd6	0.07756774
79	0x3e07cf24	0.13262612
80	0x3df8e4ea	0.12153037
81	0x3ce0c3e3	0.027437156
82	0xbd05a46f	-0.03262752
83	0x3e184443	0.1486979
84	0xbda3870b	-0.07984742
85	0x3df57e32	0.119869605
86	0x3e15d4bf	0.14631937
87	0x3cf02a45	0.02931703
88	0xbd303122	-0.043015607
89	0x3da5b5ee	0.08091341
90	0x3e6dcf5d	0.23223634
91	0x3dbcccc0	0.092187405
92	0x3e0ba78b	0.13638131
93	0x3de14502	0.1099949
94	0x3e4a5293	0.19758062
95	0xbe02811e	-0.12744567
96	0x3df17eb7	0.11791747
97	0xbdb6f71b	-0.089338504
98	0xba87af81	-0.0010351987
99	0xbe1e5643	-0.15462594
100	0xbe0a6c3f	-0.13517855
101	0xbdc896de	-0.09794401
102	0xbdb57f53	-0.08862176
103	0xbdadea85	-0.08491997
104	0x3e1617d0	0.14657521
105	0x3e25a9ed	0.16178103
106	0x3dc7bd95	0.09752957
107	0xbce2fdf7	-0.02770899
108	0x3da3a34a	0.07990129
109	0xbdf349ec	-0.11879334
110	0x3dc4b952	0.096056595
111	0x3dd71189	0.105013914
112	0xbdd88d90	-0.10573876
113	0xbdd965db	-0.106151305
114	0xbd822296	-0.06354253
115	0xbdd98ec7	-0.10622936
116	0x3e152ffd	0.14569087
117	0xbd976eb8	-0.07394165
118	0x3df46f99	0.11935348
119	0x3e2d8e2e	0.16948768
120	0xbe4ba799	-0.19888152
121	0xbcb50cd1	-0.022100838
122	0x3e0de08d	0.1385519
123	0x3e0e27d3	0.13882379
124	0x3cadb84a	0.02120604
125	0xbe4f81a8	-0.20264304
126	0xbdc12c31	-0.09432257
127	0x3e0db39e	0.1383805
128	0xbe18a427	-0.14906369
129	0xbd87f407	-0.066383414
130	0x3bcab883	0.0061865463
131	0xbdefd69c	-0.11710855
132	0xbdde451a	-0.10853024
133	0x3c1192ea	0.008885125
134	0xbe1d3b38	-0.15354621
135	0xbda5d4a8	-0.080972016
136	0x3dd3e14a	0.10345705
137	0xbdc6bfc2	-0.09704544
138	0x3c8d5313	0.017251527
139	0xbc322e4f	-0.010875299
140	0xbda22b77	-0.079184465
141	0xbdeabeeb	-0.11462196
142	0x3ddc22aa	0.10748799
143	0x3daa0b2c	0.08302912
144	0xbdb97e5a	-0.09057303
145	0xbd86643c	-0.06562087
146	0x3dc8bcf6	0.098016664
147	0xbe2ea17c	-0.17053789
148	0x3e1bbf4e	0.15209696
149	0xbd3db55a	-0.04631553
150	0x3da4b795	0.08042828
151	0xbe2e8c57	-0.17045723
152	0xbe0152f9	-0.12629308
153	0x3e245d2c	0.16051167
154	0x3e084496	0.13307413
155	0xbd699aa0	-0.057032228
156	0xbceb3be9	-0.02871509
157	0x3ddcc9fe	0.107807145
158	0xbdcc0970	-0.099627376
159	0x3d9226d8	0.07136315
160	0xbd87c9c9	-0.06630284
161	0x3e1f68d2	0.1556733
162	0xbddb4c52	-0.10707916
163	0x3e038cd1	0.12846686
164	0x3e2e132f	0.16999505
165	0x3d964b7e	0.07338618
166	0xbe098be9	-0.13432278
167	0x3df96ac6	0.121785685
168	0xbe1a5007	-0.1506959
169	0x3d1127bc	0.035438284
170	0x3e01af3e	0.12664506
171	0x3e0f8aca	0.14017788
172	0x3d0cf131	0.034409706
173	0xbe1d2f88	-0.15350163
174	0x3d3822da	0.044955112
175	0x3d66eaf7	0.056376424
176	0xbdc6e14f	-0.09710943
177	0xbd91c532	-0.0711769
178	0xbe09d2bd	-0.13459297
179	0x3c5fda96	0.013662955
180	0x3d38a6c0	0.0450809
181	0xbdad55ae	-0.08463608
182	0xbcd2bbbe	-0.025724288
183	0xbda602a4	-0.081059724
184	0xbdb2ee3e	-0.08736847
185	0xbddd0d78	-0.107935846
186	0x3e07592c	0.1321761
187	0x3c690d1c	0.014224317
188	0xbddd5337	-0.108068876
189	0xbdf4895e	-0.11940263
190	0xbdee4519	-0.11634273
191	0xbe1b1a2b	-0.15146701
192	0x3e283585	0.16426666
193	0x3e1d544e	0.15364191
194	0xbe273fa1	-0.16332866
195	0xbe31e0ff	-0.17370985
196	0xbd020970	-0.03174728
197	0xbe13564d	-0.1438839
198	0xbcadfc09	-0.021238344
199	0x3e252e52	0.16130951
200	0xbd094fc8	-0.03352335
201	0x3e2bc6f7	0.16775118
202	0xbd04d5e4	-0.032430544
203	0xbddec503	-0.10877421
204	0x3d3ef787	0.04662278
205	0x3e141563	0.14461283
206	0xbe20872f	-0.15676568
207	0x3d0cb585	0.034352798
208	0xbc90f179	-0.017693268
209	0xbd6b6fb4	-0.057479575
210	0x3d3693c2	0.044574507
211	0x3e00e537	0.12587439
212	0xbd8e4ab4	-0.06947842
213	0xbdb683e1	-0.08911873
214	0xbde0f72f	-0.109846465
215	0x3d7e821f	0.062135812
216	0xbdb2c35a	-0.087286666
217	0x3d49a2d7	0.04922756
218	0xbe1f5f14	-0.15563613
219	0x3d0f5420	0.034992337
220	0xbdeafc4d	-0.11473904
221	0x3d0d76b2	0.034537025
222	0x3dcca242	0.09991886
223	0x3df8006f	0.12109458
224	0xbde7340a	-0.112892225
225	0xbdfc811b	-0.123293124
226	0xbc2ca544	-0.010537449
227	0x3ca880ea	0.020569284
228	0x3d1cf815	0.038322527
229	0x3d92bd28	0.07164985
230	0xbcacbab3	-0.021085119
231	0x3db21e3e	0.086971745
232	0x3d993aa0	0.07481885
233	0xbdfc03b7	-0.12305396
234	0xbdad29e2	-0.08455254
235	0x3dfbf0fd	0.12301824
236	0x3d55f6e0	0.05223739
237	0xbd5b039f	-0.05347025
238	0xbe03c205	-0.12866981
239	0xbe28c1af	-0.16480134
240	0xbe24d19a	-0.16095582
241	0x3ddac9bd	0.1068301
242	0x3dff54f9	0.12467379
243	0xbcf57c3f	-0.029966472
244	0xbe3230b1	-0.17401387
245	0x3a4ba427	0.0007768296
246	0xbdf218e1	-0.118211515
247	0x3e0c7d08	0.1371957
248	0x3d7e0d13	0.062024187
249	0x3e10be75	0.14135154
250	0x3e19fef1	0.15038659
251	0x3d7aa185	0.061189193
252	0x3d7f8b00	0.06238842
253	0x3da8b0f2	0.08236875
254	0xbb828764	-0.003983425
255	0x3e08759f	0.13326119

hidden_layers.2.bias f4 [32]
0	0xbd3d8f03	-0.046278965
1	0xbd60cafc	-0.05488108
2	0xbd0f7c46	-0.035030626
3	0x3d95c938	0.0731377
4	0xbdd19eda	-0.10235377
5	0xbe1a6d7f	-0.15080832
6	0xbe0612c8	-0.13093102
7	0xbd676c9c	-0.056500062
8	0x3e5aa0d6	0.21350417
9	0x3e0c98ea	0.13730207
10	0xbd18e012	-0.037323065
11	0xbca596f5	-0.020213583
12	0xbe1e0500	-0.15431595
13	0x3d8a4691	0.06751741
14	0xbcbc6aef	-0.023000209
15	0x3c80134d	0.015634203
16	0x3e2cc31d	0.16871305
17	0x3daaa3df	0.08332037
18	0xbdd9b4d2	-0.10630192
19	0xbc8d42df	-0.0172438
20	0x3d90cbd5	0.07070128
21	0xbd6b51e5	-0.057451148
22	0xbdd5bb3f	-0.10436105
23	0x3ca25a15	0.019818345
24	0x3d71b5dc	0.059011325
25	0x3e7345b6	0.23757061
26	0x3bece2a2	0.007229165
27	0x3d51dbcf	0.051235016
28	0x3ceda1c4	0.0290078
29	0x3c621d30	0.013800904
30	0x3e3be0c6	0.18347463
31	0xbc7b6d3d	-0.015345869

output_layer.weight f4 [2, 32]
0	0x3dc42021	0.095764406
1	0xbdb5f5eb	-0.08884796
2	0x3e32bc15	0.1745456
3	0xbe15323d	-0.14569946
4	0xbd9ad126	-0.07559423
5	0x3896c7a0	7.1897404e-05
6	0x3e05f1e9	0.13080563
7	0x3d5a7858	0.053337425
8	0x3e0fa339	0.14027108
9	0xbe1b7b2d	-0.15183707
10	0xbe123566	-0.14278182
11	0x3d91f825	0.07127408
12	0xbd041db1	-0.03225488
13	0xbe0c2d2d	-0.13689108
14	0x3dff7383	0.12473204
15	0xbceb442f	-0.028719036
16	0xbd230be5	-0.039806265
17	0x3e159bbf	0.14610194
18	0x3d31264c	0.043249413
19	0xbdacac93	-0.084313534
20	0x3e4a006b	0.19726722
21	0xbba1cd1e	-0.004937782
22	0x3d631a52	0.055445023
23	0x3e071fdb	0.13195746
24	0x3d9ac977	0.075579576
25	0x3dcaec94	0.09908405
26	0x3e52a40d	0.20570393
27	0xbdd996d4	-0.10624471
28	0xbdc50ed6	-0.0962197
29	0xbdb285df	-0.0871694
30	0x3e6cca7e	0.2312412
31	0xbc4fed1a	-0.012690807
32	0x3aa7a381	0.0012789817
33	0xbe56904a	-0.2095348
34	0xbe539b76	-0.20664772
35	0xbd76e7f3	-0.060279798
36	0xbdff61be	-0.12469815
37	0x3de65283	0.112462066
38	0xbd645c46	-0.05575206
39	0x3dbf80e8	0.09350759
40	0xbd88e051	-0.0668341
41	0x3e09d27b	0.13459198
42	0xbe19acf1	-0.15007378
43	0xbe8afeda	-0.2714756
44	0x3d71819d	0.0589615
45	0x3e107c25	0.14109857
46	0xbd441741	-0.04787374
47	0xbc0fcdc4	-0.008777086
48	0xbd5d751f	-0.054066774
49	0xbdc31695	-0.095257916
50	0x3da87a20	0.082264185
51	0x3e021231	0.12702252
52	0xbe4d19c7	-0.20029365
53	0xbd0dfbed	-0.034664083
54	0xbc5b5677	-0.013387314
55	0xbe34bb2e	-0.17649528
56	0xbe39b3ba	-0.18134966
57	0xbe48dc49	-0.19615282
58	0xbc801923	-0.015636986
59	0x3d99828d	0.07495604
60	0xbe2b8dc5	-0.167533
61	0x3e18795e	0.14890048
62	0xbde7b5d1	-0.113139756
63	0xbd5eb416	-0.054370962

output_layer.bias f4 [2]
0	0x3b5bf73f	0.0033564118
1	0xbd841885	-0.06449989
