synthetic_flows_raw/saved_models/phi_only_0.4.pt (torch, 16963 bytes, 10 tensors)

input_layer.weight f4 [32, 3]
0	0xbe9a7572	-0.3016773
1	0x3ef1c766	0.4722244
2	0xbe032374	-0.12806493
3	0xbee5e3ab	-0.4490026
4	0xbd558ce0	-0.052136302
5	0xbecc0c87	-0.39853308
6	0xbdec454b	-0.11536654
7	0xbe8bb002	-0.2728272
8	0x3f114de0	0.5675945
9	0xbe6610fa	-0.22467414
10	0xbef75353	-0.4830576
11	0x3e503c02	0.20335391
12	0x3f11764f	0.5682115
13	0x3eb6947b	0.35660157
14	0xbdeda054	-0.11602846
15	0x3c044791	0.008073703
16	0xbbaa2354	-0.0051921997
17	0xbebc4bad	-0.36776486
18	0xbf0b2606	-0.54354894
19	0xbd811a80	-0.063038826
20	0x3da7faad	0.082021095
21	0xbd80b141	-0.062838085
22	0x3de91014	0.1138002
23	0x3f14a09e	0.5805758
24	0x3e66a138	0.22522438
25	0xbeca9db2	-0.39573437
26	0x3d858506	0.06519513
27	0xbe3cea89	-0.18448843
28	0x3ecfd5a1	0.40592673
29	0x3e82ce63	0.25548086
30	0x3ed30bfc	0.4122008
31	0x3daf190b	0.085496984
32	0xbe9c1384	-0.3048364
33	0xbf050282	-0.5195695
34	0xbee96762	-0.45586687
35	0x3e290c23	0.16508536
36	0x3e6a6176	0.22888741
37	0x3eeccd15	0.46250215
38	0xbc2a3e98	-0.0103909
39	0xbee720c9	-0.451422
40	0xbe8b2427	-0.2717602
41	0xbe8ebe65	-0.27879634
42	0x3f16a8b1	0.5885115
43	0x3edc4749	0.43023136
44	0x3e20546e	0.15657207
45	0xbec078d3	-0.37592182
46	0x3e82b729	0.25530365
47	0x3f15e4b5	0.58552104
48	0xbd0121fe	-0.031526558
49	0xb9d52fc4	-0.00040662114
50	0xbe0ddfb3	-0.13854866
51	0x3edf01bf	0.4355602
52	0xbf03fb95	-0.5155576
53	0xbf0729b6	-0.5279802
54	0x3dacef5f	0.08444094
55	0x3e0d1aee	0.13779804
56	0xbec1f339	-0.37880877
57	0x3e853531	0.26017144
58	0xbe4ba9fa	-0.1988906
59	0xbe963e71	-0.29344514
60	0x3e2124a2	0.1573663
61	0x3e8991b7	0.26868984
62	0x3e17c8a6	0.14822635
63	0xbf1738c6	-0.59071004
64	0xbd0f0a79	-0.034922097
65	0x3df3108b	0.1186839
66	0xbe9c1e8c	-0.30492055
67	0xbf130924	-0.5743582
68	0xbead2873	-0.33819923
69	0x3d862c4c	0.06551418
70	0x3f0ec146	0.5576366
71	0x3e22c2d1	0.15894629
72	0xbd99f7fe	-0.07518004
73	0xbeac13da	-0.33608896
74	0xbea65447	-0.32486174
75	0xbe5cd065	-0.21563871
76	0x3e3aa11b	0.1822552
77	0xbf0962d8	-0.5366645
78	0x3e9f2276	0.3108098
79	0xbeb29542	-0.348795
80	0x3e44d960	0.19223547
81	0x3e736747	0.23769866
82	0xbd9a40a2	-0.07531859
83	0x3f022cae	0.50849426
84	0xbf0bf6e0	-0.54673576
85	0x3eccbcee	0.39987892
86	0xbe15ae3e	-0.1461725
87	0xbeaa4a44	-0.33259785
88	0x3f065c97	0.5248503
89	0xbec5c639	-0.38627794
90	0x3ebf8b7f	0.37411115
91	0xbecedd90	-0.40403414
92	0x3e892804	0.26788342
93	0x3f0f9723	0.5608999
94	0x3f0b5464	0.54425645
95	0xbdb09b0e	-0.08623324

input_layer.bias f4 [32]
0	0x3ecb2958	0.3967998
1	0xbe7d259c	-0.24721378
2	0xbea9879d	-0.33111277
3	0x3d7309ad	0.0593354
4	0x3e576b64	0.2103706
5	0x3dd09fd5	0.101867355
6	0xbec589b9	-0.38581637
7	0xbe8adec1	-0.27123073
8	0xbee30d36	-0.44346017
9	0x3eb1cdb4	0.34727252
10	0xbec1d713	-0.378594
11	0xbe439b3a	-0.19102183
12	0x3de7978d	0.11308203
13	0x3ea4665b	0.3210934
14	0xbe0a5280	-0.13508034
15	0x3d6c7968	0.05773297
16	0xbee54847	-0.44781706
17	0xbe949a9b	-0.29024205
18	0x3f2631c3	0.6491968
19	0x3dba0327	0.090826325
20	0xbf062ec9	-0.5241514
21	0x3e832aa4	0.2561847
22	0x3ead13de	0.3380422
23	0xbdb753b5	-0.08951513
24	0xbeebddaa	-0.46067554
25	0x3e01994e	0.12656137
26	0xbe98ac78	-0.29819083
27	0xbecd95ef	-0.40153453
28	0x3e66757a	0.22505751
29	0xbe76145b	-0.24031202
30	0x3ec1a177	0.378185
31	0x3e428b27	0.18998395

hidden_layers.0.weight f4 [32, 32]
0	0xbd0f7690	-0.03502518
1	0xbc3f4d4d	-0.011676145
2	0xbd82196d	-0.06352506
3	0x3c98702c	0.018608175
4	0x3e3800b2	0.17969015
5	0x3df7a08a	0.12091167
6	0xbe2873de	-0.1645045
7	0x3e1f5136	0.15558323
8	0x3d976c36	0.073936865
9	0xbd9ff6ab	-0.0781072
10	0x3e05c2e3	0.13062625
11	0xbe23843e	-0.15968415
12	0xbdc21252	-0.094761506
13	0xbe0d0423	-0.1377111
14	0x3e3f5bd4	0.18687373
15	0xbcf1d031	-0.029518219
16	0x3e02ae6a	0.12761846
17	0xbdc44994	-0.095843464
18	0x3dee2778	0.11628622
19	0x3de70e04	0.1128197
20	0xbd10a427	-0.035312798
21	0xbd181c6e	-0.037136488
22	0x3e132e64	0.14373165
23	0x3e128d4b	0.14311711
24	0xbd0de046	-0.034637712
25	0xbe03b853	-0.12863283
26	0xbb59a440	-0.0033209473
27	0xbbd68c75	-0.0065475055
28	0xbd6b0a23	-0.057382714
29	0xbde462fd	-0.11151693
30	0x3e1febc8	0.15617287
31	0x3dffe8e8	0.12495595
32	0xbd8373c3	-0.06418564
33	0x3d5fe8e6	0.05466547
34	0xbe287243	-0.16449837
35	0xbdc05800	-0.09391785
36	0x3d0cd7d7	0.03438553
37	0xbdead62d	-0.11466632
38	0x3ce0203c	0.02735912
39	0x3e2dec49	0.16984667
40	0xbdd3b745	-0.1033769
41	0x3da0f357	0.078589134
42	0x3e2e13c9	0.16999735
43	0x3d937407	0.07199865
44	0xbdba106f	-0.09085166
45	0x3b2e0a0d	0.0026556284
46	0xbe30e3d5	-0.17274411
47	0x3c9e3b4d	0.019315386
48	0xbd566f16	-0.052352034
49	0xbd6d15fb	-0.05788229
50	0xbdf3a918	-0.118974864
51	0x3dd2f0f2	0.10299863
52	0x3dbc9fbf	0.09210157
53	0xbdd918be	-0.10600422
54	0x3d800e09	0.06252677
55	0x3dfba726	0.122877404
56	0xbdaa5c97	-0.08318441
57	0x3e20ddba	0.15709582
58	0x3df48b15	0.1194059
59	0xbcf0327e	-0.029320952
60	0xbe1494e1	-0.14509918
61	0xbdfd32a9	-0.12363178
62	0xbdb778cb	-0.08958586
63	0x3d11c937	0.035592284
64	0x3ddc26e7	0.107496075
65	0xbcf9e2aa	-0.03050359
66	0x3c3dfa17	0.011595271
67	0x3d636cbe	0.055523627
68	0x3dd3d4dc	0.10343334
69	0x3d8a8c1f	0.06765007
70	0x3dc1248e	0.094308004
71	0x3dcbcf00	0.099515915
72	0x3dc7784d	0.097397424
73	0x3d00b1ee	0.031419687
74	0x3e0e6ed7	0.1390947
75	0x3e1eaf61	0.15496589
76	0x3e3aef2f	0.18255304
77	0xbdcc24f0	-0.09967983
78	0xbbe6890e	-0.007035381
79	0x3e3a90a4	0.18219239
80	0xbd1600f5	-0.036622006
81	0x3de74831	0.11293066
82	0x3e84bc9e	0.25925153
83	0x3d9eedd0	0.07760203
84	0xbd44d0f0	-0.04805082
85	0x3d83acb8	0.06429428
86	0x3daa4e4d	0.08315716
87	0x3da3041a	0.07959767
88	0x3db3be36	0.08776514
89	0xbd8c3409	-0.068458624
90	0x3e170cd4	0.14750987
91	0x3d9f655b	0.07783004
92	0x3d7dff24	0.0620109
93	0xbe0c32ab	-0.13691203
94	0x3d454c1f	0.048168298
95	0x3e256d16	0.16154894
96	0xbc6d71d1	-0.014492468
97	0x3c0582cd	0.008148861
98	0x3d44efe5	0.048080344
99	0xbde1e8cb	-0.1103073
100	0xbe17c8ed	-0.14822741
101	0xbd1e59ca	-0.03865985
102	0xbe18ccc4	-0.14921862
103	0xbe30bece	-0.17260286
104	0x3de8a26f	0.11359107
105	0xbca960ac	-0.02067598
106	0xbe2dfea2	-0.16991666
107	0xbdc3f73a	-0.09568639
108	0xbde57959	-0.11204786
109	0xbd46bcbb	-0.04851983
110	0x3d930df7	0.07180398
111	0x3de5293c	0.111895055
112	0x3c81aaa4	0.015828438
113	0x3d5f0ab8	0.05445358
114	0x3b823b06	0.0039743213
115	0x3d53bfd2	0.051696606
116	0xbe18d7f5	-0.14926131
117	0x3d2cb0bc	0.042160735
118	0x3e1ecf97	0.15508877
119	0x3dac33e6	0.08408336
120	0x3d9c7fe8	0.07641584
121	0xbe1fd45d	-0.15608354
122	0x3dc36667	0.09541016
123	0x3df54876	0.119767115
124	0xbe0ace5e	-0.13555285
125	0x3cf31248	0.029671803
126	0xbd87f16e	-0.06637846
127	0xbd1ff099	-0.03904781
128	0x3d6583be	0.056033842
129	0x3dc26ed8	0.09493798
130	0xbd17888f	-0.036995467
131	0x3e1a15dd	0.15047403
132	0x3dc9fa39	0.09862179
133	0xbd012012	-0.031524725
134	0xbdd1201e	-0.10211204
135	0x3c83a63a	0.016070474
136	0x3c9f0cab	0.01941522
137	0xbe0d7fba	-0.13818255
138	0xbdbcd763	-0.09220769
139	0x3cc63d95	0.024199286
140	0xbdd7dd29	-0.1054023
141	0xbe1e8d83	-0.1548367
142	0x3d9d0b9e	0.076682314
143	0x3dda6863	0.106644414
144	0x3e0d2273	0.13782673
145	0x3ced97b0	0.029002994
146	0xbdbbd2a9	-0.091710396
147	0xbdea8c9a	-0.11452599
148	0xbd04a6ea	-0.032385744
149	0x3d8726c8	0.06599194
150	0xbd62f3af	-0.055408176
151	0xbd893900	-0.06700325
152	0x3d51912a	0.05116383
153	0xbe1e4e42	-0.1545954
154	0x3cd8fa98	0.02648668
155	0xbdc770be	-0.09738301
156	0x3cc8c4b2	0.024507854
157	0x3e2ae33b	0.16688244
158	0xbe1f07e0	-0.15530348
159	0xbdce9ae3	-0.10088136
160	0x3e18e07f	0.14929388
161	0xbb9a7d01	-0.0047146087
162	0x3db237b7	0.08702033
163	0x3e071496	0.13191447
164	0xbd6bdeb3	-0.05758543
165	0x3d8b5650	0.06803572
166	0x3b1a5de6	0.0023554503
167	0x3e2d70c9	0.16937555
168	0x3e316a44	0.17325693
169	0xbdd62f88	-0.104582846
170	0x3d7f0780	0.062263012
171	0x3dde93ff	0.10868072
172	0xbdb808ac	-0.08986029
173	0x3d4b4e1b	0.049635034
174	0xbddd03ab	-0.10791715
175	0xbd9f2133	-0.07770004
176	0xbdca2f6c	-0.09872326
177	0xbcb4b0c2	-0.022056941
178	0x3e007092	0.12542942
179	0x3e6659b0	0.2249515
180	0x3cabecb6	0.020986896
181	0xbd83de41	-0.06438876
182	0xbd2a4c3c	-0.04157661
183	0x3e396ebf	0.18108653
184	0xbe1a39e4	-0.15061146
185	0xbc4d92f3	-0.012547242
186	0x3de29ddb	0.11065265
187	0x3d2f432d	0.042788673
188	0x3e0f7a99	0.14011611
189	0xbc2a3e8b	-0.010390888
190	0x3e454d25	0.1926771
191	0xbdb9e28a	-0.09076412
192	0xbd237abe	-0.039911978
193	0x3c9408b1	0.01807055
194	0xbd3261ce	-0.043550305
195	0x3ce35cc1	0.02775419
196	0xbd443638	-0.04790327
197	0x3dc5b294	0.09653202
198	0x3ba919c1	0.005160541
199	0x3dbc2cb1	0.09188212
200	0xbe35b11c	-0.17743343
201	0x3ce4a0d4	0.02790872
202	0x3d549104	0.05189611
203	0x3db03b11	0.08605016
204	0x3dc6a7e8	0.09699994
205	0x3c0b5910	0.008505121
206	0x3c267404	0.010159496
207	0x3d2534c5	0.040333528
208	0x3cc596b5	0.024119714
209	0xbdf2f51d	-0.11863158
210	0xbdd3b1d9	-0.10336656
211	0xbd6f7299	-0.0584589
212	0xbcd32595	-0.025774756
213	0x3ddb95a4	0.10721901
214	0xbe06a3c1	-0.13148405
215	0xbe2c931e	-0.16852996
216	0xbd280b6d	-0.04102652
217	0xbd632200	-0.055452347
218	0x3dcf4805	0.101211585
219	0xbd978095	-0.07397572
220	0xbe13216c	-0.14368218
221	0x3e32f0ca	0.17474666
222	0x3df82e2a	0.1211818
223	0xbd5dbca3	-0.054134976
224	0xbda94936	-0.08265917
225	0xbe298893	-0.16556005
226	0xbe28febc	-0.16503423
227	0x3e32a93c	0.1744737
228	0xbe0a717b	-0.13519852
229	0xbe0f5e8e	-0.14000914
230	0xbe1ac58d	-0.15114422
231	0xbd0239eb	-0.031793516
232	0xbdd872ad	-0.10568748
233	0x3cadbbec	0.021207772
234	0x3d3764a4	0.044773713
235	0x3cd12950	0.025532395
236	0xbdc25b04	-0.09490016
237	0xbd5ea83d	-0.054359663
238	0x3e01f9c8	0.1269294
239	0xbdd274e6	-0.10276203
240	0xbd64ff1b	-0.05590735
241	0xbde48ec4	-0.11160043
242	0x3dd1b0ec	0.10238823
243	0xbe0d0aaf	-0.13773607
244	0x3e100032	0.14062575
245	0x3cfbe713	0.030749833
246	0x3dea0c73	0.11428156
247	0xbcb66818	-0.022266433
248	0x3a587f07	0.00082586746
249	0xbb09d1c1	-0.0021029564
250	0x3e3dd40e	0.18537924
251	0xbdfe9372	-0.12430467
252	0xbd901d9c	-0.070368975
253	0xbe249b7e	-0.1607494
254	0x3d5643c8	0.052310735
255	0xbe31c64b	-0.17360799

hidden_layers.0.bias f4 [32]
0	0x3e5ac67b	0.21364777
1	0x3d919438	0.071083486
2	0xbca4802a	-0.020080645
3	0xbde82839	-0.11335797
4	0x3d9efae6	0.07762699
5	0x3e291185	0.1651059
6	0xbced4c4a	-0.028967042
7	0xbdcd1fd1	-0.10015834
8	0x3e051d24	0.12999398
9	0x3e416289	0.18885244
10	0x3e2b7408	0.16743481
11	0xbe2fe7d9	-0.17178287
12	0xbd38c37a	-0.045108296
13	0x3e38bc4b	0.18040578
14	0xbd0d7000	-0.03453064
15	0x3cc5b022	0.024131838
16	0x3e7215bc	0.23641104
17	0xbdcd09c1	-0.10011626
18	0xbe0b74b9	-0.13618745
19	0x3dfba269	0.12286837
20	0x3e575c36	0.2103127
21	0xbc595d2f	-0.013266846
22	0xbdd9a462	-0.10627057
23	0x3e6f62d2	0.2337754
24	0x3dbd1fe7	0.092346005
25	0x3e788cc3	0.24272446
26	0x3de3d6bb	0.11124941
27	0xbd212742	-0.03934408
28	0x3c5827e1	0.013193102
29	0x3d6ae728	0.057349354
30	0xbdb48c35	-0.08815805
31	0x3cbf908e	0.023384359

hidden_layers.1.weight f4 [32, 32]
0	0x3e52d04d	0.20587273
1	0x3ca03c67	0.019560052
2	0x3db08b54	0.08620325
3	0x3d1b6ef4	0.03794761
4	0x3dd9040f	0.10596477
5	0x3dc9a9fe	0.098468766
6	0x3dd3fe1e	0.103512034
7	0x3d04f11a	0.032456495
8	0x3dacb294	0.084324986
9	0x3dde5e38	0.108578146
10	0xbdd26450	-0.10273039
11	0x3c74767c	0.014920827
12	0xbe106ad0	-0.14103246
13	0x3dbb6d0e	0.0915166
14	0xbb3d5bba	-0.0028893785
15	0xbd5f30b7	-0.054489817
16	0x3e24ddd1	0.16100241
17	0x3d4c5111	0.049882
18	0xbdf55d7f	-0.119807236
19	0xbb9be4d9	-0.0047575054
20	0xbc3b8a00	-0.011446476
21	0xbe0cd7e4	-0.1375423
22	0x3d285faf	0.041106876
23	0xbdba5fad	-0.0910028
24	0x3e2d030c	0.16895694
25	0x3e3a599d	0.18198247
26	0xbc82cc4b	-0.015966555
27	0x3e4873b0	0.19575381
28	0xbe2bfb3c	-0.16795057
29	0x3dccb2db	0.099950515
30	0x3dc27c92	0.09496416
31	0x3e044fd9	0.12921084
32	0x3e06336f	0.13105558
33	0x3dcee883	0.10102942
34	0x3e266496	0.16249308
35	0xbe32fc7e	-0.1747913
36	0x3de8a7e8	0.113601506
37	0xbda50d4e	-0.08059178
38	0xbd83b827	-0.06431609
39	0xbd88b02d	-0.06674228
40	0x3e5ec683	0.21755414
41	0x3d82b27f	0.06381702
42	0xbda7a3c1	-0.081855305
43	0x3dc511df	0.09622549
44	0xbcb2a228	-0.021805838
45	0x3e1dc4d9	0.15407123
46	0xbd16c28b	-0.036806624
47	0xbdd999b0	-0.10625017
48	0x3d45b129	0.048264656
49	0x3dedb068	0.116059124
50	0x3d80e9fb	0.06294628
51	0xbdb22aa9	-0.08699543
52	0x3df97731	0.12180937
53	0x3d84438e	0.064581975
54	0xbd88b12b	-0.06674417
55	0x3db2a107	0.0872212
56	0x3cf1630b	0.029466173
57	0xbe0c577a	-0.13705245
58	0x3df0d7db	0.11759921
59	0x3e58e605	0.21181495
60	0xbe123080	-0.14276314
61	0xbdf054f4	-0.117349535
62	0x3e1c5b47	0.15269195
63	0x3d907ffd	0.07055662
64	0x3deebb9f	0.1165688
65	0x3c90c779	0.017673241
66	0x3db6f3fa	0.089332536
67	0xbe0b0a27	-0.13578092
68	0x3de68bf1	0.112571605
69	0x3d9e608e	0.0773326
70	0xbe1e9d8d	-0.15489788
71	0x3d5669b3	0.052346896
72	0x3c7c9465	0.015416239
73	0x3c79e1d7	0.015251598
74	0x3e17c9cf	0.14823078
75	0xbcb5c247	-0.022187365
76	0xbbc5df52	-0.0060385847
77	0xbcf44813	-0.029819524
78	0xbd01e92e	-0.031716518
79	0xbc8dd2e4	-0.017312475
80	0x3df96c52	0.121788636
81	0xbdb7eb6d	-0.08980451
82	0x3da4d823	0.08049037
83	0xbd341cc8	-0.04397276
84	0x3e290798	0.16506803
85	0xbb63cfdc	-0.0034761345
86	0xbdb2b21e	-0.087253794
87	0x3e114952	0.14188126
88	0xbdce36cd	-0.10069046
89	0x3e365489	0.17805685
90	0xbcd29c30	-0.025709242
91	0x3e36988f	0.17831634
92	0xbd9148f1	-0.070939906
93	0xbd5d3ccf	-0.05401307
94	0x3d86c307	0.06580167
95	0xbdc1480e	-0.094375715
96	0x3e39089e	0.18069693
97	0x3d7d9346	0.06190803
98	0xbd4c00eb	-0.049805563
99	0x3d42db9f	0.04757273
100	0xbd83ae7a	-0.06429763
101	0x3e1cb92b	0.15305011
102	0xbc975c71	-0.018476697
103	0xbd3e9ab8	-0.04653427
104	0x3e1a26ed	0.15053912
105	0xbdd2a0c7	-0.10284572
106	0x3e1e3f41	0.15453817
107	0x3ddbd0b5	0.10733167
108	0xbc2e89ea	-0.010652998
109	0x3da72a22	0.08162333
110	0x3de87e4c	0.11352214
111	0x3e546098	0.20739973
112	0x3e46f0fa	0.19427863
113	0xbd79b607	-0.06096461
114	0xbd07ef3b	-0.033187132
115	0x3de50325	0.111822404
116	0x3dd5ff95	0.10449139
117	0x3e19c681	0.1501713
118	0xbd6e2bc3	-0.058147203
119	0xbd65f7ba	-0.056144454
120	0x3d37d4da	0.044880725
121	0xbd826060	-0.06366038
122	0x3d548ace	0.051890187
123	0xbdc74c0e	-0.09731303
124	0x3d87bea7	0.06628161
125	0x3d1461e2	0.03622616
126	0x3e2cff35	0.16894229
127	0xbd675daa	-0.05648581
128	0xbe08a906	-0.13345727
129	0x3d19dd07	0.037564304
130	0xbc711b5a	-0.014715994
131	0xbcda90f6	-0.02668045
132	0xbd8b9796	-0.06816022
133	0x3b6cfbfe	0.0036160941
134	0x3e0858da	0.13315144
135	0x3d677310	0.056506217
136	0x3ba32c55	0.00497965
137	0xbe2356d2	-0.15951088
138	0xbe05221f	-0.13001297
139	0xbd98c99c	-0.07460329
140	0xbdd57d8b	-0.10424336
141	0x3d762d5b	0.060101848
142	0x3d247dc1	0.04015899
143	0xbe01df97	-0.12682949
144	0xbc99c24b	-0.018769404
145	0x3e058aa4	0.13041168
146	0xbe0be69e	-0.13662192
147	0xbd70fd9b	-0.058835607
148	0x3c9d9060	0.019233882
149	0x3e2c2393	0.16810445
150	0x3e06cd56	0.13164267
151	0x3df78a06	0.12086873
152	0xbdc4eb47	-0.09615188
153	0xbd36950a	-0.04457573
154	0x3cfbc5c1	0.030733945
155	0xbe1a54f0	-0.15071464
156	0x3d5484c6	0.051884435
157	0x3e10fffc	0.1416015
158	0xbd1b9c6e	-0.03799098
159	0xbdb3df6c	-0.08782849
160	0xbd4d2c84	-0.05009128
161	0x3e13ae2e	0.14421913
162	0x3e5f3b7f	0.2180004
163	0xbe18ca60	-0.1492095
164	0x3da9da6a	0.08293612
165	0x3e0b9b5b	0.13633482
166	0xbe09c5e3	-0.13454394
167	0x3dc03321	0.09384752
168	0x3e19cccf	0.15019535
169	0x3e0f3e78	0.13988674
170	0x3d06c94c	0.032906815
171	0xbd7fa403	-0.062412273
172	0x3ca86c03	0.020559317
173	0x3e3c7a68	0.1840607
174	0xbcaa9364	-0.020822234
175	0xbaa95899	-0.0012920081
176	0x3e3ced99	0.18450011
177	0x3de68946	0.112566516
178	0x3ceed71a	0.029155303
179	0x3e442249	0.19153704
180	0x3def4e66	0.11684875
181	0x3e29be2b	0.1657645
182	0xbe024f77	-0.12725626
183	0x3dbe9ffe	0.0930786
184	0xbd90369c	-0.07041666
185	0x3e5172b2	0.20453909
186	0x3dfc011e	0.123049006
187	0x3d3e94c8	0.046528608
188	0xbdd33b57	-0.103140526
189	0x3c2fd227	0.010731257
190	0x3cd70ea2	0.026252095
191	0x3d0d1bda	0.03445039
192	0xbda12b90	-0.07869637
193	0x3daad8ea	0.08342154
194	0x3dcfbd9e	0.101435885
195	0xbcd5066b	-0.026004037
196	0xbdbe5a93	-0.092946194
197	0xbd780671	-0.060553018
198	0xbe328172	-0.17432192
199	0xbd4a4102	-0.049378403
200	0xbe0744ca	-0.13209835
201	0x3d2f60c9	0.04281691
202	0x3dc91423	0.09818294
203	0x3def924c	0.11697826
204	0x3e023b71	0.12717988
205	0xbd88baa9	-0.066762276
206	0xbdbf9e62	-0.09356381
207	0x3e0c6c53	0.13713197
208	0x3b4392af	0.002984207
209	0xbd53156f	-0.051534113
210	0xbdd6372e	-0.104597434
211	0xbd82267c	-0.063549966
212	0xbe201616	-0.15633425
213	0xbdfbe960	-0.12300372
214	0x3cd30312	0.0257583
215	0xbe28a58f	-0.16469406
216	0x3df3fefd	0.119138695
217	0x3b672176	0.0035267747
218	0xbd9362e0	-0.07196593
219	0xbe329961	-0.17441322
220	0x3dd481a5	0.1037629
221	0x3dc2bcd7	0.095086746
222	0x3dbd751e	0.09250854
223	0x3e0cd35b	0.137525
224	0xbde552f7	-0.11197465
225	0xbe321792	-0.17391804
226	0x3e5cafcd	0.21551438
227	0x3e0e931f	0.1392331
228	0x3d25bb78	0.040461987
229	0x3ad90142	0.0016556161
230	0xbe137bc1	-0.14402677
231	0x3e1e6788	0.15469182
232	0xbda85097	-0.08218496
233	0x3e24fb0e	0.16111395
234	0x3ddc68bf	0.10762166
235	0x3e08ed02	0.13371661
236	0xbe0f3b64	-0.139875
237	0x3e5e87de	0.21731517
238	0x3b91e2fc	0.0044521075
239	0x3e2b7637	0.16744314
240	0x3dfc5498	0.123208225
241	0x3dae4de6	0.08510952
242	0x3c7ba0a1	0.015358121
243	0x3c67bf50	0.014144734
244	0xbd7186ff	-0.058966633
245	0xbddf488e	-0.109025106
246	0xbe13383e	-0.14376923
247	0x3d25fe72	0.04052586
248	0x3e148d12	0.14506939
249	0x3e33cf9f	0.1755967
250	0xbd80d14a	-0.06289919
251	0xbdd91016	-0.10598771
252	0xbd4faae5	-0.050700087
253	0xbddd0c2c	-0.10793337
254	0xbb24fcc1	-0.0025175067
255	0xbde6be1c	-0.11266729

hidden_layers.1.bias f4 [32]
0	0xbd05ab4b	-0.03263406
1	0x3e4ce116	0.20007738
2	0x3d2e1076	0.042496167
3	0x3dd8f070	0.10592735
4	0x3c7c56cd	0.015401554
5	0x3e07f9bb	0.13278858
6	0xbd002401	-0.031284336
7	0x3dc17264	0.094456464
8	0xbdb7dd0c	-0.08977708
9	0x3e695ccc	0.22789305
10	0xbe1a7faa	-0.15087762
11	0xbdb0e445	-0.08637289
12	0x3dd24dd6	0.10268752
13	0x3e430638	0.19045341
14	0x3d4a4119	0.04937849
15	0x3e84dcf3	0.2594982
16	0xbe342968	-0.1759392
17	0xbd90ac9c	-0.070641726
18	0x3db157b2	0.08659305
19	0x3e2ace9d	0.16680379
20	0xbd60c56f	-0.054875787
21	0xbcb42016	-0.021987956
22	0x3e35a92d	0.17740317
23	0x3e1e1b7b	0.1544017
24	0x3d8a73b6	0.06760351
25	0x3d3af7db	0.04564653
26	0xbdf96b4d	-0.12178669
27	0x3e1cb45d	0.15303178
28	0x3d7497a6	0.059714936
29	0x3dfcaf09	0.12338073
30	0xbdcc35cb	-0.09971198
31	0x3e1af753	0.15133409

hidden_layers.2.weight f4 [32, 32]
0	0xbe0bd020	-0.13653612
1	0x3d21138d	0.039325286
2	0xbd88d831	-0.0668186
3	0xbe0dec70	-0.13859725
4	0x3e17fc31	0.14842297
5	0xbdb35d01	-0.087579735
6	0x3a6bb87e	0.000899203
7	0xbdb9afe9	-0.09066755
8	0x3e2388be	0.15970132
9	0x3d11d68f	0.03560501
10	0x3c451dca	0.012031028
11	0x3d5ecf6e	0.05439704
12	0xbcdbe34a	-0.026841778
13	0xbe1f102d	-0.15533514
14	0x3cce6759	0.025195764
15	0xbd8a854a	-0.06763704
16	0xbcd925e8	-0.026507333
17	0xbe251d9c	-0.16124576
18	0x3d19c28f	0.03753906
19	0xbe366ba9	-0.17814507
20	0xbd40a93c	-0.047036394
21	0x3dbe0651	0.092785485
22	0xbd9a8c0b	-0.07546242
23	0x3e214c75	0.15751822
24	0x3cd9272a	0.026507933
25	0xba7d22ea	-0.00096563867
26	0x3d7d6002	0.06185914
27	0x3e1f2e70	0.15545058
28	0xbd2664d5	-0.040623505
29	0xbdc78a06	-0.09743123
30	0x3ddf82ef	0.109136455
31	0x3d9c7949	0.07640321
32	0x3e269224	0.16266686
33	0x3e5374f2	0.2065008
34	0xbd1cfbaf	-0.03832596
35	0x3e156b6b	0.14591758
36	0xbc273cc0	-0.010207355
37	0x3e59848f	0.21241973
38	0xbd0c0b05	-0.034190197
39	0x3e08dcaa	0.13365427
40	0x3c86d012	0.016456638
41	0xbd8303cb	-0.06397208
42	0x3e2fd664	0.17171627
43	0x3d53e7fa	0.051734902
44	0xbc6ba32e	-0.014382167
45	0x3db4458e	0.08802329
46	0x3e2ee976	0.17081246
47	0xbc28b3d6	-0.0102967825
48	0x3d00b039	0.03141806
49	0xbdd0824a	-0.10181101
50	0x3daf63d7	0.08563965
51	0x3e33e5d1	0.17568137
52	0xbd7627c4	-0.060096517
53	0x3e508cc1	0.20366193
54	0x3e43cbf5	0.19120772
55	0x3dbf0a9c	0.093281955
56	0xbda875bf	-0.08225583
57	0x3d589440	0.052875757
58	0xbdebe814	-0.11518875
59	0xbe111947	-0.14169799
60	0xbc98e441	-0.018663527
61	0x3d5fb7bb	0.05461858
62	0xbd058909	-0.03260139
63	0x3b4fbff0	0.0031700097
64	0x3d4b4b33	0.049632262
65	0x3e16136c	0.14655846
66	0x3d7c493f	0.06159329
67	0xbd7598d0	-0.059960186
68	0xbe12ff21	-0.14355136
69	0xbd720df8	-0.059095353
70	0x3ded9036	0.11599772
71	0xbc7432ba	-0.014904672
72	0xbda67f3a	-0.08129735
73	0x3e163d4b	0.14671819
74	0xbda60636	-0.081066534
75	0x3e1c0e2b	0.1523978
76	0xbd85f51b	-0.06540891
77	0xbd5a55d9	-0.053304527
78	0x3daa09d2	0.08302654
79	0x3e005c79	0.12535276
80	0xbce8c681	-0.028414967
81	0xbc92001e	-0.017822322
82	0xbb9fcc38	-0.0048766397
83	0xbdd1ea57	-0.10249775
84	0x3d915f30	0.07098234
85	0xbe3ac800	-0.18240356
86	0xbe0e18c8	-0.13876641
87	0x3bf77c6b	0.0075526736
88	0x3decfc85	0.11571602
89	0xbdde6b84	-0.10860351
90	0xbdfbd484	-0.122963935
91	0x3e252b99	0.16129912
92	0x3e21f53f	0.1581621
93	0x3ce3d349	0.02781071
94	0x3dd128bc	0.102128476
95	0xbe162090	-0.14660859
96	0xbde162cf	-0.11005174
97	0xbe0f7b82	-0.14011958
98	0xbe09f6f9	-0.13473119
99	0x3cbb8673	0.022891259
100	0xbbbeabc2	-0.005818815
101	0x3d6e161b	0.05812655
102	0x3db104af	0.086434714
103	0xbda682af	-0.08130395
104	0x3e0eb379	0.13935651
105	0x3d74e4fe	0.059788696
106	0xbdca7d8b	-0.09887227
107	0x3d827447	0.063698344
108	0x3ddf936c	0.1091679
109	0xbd69d600	-0.057088852
110	0xbde50c09	-0.11183936
111	0xbc65c2a5	-0.014023458
112	0xbdb10a2f	-0.086445205
113	0x3d4fa2c9	0.050692353
114	0x3d8c5698	0.06852454
115	0x3e007d33	0.1254776
116	0xbd888a06	-0.06666951
117	0xbd0f6a2d	-0.035013366
118	0xbbfd755b	-0.007734937
119	0xbe19b788	-0.15011418
120	0x3db9a111	0.09063924
121	0xbdd63238	-0.10458797
122	0x3d827c2d	0.06371341
123	0x3d51a414	0.051181868
124	0xbdf0395d	-0.11729691
125	0xbdd41904	-0.10356334
126	0xbcdbdf06	-0.026839744
127	0xbe081f73	-0.13293247
128	0xbddb5d1f	-0.10711121
129	0x3d8b301a	0.06796284
130	0x3dd08ae7	0.101827435
131	0x3e041f86	0.1290265
132	0xbd75f10d	-0.060044337
133	0xbe2601ca	-0.1621162
134	0x3e0d9272	0.13825396
135	0x3d573bac	0.052547142
136	0x3e1910e3	0.14947848
137	0xbd8c6286	-0.06854729
138	0xbe3499d1	-0.17636801
139	0xbe033f2c	-0.12817067
140	0x3c917d17	0.017759843
141	0xbd0d0186	-0.03442528
142	0xbe1d0ef5	-0.15337737
143	0x3dab9d2a	0.08379586
144	0x3c29aa5d	0.010355559
145	0xbe229c08	-0.15879834
146	0x3daae3a7	0.083442025
147	0xba9d6299	-0.0012007534
148	0x3c066731	0.008203314
149	0x3db8e9ea	0.090289906
150	0xbe21b2e1	-0.15790893
151	0x3dba7981	0.09105206
152	0x3cff0b64	0.031133361
153	0x3dc856f8	0.09782213
154	0x3d80d718	0.06291026
155	0xbcdf0b2e	-0.02722701
156	0xbd972a20	-0.073810816
157	0xbd7b4268	-0.061342627
158	0x3e23404b	0.15942495
159	0xbd71e099	-0.059052084
160	0xbdec8862	-0.115494505
161	0xbe188cef	-0.14897512
162	0x3d9ea5ce	0.077464685
163	0x3d848342	0.06470348
164	0xbd53af0d	-0.051680613
165	0xbdca2068	-0.09869462
166	0xbdf16cd0	-0.117883325
167	0x3d8e4684	0.069470435
168	0x3d795079	0.06086776
169	0x3dc94cb4	0.09829083
170	0x3c2c0275	0.010498633
171	0xbc43185e	-0.011907665
172	0x3d9b6d81	0.075892456
173	0xbcd2adf3	-0.025717711
174	0xbdf6442e	-0.12024723
175	0x3d0a38f3	0.033745717
176	0xbdf95216	-0.1217386
177	0x3e3192bf	0.17341135
178	0xbe2b9b68	-0.16758502
179	0xbe02930c	-0.12751406
180	0x3d29d191	0.041459624
181	0xbe1708c6	-0.1474944
182	0x3cf42e24	0.029807158
183	0xbde6f770	-0.11277664
184	0xbdd7277c	-0.10505578
185	0xbe1b09c5	-0.15140446
186	0x3d9765cb	0.07392462
187	0xbe0f2351	-0.13978316
188	0x3db42d7e	0.087977394
189	0xbe030128	-0.1279341
190	0x3e0fdd33	0.14049225
191	0xbc5ff81b	-0.013669993
192	0x3d2d325e	0.042284362
193	0x3dc603ee	0.09668718
194	0x3d1b1e33	0.037870597
195	0x3e6dfcc6	0.23240957
196	0xbe182fdf	-0.14862011
197	0x3e788c07	0.24272166
198	0xbe0a4b89	-0.13505377
199	0xbd22b797	-0.039725866
200	0xbd49071f	-0.049079057
201	0x3c96b399	0.018396186
202	0xbce4a8d1	-0.02791253
203	0x3e0ffa5c	0.14060348
204	0x3e2860ae	0.1644313
205	0x3e492e4d	0.19646569
206	0xbd64d9c7	-0.05587175
207	0x3e7206d3	0.23635416
208	0x3dfd9098	0.12381095
209	0xbdc6e87a	-0.0971231
210	0xbd2997f4	-0.04140468
211	0xbd7590d6	-0.05995258
212	0x3d931769	0.071821995
213	0x3e00e333	0.1258667
214	0x3d77cb13	0.0604964
215	0x3ca83453	0.020532763
216	0x3da15a1f	0.07878517
217	0x3db2a081	0.0872202
218	0x3dedd976	0.11613743
219	0xbe0b3f6c	-0.13598412
220	0x3e45fd04	0.19334799
221	0xb9c8257e	-0.00038174907
222	0x3e05a801	0.1305237
223	0x3e2f45bd	0.17116447
224	0xbbc626ff	-0.006047129
225	0x3e21727b	0.15766327
226	0x3e3d212d	0.18469687
227	0xbd7f37a1	-0.06230891
228	0xbdf797fd	-0.12089536
229	0x3e4e206f	0.2012956
230	0x3d34a0b3	0.044098567
231	0x3e41136f	0.1885507
232	0xbdfa4cbc	-0.12221667
233	0x3e2ee09d	0.1707787
234	0xbd963a63	-0.07335355
235	0x3e3dd6c5	0.1853896
236	0x3e3e4a42	0.18583015
237	0x3e49d14c	0.19708747
238	0x3d74f089	0.059799705
239	0xbd96c068	-0.07360917
240	0xbd291cda	-0.04128728
241	0x3c6f892e	0.0146201085
242	0xbde9368e	-0.113873586
243	0x3e248f8a	0.16070381
244	0xbe316710	-0.17324471
245	0xbd81c6d5	-0.06336752
246	0x3e0a8b1d	0.1352963
247	0x3e191769	0.14950337
248	0xbe075299	-0.13215102
249	0xbd364ba7	-0.04450574
250	0xbd5e2e69	-0.05424348
251	0x3d3e2cce	0.046429448
252	0x3dab02c2	0.083501354
253	0xbd8f6f85	-0.070036925
254	0x3d5a246d	0.053257395
255	0xbbf06893	-0.007336685

hidden_layers.2.bias f4 [32]
0	0x3c49a70a	0.012307892
1	0x3dd03578	0.10166448
2	0x3bdd9267	0.0067618373
3	0xbdd0220b	-0.10162743
4	0x3d357650	0.044302285
5	0xbe0f9cae	-0.14024612
6	0x3e12dffa	0.14343253
7	0xbd59b737	-0.053153243
8	0x3e4a5f2a	0.19762865
9	0xbd680cf7	-0.05665299
10	0x3e2a3492	0.16621616
11	0x3de7d36b	0.11319622
12	0x3da85a27	0.0822032
13	0xbd641ec7	-0.055693414
14	0xbc5b73a2	-0.013394268
15	0x3db005c7	0.08594852
16	0x3e2e97e2	0.17050126
17	0xbe2fa52e	-0.17152855
18	0xbd89ee92	-0.06734957
19	0xbddec050	-0.108765244
20	0x3e2eff70	0.17089629
21	0x3dfad16a	0.12246974
22	0x3d850991	0.06495965
23	0x3dc687fb	0.09693905
24	0xbd8a013c	-0.06738517
25	0x3e7c87c7	0.2466117
26	0xbdcac5db	-0.09901019
27	0x3e406f78	0.18792522
28	0x3e4b85ff	0.19875334
29	0xbe24e5ad	-0.1610324
30	0x3db3c55d	0.087778784
31	0x3df766ac	0.1208013

output_layer.weight f4 [2, 32]
0	0xbc994aee	-0.018712487
1	0x3da18c8c	0.07888135
2	0xbe205113	-0.15655927
3	0xbe112a2e	-0.14176247
4	0xbd99232f	-0.07477414
5	0xbe0117d5	-0.12606747
6	0x3d0ac5e7	0.03388014
7	0x3e724a74	0.23661214
8	0x3e4ba0f9	0.19885625
9	0x3df95291	0.121739514
10	0x3dbeae85	0.09310631
11	0x3daaab32	0.08333434
12	0x3e269a27	0.16269742
13	0xbcda8359	-0.02667396
14	0xbcdb2289	-0.026749866
15	0xbe15d8d7	-0.14633499
16	0x3daaf688	0.08347803
17	0x3e1f93f7	0.15583788
18	0xbd37f3f1	-0.044910375
19	0xbc580065	-0.013183688
20	0x3e535148	0.20636475
21	0x3c5c0e49	0.01343114
22	0xbde1ebf0	-0.1103133
23	0x3e1b7491	0.15181185
24	0x3e1def13	0.15423231
25	0xbb80b2e2	-0.0039275745
26	0x3e3231f6	0.17401871
27	0x3df7a8a6	0.12092714
28	0x3d95c123	0.073122285
29	0xbddca67c	-0.10773942
30	0x3c403042	0.011730256
31	0xbcce4461	-0.02517909
32	0x3e050836	0.12991413
33	0xbe91db3b	-0.28487572
34	0xbc39e225	-0.011345421
35	0xbe05d8b7	-0.13070951
36	0x3bca478d	0.0061730803
37	0xbe2bb00a	-0.16766372
38	0xbe6d93e7	-0.23200952
39	0xbe6add43	-0.22935967
40	0x3cb05f20	0.021529734
41	0xbe586337	-0.21131597
42	0xbd66af2f	-0.05631941
43	0xbe8ab1cb	-0.2708877
44	0xbc3a1145	-0.011356656
45	0xbded1dbc	-0.11577937
46	0x3d3c0b09	0.04590896
47	0x3e0704e4	0.1318546
48	0xbe11baa2	-0.14231351
49	0x3dd10dfc	0.102077454
50	0xbc596767	-0.013269282
51	0x3df40a5d	0.11916039
52	0xbe6956c5	-0.22787006
53	0x3d8bfef9	0.068357415
54	0xbe8a903d	-0.2706317
55	0xbdc5f007	-0.09664922
56	0xbe4d635c	-0.20057434
57	0xbe9feb18	-0.3123405
58	0xbd1cc5f7	-0.03827473
59	0xbd275098	-0.040848345
60	0xbe71e52b	-0.23622577
61	0x3ba84b22	0.0051359097
62	0xbe842f96	-0.25817555
63	0xbe9fd3be	-0.31216234

output_layer.bias f4 [2]
0	0x3dffe91d	0.12495635
1	0xbd35dd6b	-0.044400614
