synthetic_flows_raw/saved_models/phi_only_1.6.pt (torch, 16963 bytes, 10 tensors)

input_layer.weight f4 [32, 3]
000000 1f 98 d3 be 97 1b 25 be cc 59 86 be df 84 04 bf
       -0.41326997 -0.16123806 -0.26240385 -0.51765245
000010 f0 27 af 3e a9 b3 56 3e 3e 22 99 3e 6b ca a4 bc
       0.34210157 0.20966972 0.29908937 -0.020116052
000020 ab 0c 59 3e df 1c 0d 3f a9 00 9f be ef b4 ff be
       0.21196239 0.5512218 -0.3105519 -0.4994273
000030 00 4d 0c bf a3 12 0c 3f fc 19 87 be 4e 18 90 3e
       -0.5480499 0.5471594 -0.26387012 0.28143543
000040 0b 75 b8 3e 19 a6 4a 3d 6c d0 48 3e 5f dd ce bc
       0.36026797 0.04947481 0.19610757 -0.025252042
000050 27 ca 1a 3f 3e 10 b2 3d 63 bc e2 3e 32 78 d0 3c
       0.6046471 0.08694504 0.44284353 0.025447939
000060 c9 de b8 be 4d f5 8a bd d5 27 2d be 8f fc 56 3e
       -0.36107472 -0.06785069 -0.16909726 0.20994781
000070 0a 07 77 3e 9a 26 0c bf 35 d7 1d be 1c a0 db bd
       0.24123779 -0.547464 -0.15414126 -0.10723898
000080 52 08 16 be 42 31 13 3f 62 57 79 bd 49 6b 9a be
       -0.14651611 0.57497036 -0.06087435 -0.30159977
000090 54 f5 f2 be 90 35 0f 3f 98 33 f7 3e 9f cd ab 3e
       -0.47452796 0.55941105 0.4828155 0.33555314
0000a0 30 4c 8a 3e bb a6 0e 3f 22 eb 59 be 9f 5f f7 be
       0.2701125 0.5572316 -0.21281102 -0.4831514
0000b0 62 fd 92 3e 12 b2 3d 3d bf 32 d8 3e 87 77 12 3d
       0.2870894 0.0463124 0.42226216 0.03575852
0000c0 a1 9e f8 be a3 02 15 bf 18 76 0d 3f a3 ba d9 bd
       -0.48558524 -0.5820715 0.5525832 -0.10631301
0000d0 59 2d 95 be 8e c7 21 3d 8e 69 e3 be 89 b4 2e 3e
       -0.2913616 0.03949695 -0.4441647 0.17061056
0000e0 47 d2 02 3d f9 74 ab 3d 3e a5 0c bf d8 1d 75 3d
       0.031938817 0.0837192 -0.5493964 0.059842914
0000f0 cb f2 a6 be 2f e5 f1 be 99 64 05 3f 58 1a 0d 3f
       -0.3260711 -0.47245166 0.52106625 0.5511832
000100 ca 7f 3f be 3b ca 02 3f 35 eb a5 be 43 fe 3f be
       -0.18701091 0.5108983 -0.3240601 -0.18749337
000110 58 cd ee bd 7a 5e 47 be 2b 38 1a bf 11 e4 b2 be
       -0.1166026 -0.19469634 -0.60241956 -0.34939626
000120 82 88 56 be 87 64 f3 be b7 88 a2 be ac 70 20 be
       -0.20950511 -0.47537634 -0.3174493 -0.15667981
000130 62 00 d9 3e 94 a6 41 3e fb cd b0 3e bf 8f 3a 3d
       0.42383105 0.18911201 0.3453215 0.045547243
000140 11 e6 bd be 9e 6b 3e 3e c3 72 6b bd bc 7c bf 3e
       -0.3708959 0.1859574 -0.057482492 0.37399852
000150 15 7e 07 3e 92 8f b8 be 81 de a9 3e 38 6f 0a 3f
       0.1323169 -0.36047035 0.3317757 0.54075956
000160 17 e3 8b bd 57 f1 dd 3e df 04 09 3f fb 90 d9 be
       -0.06830423 0.4334819 0.5352306 -0.42493424
000170 5d 53 e5 be b2 65 7e 3d 64 cf cf be c4 11 d5 bd
       -0.44790164 0.062108703 -0.40587914 -0.10403779

input_layer.bias f4 [32]
000000 76 b6 03 be fb 49 0a be 01 32 19 3e c5 eb 4a be
       -0.12862572 -0.13504784 0.14960481 -0.19816501
000010 e6 69 bb 3e 0e d9 03 bf e3 9f 28 bd c7 01 90 3e
       0.36604232 -0.51503074 -0.041168105 0.28126356
000020 1f e4 6b 3e e8 a7 e0 be bf 3b 1b 3f 2c a8 75 3e
       0.2303624 -0.43878102 0.6063804 0.23989934
000030 a8 b8 8b 3d 6e 4d a8 3e 40 48 dc 3e 1c fa 42 3e
       0.0682233 0.32871574 0.43023872 0.19040722
000040 98 fe 1b 3f 1e 2b c0 3e a2 65 aa bd e5 3f 36 3e
       0.60935354 0.37532896 -0.08320166 0.17797811
000050 89 e5 12 be a2 ee 8b be 21 90 d5 be 3c 52 59 bd
       -0.14345373 -0.273305 -0.41711524 -0.05305694
000060 74 2a 10 bf 9f 7c 5a be 60 a9 7f 3e 63 f7 dc be
       -0.5631478 -0.21336602 0.24966955 -0.4315749
000070 64 4f 52 3e 5e 01 aa be 6d 5a a2 3e f9 d4 08 3f
       0.20538098 -0.33204168 0.31709614 0.5344997

hidden_layers.0.weight f4 [32, 32]
000000 fc f9 46 3d 7c d6 87 3d e3 71 02 3e c6 51 18 3e
       0.048578247 0.066327065 0.12738757 0.14874944
000010 36 cc 78 3d 16 c9 c5 3d fa eb 0e be c7 7d bb bd
       0.060741626 0.09657495 -0.13957205 -0.091548495
000020 9c 8b b5 bd 90 90 e9 bd 1b 52 02 3e 57 cc 59 3d
       -0.08864519 -0.11404526 0.12726633 0.05317339
000030 8a 0c 11 3d 2f a9 e6 bd 95 4e b4 3d 61 4b dc bd
       0.03541235 -0.11262738 0.08804051 -0.10756565
000040 b1 3e cc bd 40 58 d0 3c 30 88 14 3e 3e f8 e5 3d
       -0.09972895 0.025432706 0.14505076 0.11228989
000050 a7 2d 3d 3c 11 1c 3c bd 73 ce e4 3d de fb 15 be
       0.011546529 -0.045925204 0.111721896 -0.14646861
000060 1f 88 02 be b7 3b 32 be bc bc e8 3d d1 16 03 3e
       -0.12747239 -0.17405592 0.11364123 0.12801673
000070 8d 03 e7 3d 07 71 b9 3c 4b af 76 3d b3 1f 1d be
       0.11279974 0.022636903 0.060225766 -0.15344124
000080 1c 02 c2 bd c0 9d 87 3d 6f a3 7c 3d 03 9f 02 be
       -0.094730586 0.06621885 0.0616793 -0.1275597
000090 59 2b 84 3d f3 86 c5 3d a2 2d 6f 3d 0a 02 e0 bd
       0.064535804 0.0964488 0.05839313 -0.10937889
0000a0 ad 9e 13 3e 68 e6 8f 3c 3a ce ba 3d 31 32 06 be
       0.14415999 0.017565921 0.09121366 -0.13105084
0000b0 3e fc 45 bd bb dd be bd e8 60 f6 3d f6 8b 07 bd
       -0.04833626 -0.093196355 0.12030202 -0.03309246
0000c0 b8 97 93 bb 02 0e 0c be a0 e0 27 be c4 c9 19 3e
       -0.0045041703 -0.13677219 -0.16394281 0.15018374
0000d0 5f ab c6 bd 81 e8 4a 3d 49 ed d3 3d b0 89 5f bd
       -0.09700655 0.04953814 0.10347993 -0.05457467
0000e0 2f 89 b6 bd 24 9e 14 3e 52 11 68 bd 33 0f f5 3d
       -0.089128844 0.14513451 -0.056657143 0.1196579
0000f0 77 46 b1 bb aa 4e a0 bc 05 91 12 be cd f3 8e bd
       -0.0054100114 -0.01956876 -0.14313133 -0.06980095
000100 28 b4 79 3d c6 9b fc bd c2 e8 7f bd 63 5c 0f 3e
       0.060962826 -0.12334399 -0.062477835 0.14000086
000110 61 ea 20 bd e0 ff 26 3e 53 ec 64 3d 96 d7 24 3e
       -0.03928602 0.16308546 0.05588944 0.16097865
000120 bf 27 31 3e 4d d7 f5 3d 3d 20 19 3e ef b0 27 bc
       0.17300318 0.12003956 0.14953704 -0.010235055
000130 80 4d 95 bd d5 66 78 3e 0e 20 3d 3c 88 be 5f 3e
       -0.072901726 0.24257977 0.011543287 0.21850026
000140 f1 84 84 3d 66 c9 6c 3e 07 9d 0b bd 61 99 38 3e
       0.06470669 0.23123702 -0.0340853 0.1802726
000150 66 fb 18 bd ad 5d 3e 3e d4 aa d1 bd 01 38 70 3d
       -0.037349127 0.18590422 -0.10237661 0.05864716
000160 4d 4d cd 3c b4 32 e5 bc dc 8e 36 3e 81 7a be bc
       0.025061274 -0.027978279 0.17827934 -0.023251774
000170 22 0f 29 3d 49 3a 94 3d b9 3b 06 3d 71 b7 4d 3e
       0.041274197 0.072376795 0.0327718 0.20089509
000180 4f da 0f 3e ec 53 28 3d 72 3f 86 3d 11 84 34 3e
       0.14048122 0.04109566 0.0655507 0.17628504
000190 07 63 20 3e 2c ef 6d 3d cf 07 f1 3d 17 f9 e1 3d
       0.15662776 0.05808942 0.117690675 0.11033838
0001a0 3d 15 d5 bd 25 15 1c 3d 85 3c 15 3e 6e 19 02 be
       -0.104044415 0.038106102 0.14573868 -0.12705013
0001b0 24 97 c1 3b ad fa 01 be cb 25 08 bc 2d 34 a8 bd
       0.00590791 -0.12693281 -0.008309792 -0.08213077
0001c0 ee b2 cf bc 19 ed 9a bc 1d 81 a0 bd 17 35 17 3e
       -0.025353875 -0.018911885 -0.078371264 0.14766346
0001d0 79 7b 83 bc 20 fd 23 be 60 6f 0a 3d 36 21 ab 3d
       -0.016050087 -0.16014528 0.03379762 0.08355944
0001e0 17 75 db bd 2e 51 b4 3d 4d 22 db 3c 71 bb 9f 3d
       -0.107156925 0.08804546 0.026749754 0.077994235
0001f0 5f 1b a9 3d 87 84 e3 bd d2 b8 0a 3e 73 79 2e 3d
       0.08257174 -0.11109262 0.13547066 0.04259629
000200 56 66 af 3d 44 83 21 3e 0c 1b 47 3e ca a9 1e 3c
       0.08564441 0.1577273 0.19443911 0.009684036
000210 ed ba b6 3c 99 00 0f 3c 82 f9 bd bc 96 ac 8f bd
       0.02230593 0.00872817 -0.023190264 -0.0701534
000220 b8 84 6a bc 94 30 dd bc 59 86 12 3d 4a cf 64 3e
       -0.014313869 -0.027000703 0.035772655 0.223447
000230 a0 2d 6e bd ee c8 44 bc c2 be 2b 3e 43 45 f7 bc
       -0.05814898 -0.012010796 0.16771987 -0.030184394
000240 14 bd 13 bd cf 32 9a bd b7 91 01 3d d8 1d 58 bd
       -0.03606899 -0.07529222 0.031633105 -0.052762836
000250 18 78 df bd 9e 92 a7 3d fe c5 39 3d 15 ba d6 3d
       -0.10911578 0.08182262 0.045354836 0.10484711
000260 d6 4e 25 be fa 6d b4 3d ea ee 27 3e 47 0f 0d be
       -0.16143355 0.08810039 0.16399732 -0.13775359
000270 40 a2 72 3c 9f 79 2e 3d 02 c4 f1 3d 6f 0a 31 3e
       0.014809191 0.042596456 0.11804964 0.17289136
000280 28 bd ae bd 7a 31 64 bd af 4b 36 3e 38 97 04 be
       -0.085321724 -0.055711247 0.17802308 -0.1294831
000290 9d e5 e0 3d ff 2b 28 bd 17 7c b2 bd ac e4 4f 3e
       0.10981295 -0.041057583 -0.087150745 0.20302075
0002a0 9c d8 21 3d 13 2b 20 3e cd 2d 35 3e 6d 94 15 3e
       0.039513215 0.15641432 0.17693253 0.14607401
0002b0 a2 b9 e8 3d 93 4d f6 3d 25 0e 23 3e 94 c2 6c 3e
       0.11363532 0.12026515 0.15923364 0.231211
0002c0 5a b8 3e bd f8 92 77 bc 25 92 10 be b1 75 7d 3d
       -0.04656253 -0.015110724 -0.1411825 0.061879817
0002d0 4b 8b dc bc fa 45 12 3d a5 42 32 be 65 20 7f bd
       -0.026921889 0.035711266 -0.17408235 -0.062286753
0002e0 4f 00 23 3e d7 fb 12 be fd 25 48 bd 8f 46 97 bd
       0.15918086 -0.14353882 -0.048864353 -0.07386505
0002f0 fe 22 b4 3d 28 0d 59 bd 22 80 15 3e 93 d9 1d bd
       0.08795737 -0.052991062 0.1459966 -0.038537573
000300 47 0f 41 3e 9e 30 18 3c 15 c4 3e 3e 71 33 7c bd
       0.18853484 0.009288935 0.18629487 -0.061572496
000310 11 b2 6f 3e 2d 58 85 bd 3f be 35 bd 60 26 f4 3d
       0.2340777 -0.06510959 -0.044370886 0.11921382
000320 cc f3 58 3d 25 fb 29 be e2 5a e8 bc 59 72 0f 3d
       0.052966878 -0.1659971 -0.028363649 0.03502116
000330 35 4e f9 bd 95 80 6f 3c 4f 92 85 bb d8 b4 2b 3e
       -0.1217312 0.014618059 -0.0040762792 0.16768205
000340 1d 71 d1 bd d7 4a 02 3e a5 82 22 bd 56 a5 34 bd
       -0.10226653 0.12723862 -0.039675374 -0.04410299
000350 07 9e 38 3e 41 32 ca bd 18 be ac 3d 17 aa 00 3e
       0.18029033 -0.098728664 0.08434695 0.12564884
000360 82 7a 82 bd e4 21 ea bd a3 9b 23 3e d1 2b 18 3e
       -0.06371023 -0.114322454 0.1597734 0.14860465
000370 91 87 35 3d cb e8 26 bd d1 19 2a bd 8e 97 ea 3d
       0.04431874 -0.040749352 -0.041528527 0.11454688
000380 64 cc d3 bd ff b7 12 be 00 f5 65 3d 5a 81 67 bd
       -0.10341719 -0.14328001 0.056141853 -0.056519844
000390 86 40 97 bc 84 ff 2e 3e b4 f2 27 be 5e 78 eb 3c
       -0.018463384 0.17089659 -0.16401178 0.028743919
0003a0 00 66 6c bd 6b ec 18 3e b1 94 4d 3e c5 05 4f bd
       -0.057714462 0.14933936 0.20076253 -0.05054261
0003b0 a6 14 11 3e 2b 4f c3 bd f6 a4 6d 3c 81 d7 05 3e
       0.14168033 -0.095365845 0.014504662 0.1307049
0003c0 bf 26 dc 3d 22 f0 9a 3c 1c 2d 1f 3e ba 89 ae bd
       0.10749578 0.018913332 0.15544552 -0.08522363
0003d0 a7 98 c5 3c 2b 03 fd 3d 39 2a c0 bd bf 43 56 bd
       0.024120642 0.1235412 -0.09383053 -0.0523107
0003e0 e8 19 2c 3e 06 d7 05 3e 57 28 3c 3d b4 2f ad bd
       0.16806757 0.13070306 0.04593691 -0.08456364
0003f0 6e 9f e8 bd 93 3f 5e bc ff 07 2f 3e 1d a3 2e bd
       -0.11358534 -0.013564962 0.17092894 -0.042636026

hidden_layers.0.bias f4 [32]
000000 49 65 04 be 6c 09 e4 bd ff 11 16 3d 8b 33 5d bd
       -0.12929262 -0.111346096 0.036638256 -0.054004233
000010 4f 0a fc 3c 2e 17 ed 3d 6d 4d 4c 3e 0e 95 f5 3c
       0.030766634 0.11576687 0.1995141 0.029978301
000020 6c f0 97 3d b1 0d cd bc fc e0 6b 3e 60 72 6e 3e
       0.07418904 -0.025030943 0.23035043 0.23285818
000030 34 8a 0f be 72 3b e7 3c d8 b4 a8 3d 2e 26 0b 3e
       -0.14017564 0.028226588 0.08237618 0.13588783
000040 a8 05 25 bb ce 07 71 3e 8c 3c 15 be 27 e9 24 be
       -0.0025180373 0.23538134 -0.14573878 -0.16104566
000050 7e 48 69 bd e5 fd 42 bd 98 88 27 bd 36 74 fb 3d
       -0.0569539 -0.047605414 -0.04090175 0.12278025
000060 01 b4 0d be 71 a1 b4 3d 85 84 96 3d a1 1e c8 3d
       -0.13838197 0.08819855 0.07349495 0.09771467
000070 37 d7 ea 3d 7d 78 07 3e d8 ac 82 bc a3 dd ab bd
       0.1146683 0.13229556 -0.015951559 -0.08391883

hidden_layers.1.weight f4 [32, 32]
000000 2c f6 ac 3d 6f 00 1d bd 73 92 0c 3d 13 c5 bd bc
       0.08445391 -0.03833049 0.034319352 -0.023165261
000010 ca 86 ab 3c 64 d0 12 bc 48 57 a1 3d 5d 6a 0d 3e
       0.020938296 -0.008960817 0.07877976 0.13810106
000020 d1 a5 aa 3d 6a ae 01 3e 0a c7 3f be 0b fe 24 3e
       0.08332408 0.1266419 -0.18728271 0.16112535
000030 e1 10 a1 3d e2 ae 9a bd df 61 0c be b8 9d 82 bd
       0.078645475 -0.075528875 -0.1370921 -0.06377739
000040 06 fd 7a bc 8a 5d 01 3e f3 1a aa bd 12 09 c4 3d
       -0.015319115 0.12633339 -0.083059214 0.095720425
000050 f1 a7 73 bd 06 d2 d4 bd 0f 8e 37 be 05 b5 8e 3d
       -0.059486333 -0.10391621 -0.17925285 0.069681205
000060 82 18 28 bd f0 c3 3b be 98 eb 6d 3a 48 6a d4 bc
       -0.041038997 -0.18336463 0.0009075939 -0.025929585
000070 9e f8 3c bd 9f 3f 32 be 67 fd d4 3d d9 20 1e bd
       -0.046135537 -0.17407082 0.10399895 -0.038605545
000080 d5 17 17 be 7e 73 6d 3d 6a df c9 3d d1 d4 8c bd
       -0.14755185 0.05797147 0.09857066 -0.06876529
000090 04 c1 9e bd c0 2c 94 3d 23 c9 9c 3d e2 72 09 3e
       -0.077516586 0.07235098 0.07655551 0.1342273
0000a0 94 17 fe 3d 5e 79 97 bc 1f 98 34 bc 92 d3 69 bd
       0.12406841 -0.01849049 -0.011022597 -0.057086535
0000b0 ec 36 c5 bc 9c 3b d8 bc 40 55 14 3d 49 44 18 3e
       -0.02407404 -0.026395611 0.036214113 0.14869799
0000c0 52 74 a9 bd f0 f4 b3 3d 8e 7e 9d bd f4 3c 23 3e
       -0.082741395 0.087869525 -0.07690154 0.1594122
0000d0 c6 de 7b 3d c6 a7 12 be 2f 4c 1b be 74 0b 4c 3e
       0.06149175 -0.14321813 -0.1516578 0.19926244
0000e0 74 ee a1 bd e8 54 09 3e 8a 2e 1f 3d b2 c9 06 3e
       -0.079068094 0.13411295 0.038862742 0.13162878
0000f0 7c 86 8b bd ce ce b3 3c 7f 76 74 bd 4a 2e bb bd
       -0.0681276 0.021949198 -0.05968332 -0.09139688
000100 4d f1 8a bb 14 9a cb bc dc af 10 be a6 3f e5 bd
       -0.004240191 -0.024853744 -0.14129585 -0.111937806
000110 88 7c a1 bd 22 bb aa bb f1 2d c1 bc a2 98 d3 3d
       -0.078850806 -0.0052102963 -0.023581477 0.10331847
000120 7b 1b 04 bd 73 49 12 3e fd 15 1d be 9d 2f 8f bd
       -0.03225277 0.14285831 -0.15340419 -0.069915034
000130 88 7d 6e 3d 9c 20 92 bd 33 f6 14 3e 58 53 ee bd
       0.058225185 -0.07135126 0.14547043 -0.1163699
000140 28 a8 07 3d 0a e0 03 3e 66 34 dc bd 87 14 0f 3e
       0.03311935 0.12878433 -0.10752182 0.13972674
000150 ee ec 60 bc b6 9b b6 3d dd 3b 20 be 0b 74 f1 3c
       -0.013728363 0.08916418 -0.15647836 0.029474279
000160 24 a6 b0 bd 74 83 eb bd d6 3d c7 bc 32 1f 47 3d
       -0.08625439 -0.11499682 -0.024321478 0.048613735
000170 e9 dc 18 be a3 e0 0a be dc 47 3a 3c d6 f2 9c 3d
       -0.1492802 -0.13562255 0.011369672 0.07663505
000180 2c ff 60 3d 0d e5 07 be a7 13 1a 3c ec 9c 1a 3e
       0.05493085 -0.1327097 0.0094041 0.15098923
000190 b4 94 69 bd e1 7d aa 3d 78 3c 09 be d1 da ce 3d
       -0.05702658 0.08324791 -0.13401973 0.1010033
0001a0 5b 87 08 3e f4 19 bd bd 7c 6b 03 be 9e 17 1f be
       0.13332884 -0.09233466 -0.12833971 -0.15536353
0001b0 05 09 05 be 3c aa 21 3e 95 b2 ef 3d a9 06 2a be
       -0.12991722 0.15787596 0.11703984 -0.16604103
0001c0 f7 c7 ee b9 58 6f be 3c 87 b8 09 be b0 e2 60 bd
       -0.00045543883 0.023246452 -0.13449298 -0.054903686
0001d0 5e bf 0e bc 91 a0 8d 3d 86 5c 99 bd 7d b3 6d bc
       -0.008712618 0.06915391 -0.074883506 -0.014508125
0001e0 66 17 b5 bd 82 81 d3 3c 64 cd 98 3d ae 52 fe bd
       -0.088423535 0.02581859 0.0746105 -0.12418114
0001f0 7b 3d 62 bd f2 46 50 bc fb 63 ed bc bf 87 9b 3d
       -0.055234414 -0.012712227 -0.028978338 0.07594251
000200 45 63 8b 3d 18 bc fc bd fd 1f 05 3e 59 ad 17 be
       0.068060435 -0.123405635 0.13000484 -0.1481222
000210 91 35 84 bd 1f a9 a3 3d a7 83 ab bd b9 15 07 be
       -0.064555295 0.07991242 -0.0837472 -0.1319188
000220 71 a2 15 3e 90 84 10 3e ee 07 a1 bd 50 e3 5a 3d
       0.14612748 0.14113069 -0.078628406 0.05343944
000230 ba 27 a5 bc 05 dc 23 3e 28 bd f1 3d 1d 8c e1 bc
       -0.020160545 0.160019 0.11803657 -0.027532632
000240 21 5b 2d bd f2 62 3e 3c 81 c5 4e bd f8 0a 9e 3c
       -0.042323235 0.01162027 -0.050481323 0.01929234
000250 60 c2 24 3d b5 0e 19 3d 89 5b 15 3e 1f 68 41 bd
       0.040224433 0.03736754 0.14585699 -0.04721844
000260 c8 7b e0 3d 99 18 5b 3d 2e 97 26 be a2 5a 05 3e
       0.109611094 0.053490255 -0.16268608 0.13022855
000270 81 9a 0c bd de b1 79 bd 13 bf 85 3d 3f 11 9e bd
       -0.034327034 -0.060960643 0.06530585 -0.07718133
000280 95 4d e6 bd 48 bd 34 3e 5a db 3e 3e 7e b4 80 3c
       -0.11245266 0.1765033 0.18638363 0.015711065
000290 4c 32 04 3e 97 a6 51 bd a2 21 93 bc d0 4b ba 3c
       0.12909812 -0.051184263 -0.017960373 0.022741228
0002a0 a4 a5 37 3e f1 83 7a 3e 41 2c e7 3d b8 87 06 3e
       0.1793428 0.24464394 0.11287738 0.1313771
0002b0 ea aa 3d bd 7c aa 3c bd 5e d8 8a 3d a8 77 31 3e
       -0.046305574 -0.046061024 0.0677955 0.17330801
0002c0 91 0a 9e bd db e9 3e 3e fa f4 3c bd 63 c1 1a 3e
       -0.07716859 0.18643896 -0.046132065 0.15112834
0002d0 f2 3a 9e bd 9e 98 1e be 56 cd 9c bd 63 4e 82 3e
       -0.07726087 -0.15487906 -0.07656352 0.2545043
0002e0 e9 50 fe 3d 1b 75 45 3e 2e 16 e6 3d 0e d4 39 3e
       0.12417776 0.19282953 0.11234699 0.18147299
0002f0 8a b9 1b 3c c7 ed 32 3e 5d 8f 55 3e dd c8 0f bd
       0.009504685 0.17473517 0.2085547 -0.035103668
000300 8e b1 07 be d1 2d 0d bd 9d aa bd bd 9d 42 17 3e
       -0.13251325 -0.034467522 -0.092610575 0.14771505
000310 ba 8f bc bd d7 89 df bc 02 de ca bd d4 97 25 3e
       -0.09207101 -0.027287407 -0.09905626 0.16171199
000320 bb 4c 19 be 27 05 97 bd 14 9c 92 bc 11 d5 ab bc
       -0.14970677 -0.073740296 -0.01789669 -0.020975621
000330 9e 68 c0 bd 6c e5 10 be 33 d3 25 bd 97 a4 a2 bd
       -0.09394954 -0.14150017 -0.04048462 -0.07941549
000340 32 a2 06 be bc 45 fb bd 57 25 04 3e f1 50 f8 bd
       -0.1314781 -0.1226916 0.12904869 -0.12124813
000350 d0 a9 30 3e f1 24 32 bd d9 9a b0 3d 08 3d 0a be
       0.17252278 -0.04349226 0.08623285 -0.13499844
000360 f0 9a 08 3d 46 14 76 3d 22 06 10 3e cb 6d e7 3d
       0.033350885 0.060077928 0.1406484 0.11300238
000370 47 4d f3 3c cc 87 37 3c b0 48 c4 bc fa 23 fc 3c
       0.029699935 0.01120181 -0.023960441 0.030778874
000380 4c db 15 be 8f 25 4f 3d f5 be 18 3e 67 7e bd 3d
       -0.14634436 0.050572928 0.14916594 0.09252625
000390 f1 4b 36 3e a7 a9 8f bd de a1 80 3e ad 4f ab 3d
       0.17802407 -0.070147805 0.25123495 0.08364806
0003a0 fc 83 1e 3e fc e2 b6 3c 90 89 49 3e 74 91 25 3e
       0.15480036 0.022325031 0.19681382 0.16168767
0003b0 51 8b 07 be de b1 a2 bd 49 bb 80 3c 47 a3 09 bd
       -0.13236739 -0.07944082 0.015714305 -0.03360298
0003c0 bd c5 9c 3c 24 8b 00 3e 80 97 45 3d da 83 be bd
       0.019137258 0.12553078 0.048240185 -0.093024924
0003d0 93 c0 4d 3e 1b ce c9 3b f9 3a d5 bc da ac 2b bd
       0.20092992 0.006158603 -0.026029097 -0.04191289
0003e0 3c 58 dd 3d 31 a9 09 bc 7e e6 36 3e 78 c8 54 3d
       0.10807845 -0.008402155 0.17861363 0.051948994
0003f0 c9 95 36 3e 7b 47 08 bc df 09 e3 3d b7 0a 3f 3e
       0.17830576 -0.0083178235 0.11085867 0.18656431

hidden_layers.1.bias f4 [32]
000000 0c d7 9b bb 16 01 80 3d 98 60 e3 3d fb ea 35 3d
       -0.00475586 0.06250207 0.11102408 0.044413548
000010 d6 e4 2b be c5 6b 71 3e e5 21 b5 bd bb a8 73 3e
       -0.16786513 0.23576267 -0.088443555 0.23794834
000020 b9 8f df bd 86 08 30 be 2a b7 b1 bd 6f 66 11 3e
       -0.10916085 -0.17190751 -0.08677514 0.14199232
000030 bd 73 f8 3d 8d b5 d9 3d 4e b0 32 be 02 01 0d 3e
       0.1213145 0.10630331 -0.17450067 0.13769916
000040 9f e6 bc 3d 58 45 9a bd 65 fb 2e be 21 80 23 3d
       0.09223675 -0.075327575 -0.17088087 0.039917115
000050 51 1d 64 3d 27 10 54 3e d5 49 8e 3d 87 c6 1b be
       0.05569202 0.20709287 0.06947676 -0.15212451
000060 ee 65 27 3e 56 63 2b be a2 e7 17 3e ee 37 23 3d
       0.16347477 -0.16737112 0.14834455 0.03984826
000070 e8 04 4e bd 28 5b fb 3d 08 48 c9 bd 28 15 df bd
       -0.050297648 0.12273246 -0.09828192 -0.10892707

hidden_layers.2.weight f4 [32, 32]
000000 bf 70 13 be f2 a5 10 3e f5 bf 0c 3e 27 21 b8 ba
       -0.14398478 0.14125803 0.13745101 -0.0014047966
000010 22 eb 83 3b ba 5a b3 3d 9a a3 e4 bd e8 3b 05 3d
       0.0040258327 0.08757539 -0.11164017 0.032527834
000020 8a 02 a4 bd 80 00 e3 bd 79 03 1b be 44 6b 1e bd
       -0.08008297 -0.1108408 -0.15138043 -0.038676515
000030 ab 6e 94 bd d2 35 90 bd d7 d8 e3 bc cb a5 d6 bd
       -0.07247671 -0.070415154 -0.027813358 -0.10480841
000040 c1 f9 04 3e df 2a b5 3d e5 ad 8f 3d 89 a3 e0 bd
       0.12985899 0.08846068 0.070155896 -0.10968692
000050 68 38 cb bd 64 0f ab 3d b4 be 33 be 77 9a fd bd
       -0.09922868 0.08352545 -0.17553216 -0.123829775
000060 c3 8c 39 be 22 0c 80 bd 5f 09 3b be 6d 0c d5 bc
       -0.18120103 -0.06252314 -0.18265294 -0.026006902
000070 3c 57 01 3e b5 39 14 bc d1 56 2f 3c 63 7e aa 3d
       0.12630934 -0.009046962 0.010701851 0.083248876
000080 b5 d4 ee 3d 88 24 ea 3c ad e7 ba 3d 0f 4a e1 3c
       0.116616644 0.028581873 0.0912622 0.027501134
000090 a2 f1 04 be d3 98 a2 3d 00 e9 7b 3d f8 14 a3 bd
       -0.129828 0.07939305 0.061501503 -0.07962984
0000a0 d6 8c a0 bd 95 b7 ee bd 9f 39 15 be d8 87 4b bd
       -0.07839362 -0.11656109 -0.14572762 -0.049690098
0000b0 a6 f8 85 3d e0 ad 45 3d 01 0a d8 bd 17 7c 3a 3d
       0.065415666 0.048261523 -0.10548783 0.045528498
0000c0 17 ec f9 3c d2 61 d9 3d 6f 04 3f 3d 42 d2 2d bd
       0.030508084 0.10614361 0.046635088 -0.042436846
0000d0 50 48 cf bc 66 d1 5c bd e7 28 5f bd 36 ca 12 be
       -0.025303036 -0.053910635 -0.054482367 -0.1433495
0000e0 67 4e 4d 3b e4 3f 12 3e 07 dd 93 bd 21 1f 18 be
       0.003132725 0.14282185 -0.07219892 -0.14855625
0000f0 f6 e5 94 3d b9 a5 21 be 27 7b 13 3e 2e 0e de 3d
       0.07270424 -0.15785874 0.14402448 0.10842548
000100 c9 8f a1 3d e1 2e 19 3e 93 37 b5 3d 3c f7 2a 3d
       0.07888753 0.14959289 0.088484906 0.041739687
000110 0e c3 0b 3d 9b b6 98 3c 5d 67 7e 3a 8e 66 73 bd
       0.034121566 0.01864176 0.00097047334 -0.059423976
000120 56 d6 2b be 0a 64 b2 bd 40 6c 5b bd ea ff fb 3c
       -0.16780981 -0.08710487 -0.053570032 0.030761678
000130 69 7b 0b bd b2 c1 12 bd 72 44 e3 3d da 9e ce 3d
       -0.03405324 -0.035829253 0.11097039 0.10088892
000140 03 a1 9d bd 23 ec 7d 3b 2e f0 00 3e 9e d3 e6 bc
       -0.07696726 0.0038745485 0.12591621 -0.028177079
000150 b3 d9 66 3d d2 68 30 3e c5 e5 73 3d c8 22 70 bd
       0.056359958 0.17227486 0.059545297 -0.05862692
000160 4f 8c d4 3d a2 98 a9 bd 6e e9 95 3b 06 e3 86 3d
       0.10378324 -0.082810655 0.004574946 0.0658627
000170 3a 2e 35 3d 33 69 f7 3c 94 7a f4 bd 6c 17 0f be
       0.04423354 0.03020153 -0.119374424 -0.13973778
000180 2d c4 2b be 0e 57 ff bc 3c 10 b8 3d 4e 65 33 3d
       -0.16774054 -0.03116944 0.089874715 0.043797784
000190 6a 8a aa 3a f1 6e 5b 3d 48 3d ef 3d 64 1e 1a 3e
       0.0013011221 0.0535726 0.1168161 0.15050656
0001a0 ae d7 67 bd 61 77 e1 3d ff 0b ea bd 5a 9b 32 3d
       -0.056602173 0.11009098 -0.11428069 0.043605186
0001b0 31 20 dc bd 75 fb bc 3c 20 bf 01 3d d3 23 04 3e
       -0.107483275 0.023069123 0.03167641 0.12904291
0001c0 7d c4 e9 bd 26 99 44 bd 4b d2 22 3e 32 72 db 3d
       -0.1141443 -0.047997616 0.15900533 0.107151404
0001d0 31 31 b1 bd 94 10 65 bd 1c 31 05 3d c1 b6 1e bd
       -0.08651961 -0.055924013 0.032517537 -0.038748506
0001e0 51 81 ad 3d 0e 9e 10 3e 4b 9b 2d 3e 67 ee b2 bd
       0.08471931 0.14122793 0.16953771 -0.08736878
0001f0 b7 6e 5d bc 16 5d 76 3d 68 14 2a be f7 77 db 3d
       -0.013515166 0.060147367 -0.16609347 0.10716241
000200 4d 0c 1d bd 9e 07 33 be 40 8a 07 be 1f 30 c9 3d
       -0.03834181 -0.17483374 -0.13236332 0.098236315
000210 89 90 dd 3d fe 25 03 be 34 41 d1 3d 5a b8 36 3c
       0.108185835 -0.12807462 0.10217515 0.011152351
000220 df c3 45 3c 83 b7 0e be 1b cb a2 bc d0 b8 80 bd
       0.012070625 -0.13937192 -0.019872239 -0.0628525
000230 42 29 8a 3d db 5f ab bd 22 56 20 bd 60 46 68 bb
       0.067461506 -0.08367892 -0.039144643 -0.0035442337
000240 af 53 ae bd 68 62 18 be 96 89 96 3d 82 88 00 bd
       -0.08512055 -0.14881289 0.07350461 -0.031380184
000250 cb 97 07 be 50 d2 71 3c 91 76 1a 3e d5 d5 2e be
       -0.13241498 0.014759615 0.15084292 -0.17073758
000260 29 df b7 bd 61 d8 0e bb 60 e9 15 3e c7 fc 0a 3e
       -0.08978111 -0.0021796452 0.14639807 0.1357299
000270 b5 86 1b bd 98 85 71 bc 41 0d 2c 3e a8 1d 9b bc
       -0.037970264 -0.014741324 0.16801931 -0.01893504
000280 90 22 da bd 16 5f 88 bd 8c 53 31 3d ba 5f 06 bd
       -0.106511235 -0.06658761 0.043292567 -0.032806136
000290 79 a4 20 be a9 d8 30 be 8d fb 2d 3e ba 84 00 be
       -0.15687741 -0.1727015 0.1699049 -0.12550631
0002a0 20 9d 19 be 31 22 06 3e a5 a1 8a 3d cf d2 32 3e
       -0.15001345 0.1309898 0.067691125 0.1746323
0002b0 b5 a4 0e be cc a7 16 3e 9a 23 a8 3d 88 ba ee 3d
       -0.13930018 0.14712447 0.082099155 0.11656672
0002c0 53 9a df 3c 6e f4 fa bd d3 d8 2b bd 53 d4 ef 3d
       0.027295267 -0.122536525 -0.041954827 0.117104195
0002d0 3b cb 30 be 63 d6 67 bc 98 03 18 3e 43 bd a0 bd
       -0.17265026 -0.014150235 0.14845121 -0.07848599
0002e0 69 75 87 3d 02 26 f8 3d 87 ec e7 3c 84 96 d4 bc
       0.06614191 0.121166244 0.028311027 -0.025950678
0002f0 b6 0b 8f 3d 7a f7 ce 3d 8a 09 f1 bd 8b 44 3e bd
       0.069846556 0.10105796 -0.117693976 -0.046452086
000300 7d 1b 29 be 48 ec 1f 3d 74 aa 1c 3d 72 ea 12 be
       -0.16514392 0.039043695 0.038248494 -0.14347246
000310 40 c7 c6 bd 52 6d 3e 3e 52 47 f6 bd da 9d 72 3d
       -0.09705973 0.1859639 -0.12025322 0.05923257
000320 9d 3d ef 3d 02 61 f6 bd 61 60 ee 3d 9a ce 66 3d
       0.11681674 -0.120302215 0.116394766 0.056349374
000330 e7 9d a4 3c 5b 41 80 bb e4 7b 7a bd 66 97 da 3d
       0.020094825 -0.003914041 -0.061153308 0.10673408
000340 5c f0 e6 3d c9 ce 23 3d 3a 1b 93 3c fd bf d2 bd
       0.11276314 0.039992128 0.017957319 -0.10290525
000350 3b 24 2e 3d 0e 94 3c 3c 4f 26 18 3e 75 55 a7 3c
       0.04251502 0.011509908 0.14858364 0.020426491
000360 31 16 45 3e 6a b2 6b 3d af 84 22 3e 8a 10 73 3e
       0.19246747 0.057543196 0.15870927 0.23736778
000370 76 95 90 3d d8 6d d9 3d 8c 7f e6 bd bd 33 a2 3c
       0.070597574 0.10616654 -0.112547964 0.019800061
000380 84 11 8c bc 58 89 1a be f7 c3 81 bc bc e8 f7 bd
       -0.017098196 -0.15091455 -0.015840514 -0.121049374
000390 a2 64 1c be 4c 31 81 3d cb 38 d2 3d 3c 98 85 bd
       -0.15272763 0.06308231 0.10264739 -0.06523177
0003a0 4b cb f2 3d 16 c9 9b 3c ef 1d 00 3e c3 ce 20 be
       0.11855181 0.019016784 0.12511419 -0.15703873
0003b0 85 60 ce 3d 62 da d9 3d 70 04 94 bb a6 13 ac 3c
       0.100770034 0.10637356 -0.0045171306 0.021005463
0003c0 62 df 1c be 09 7a 71 bd dc 12 a0 bd 23 39 60 bd
       -0.15319589 -0.058954272 -0.07816097 -0.05474199
0003d0 56 1b 26 be c8 20 91 bd 52 1a 7c bd f8 db 32 bd
       -0.16221365 -0.07086331 -0.06154854 -0.04366681
0003e0 0b ee 50 3d 65 ad 18 3e 39 0b a0 3d a6 3e ac bc
       0.051008265 0.14909895 0.078146406 -0.021025967
0003f0 58 5c 20 3e e2 67 ba 3d 07 bd f0 bd 4c 34 dc bd
       0.15660226 0.09101845 -0.11754804 -0.10752162

hidden_layers.2.bias f4 [32]
000000 1f 0a cf 3c 10 a8 0f bc 5a 99 13 be 78 46 45 3e
       0.02527338 -0.008768097 -0.14413968 0.19265163
000010 49 53 ae bd 78 c7 5f bd f0 9b 40 3e 53 ee ea bd
       -0.08511979 -0.054633588 0.18809485 -0.11471238
000020 63 84 82 bc 64 b7 e6 bb 9c 11 f9 bd aa 10 29 be
       -0.015932268 -0.007040905 -0.12161562 -0.16510263
000030 c9 7a 38 3e 67 a7 b6 3d 48 76 6a 3e 29 c2 ae bd
       0.18015589 0.08918648 0.22896683 -0.08533127
000040 c1 b9 83 bd fc c0 11 3d f7 90 ae 3d 58 18 fe bd
       -0.06431914 0.035584435 0.085237436 -0.12406987
000050 e5 93 13 3d 70 f0 fd 3c 6e 54 07 be 1d 17 31 be
       0.036029715 0.030998439 -0.13215801 -0.17293973
000060 ee d9 ec bd 6a 6e d6 3d 68 9c 2c 3e e7 f8 b7 bd
       -0.11565004 0.104702786 0.16856539 -0.08983021
000070 f7 f8 01 3e 32 be 12 be c8 a5 9c bd aa 53 3a 3e
       0.12692629 -0.14330366 -0.07648808 0.18195978

output_layer.weight f4 [2, 32]
000000 32 43 03 bd 95 4f 1a be 9e 3d 5c 3e 5f 68 4c 3d
       -0.032046504 -0.1506942 0.2150788 0.049904224
000010 e0 98 6a 3c 13 c7 3d 3d 07 41 18 3e 02 97 c2 bc
       0.014318675 0.04633243 0.14868556 -0.023753647
000020 4e cd 95 3d 93 6f 62 3d 10 e0 3c be af c8 33 be
       0.073145494 0.055282187 -0.18444848 -0.17557023
000030 01 e0 c1 3d 44 0d 7e 3e 73 cf 8e 3d 14 0b cd bd
       0.094665535 0.24809748 0.069731615 -0.100118786
000040 22 ee 27 be 5e 53 fa 3c 3b a9 a0 3c 4d 8c cd bd
       -0.16399434 0.03055733 0.019611945 -0.10036526
000050 92 6f 08 3e d1 1d 9f 3d d3 65 df 3d cf 0a eb 3d
       0.1332381 0.07769359 0.10908093 0.11476671
000060 2a 40 19 3c 0e 01 c8 bd df 96 fd 3d 05 d9 8a bd
       0.009353677 -0.09765826 0.12382292 -0.067796744
000070 6e 16 12 3e 74 71 11 be a8 c5 0c be 94 40 8f 3d
       0.14266369 -0.14203435 -0.13747275 0.06994739
000080 13 2e 80 3c 23 55 12 bd 43 da be 3d 67 9a 33 be
       0.01564697 -0.035725724 0.09318974 -0.17539369
000090 3f 8c 19 be ce 9a 15 3d a0 18 60 be e9 60 80 3a
       -0.14994906 0.036524586 -0.21884394 0.0009794506
0000a0 d9 74 20 be 5f 42 f6 bd 24 54 17 bc c4 45 12 3e
       -0.15669574 -0.12024378 -0.009236369 0.14284426
0000b0 0f 16 53 bd 09 8d 86 3c be 19 3f be b6 53 4e 3b
       -0.05153471 0.016424673 -0.18662164 0.0031483
0000c0 4a 0b d9 bc 55 79 c1 3d a2 63 70 be 10 40 95 3d
       -0.02649464 0.094469704 -0.23475507 0.072876096
0000d0 b2 1a 88 3c f4 17 80 be 9f 44 1e 3e f7 cf 0a be
       0.016614292 -0.25018275 0.15455864 -0.13555895
0000e0 5b 3a 0e 3e 5e 83 91 3d b5 d1 b0 bd c6 2f f6 bd
       0.13889448 0.071051344 -0.086337484 -0.12020831
0000f0 8c d7 80 be ec 72 68 3c 69 0f d5 bd 31 9e 34 be
       -0.2516445 0.014187556 -0.1040333 -0.1763847

output_layer.bias f4 [2]
000000 19 3e 47 3e e9 a5 8e 3b
       0.19457282 0.004353274
