synthetic_flows_raw/saved_models/phi_only_1.7.pt (torch, 16963 bytes, 10 tensors)

input_layer.weight f4 [32, 3]
00000000: ed09 883e 8ba9 07bf 7f42 f2be 61cd ba3e
00000010: a2b4 7a3e 837e b4be 5227 bd3e 3f8e b9be
00000020: 044c 1f3e b726 93bd 20b6 9a3d 3804 84be
00000030: 5dc4 c0be d934 c6bd 3999 0ebf 89a0 24bd
00000040: c76d 01bf a949 643e ce51 fa3e 9662 b0be
00000050: dcfb c23d d88c 0bbf 79cc a4be 44a5 4a3e
00000060: b89a c5be 4cc8 f5be d031 ad3d 4bb1 af3e
00000070: 6bf5 153e 35b6 fb3e 1686 973e eecc 2f3e
00000080: b135 c23e 4544 05bf 8eb9 9abe 2e1c ab3e
00000090: bfc7 b93e b3fa 023f b2f9 303d a203 683d
000000a0: 2222 69be e78e c63d 6f76 b53d 31ff 80be
000000b0: 4213 e2bd 39eb 3fbe d06e d13e 1374 063f
000000c0: fdad cb3e aea2 973e 0ca3 d8be 6fce d4be
000000d0: 70db dd3e e54d 6ebc c6b3 863e 536b c5be
000000e0: 4da6 453e cf01 0f3f 1a18 0abf 2578 d63e
000000f0: 49ae 34be 7b7f e3be 33cf 30bd 2d37 d53e
00000100: 41e2 293d ab51 ab3e b398 5ebe cb8e 0abf
00000110: ec11 50bd 4657 273d 76a4 efbe 626e 6ebe
00000120: 9cf9 9abe a984 d8be bc63 163e 6359 a2bb
00000130: cbbc 193e c81e efbe 88a6 0c3f ee2e b33e
00000140: 323b 09bf f646 cd3e 6d7d 7cbe b23d ea3e
00000150: b99a a5be 16d5 11bf 5fc1 cebe 492e 083e
00000160: 5cb4 60be b3f9 773e 7e4c 383d ba60 163f
00000170: 64f0 8a3b b3d5 aa3e cad5 ab3e 08e1 043f
0.26570073 -0.5299308 -0.47316357 0.36484817 0.24482968 -0.3525277 0.36944062 -0.36241338
0.15556341 -0.07185119 0.07554269 -0.2578447 -0.37649813 -0.09678049 -0.5570255 -0.04019216
-0.5055813 0.22293724 0.48890537 -0.34450215 0.095206946 -0.54511786 -0.3218725 0.19789606
-0.38594604 -0.48004377 0.084567666 0.3431495 0.14644401 0.4916245 0.29594487 0.17168018
0.37931588 -0.52057296 -0.30219692 0.33419937 0.36285207 0.51163787 0.043206878 0.05664409
-0.22766927 0.09695225 0.0886048 -0.25194696 -0.110388294 -0.18742074 0.40904856 0.52520865
0.3978118 0.29616302 -0.42311895 -0.41563746 0.4333148 -0.014544939 0.2630903 -0.38558444
0.1930172 0.55862135 -0.53943026 0.41888538 -0.1764461 -0.44433197 -0.04316635 0.41643658
0.04147554 0.33460745 -0.21737938 -0.54124135 -0.05079834 0.040854715 -0.4680516 -0.23284295
-0.30268562 -0.42288712 0.14686483 -0.0049545034 0.15013425 -0.46703172 0.54941607 0.34996742
-0.5360595 0.400932 -0.24657221 0.45750195 -0.32344607 -0.5696577 -0.40381905 0.13298906
-0.21943802 0.24216346 0.044994824 0.58741343 0.0042400826 0.33366165 0.33561546 0.5190587

input_layer.bias f4 [32]
00000000: 6924 a6bd 0e25 a8be 5efe 06bf 1f4c 313e
00000010: 873c 7bbe cc7d de3e d0ab 0f3e b4a6 21be
00000020: 4b59 b63e a403 ac3e 88d1 003f c0c9 d63c
00000030: dad2 08bf 7b41 06bc 4413 053f 59a0 39be
00000040: 8f4b 8c3d fc4b 7abe 09c3 f9be bb60 a4be
00000050: 0808 cebe 0ad3 0a3d cb64 edbd 4be8 e03d
00000060: e01f 8cbe f684 083f 10c9 693d e92f ddbe
00000070: 7116 eabd 759e 813e 0528 873e e8bd 43be
-0.081124134 -0.3284077 -0.52731884 0.17314194 -0.24534808 0.4345535 0.14030385 -0.15786248
0.35615 0.33596528 0.5031972 0.026219249 -0.53446734 -0.008194323 0.5198252 -0.18127574
0.06850349 -0.24443048 -0.48781613 -0.3210505 -0.40240502 0.03389267 -0.1159149 0.10981806
-0.2736807 0.5332788 0.057076514 -0.43200615 -0.114300616 0.25316206 0.2639772 -0.19115412

hidden_layers.0.weight f4 [32, 32]
00000000: a7d7 f03d 3b47 fb3d aa6d aabd ffaa 953d
00000010: 6ed9 abbd 91e5 d73d bea0 833d 0487 c6bc
00000020: af86 0ebe 8450 1d3e 2f90 1a3d d751 afbd
00000030: 7424 06bd c1b2 62bd f210 14bc debd 293e
00000040: fd26 86bb 50ad 043e 5f05 33be 2b55 9dbd
00000050: ccb4 09be ee49 35be 82cd 26be eb25 25be
00000060: 6e79 83bd b203 413c 520d 28bd 9fc3 32bd
00000070: 7c37 96bd 13ca 093e 22b9 19bc d0f1 883d
00000080: 9328 83bd 6769 0f3e 9f8e c0bd ea24 653d
00000090: a983 9bbd b699 79bd bcaa a33b 89b0 c73d
000000a0: 86b7 1fbe 0aad 03be 7939 113e ced1 bfbd
000000b0: 14bb 21bc a6f5 c73d b394 25bd 0677 80bd
000000c0: 024c 9f3d 294f 1f3e 5daf 33be aa6d 993d
000000d0: 43bb c83d 2189 29bd f6ed c1bc 5293 28bd
000000e0: b370 c5bc d426 33bd 1a85 913c 0be9 663d
000000f0: 0b72 95bd ce52 0cbe d1d6 62bd 4c27 283c
00000100: f76a f6bd eb8e bb3c 2362 083e 3cec 51ba
00000110: 3d9f 573d 121f 253e 9e60 02bd ceef 873c
00000120: bff0 363e 3304 763e c4e9 0a3e 6fd7 5dbd
00000130: b36b 083e ffec e3bd 9282 bb3d 664a 90bd
00000140: a26c 37bd 5b1a 02be ddc4 23be 84dd 4d3c
00000150: 74bd 1a3e 49c8 b5bd bd19 30bd f9dc bdbd
00000160: dc0c 253e fa35 a13d 9035 1c3e 3414 25bd
00000170: 5eae 573d a4ca 89bc 60d1 2e3e 2ef5 ebbd
00000180: 34ed ebbd 9192 093e 9f28 f53d 5c38 da3d
00000190: 90e7 12be c7aa 1cbe 1a91 533d 12b8 a9bd
000001a0: 6fd6 143c 1b22 debd d327 c2bd 3274 acbd
000001b0: 6067 2f3d db08 1ebe b907 86bd 9b54 063e
000001c0: 0665 223e 2dce c83d 63f4 1b3e bba1 2c3e
000001d0: dc38 1f3e 00b8 1fbe a572 1dbe 569d 81bd
000001e0: 31c5 03bd cbd0 fbbc d400 e43d a42b 073e
000001f0: 36f8 a8bd ace0 09be a1a9 a8bd 7f9b d8bc
00000200: b6a5 083e 4ae5 45bc a1a7 063e b753 66bd
00000210: f677 b8bc 4d14 2a3e eae5 7ebd 7092 35bd
00000220: b66e a33d 3f7d 173e f9b1 283d 1fe6 3d3d
00000230: cc41 c2bd ab4b 153d ad4f 0bbc 2fa9 87bd
00000240: 8091 8c3c 019e aebc 9e65 ae3d 0bb6 eebd
00000250: 46a1 d0bd c543 653c aa53 4b3e c47c 303e
00000260: 1334 02be 76b7 583e ee4b b1bd 570f 143e
00000270: f07f 083e fe3b 003e 7a38 a23d e1e0 5e3d
00000280: a6b2 063e 7e82 0bbd 0b70 f7bd 6359 a6bd
00000290: 9c94 f83c 5235 a2bd 3b5b 533e da4f 743d
000002a0: f8e9 703e 533b 2b3e 3348 243e 434e a73c
000002b0: d630 02bd 390e a9bb b164 8dbb 6e25 0e3e
000002c0: 835d 56bc 34d9 7bbc 7d14 fb3a aa19 1fbd
000002d0: 1fc7 a8bc 0ef4 9b3d a475 eabd 1148 a6bd
000002e0: df4b e5bc f6d3 adbb da6d ae3d 03d5 50bd
000002f0: 42ab 093e d684 9f3d ac4a e53b 4b82 c3bc
00000300: 3bbe 013e b0ff 14be 59b3 babc c6f4 0d3e
00000310: cac2 cf3b 1efe d53d ac73 cdbd 1698 d63c
00000320: 3b7c 2f3d 754a 723e 6a77 383d 3ea4 af3d
00000330: 5039 9a3d 35e5 723c d60e 843e 3429 08be
00000340: 2972 443e d4e4 08be dc77 d53d 3418 bcbd
00000350: 2e7e 01bd 7080 ee3c 6eea cabc 132a ddbd
00000360: e066 d13d 45ee a4bd 11df 1d3e f1a6 e23a
00000370: 2527 e1bc b014 5a3e 51a3 1c3d deda 1e3e
00000380: d173 243e e30d 803d 7a83 8cbd e307 c83d
00000390: faeb 043e 86c4 393e b5ad f23d 20a6 dfbd
000003a0: 6ea3 2f3e f347 c7bd fbf2 563c ef93 3f3e
000003b0: dd6f 943d be90 503c e706 6f3e db72 a83c
000003c0: 7549 b6bc ea77 0ebe 38d0 12be 7ed0 62bd
000003d0: 08ba 143e dc6e 3b3e 1521 003e 8a94 2a3e
000003e0: 382e b63d 772e 573e 39f6 46bd 3458 3c3e
000003f0: f8f7 003e 7b29 753a d99a 4cbd cb29 283e
0.117598824 0.122694455 -0.08321698 0.073080055 -0.08391081 0.10541833 0.064271435 -0.024234302
-0.13918565 0.15362746 0.03773516 -0.085605316 -0.03274961 -0.055346254 -0.009037243 0.16576335
-0.0040940032 0.12956738 -0.17482518 -0.0768226 -0.13447875 -0.17703983 -0.16289333 -0.16127746
-0.06419645 0.011780666 -0.04102833 -0.04364359 -0.073348016 0.13455991 -0.009382518 0.06686747
-0.06404223 0.14005052 -0.09402203 0.055943407 -0.075934716 -0.060937606 0.0049947184 0.09750468
-0.15597352 -0.12858978 0.1418208 -0.09366189 -0.009871263 0.097636506 -0.040425014 -0.06272702
0.07778169 0.15557541 -0.17547365 0.0749162 0.09801342 -0.041390542 -0.023673039 -0.04115612
-0.02410159 -0.0437382 0.017763663 0.05637459 -0.072971426 -0.13703462 -0.055380646 0.010263275
-0.12032121 0.022895297 0.13318686 -0.0008007919 0.052642096 0.16125134 -0.031830423 0.01659384
0.17865275 0.2402504 0.13565737 -0.05416053 0.13322334 -0.11129188 0.09155764 -0.070454404
-0.044781335 -0.12705366 -0.15993066 0.0125650205 0.15111333 -0.08876092 -0.042993296 -0.09270663
0.16118187 0.07871623 0.15254807 -0.04030247 0.052656524 -0.01682026 0.17072058 -0.11521374
-0.11519852 0.13434817 0.119706385 0.10655281 -0.14346147 -0.15299521 0.05165205 -0.08287062
0.009084328 -0.10846349 -0.09480252 -0.084206 0.042823195 -0.15433066 -0.06544442 0.13118212
0.1585885 0.0980495 0.15229945 0.1685857 0.15549034 -0.15597534 -0.15375765 -0.063288376
-0.03217048 -0.030739209 0.111329705 0.13200241 -0.082504675 -0.13464612 -0.08235479 -0.026441334
0.13344464 -0.012078593 0.13149883 -0.05623218 -0.02251814 0.16609307 -0.062230982 -0.044329107
0.07980101 0.14793871 0.041185353 0.04636204 -0.09485206 0.036449116 -0.008502883 -0.06624066
0.017159224 -0.021315577 0.08515476 -0.11655816 -0.101870105 0.013993208 0.19856134 0.17235094
-0.12715177 0.21163735 -0.086570606 0.14458977 0.13330054 0.12522885 0.07920928 0.05441368
0.13154086 -0.034059994 -0.120819174 -0.08122518 0.0303443 -0.07920326 0.2064027 0.059646465
0.23526752 0.16721849 0.16043167 0.02042306 -0.031784855 -0.005159166 -0.004314982 0.13881466
-0.013083818 -0.0153716095 0.0019155886 -0.038842835 -0.02060276 0.07614909 -0.114482194 -0.08119214
-0.02799028 -0.0053048087 0.08517046 -0.050984394 0.13444236 0.07789008 0.006997427 -0.02386584
0.12670223 -0.14550662 -0.022790598 0.13862905 0.0063403593 0.1044886 -0.10031828 0.026195567
0.042843085 0.23661216 0.045035757 0.085762486 0.07530463 0.014825155 0.2579257 -0.13296968
0.19184174 -0.13368541 0.10423252 -0.09184304 -0.031614475 0.029113978 -0.024769988 -0.10799041
0.102247 -0.08053259 0.15417124 0.0017292184 -0.027484486 0.21296954 0.03824169 0.15513179
0.16059805 0.06252649 -0.06861015 0.09767129 0.12980643 0.18141374 0.11849538 -0.10920358
0.17152187 -0.0973052 0.0131194545 0.18708776 0.07247899 0.012729822 0.23342477 0.02056258
-0.022251824 -0.13912931 -0.14337242 -0.055374615 0.1452409 0.18304008 0.1251262 0.16658226
0.08895534 0.21013819 -0.04857466 0.18393022 0.12594593 0.00093521894 -0.04995236 0.16422193

hidden_layers.0.bias f4 [32]
00000000: d739 c6bd be94 423d b188 1e3a de0e a3bc
00000010: c9ca e03d f42b 45bc d0d0 b23c 7dad a33c
00000020: 3ee4 2ebe b941 2fbd 7055 0abd a765 c83d
00000030: d4ac ca3d 1074 89bd b623 873d db97 2ebe
00000040: 30b7 0bbe 9085 8f3c 95aa 2e3e 9f3f 213e
00000050: 5326 17be 6cd9 9cbd ce4e b0bc 7582 a83d
00000060: f785 ccbd b9a4 053e f756 f63d 5120 193e
00000070: e6c7 363e cf5a f53c 3d7e 083e a4fb a13d
-0.09679001 0.047505133 0.000604759 -0.01990455 0.10976178 -0.012034405 0.021828085 0.019980187
-0.17079255 -0.042787287 -0.033772886 0.09785014 0.098962456 -0.0671159 0.06598608 -0.17050116
-0.13644099 0.017519742 0.1705726 0.15746926 -0.14760713 -0.076586574 -0.021521952 0.08228008
-0.09986489 0.13051118 0.12028306 0.14953734 0.17849693 0.029950527 0.13329406 0.07909325

hidden_layers.1.weight f4 [32, 32]
00000000: 0553 19be 70f3 1fbe 9487 013e 5402 e6bc
00000010: 570a de3c c254 643d e0bb 93bc aee6 403d
00000020: 2472 b33d ca2f 003e feef e5bd 7d5e 263e
00000030: 793c 363d f0c4 7b3d aafa e43d 8b28 b23d
00000040: 9953 0abe e028 e13d ccfd 0e3e 64f9 723d
00000050: 1833 9b3c cbe2 20be 75dc 553e 604f 53bd
00000060: e225 b33c a66d 763b c3b2 acbd b274 513e
00000070: 45a0 683e 2e9a 18be c885 663e d957 bfbc
00000080: c06a 29be 3481 edbd df3a 2abe a7ac 33be
00000090: 0265 033e 419a 32bd 68bc 16bd 98df 8ebc
000000a0: d2c5 a53d 56ed 703d 9c06 183d 2f8f e83d
000000b0: 1cff 9bbd f129 bd3c 5b63 b93c 9ca0 403d
000000c0: 2efa 283e 6cc5 eabd b73e b9bd 9c16 5ebd
000000d0: 239a 18be 3a29 a33d f005 2cbe b893 06bd
000000e0: 8290 9dbc dc64 a63d b5ef b2bc 43a3 1abe
000000f0: 6556 de3d 479a 493d bbdf 7abd 79fc 28be
00000100: dad2 bcbc 1515 3e3d 915a 073e fdbf e4bd
00000110: 174c 793e 78b6 aebc 01b1 793e 11b0 a7bc
00000120: e800 b53d 2c70 e83d 55e2 d8bb 5816 e73d
00000130: d3d3 303e 9ab1 28be 1711 633e 3346 ab3d
00000140: df1b 273e 4b85 ac3d be08 553e dcba 4e3e
00000150: 0ddc 07be 2ca7 04be 49d8 143d fa0b 47bd
00000160: e4b7 b43d c4a2 c73d e06e 5f3d a6dd 783e
00000170: cc5a 543e ca30 edbc 3c0a 073e cdf9 ae3d
00000180: 3cf2 88bd 2c6e ad3d b1aa b73d e144 ec3c
00000190: c793 ca3d 57c8 fe3b 16d3 54be 840c 0c3e
000001a0: 7101 1b3e 05ab d03d b926 07be 56e4 4fbe
000001b0: 329e 42bd 52ab cabd 53cf c13d 54fe f6bc
000001c0: ccee 0e3e de21 1b3c 44aa f43d 6321 e93d
000001d0: 8ea0 063e 75d8 dc3d 6c9c 96bd 1ddf 0b3c
000001e0: e7db 8bbd 8282 b6bd dac5 20bd 6ecf c6bd
000001f0: 5108 abbd af77 d73c 6662 dabc fdc1 823d
00000200: ecd5 16be 08ff 02be 78fb 3a3e 84eb 25be
00000210: 358a 5d3e 23f9 4d3e d400 1a3e 7e56 373e
00000220: 5e2d 41bc b254 01be 2d6c c7bd d2d7 ef3d
00000230: e624 c4bc 78fe 833c f249 013d 32a8 9dbc
00000240: bb3a 02be ad04 063d 910d b03d ec0b 7e3d
00000250: 003a e83c 048c 55bc 9ed9 c5bd d775 303d
00000260: 0b7d c1bd 647c a23d 91fa 743e e7e4 c53d
00000270: fc17 8ebd fd3f 333d 1db5 94bd 7bf8 613e
00000280: 6ad1 6ebd 83f7 a8bc c758 563e c8ad 26be
00000290: dd70 bf3d ef90 5d3e 2255 403e 94c2 e23d
000002a0: 14d7 51bd f12e 43bd eebd 2ebd 8ae7 3d3e
000002b0: cc9d ae3d ea37 ab3d f4fd 703e 8f06 12be
000002c0: 5399 2a3e ea90 3a3e ce54 083e e244 04bd
000002d0: 8115 03be 58af 28bd 54e6 f5bd fcfa 253d
000002e0: 6a27 ad3d de15 45bd 5753 39bd a396 f73d
000002f0: 3a20 583e b361 3f3e dc1c ce3d 3b17 c0bc
00000300: b260 103d 43c2 17be 3f8c 85bc 6f50 ee3d
00000310: e039 abbd 219e 343c 8b03 62bd b243 80bc
00000320: 1dfd 433b da14 c5bc b013 033e 3e37 8f3d
00000330: 5073 ac3d b3f7 bf3d 73d4 343d c564 abbd
00000340: b87d c63d 846d 2b3d 4e1b 8a3d be2c 22be
00000350: 8b08 9dbd a580 f93d 5755 003e 85de d83d
00000360: 326d 9ebd 8ef6 0bbd 80bb 3ebd 1f62 96bd
00000370: 89fb 5a3d fb77 9abc 1591 883c c814 7abd
00000380: c53e 153e eacd c63c 12fb c93d 6203 e63d
00000390: 3425 283d 7c93 cabd b5e9 1b3e 6411 d53d
000003a0: da8c c9bd b839 30be 7f49 7b3d e594 a33d
000003b0: 3058 1a3d 0e98 6b3d 7436 8d3d 66b3 01be
000003c0: fa12 c2bd 1406 47bd 9fb1 0b3e 6b21 cfbd
000003d0: 32a0 113d 7575 12be a8b1 293e d598 08bd
000003e0: 9d06 9dbd 6a90 c4bb 08c7 0cbe 315b a0bd
000003f0: 53d1 12be a4c0 b13c 9253 0dbe 69e9 243e
-0.14973076 -0.15620208 0.12649375 -0.028077282 0.02710454 0.055744894 -0.018033922 0.047094993
0.08762005 0.1251823 -0.112274155 0.16246982 0.044491265 0.06146711 0.11180623 0.08699139
-0.13508452 0.109941244 0.13964003 0.05931987 0.018945262 -0.15711515 0.20884879 -0.05158937
0.02186865 0.0037601977 -0.084325336 0.20454672 0.22717388 -0.14902565 0.22511971 -0.023357319
-0.16544628 -0.11596909 -0.1662402 -0.1754633 0.128315 -0.04360414 -0.036800772 -0.017440602
0.08094372 0.05882009 0.03711568 0.11355435 -0.076170176 0.023091288 0.022630384 0.04702817
0.16501686 -0.114634365 -0.09045165 -0.05422078 -0.14902548 0.07966848 -0.1679914 -0.03285572
-0.019233946 0.08124706 -0.021842817 -0.15101342 0.10856322 0.049219396 -0.061248522 -0.1650256
-0.02304976 0.046406824 0.13218142 -0.11169431 0.24345432 -0.021327242 0.24383928 -0.020469697
0.088380635 0.1134952 -0.0066187778 0.112835586 0.17268305 -0.16474 0.22174488 0.08362999
0.16319226 0.08423861 0.20804116 0.20188469 -0.13267536 -0.12954396 0.036339078 -0.048595406
0.08824137 0.09747842 0.054549098 0.24303302 0.20737761 -0.028953929 0.13187498 0.085437395
-0.066868275 0.08468279 0.08968104 0.028841438 0.098914675 0.007775347 -0.20783648 0.1367665
0.15137269 0.101888694 -0.13198365 -0.20301947 -0.047514148 -0.09895958 0.09463372 -0.03015057
0.13958281 0.009468524 0.11946538 0.11383321 0.13147184 0.107834734 -0.07354054 0.008537081
-0.068290524 -0.08911611 -0.039251186 -0.09707533 -0.083511956 0.026302187 -0.026658248 0.063846566
-0.14730042 -0.12792599 0.1825999 -0.16203123 0.21634753 0.2011457 0.15039378 0.17904088
-0.011790602 -0.12629965 -0.0973743 0.11711086 -0.023943376 0.016112551 0.03156466 -0.01924524
-0.12717716 0.032719303 0.085963376 0.06202309 0.028347969 -0.013033871 -0.09660648 0.04308113
-0.09447678 0.07933882 0.23923708 0.096628 -0.069381684 0.043762196 -0.07261107 0.22067444
-0.05830518 -0.020625835 0.20932303 -0.1627723 0.09347699 0.21637319 0.18782476 0.11072269
-0.051230505 -0.04765219 -0.0426616 0.18545356 0.08526191 0.08360274 0.23534375 -0.14260314
0.16660051 0.18219343 0.133136 -0.032292254 -0.12801172 -0.041182846 -0.12006822 0.04052256
0.08454783 -0.048116557 -0.045245495 0.120892785 0.21106043 0.18689613 0.10064098 -0.023448577
0.035248466 -0.14820199 -0.016302226 0.11636435 -0.08360648 0.011024029 -0.05517916 -0.01565728
0.0029905506 -0.024057794 0.12800479 0.069929585 0.084204316 0.09373417 0.04414792 -0.0836883
0.09691948 0.04185249 0.06743489 -0.1583738 -0.07667645 0.1218274 0.12532555 0.10589317
-0.07735671 -0.03417068 -0.046565533 -0.07342934 0.05346254 -0.01885604 0.016670743 -0.061054975
0.14574726 0.02426811 0.09862341 0.11231114 0.041051105 -0.09891412 0.15225871 0.104037076
-0.098413184 -0.17209518 0.06134939 0.07987384 0.03768176 0.057518058 0.06895152 -0.12666091
-0.09476276 -0.04858978 0.13641976 -0.10113796 0.035553165 -0.14302619 0.16571677 -0.033348877
-0.07667277 -0.005998661 -0.137478 -0.078298934 -0.14337663 0.021698304 -0.13801411 0.16104664

hidden_layers.1.bias f4 [32]
00000000: d3bb bfbd d00f 713c 8f08 5d3d 332e 86bd
00000010: f524 363d 171e b13d 3202 8cbd e847 3e3e
00000020: 3f75 31be f26e c5bd 58ec 533b 266b 3f3d
00000030: 661e 723e b46d b53c f6d5 3f3d b9af bb3c
00000040: 2744 9cbd ffb1 0f3e 0f49 27be 03ed 043e
00000050: 8389 773d 0b46 29bd 9d9e 593d 1302 2c3e
00000060: 7988 373e ce9e fa3c 3edf d13c 9d8a 2fbe
00000070: 161a 69bd 5679 9c3d 798d 98bc 7cb4 7d3d
-0.093619965 0.014713243 0.05396324 -0.065517806 0.04446884 0.08648317 -0.06836356 0.18582118
-0.17329882 -0.09640302 0.0032336917 0.046733044 0.23644409 0.022147037 0.04683491 0.02291094
-0.076301865 0.14032744 -0.16336463 0.12981038 0.060433876 -0.041326564 0.05312978 0.16797666
0.17923154 0.030593302 0.025619145 -0.1714272 -0.056909643 0.076403305 -0.018622147 0.0619397

hidden_layers.2.weight f4 [32, 32]
00000000: 4c4b d6bd bf2c 35be bc27 d2bd 6a9b 31bb
00000010: 35ff adbd 37b0 513d 7390 9f3d 5e99 c33d
00000020: a0e7 2c3d 6186 25be eb15 663d 81a4 2a3e
00000030: a969 fe3d 2d26 af3d fa66 83bd a888 fabd
00000040: 30f7 883a 9e35 bd3d efd0 003e 4a58 9fbd
00000050: 77ba 423d 2603 a43d b29e 803d 8cc9 c7ba
00000060: 5b86 a83c 0db9 1abe 8b36 c3bb 6b8f f9bc
00000070: 4b05 81bd ff18 babc 4063 413d 0264 c1bd
00000080: 45e7 00be 5693 6cbd 420b 88bd b63d e13b
00000090: ea6b 273d e797 003e dc8a ab3d e45b 613d
000000a0: 0eba be3d 31ac e13d cc0e bf3d 7e0d 14be
000000b0: c7df babc 9592 bdbb 051b 983d 98f9 45bd
000000c0: 92fb 9b3d 62b7 2a3e 93b5 053e 4724 e23d
000000d0: 3a8e 3cbd 9aaa febd fdc0 bc3d 0641 c63c
000000e0: e5d3 f63d b067 0b3e ad60 f9bd b4f0 e13d
000000f0: 09e5 2e3e 6ee3 d0bd a716 25be 9858 463d
00000100: 3cd6 e63d 0ae4 47bb 594f 3ebc 1903 3cbd
00000110: 0a54 47bd 27fc 223e 7324 27be 9631 343e
00000120: 496f 25be b12c 253d 225a 163d 2a8f 1cbe
00000130: 5223 dd3d 937f fc3c 43b2 babc 5efa 663d
00000140: f70f 2f3e 34b0 453d 66f4 013e adf7 2d3e
00000150: 21eb 1abd 3895 fb3d 1b19 b13d 707c 2f3e
00000160: c0c1 1a3e 5dcd b43d c447 6f3e 4626 ecbd
00000170: 2830 2abe 3915 9e3d c257 d33c b767 723c
00000180: 96a8 c03d bea4 6c3b 1b44 d2bd bea8 cdbd
00000190: c0a5 a8bd d628 5dbd 03f2 893b 4c52 103e
000001a0: 9780 053e 83aa 40bd 5ca0 113e a34b 2a3e
000001b0: 5b13 db3b ee53 4dbd 96f3 d43d d62e 1c3e
000001c0: 645d d73b 6e89 233e b5ea e2bd fd59 3abe
000001d0: e360 32be df5d 113e 7126 e53d e07a adbd
000001e0: aa82 583d dd23 6c3d 6d16 903d fdf3 a9bd
000001f0: e53c fb3d d4c5 5a3b 22ac ac3c 34c0 163e
00000200: ec31 d5bd c602 3b3d efbe 243e da8d 5fbd
00000210: 3959 933d 3ced 093e 99c5 86bd 1bba 243e
00000220: 0205 82bd 190d 7c3d 1a0a 293e 0830 1a3e
00000230: bc1c 06be de33 743d 18d1 01be 97bb 943d
00000240: 3107 fbbd caf9 50bd 45b2 4cbc 4e77 6e3d
00000250: e4ca 3a3e 3510 a0bd 173b cabd a075 4e3e
00000260: 0026 133e 4726 fa3d 40a5 5e3e 7fa6 f13c
00000270: 408f 4f3c 4fda 023d 46d9 ad3c ec2c 3e3e
00000280: 694f cd3d 0df8 e0bd 85bf c63c 7d37 3fbe
00000290: 5046 35be 418e 21bd ad40 32bc 674d 003e
000002a0: f075 09be a1b9 003e a163 9ebd 1e41 29bc
000002b0: dc8d c9bd 92cd 1c3d c0a2 633d 446d 0a3d
000002c0: 7c54 5b3b 54ab 01be 5697 ed3c 22eb 6f3d
000002d0: 0648 dbbd 2ccd 46bd 4474 253e 32e8 de3d
000002e0: 69e1 babd 3c1d 3dbd e6e5 eabd 63d5 92bd
000002f0: 7408 fabd fa19 38be ece9 c23d 17b5 39be
00000300: 0c63 623d 5307 1abb 1506 6a3d 76da 87bd
00000310: 2503 153d fe52 37bd d942 fbbd d52e 13be
00000320: c113 853d dfdc 3b3d 535e 10be 39c7 803d
00000330: 79bc ec3d d1d9 6e3d 19ba bdbd 8b09 39be
00000340: 699c 1d3d cf26 1d3e 0665 f9bb 273f 08be
00000350: bc11 f3bd 7ef1 4bbd f6e5 3bbe b7d0 713d
00000360: 5564 87bd 3670 38be 57d3 b1bd 8114 183d
00000370: f086 c4bd f0a9 87bd ae9c dcbd c018 a83d
00000380: 1cac 043e 900e f8bd e860 0f3e 8542 2d3e
00000390: cf49 133e 992e 9d3b da4e c13d 52bc 12be
000003a0: e261 cbbd 7679 713d 83da d53c bb11 f13d
000003b0: 7993 083e c0ae 813c 1182 ed3d 58b1 a3bd
000003c0: 2626 363e 8d75 7e3d b324 fb3d 6997 123d
000003d0: 3ebe 9f3c 2551 09be 77aa 40bc f566 fd3d
000003e0: 942e 03be 46a8 323e 0888 08bd 9e88 333e
000003f0: d192 153e 3ce4 2bbc 5c6a 3f3e 59ff 91bd
-0.104635805 -0.1769285 -0.10261485 -0.002710069 -0.084959425 0.051193442 0.077912234 0.09550737
0.042213082 -0.16164543 0.056173246 0.16664316 0.12422497 0.08552203 -0.064161256 -0.12233096
0.0010449644 0.09238742 0.12579702 -0.07780512 0.047541108 0.08008413 0.06280269 -0.0015242561
0.020571878 -0.15109654 -0.0059574298 -0.030463895 -0.06299838 -0.022716997 0.047213793 -0.09442903
-0.12588222 -0.057757698 -0.06642772 0.0068738116 0.0408744 0.12557946 0.08376095 0.055019274
0.09312831 0.11019171 0.09328994 -0.14458272 -0.022811783 -0.005785296 0.074270286 -0.048333734
0.076163426 0.16671517 0.13057546 0.110420756 -0.046034075 -0.124348834 0.09216497 0.024200927
0.120521344 0.13613772 -0.121766426 0.110322386 0.17079557 -0.10199629 -0.16121922 0.048424333
0.11271331 -0.0030500912 -0.011615598 -0.04590139 -0.04866413 0.15916501 -0.16322498 0.1759704
-0.16155733 0.040325824 0.03670705 -0.15288988 0.107977524 0.03082255 -0.02279008 0.056391113
0.17095934 0.048263744 0.12690887 0.16989012 -0.037821893 0.122843206 0.086473666 0.17137313
0.15112972 0.088282324 0.2336722 -0.115307376 -0.16619933 0.07718892 0.025798682 0.014795235
0.09407155 0.0036108936 -0.10266896 -0.10041951 -0.08234739 -0.053994022 0.0042097582 0.14093894
0.13037334 -0.047037613 0.14221328 0.16630416 0.006685657 -0.05012887 0.10398023 0.15252241
0.0065724123 0.15970394 -0.11079923 -0.1819839 -0.17419772 0.14195965 0.11188973 -0.08470702
0.052858986 0.05765139 0.070355274 -0.0829849 0.12267474 0.0033382075 0.021078173 0.14721757
-0.104099125 0.04565694 0.1608846 -0.05457864 0.07194752 0.13469404 -0.065806575 0.16086619
-0.063486114 0.06153593 0.1650776 0.15057385 -0.13096899 0.059619777 -0.12677419 0.072623424
-0.12257231 -0.051019467 -0.012493675 0.058219247 0.18241459 -0.07815591 -0.09874552 0.20162058
0.14369965 0.12214332 0.21742725 0.029498337 0.012668431 0.031946477 0.021221768 0.18571824
0.10024912 -0.10984812 0.024261246 -0.18673511 -0.17702603 -0.039442305 -0.010879678 0.12529527
-0.13423896 0.12570812 -0.077338465 -0.010330467 -0.09841511 0.038281985 0.055575132 0.03379561
0.0033467105 -0.12663013 0.029002827 0.05857385 -0.10707097 -0.04853551 0.16157633 0.108841315
-0.09125025 -0.04617046 -0.11469631 -0.071696065 -0.122086436 -0.1797866 0.09517273 -0.18135487
0.05527024 -0.00235029 0.057134707 -0.06633465 0.036379952 -0.044756882 -0.122686096 -0.14373334
0.064979084 0.045864936 -0.14098482 0.06287999 0.11559386 0.058313195 -0.09264011 -0.18070047
0.038479242 0.15346836 -0.00761092 -0.1330534 -0.11868617 -0.04979085 -0.18349442 0.059036937
-0.06610934 -0.18011555 -0.08682888 0.03712893 -0.0959605 -0.0662421 -0.10772072 0.08207846
0.1295628 -0.121121526 0.1400181 0.16919906 0.14383624 0.0047968146 0.09438868 -0.14329651
-0.09930779 0.058953725 0.026105171 0.1177096 0.13337506 0.015830398 0.11597074 -0.0799281
0.1778799 0.062123824 0.12262859 0.035788927 0.019499894 -0.1340986 -0.011759392 0.12373153
-0.12810737 0.17447004 -0.033332855 0.17532584 0.14606787 -0.010491427 0.18692917 -0.07128782

hidden_layers.2.bias f4 [32]
00000000: 3ea2 37bc bfae 97bd 1dbd e43d 1daa 1dbd
00000010: fd20 2ebd c128 643d 1189 183c 8923 71bd
00000020: 2077 11bd adf0 6ebd 4adc f8bd 9f1a 213a
00000030: 5a33 31be 082e 4a3e 9c86 0a3e fa4e 243e
00000040: 2cb0 423e b326 48bd 31ef 873d 5a93 0cbe
00000050: 6bb1 27be 3c11 463d 6192 e1bd b96b 3f3e
00000060: cb27 fd3c 6bed e2bd d121 df3d 0f73 07be
00000070: 7159 663e febc 26be 57c2 023e f766 553e
-0.011208115 -0.07406377 0.11168883 -0.03849231 -0.04251193 0.05570293 0.009310023 -0.05887178
-0.035513997 -0.058334995 -0.12151392 0.00061456294 -0.17304745 0.19744122 0.13527912 0.16045752
0.19012517 -0.04886503 0.06637419 -0.13728085 -0.16376273 0.04835628 -0.11014248 0.18693437
0.030902764 -0.1108044 0.10895122 -0.13227485 0.22495057 -0.16283032 0.12769447 0.20840059

output_layer.weight f4 [2, 32]
00000000: 8d2a 3c3d a2e1 263d e82f 4e3e f4aa 5d3c
00000010: d423 053e 5a5c 2bbe 1d44 06bd 745c c3bd
00000020: a635 ae3b 39cd 273e 12a8 c03d d880 e2bd
00000030: 3f50 17be 3197 c03d c477 913d 8c2d 233e
00000040: f8f6 e93d f547 663e f12c 56bd 928c d63c
00000050: 56f8 d1bd 5d9b 85bd 23c6 09be f447 cf3d
00000060: c599 363e a01c 1ebe ce62 383e 995f b23d
00000070: 87b3 2c3e 3e85 3abc 8f2d d43d f56a 2f3d
00000080: fd79 b23d 4ca8 8d3d 5423 f5bd e62b 003e
00000090: 2bef abbc 5627 88bd e774 0d3d bb14 adbd
000000a0: 31cd c4bd 15f4 b23b f697 acbd 986b 19be
000000b0: 426c 8e3d 0628 b3bd 9927 99bd 4efb 6fbe
000000c0: 90ed ffbd d59b 723c 206d 0f3d 8161 fe3c
000000d0: af10 b33d 44b2 b13d bed6 1a3e 946a 3bbe
000000e0: c592 abbd db3a c4bd 04a4 cb3c a4be 1abd
000000f0: 0426 53be 61f8 2b3c 90e5 ebbc edc0 7fbd
0.045939017 0.040742524 0.20135462 0.013529528 0.13001949 -0.16734448 -0.0327798 -0.095391184
0.005316454 0.1638688 0.09407057 -0.11059731 -0.14776705 0.094038375 0.071029216 0.15935344
0.11424059 0.22488387 -0.052288953 0.026190076 -0.102524444 -0.06523774 -0.1345449 0.10121146
0.17832096 -0.15440607 0.18006441 0.0870964 0.16865359 -0.0113843065 0.10360252 0.04282661
0.08714674 0.06916866 -0.11969629 0.12516746 -0.020988068 -0.06648128 0.034535315 -0.0845122
-0.0960945 0.0054612258 -0.08427422 -0.1498245 0.06954242 -0.08747868 -0.07478256 -0.23435709
-0.12496483 0.014807661 0.03501618 0.031052353 0.087434165 0.086765796 0.1512098 -0.18302375
-0.083776034 -0.09581538 0.024858482 -0.037779465 -0.2061997 0.01049623 -0.028795987 -0.062439848

output_layer.bias f4 [2]
00000000: 8b28 463d dc7e 5dbe
0.04837851 -0.21630424
