synthetic_flows_raw/saved_models/phi_only_1.5.pt (torch, 16963 bytes, 10 tensors)

input_layer.weight f4 [32, 3]
0.208092 -0.30912182 0.020009387 -0.2606702 -0.24975467 0.23487246 0.29238197 -0.07868334
0.111423604 0.028315358 0.36932564 -0.29334214 -0.061361652 -0.14414282 0.15117027 -0.5496948
-0.4222708 -0.41753706 0.15748316 -0.50460064 0.35386693 0.12405129 -0.4121642 0.021505155
0.37492117 0.2563352 -0.5515751 0.36950368 -0.1922031 0.54838777 -0.21261413 0.48368296
-0.4000638 0.26768643 -0.33494997 0.23976174 0.38156205 0.16401261 -0.018000804 -0.080607034
0.09313636 -0.23993734 0.18328796 0.109212965 0.18187799 -0.1721173 -0.26978645 0.45410207
-0.47710416 0.5047985 -0.33214873 -0.3029794 0.4917484 0.5332239 -0.33807778 0.019050889
-0.5415058 -0.24564676 0.30509233 0.27106223 -0.48702234 0.18596195 -0.2268612 -0.5322745
-0.42642644 -0.49038962 -0.38961875 -0.053568427 -0.09251367 -0.29194897 -0.52970177 0.098813
-0.15729631 -0.4217033 0.44703987 0.34419903 0.33186948 0.03761394 -0.24980143 -0.12736873
-0.23487963 0.4543099 0.54806054 0.5242195 0.5548044 -0.069245875 -0.014062156 -0.44168282
0.33153152 -0.17741887 -0.060479358 0.13443148 -0.08884862 -0.5156891 -0.50618726 0.19583383
00000000: 1216 553e 3745 9ebe baea a33c 9176 85be
00000010: b0bf 7fbe 6882 703e 17b3 953e bb24 a1bd
00000020: 0f32 e43d 9cf5 e73c 4018 bd3e f130 96be
00000030: 5b56 7bbd 2d9a 13be 61cc 1a3e ccb8 0cbf
00000040: e133 d8be 6bc7 d5be 4443 213e 822d 01bf
00000050: 0c2e b53e 9a0e fe3d 3007 d3be 942b b03c
00000060: abf5 bf3e 5e3e 833e 0734 0dbf 962f bd3e
00000070: e4d0 44be 2463 0c3f 85b7 59be 4ba5 f73e
00000080: 2ad5 ccbe 320e 893e 907e abbe 1a84 753e
00000090: 1a5c c33e ecf2 273e 6c76 93bc 4d15 a5bd
000000a0: 47be be3d 22b2 75be d7af 3b3e 0cab df3d
000000b0: 393e 3a3e 843f 30be 7321 8abe 1180 e83e
000000c0: ff46 f4be 793a 013f 660f aabe 1e20 9bbe
000000d0: 72c6 fb3e 5d81 083f 8818 adbe 9c10 9c3c
000000e0: 20a0 0abf d38a 7bbe 1035 9c3e abc8 8a3e
000000f0: fe5a f9be cf6c 3e3e 4d4e 68be 2443 08bf
00000100: 9154 dabe 5914 fbbe 1c7c c7be 916a 5bbd
00000110: cf77 bdbd 567a 95be 899a 07bf 785e ca3d
00000120: 4912 21be 7fe9 d7be 69e2 e43e db3a b03e
00000130: ccea a93e 1311 1a3d f2cb 7fbe f36c 02be
00000140: 4984 70be 4f9b e83e b24d 0c3f 4033 063f
00000150: a907 0e3f c8d0 8dbd f564 66bc 4024 e2be
00000160: 80be a93e 4bad 35be 34b9 77bd 68a8 093e
00000170: 44f6 b5bd 3304 04bf 7d95 01bf aa88 483e

input_layer.bias f4 [32]
0.32122782 0.33559605 0.25133497 0.4577385 -0.37671492 0.24505684 -0.42155895 -0.50179756
-0.015412364 0.4959721 0.36626792 -0.1425728 -0.4024919 -0.5364385 -0.13213551 0.42281
-0.08306793 0.34173468 -0.4389134 0.49641398 -0.29956052 -0.55730987 0.10033036 0.3793899
0.52789885 0.015006008 -0.42433962 -0.41177344 0.4330534 -0.20056811 0.41448075 -0.07532966
00000000: f977 a43e 3fd3 ab3e faae 803e b35c ea3e
00000010: c7e0 c0be 2ef0 7a3e 93d6 d7be ce75 00bf
00000020: 2484 7cbc 0ef0 fd3e 7887 bb3e 9bfe 11be
00000030: 6b13 cebe 0954 09bf 884e 07be 8d7a d83e
00000040: 851f aabd d9f7 ae3e 42b9 e0be f929 fe3e
00000050: ff5f 99be dcab 0ebf 017a cd3d 653f c23e
00000060: 6124 073f c2db 753c 0b43 d9be f8d3 d2be
00000070: 2db9 dd3e ba61 4dbe d236 d43e 7046 9abd

hidden_layers.0.weight f4 [32, 32]
0.07551452 0.22126563 0.20972748 -0.09284644 0.14769687 0.1268795 0.12524045 -0.039251883
-0.058760565 0.10921342 0.034738947 0.038014267 -0.12256653 -0.06702546 0.13585849 -0.06411205
-0.09100564 0.08465293 0.014535418 -0.11315016 0.042057578 -0.11969606 0.20703731 -0.036549788
0.08260042 -0.07240708 -0.059934504 0.055954326 0.07130371 0.08740721 0.14304526 -0.10219324
0.089130834 0.026642436 -0.035942044 0.15554568 -0.17045677 0.1770511 0.0008131558 0.18218094
-0.13176316 0.10545638 -0.071093954 -0.0825653 -0.06564616 0.030014878 0.14003628 -0.006769365
-0.14219823 0.11962295 -0.16763692 0.002880882 -0.14835584 -0.02467596 0.04483109 -0.105356954
0.20619042 -0.047741678 -0.015390996 -0.04954624 0.17136231 0.045865383 -0.09015749 -0.13371284
0.21250279 0.18056037 0.1293275 0.14374548 -0.026953453 0.093291655 0.18794534 0.11693441
-0.044834096 0.2317141 0.00063814723 -0.14677262 -0.091686465 -0.01948 -0.13943596 0.19630985
-0.08176086 0.11877489 -0.11483031 0.045102224 0.0038504628 -0.0932754 -0.016450394 0.20562622
-0.10055177 0.16143863 -0.028432747 -0.13175915 0.18071657 -0.14454216 0.16769817 0.19391742
0.056885816 0.0025048438 0.12457134 0.11612207 -0.10806801 0.10310781 -0.06268651 -0.13206965
-0.015418824 0.01706986 0.15773581 0.15650561 -0.16636512 0.14116701 -0.02682712 0.16132464
-0.12181588 0.15267704 -0.12718251 0.10820429 -0.0030753876 -0.094001025 -0.16858594 -0.1398213
0.1716874 0.06428016 -0.16069657 0.11479309 -0.08725746 0.026768116 -0.000655192 0.07780002
0.13297197 -0.0068115015 0.12812527 -0.101934254 0.07299348 0.19460483 0.13854852 -0.0018263072
0.12215474 -0.022174094 0.05383175 -0.007520521 0.09115318 -0.14847891 0.053291388 0.015085034
-0.14004055 -0.010337066 0.06460627 -0.02343275 0.18607499 -0.13404603 0.17700574 -0.09037311
0.058890447 0.02298922 -0.02736277 0.04782311 0.13329151 0.12601817 0.1651075 0.07231247
-0.009864596 0.16153798 0.1408733 -0.1086471 -0.07802433 0.05292813 -0.081242815 0.12688902
0.03300453 0.09885511 0.20511428 -0.095136106 0.17265679 0.046932623 -0.096637584 -0.09055744
0.02591138 -0.039488446 -0.12028414 0.099964276 0.16544075 -0.105032995 -0.038456146 0.06774709
-0.008528922 0.10869243 0.112606265 -0.048784096 0.24155533 0.08174911 0.14507511 0.19077744
-0.14303732 0.16665159 0.04943921 -0.08326356 0.08881893 0.045658067 0.014942 0.14094056
-0.01488401 -0.17373674 -0.09997473 -0.07582064 0.079381585 0.11528602 0.059707113 0.07262915
-0.18194069 -0.0070008556 -0.051976576 0.106262736 -0.063559875 -0.008098531 -0.10451317 -0.07516043
-0.06135805 0.07529158 0.09484613 0.107540414 -0.16138355 0.079855025 -0.06942807 -0.008325231
0.08238225 0.10894403 0.23863973 0.09054137 0.035923764 0.13146457 -0.012123603 0.11721202
0.12755889 0.17357607 -0.10194512 -0.09002626 -0.07491528 0.113871224 -0.065660425 0.21299715
0.12231671 0.07038225 -0.1425981 -0.014495558 0.12501433 0.12687004 0.06754163 -0.094031
0.11461301 0.0028625675 0.13057481 -0.019528002 0.24371037 -0.06437619 0.19868407 0.06690213
00000000: 5ba7 9a3d 7593 623e cdc2 563e 4626 bebd
00000010: d93d 173e b3ec 013e 083f 003e 95c6 20bd
00000020: ebae 70bd 49ab df3d 6d4a 0e3d d9b4 1b3d
00000030: 2904 fbbd a544 89bd 7d1e 0b3e 2e4d 83bd
00000040: 2a61 babd 845e ad3d f625 6e3c 45bb e7bd
00000050: 9144 2c3d 3523 f5bd 9701 543e 3bb5 15bd
00000060: 692a a93d 2a4a 94bd e27d 75bd 5d30 653d
00000070: ae07 923d 8d02 b33d 757a 123e b04a d1bd
00000080: 3a8a b63d 3d41 da3c f737 13bd 5e47 1f3e
00000090: 388c 2ebe e24c 353e f629 553a a48d 3a3e
000000a0: ecec 06be 84f9 d73d b599 91bd ff17 a9bd
000000b0: 7e71 86bd c3e1 f53c ac65 0f3e 8dd1 ddbb
000000c0: 6a9c 11be e1fc f43d 03a9 2bbe 2ecd 3c3b
000000d0: 98ea 17be 3d25 cabc cea0 373d 63c5 d7bd
000000e0: 9523 533e c78c 43bd 842a 7cbc 00f1 4abd
000000f0: 9a79 2f3e 57dd 3b3d 7da4 b8bd 05ec 08be
00000100: 559a 593e d1e4 383e 6e6e 043e 0432 133e
00000110: 7dcd dcbc b20f bf3d be74 403e 4f7b ef3d
00000120: f5a3 37bd 7646 6d3e 5649 273a 904b 16be
00000130: 1dc6 bbbd 8594 9fbc 4dc8 0ebe 7305 493e
00000140: 3d72 a7bd 4040 f33d 272c ebbd 1cbd 383d
00000150: 0c58 7c3b 2c07 bfbd fac2 86bc ae8f 523e
00000160: 16ee cdbd 2b50 253e cbeb e8bc dfeb 06be
00000170: c40d 393e dc02 14be 12b9 2b3e 4a92 463e
00000180: 1a01 693d 4e28 243b 421f ff3d 68d1 ed3d
00000190: c352 ddbd 302a d33d c961 80bd 443d 07be
000001a0: 3c9f 7cbc 17d6 8b3c 7f85 213e 0243 203e
000001b0: 9e5b 2abe 168e 103e 8cc4 dbbc 4932 253e
000001c0: 9b7a f9bd 5f57 1c3e 223c 02be 369a dd3d
000001d0: 718c 49bb 9c83 c0bd cba1 2cbe 512d 0fbe
000001e0: d2ce 2f3e 51a5 833d a48d 24be a418 eb3d
000001f0: 0ab4 b2bd cf48 db3c 31c1 2bba 9e55 9f3d
00000200: ce29 083e 0433 dfbb 4533 033e e8c2 d0bd
00000210: 9b7d 953d 7d46 473e aadf 0d3e b360 efba
00000220: 442c fa3d 72a6 b5bc ae7e 5c3d b46e f6bb
00000230: 85ae ba3d db0a 18be 1248 5a3d 3827 773c
00000240: ca66 0fbe cc5c 29bc 4b50 843d 0af6 bfbc
00000250: 718a 3e3e 5d43 09be fe40 353e 8915 b9bd
00000260: 1c37 713d e453 bc3c e327 e0bc 2ae2 433d
00000270: 927d 083e e80a 013e f111 293e 8f18 943d
00000280: 1d9f 21bc 366a 253e 1741 103e 5f82 debd
00000290: 38cb 9fbd 2bcb 583d a262 a6bd 32ef 013e
000002a0: c22f 073d 8c74 ca3d 7a09 523e b8d6 c2bd
000002b0: f1cc 303e 6c3c 403d ede9 c5bd 2e76 b9bd
000002c0: 1a44 d43c a3be 21bd 8857 f6bd 12ba cc3d
000002d0: 4d69 293e 8a1b d7bd 3184 1dbd fcbe 8a3d
000002e0: e4bc 0bbc 239a de3d 1d9e e63d d5d1 47bd
000002f0: 485a 773e 146c a73d 928e 143e 295b 433e
00000300: 6078 12be b7a6 2a3e c580 4a3d 1686 aabd
00000310: b3e6 b53d f403 3b3d 4acf 743c b952 103e
00000320: 10dc 73bc 0be8 31be 8dbf ccbd da47 9bbd
00000330: d092 a23d 141b ec3d 728f 743d 97be 943d
00000340: a94e 3abe 6f67 e5bb 64e5 54bd 47a0 d93d
00000350: ae2b 82bd b3af 04bc 000b d6bd b6ed 99bd
00000360: 9452 7bbd 7932 9a3d b03e c23d 263e dc3d
00000370: bb41 25be 088b a33d 4e30 8ebd 8d66 08bc
00000380: 06b8 a83d 0c1e df3d f95d 743e c16d b93d
00000390: cc24 133d a69e 063e 14a2 46bc db0c f03d
000003a0: cc9e 023e edbd 313e 9ac8 d0bd b05f b8bd
000003b0: 2f6d 99bd 5135 e93d f978 86bd ed1b 5a3e
000003c0: 2f81 fa3d 9224 903d 3c05 12be c77e 6dbc
000003d0: c203 003e 38ea 013e 4453 8a3d 5393 c0bd
000003e0: 3aba ea3d ea99 3b3b 67b5 053e 30f9 9fbc
000003f0: 368f 793e aad7 83bd d673 4b3e fc03 893d

hidden_layers.0.bias f4 [32]
-0.01750958 0.19011906 0.0067184656 0.12728402 0.12843809 0.15475845 0.10818129 0.15642948
-0.15002657 0.013810427 0.1134131 0.16724288 -0.15129979 0.078943565 0.18610357 -0.00044798575
0.23197596 0.14409922 0.1900949 0.114910245 -0.12004865 -0.14461735 0.11398424 0.1773958
0.10083424 -0.17483394 -0.09518694 0.19922693 0.04026206 0.08529063 -0.118168205 0.16422789
00000000: 4070 8fbc 92ae 423e 9326 dc3b be56 023e
00000010: 4685 033e 0079 1e3e 278e dd3d 0d2f 203e
00000020: 91a0 19be 2145 623c 2145 e83d b841 2b3e
00000030: 55ee 1abe 2aad a13d ef91 3e3e a1df eab9
00000040: 1b8b 6d3e bf8e 133e 3da8 423e 1056 eb3d
00000050: 11dc f5bd 9216 14be 9270 e93d 3fa7 353e
00000060: 2f82 ce3d ab07 33be 5ff1 c2bd 2502 4c3e
00000070: d4e9 243d dbac ae3d 2c02 f2bd 5b2b 283e

hidden_layers.1.weight f4 [32, 32]
-0.015164247 0.21429895 0.1589896 0.09127976 0.004854148 0.23066896 0.070199974 0.14548685
0.07270287 0.07321551 0.07614975 -0.01011317 0.108961366 0.1284452 0.18514556 -0.057237737
0.041365802 0.2095165 0.002892885 -0.026722427 -0.027352873 -0.066706255 0.14265747 0.045138586
0.067524105 0.14015011 -0.04355412 0.15437765 0.10133609 -0.09547125 -0.07399038 -0.1377055
0.056284778 -0.14154197 -0.11136375 0.048598204 0.027714713 -0.13172214 -0.10789378 -0.035863027
-0.1729419 0.0016733352 0.024225397 0.099911146 -0.103560135 0.12013371 0.04262749 0.02594208
-0.07077872 -0.07193093 -0.06846515 -0.041872345 -0.031764794 -0.12265253 -0.050236113 -0.0010265287
0.08418104 0.10923437 0.16634406 -0.0150722815 -0.17346132 0.16527349 -0.06236899 0.153738
-0.016901912 0.028460074 0.18071455 0.19503357 0.17661226 0.011597978 -0.12219889 0.22590856
-0.06343114 -0.123337425 0.056032535 -0.050821315 -0.10775117 0.089842394 0.22217949 -0.063592434
0.014491365 0.10579898 0.1561364 -0.0025907937 0.14458492 -0.105456986 -0.105913155 0.12790373
-0.064037934 0.025487877 0.0886108 -0.038678754 -0.04096501 0.006406861 0.15871452 -0.07258576
-0.15087165 0.09541513 -0.017784782 0.030680813 0.011789827 0.09934981 -0.058430787 -0.1260565
-0.03023048 0.13609512 -0.01910222 0.008710026 0.1167195 -0.15364599 0.083160006 -0.15838821
-0.08774854 0.03417323 0.13185404 0.13700582 -0.013549833 -0.11913592 -0.15337579 -0.007418758
0.091003075 0.04520553 -0.17509 0.052206572 0.13559489 0.13565922 -0.16710606 -0.16213965
-0.09270883 0.23889895 0.20787548 -0.10065954 -0.06543732 0.20394869 -0.05828069 0.12978274
0.12812893 -0.09298325 0.18134443 -0.070761956 0.12292544 0.07235409 -0.016964028 -0.10833051
0.20920452 -0.04150979 -0.10550301 0.24474674 -0.124691404 0.15745834 0.025412016 0.090454936
-0.06679057 0.12829383 -0.04854557 0.050362457 0.22346748 0.17068201 -0.025072228 0.08357731
-0.08408905 -0.13408521 -0.05986007 0.13496749 -0.13545154 -0.15493058 0.13316262 0.005534523
0.038809847 -0.010723722 0.13976304 -0.105849706 0.07979599 0.06274166 0.0879197 0.13497685
-0.004651353 -0.04111463 -0.16625118 0.091396965 -0.06839239 -0.17712356 -0.10092054 0.13594879
0.062270112 -0.11946756 0.10120562 -0.07948319 -0.1394556 0.102644525 -0.023437846 -0.11109338
0.12881191 0.10091191 -0.010314998 0.15488558 0.06532926 -0.1526218 0.059755698 0.0054465714
-0.089112155 -0.10259583 0.08397436 0.18409352 0.03349391 0.14263102 -0.12757058 -0.10033176
-0.1353189 0.0009509048 -0.03880781 0.014986548 -0.15443592 -0.013786241 0.106487244 -0.10808924
-0.1056573 0.15868661 -0.07478697 -0.025672812 0.1303115 0.16587645 0.16964418 -0.10598029
0.029843137 0.07081183 0.01174146 -0.06781281 -0.07196306 0.12196595 -0.086149424 0.19600923
-0.058518782 0.058218934 0.21470179 -0.08451495 -0.1051563 0.069660075 0.12648234 0.19280063
0.12442847 0.007161417 0.10146565 0.16110057 -0.14924675 -0.08087118 -0.03175318 0.17051594
-0.14416826 -0.010500382 -0.087523684 0.01903765 -0.0055340845 -0.12996751 -0.03596633 -0.065906815
00000000: 7673 78bc 2f71 5b3e 2bce 223e e2f0 ba3d
00000010: 8b0f 9f3b 7c34 6c3e 01c5 8f3d 81fa 143e
00000020: 3ee5 943d 03f2 953d 66f4 9b3d b6b1 25bc
00000030: 2327 df3d 2387 033e cc96 3d3e 1e72 6abd
00000040: 306f 293d 7e8b 563e 8e96 3d3b fee8 dabc
00000050: 2213 e0bc 4a9d 88bd cd14 123e 3de3 383d
00000060: 144a 8a3d 8383 0f3e ce65 32bd 2d15 1e3e
00000070: 4c89 cf3d 6e86 c3bd 4588 97bd ac02 0dbe
00000080: de8a 663d 61f0 10be ae12 e4bd e90e 473d
00000090: f709 e33c 2be2 06be 6af7 dcbd 1ce5 12bd
000000a0: ae17 31be d053 db3a 5774 c63c 379e cc3d
000000b0: 5617 d4bd aa08 f63d 2a9a 2e3d 7c84 d43c
000000c0: 6ff4 90bd 8650 93bd 7537 8cbd 5682 2bbd
000000d0: cd1b 02bd 4031 fbbd 62c4 4dbd 968c 86ba
000000e0: 1c67 ac3d 45b6 df3d 1956 2a3e bbf1 76bc
000000f0: d89f 31be 743d 293e a076 7fbd 7f6d 1d3e
00000100: e175 8abc 1a25 e93c 3c0d 393e e1b6 473e
00000110: d8d9 343e 7205 3e3c 6943 fabd 9354 673e
00000120: 2fe8 81bd 5598 fcbd 5f82 653d 032a 50bd
00000130: a5ac dcbd 4aff b73d 0583 633e c03c 82bd
00000140: 316d 6d3c 23ad d83d 38e2 1f3e 4eca 29bb
00000150: 120e 143e d5f9 d7bd ffe8 d8bd 32f9 023e
00000160: 5226 83bd f4cb d03c 9479 b53d 9d6d 1ebd
00000170: edca 27bd a5f0 d13b 0f86 223e d8a7 94bd
00000180: 197e 1abe 0269 c33d 64b1 91bc 5456 fb3c
00000190: 1e2a 413c ea77 cb3d 1f55 6fbd f514 01be
000001a0: e9a5 f7bc 855c 0b3e 427c 9cbc 7fb4 0e3c
000001b0: a20a ef3d 6055 1dbe cb4f aa3d 8530 22be
000001c0: 82b5 b3bd 3bf9 0b3d bf04 073e 414b 0c3e
000001d0: 1e00 5ebc 89fd f3bd 8b0e 1dbe 0d19 f3bb
000001e0: d25f ba3d 6f29 393d cb4a 33be 8fd6 553d
000001f0: 63d9 0a3e 40ea 0a3e da1d 2bbe f007 26be
00000200: 21de bdbd eda1 743e 4fdd 543e 9726 cebd
00000210: 0004 86bd edd7 503e bcb7 6ebd c4e5 043e
00000220: 3b34 033e 016e bebd 5bb2 393e a5eb 90bd
00000230: 55c0 fb3d 622e 943d 25f8 8abc 63dc ddbd
00000240: b639 563e 2b06 2abd f611 d8bd e49e 7a3e
00000250: 355e ffbd c23c 213e dc2c d03c 7040 b93d
00000260: 7fc9 88bd 755f 033e b8d7 46bd dd48 4e3d
00000270: a9d4 643e 44c7 2e3e 4664 cdbc 952a ab3d
00000280: e136 acbd a24d 09be d52f 75bd eb34 0a3e
00000290: cfb3 0abe 1fa6 1ebe c85b 083e f25a b53b
000002a0: 13f7 1e3d 8db2 2fbc 0b1e 0f3e bbc7 d8bd
000002b0: 146c a33d b37e 803d 3e0f b43d 5f37 0a3e
000002c0: 616a 98bb d067 28bd c03d 2abe 552e bb3d
000002d0: 4f11 8cbd e15f 35be 6eaf cebd 2936 0b3e
000002e0: f20e 7f3d 68ab f4bd e444 cf3d 15c8 a2bd
000002f0: 73cd 0ebe 4b37 d23d ba00 c0bc ed84 e3bd
00000300: 45e7 033e e7aa ce3d 3d00 29bc 539a 1e3e
00000310: 59cb 853d e448 1cbe 64c2 743d 2779 b23b
00000320: 6f80 b6bd c31d d2bd c0fa ab3d 0383 3c3e
00000330: e930 093d de0d 123e dda1 02be bd7a cdbd
00000340: 0a91 0abe 2446 793a f0f4 1ebd 238a 753c
00000350: 7324 1ebe b0df 61bc fc15 da3d e45d ddbd
00000360: db62 d8bd be7e 223e e929 99bd ca4f d2bc
00000370: 6170 053e 84db 293e 34b7 2d3e 320c d9bd
00000380: 9879 f43c cb05 913d 415f 403c 71e1 8abd
00000390: 5e61 93bd 49c9 f93d 1c6f b0bd a5b6 483e
000003a0: 64b1 6fbd fa76 6e3d c9da 5b3e 2d16 adbd
000003b0: 305c d7bd f1a9 8e3d 9684 013e 876d 453e
000003c0: 5bd4 fe3d 52aa ea3b 39cd cf3d 8cf7 243e
000003d0: 24d4 18be ca9f a5bd 9f0f 02bd bb9b 2e3e
000003e0: d8a0 13be cb09 2cbc 9e3f b3bd d9f4 9b3c
000003f0: 4457 b5bb 3416 05be 6e51 13bd 27fa 86bd

hidden_layers.1.bias f4 [32]
0.028784055 -0.13408628 -0.06226486 -0.09937008 0.23423232 0.05469122 -0.025539992 0.0043705204
-0.0929895 -0.050917946 0.012659469 0.18664636 0.19968012 0.22541346 -0.061831567 0.022200838
0.009398831 0.20232773 -0.0050457227 0.010523414 0.12874858 0.074806586 0.046209466 0.17875129
-0.03290916 -0.1443896 -0.084415615 -0.13565455 0.1312725 -0.07672808 -0.06526022 0.072419114
00000000: 8acc eb3c ea4d 09be 7009 7fbd 8a82 cbbd
00000010: 99da 6f3e e703 603d 3f39 d1bc 9536 8f3b
00000020: 4771 bebd 568f 50bd a969 4f3c 3920 3f3e
00000030: f278 4c3e c9d2 663e 1943 7dbd 88de b53c
00000040: 8efd 193c 002f 4f3e 9756 a5bb 666a 2c3c
00000050: abd6 033e 3234 993d 2346 3d3d 940a 373e
00000060: c1cb 06bd deda 13be 18e2 acbd 07e9 0abe
00000070: 4c6c 063e 9d23 9dbd 26a7 85bd 7950 943d

hidden_layers.2.weight f4 [32, 32]
0.23721634 0.05108963 0.078651845 -0.085665874 0.06697996 -0.02583457 -0.042027663 0.21845646
0.029432409 -0.1365505 0.039110743 0.1353117 0.09099075 0.03741601 -0.15093265 0.22251162
-0.13332032 0.13740003 0.018069549 0.15012112 -0.011907096 0.12521186 0.14304262 0.17708072
-0.11707805 -0.056412313 -0.123674944 -0.08001621 0.13057895 0.11739437 0.1574074 -0.06645666
0.033916406 0.010175239 0.15119188 0.024069492 -0.117022224 0.023163667 -0.1175373 -0.014536572
0.11415605 -0.10067917 0.22400382 0.054929327 -0.081741855 0.1949034 0.046814095 0.18252121
-0.0051574674 0.022099817 -0.15192007 -0.00075672555 -0.0027171914 0.16155334 0.07627547 0.12711978
-0.03391943 0.10732935 -0.10938481 -0.0831145 -0.111350276 -0.110040195 0.024756726 -0.07103201
-0.14397752 -0.051705457 0.0707705 -0.02416498 0.16209047 0.07250952 0.15901154 0.03531984
0.03460823 0.1581931 -0.17123394 0.12834798 0.041916966 -0.07100357 -0.11104978 0.14019825
-0.08084956 0.11244743 -0.0928811 -0.13641676 -0.1546163 0.06878687 0.045371186 -0.01815755
-0.07184812 -0.0073756143 -0.12335473 0.13475434 0.08354463 -0.09507882 -0.17499618 0.09980307
0.1092491 -0.014765811 -0.115919925 0.12022582 0.16019243 -0.10795953 0.12597509 0.060743954
-0.008629795 0.16650784 -0.15783802 0.16139986 0.062950194 -0.074630566 0.03516395 0.14552346
0.0014058503 0.048410103 0.008137519 -0.15887794 -0.0043706493 0.061586928 0.052107118 -0.14030331
0.11125425 -0.051514342 0.06991587 -0.026554964 -0.041325707 0.003405655 -0.10623197 -0.032824565
-0.0072759367 0.123080514 0.075218365 -0.11620057 -0.021077659 -0.08035455 -0.15699686 -0.12595345
-0.17046997 -0.079120636 -0.17391874 -0.09973331 -0.13083579 -0.119494595 -0.13660155 -0.1078408
-0.17397559 -0.08502857 0.029173478 0.06056622 -0.06260385 -0.17029145 -0.16184309 0.1387899
0.17421407 0.036656484 -0.13110514 -0.08294284 0.0038452465 0.039397523 -0.12551607 -0.033075117
0.009107621 0.077030234 -0.07276646 0.14717677 0.10378776 -0.06491571 -0.04215249 -0.014445587
0.15875413 0.11747605 0.004159683 -0.096868314 -0.11488712 0.13592476 0.11491673 0.12144695
-0.1665505 -0.015309077 -0.05422871 -0.08615587 0.180185 0.1284989 -0.108784236 0.07198993
0.14036418 0.01926465 -0.15826114 0.16007543 0.007518979 0.0732955 0.14342701 0.16269992
-0.08581907 -0.066206984 0.082939446 0.016997408 -0.066758856 -0.14139172 0.014627091 -0.009426488
-0.117913805 -0.07100762 0.034621578 -0.099890254 -0.031101359 0.1811068 -0.017942542 0.061369814
-0.04006231 -0.008733609 -0.08163078 -0.034954447 -0.046723794 0.031385835 -0.029182687 0.1684526
0.028689828 -0.073612966 0.1868904 -0.1392436 0.17561822 -0.0831724 0.18386975 -0.08017674
-0.10316267 -0.08326401 0.0058401832 -0.16121913 0.17447242 -0.16649354 -0.12528484 -0.13699466
-0.036183953 -0.11119457 -0.050065123 -0.014630562 0.008713165 -0.13411972 0.07621362 -0.0017835703
0.124038026 -0.073996484 0.097564265 -0.050929807 0.13021186 0.16191623 0.14218669 -0.058367968
-0.086903155 0.17389183 0.035672627 0.10926724 -0.060651947 -0.16338807 -0.17164959 -0.17357153
00000000: d7e8 723e 5c43 513d 3814 a13d 9771 afbd
00000010: ca2c 893d 05a3 d3bc 3325 2cbd 0db3 5f3e
00000020: 3c1c f13c e5d3 0bbe 9632 203d 268f 0a3e
00000030: 5c59 ba3d 8841 193d 178e 1abe 16da 633e
00000040: 1f85 08be 98b2 0c3e 9706 943c 5ab9 193e
00000050: fb15 43bc 8a37 003e c479 123e a654 353e
00000060: 9ec6 efbd 9910 67bd 4a49 fdbd 8adf a3bd
00000070: 7db6 053e 766c f03d 682f 213e 6e1a 88bd
00000080: eeeb 0a3d 0cb6 263c 0bd2 1a3e 622d c53c
00000090: 59a9 efbd bbc1 bd3c 65b7 f0bd cd2a 6ebc
000000a0: a6ca e93d e130 cebd 4261 653e 93fd 603d
000000b0: 4668 a7bd c294 473e 23c0 3f3d d7e6 3a3e
000000c0: f9ff a8bb ad0a b53c ef90 1bbe fe5e 46ba
000000d0: e812 32bb 3d6e 253e 5036 9c3d b02b 023e
000000e0: 1aef 0abd 7ecf db3d 2505 e0bd ef37 aabd
000000f0: 9d0b e4bd c15c e1bd 9ece ca3c 3b79 91bd
00000100: d86e 13be 1ac9 53bd 20f0 903d a3f5 c5bc
00000110: 0bfb 253e df7f 943d ecd3 223e 89ab 103d
00000120: 5cc1 0d3d 5ffd 213e f357 2fbe a76d 033e
00000130: 20b1 2b3d 526a 91bd 116e e3bd 2190 0f3e
00000140: 7494 a5bd d74a e63d 7238 bebd d6b0 0bbe
00000150: bc53 1ebe 21e0 8c3d 23d7 393d 24bf 94bc
00000160: 1b25 93bd 23af f1bb 68a1 fcbd 0bfd 093e
00000170: 7219 ab3d afb8 c2bd 3332 33be 8d65 cc3d
00000180: febd df3d 4dec 71bc 6d67 edbd f438 f63d
00000190: 7c09 243e e319 ddbd 9dff 003e a7ce 783d
000001a0: fc63 0dbc 0881 2a3e 4aa0 21be 0146 253e
000001b0: 08ec 803d e9d7 98bd 1308 103d 1a04 153e
000001c0: 8244 b83a ac49 463d 3a53 053c e6b0 22be
000001d0: aa37 8fbb 9342 7c3d 466e 553d acab 0fbe
000001e0: 45d9 e33d b400 53bd 0d30 8f3d cc89 d9bc
000001f0: 2545 29bd 6931 5f3b 2690 d9bd 0d73 06bd
00000200: fb6a eebb a311 fc3d 160c 9a3d 90fa edbd
00000210: 0eab acbc ed90 a4bd c9c3 20be f1f9 00be
00000220: ae8f 2ebe 000a a2bd c117 32be fa40 ccbd
00000230: d1f9 05be 95b9 f4bd 47e1 0bbe a3db dcbd
00000240: a826 32be 7523 aebd 38fd ee3c 4914 783d
00000250: 7336 80bd e260 2ebe 32ba 25be f11e 0e3e
00000260: 2c65 323e 1c25 163d 6d40 06be f0dd a9bd
00000270: 8800 7c3b 4c5f 213d 4987 00be c679 07bd
00000280: 2238 153c 07c2 9d3d 9506 95bd 82b5 163e
00000290: ad8e d43d 87f2 84bd 17a8 2cbd 2fad 6cbc
000002a0: 7190 223e 4997 f03d f34d 883b e562 c6bd
000002b0: f049 ebbd dc2f 0b3e 7659 eb3d 2eb9 f83d
000002c0: 378c 2abe ecd2 7abc ec1e 5ebd 7d72 b0bd
000002d0: 6b82 383e 3795 033e 45ca debd 756f 933d
000002e0: a1bb 0f3e e6d0 9d3c 350f 22be d0ea 233e
000002f0: c461 f63b f31b 963d 88de 123e cf9a 263e
00000300: e9c1 afbd 8797 87bd 28dc a93d 263e 8b3c
00000310: deb8 88bd fec8 10be 77a6 6f3c 8e71 1abc
00000320: cb7c f1bd 716c 91bd 5bcf 0d3d 4393 ccbd
00000330: 47c8 febc 1074 393e 3dfc 92bc ea5e 7b3d
00000340: 6018 24bd 6917 0fbc 0a2e a7bd 652c 0fbd
00000350: 7361 3fbd 6f8e 003d 8810 efbc d77e 2c3e
00000360: ee06 eb3c 65c2 96bd 3260 3f3e e095 0ebe
00000370: 43d5 333e 4b56 aabd 5a48 3c3e b433 a4bd
00000380: f346 d3bd 5286 aabd 025f bf3b a116 25be
00000390: e6a8 323e 487d 2abe ab4a 00be 5448 0cbe
000003a0: a035 14bd fbb9 e3bd 1611 4dbd 06b5 6fbc
000003b0: aac1 0e3c ae56 09be e315 9c3d b0c6 e9ba
000003c0: a607 fe3d 788b 97bd c6cf c73d c69b 50bd
000003d0: 4256 053e 5ecd 253e 6399 113e 4013 6fbd
000003e0: 48fa b1bd b310 323e 761d 123d 81c7 df3d
000003f0: 2d6e 78bd 344f 27be e9c4 2fbe bcbc 31be

hidden_layers.2.bias f4 [32]
0.047002483 0.08527311 -0.16802637 -0.05566992 -0.07353949 0.1170736 0.07255324 -0.07534503
0.17280687 0.20886983 0.10134718 0.20538537 -0.11852351 0.14890315 0.082977235 -0.06376571
-0.008402631 0.13417944 0.08471912 0.15491942 -0.03864987 0.08570781 0.08585697 0.027163547
0.14956547 0.044885177 0.14326808 -0.06758053 0.11428489 0.2300371 0.13207819 -0.016704805
00000000: ad85 403d aba3 ae3d 1b0f 2cbe 2406 64bd
00000010: df9b 96bd 49c4 ef3d cb96 943d 7f4e 9abd
00000020: 49f4 303e f9e1 553e 1c8f cf3d 8b50 523e
00000030: 74bc f2bd 117a 183e f8ef a93d 9997 82bd
00000040: 30ab 09bc 5666 093e 3881 ad3d 32a3 1e3e
00000050: 534f 1ebd 9487 af3d c7d5 af3d 1686 de3c
00000060: b127 193e 85d9 373d deb4 123e a967 8abd
00000070: 320e ea3d d88e 6b3e 813f 073e 84d8 88bc

output_layer.weight f4 [2, 32]
0.10069605 0.19175 -0.10730486 -0.17867748 -0.10194874 0.10562607 0.18018614 -0.17528619
0.11680011 0.09679004 -0.0075466777 0.034747656 0.08477221 0.01937244 -0.009921972 0.0018125674
0.055685256 0.18414387 0.17210323 -0.0115984855 0.17358044 0.101741575 0.21368107 -0.17158802
-0.11647122 -0.083357014 0.050725337 -0.011533405 -0.05154645 0.009291536 -0.06900027 -0.17291011
-0.22885121 -0.19436587 0.11129274 0.109283544 0.12511003 -0.113397986 -0.23843998 0.109279335
0.004697796 -0.11530888 -0.19345443 -0.115536064 -0.07498158 -0.15020761 0.08460829 -0.028533522
-0.10057089 -0.02834872 -0.21693863 -0.24954048 -0.060674995 -0.16951585 0.06391876 -0.0135430135
0.036032066 0.11044929 -0.19374931 0.13761269 -0.090144746 -0.13507122 0.03413745 -0.14661117
00000000: bb39 ce3d 1d5a 443e a7c2 dbbd 3bf7 36be
00000010: 80ca d0bd 7b52 d83d b782 383e 397e 33be
00000020: e534 ef3d db39 c63d 1f4a f7bb 8f53 0e3d
00000030: 0d9d ad3d f4b2 9e3c c48f 22bc ab93 ed3a
00000040: 3916 643d 3690 3c3e d43b 303e 9307 3ebc
00000050: 12bf 313e e35d d03d 36cf 5a3e c5b4 2fbe
00000060: 7788 eebd 15b7 aabd 5fc5 4f3d 9bf6 3cbc
00000070: 5f22 53bd 873b 183c 0350 8dbd 590f 31be
00000080: f957 6abe d907 47be 73ed e33d 0dd0 df3d
00000090: d81c 003e 343d e8bd 9c29 74be d8cd df3d
000000a0: f8ef 993b 1027 ecbd eb18 46be 2c9e ecbd
000000b0: f18f 99bd 06d0 19be 1c47 ad3d 22bf e9bc
000000c0: 1cf8 cdbd 933b e8bc 2925 5ebe 8a87 7fbe
000000d0: 5886 78bd 9095 2dbe d7e7 823d 84e3 5dbc
000000e0: 5c96 133d 3d33 e23d 3866 46be 57ea 0c3e
000000f0: cf9d b8bd 1c50 0abe b6d3 0b3d 3d21 16be

output_layer.bias f4 [2]
0.026712514 -0.014028707
00000000: 34d4 da3c a9d8 65bc
