synthetic_flows_raw/saved_models/phi_only_0.7.pt (torch, 16835 bytes, 10 tensors)

input_layer.weight f4 [32, 2]
000000 fb 55 0a 3f f8 61 0c 3e 07 97 16 3e 54 51 06 be
       0.54037446 0.13709247 0.1470605 -0.13116962
000010 a6 dc e2 3d 8d 83 03 3f 47 95 ff 3b e9 22 0a be
       0.110772416 0.51372606 0.0077997777 -0.1348988
000020 a8 d1 32 bf bd de 72 3e 6d 08 c9 bd 5f 6a 32 3f
       -0.6985116 0.2371778 -0.0981606 0.6969356
000030 dc ef f1 3e 74 6d dd 3e 43 73 24 bf 99 d9 eb 3e
       0.4725331 0.4324757 -0.64238375 0.4606445
000040 66 9e 80 3e bc 79 cd bc 63 ea 32 3f 29 71 c9 bd
       0.25120848 -0.025082462 0.69888896 -0.09836037
000050 ee aa 87 3d 94 f8 24 be 16 87 a2 3e 07 fc e6 be
       0.06624399 -0.1611045 0.31743687 -0.45114157
000060 6e d0 ac 3e 6d 79 0e bf ff 36 19 3f 70 18 c3 3d
       0.3375277 -0.5565403 0.5984954 0.095261455
000070 4b 31 21 3f 95 31 14 bf 7c 0a e9 3c 2e dd ce 3d
       0.6296584 -0.57888156 0.028447382 0.101007804
000080 c6 4f c5 be 07 c7 8b 3e c8 9d 11 3e 50 1c b8 3e
       -0.38537425 0.27300283 0.14220345 0.359591
000090 fd 0e 45 3e 3b 54 48 be 7d 60 1f bf 4a ad 0a 3f
       0.19243999 -0.19563381 -0.62256604 0.5417067
0000a0 d1 44 fd 3e 38 d5 46 3d 17 e4 d4 be 01 89 6d be
       0.49466565 0.048543185 -0.4158027 -0.23196794
0000b0 eb 6c f7 3e 6f 34 1d bf 38 60 4a 3e 25 a8 83 be
       0.48325285 -0.6140813 0.19763267 -0.25714222
0000c0 c2 48 21 3f 08 ae 0b 3f 7c 68 06 3f 37 1e e6 3c
       0.63001645 0.54562426 0.5250318 0.02809058
0000d0 62 16 21 bf cf 89 9c bd 40 23 10 bf 2c 02 c8 3e
       -0.6292478 -0.076434724 -0.5630379 0.39064157
0000e0 35 f9 37 3e b2 62 67 3e 29 75 62 3e bb 28 03 3f
       0.17966159 0.22596243 0.22115006 0.51234025
0000f0 98 8e 37 bd 20 9c 4f be 1d 6c e6 bb 46 50 33 bf
       -0.044813722 -0.202744 -0.007031931 -0.7004436

input_layer.bias f4 [32]
000000 e2 38 1e 3f 30 70 26 3c 56 30 27 bf 81 d5 3d 3f
       0.61805546 0.0101585835 -0.6530813 0.74153906
000010 43 06 1a 3e e4 ac 00 3f 19 72 64 3e d4 0d 40 3e
       0.15041451 0.5026381 0.2230915 0.18755275
000020 3b f4 03 3f 43 3d 14 3e 8b 19 60 be 36 d7 18 be
       0.5154454 0.14476494 -0.21884744 -0.14925846
000030 6b 6a d8 3e 56 60 6e be ee 8e c7 be 11 76 3f 3f
       0.4226869 -0.23278937 -0.38976234 0.7478953
000040 c5 fa 8c be 7e 65 16 3f a6 cd 4a be 3a 29 12 bf
       -0.27535072 0.58748615 -0.19805011 -0.57094157
000050 8a 15 9d bc 43 f6 ab be c8 11 49 3d 81 2f 09 be
       -0.01917531 -0.3358632 0.049089223 -0.13397028
000060 8b 0e ef 3e b3 da 18 3e 9e a5 0a 3f 23 d5 0c bf
       0.46690783 0.14927177 0.5415896 -0.5501272
000070 53 01 23 3e 68 fe 2b bf 60 d8 1e bf 5b d6 17 3f
       0.15918474 -0.6718507 -0.6204891 0.59311455

hidden_layers.0.weight f4 [32, 32]
000000 f5 a5 b7 3d 49 33 4d 3d d7 ee b4 3d 54 2a 07 bd
       0.08967201 0.050097737 0.088346176 -0.03299935
000010 f8 d7 0b 3e 8b bd 9c bd 2d 42 73 bd 58 3c d0 bc
       0.13656604 -0.0765334 -0.059389282 -0.0254194
000020 c2 df 96 bd 23 98 3b be 9b fb 80 3d 02 f5 54 3d
       -0.07366897 -0.18319754 0.0629799 0.05199147
000030 76 92 00 bc 56 0e eb 3d ce 87 26 be c1 56 f3 3d
       -0.007847419 0.11477344 -0.16262743 0.11881781
000040 c3 cb 0d 3e f2 f8 30 be 18 0a 1e be 7d e0 13 3e
       0.1384726 -0.17282465 -0.15433538 0.14441104
000050 d2 a3 f4 3c 62 74 00 bc 31 dd 3c bd ab 73 8f 3d
       0.029863272 -0.007840248 -0.046109382 0.07004484
000060 b2 47 14 3e 08 3b 0f 3d 1b 53 16 be 02 a5 ae bd
       0.14480475 0.034968406 -0.1468014 -0.085275665
000070 32 e3 0b 3e ca cb 11 3e ab 9a 80 3d ec 39 83 3d
       0.13660887 0.14237896 0.062795006 0.06407532
000080 96 ec 99 bd 43 ee 3c 3e 35 e9 1b 3e d2 87 9a bd
       -0.07515828 0.18450265 0.1522568 -0.07545437
000090 24 32 f6 bd b5 30 ce 3c 77 6a 60 3e b7 aa 80 3d
       -0.12021282 0.02516971 0.21915613 0.06282561
0000a0 26 27 6e 3e a8 88 2a 3e 9a 27 55 3d b7 e4 48 3d
       0.23257121 0.16653693 0.05203972 0.049046244
0000b0 87 3f 33 3e 1e 9a 1c 3d 50 88 9b bd 41 24 b8 bd
       0.17504703 0.038232915 -0.07594359 -0.0899129
0000c0 a6 f0 8b 3d 42 1a 15 3d ff 0e 24 3d ae 6a 04 be
       0.068330094 0.036401995 0.040053364 -0.1293132
0000d0 17 fa 73 3e d7 08 95 bd fe 80 5e 3e c0 8d 80 bd
       0.2382587 -0.07277077 0.21728894 -0.06277037
0000e0 2a aa 51 3e 57 21 6c 3d f3 27 d2 3d 48 54 08 be
       0.20475069 0.057648983 0.10261526 -0.13313401
0000f0 a1 75 da bd 9e ef 01 be 82 63 d8 3d 1f 2d 4c 3e
       -0.10666967 -0.12689063 0.105658546 0.19939087
000100 84 90 1c 3e ad 0e 02 3e d2 79 70 3d 63 99 58 bd
       0.15289503 0.12700911 0.058709927 -0.052880656
000110 fa e7 c5 bd d1 fb a4 bd cb ae ca bd 24 f1 b1 3d
       -0.09663387 -0.08055843 -0.0989662 0.08688572
000120 69 d0 0f 3e 4a a1 15 3d c7 cb 1e 3e b5 ea 07 be
       0.14044346 0.03653077 0.15507422 -0.13273127
000130 ec 75 21 bc b8 47 f8 3d f4 5c 8a bd e5 c4 ce bc
       -0.009854775 0.12123054 -0.06756011 -0.025240371
000140 12 1a 6b 3c 46 ca 08 3e d5 28 19 bb 5f f6 18 bd
       0.014349477 0.13358411 -0.0023370285 -0.037344333
000150 09 d0 e8 bd cc 66 53 3d 10 9f 07 3e 8a 11 4c 3e
       -0.113678046 0.051611707 0.13244271 0.19928566
000160 d9 e0 3b bd 47 cc 91 bd 3c 05 a3 bd 88 88 35 3d
       -0.04586873 -0.07119041 -0.07959983 0.04431966
000170 38 72 16 3d 9b a8 c5 3c 00 80 18 be 4a 56 0f 3e
       0.03673002 0.024128249 -0.14892578 0.1399776
000180 17 51 75 3e 4b 60 b5 bd e7 5c c8 3d 59 8a 5f 3e
       0.23956715 -0.08856257 0.09783345 0.21830119
000190 6e 90 60 3e 1f 2a d7 bd 36 9e 1b 3e a4 29 17 3e
       0.21930096 -0.10506081 0.15197071 0.14761978
0001a0 bd dd 58 3e 76 b7 0d 3e ad 6b 1d be 8c 6a e7 3c
       0.21178336 0.13839516 -0.15373106 0.028249048
0001b0 e4 cf 0b bd c8 96 d4 3c 37 2d 5b 3d 30 53 a4 bd
       -0.034133807 0.025950804 0.053509917 -0.08023679
0001c0 16 01 b4 bd 4a f8 84 bd bc 44 4f 3d c7 07 30 3e
       -0.087892696 -0.0649267 0.05060266 0.17190467
0001d0 0a 85 a0 3d 1e 35 59 3d ef 69 63 3e 6c 94 7b 3d
       0.07837875 0.053029172 0.22208379 0.061420843
0001e0 17 d9 cc 3c ee 49 3a 3e 03 61 2e 3e a2 35 c7 bd
       0.02500586 0.18192264 0.17029195 -0.097270265
0001f0 23 9b 5f 3e de 54 08 be 5b 40 f7 3d bd 1f cc 3d
       0.21836524 -0.13313624 0.12072822 0.09966991
000200 18 1f e8 bd 1f 8a e4 bd fb b3 87 bd 77 a6 6d 3d
       -0.11334056 -0.11159157 -0.066261254 0.05802008
000210 36 b7 c1 3d 51 e6 ef bd 59 ab 11 3e 73 3a 08 be
       0.09458773 -0.11713851 0.1422552 -0.13303547
000220 f5 84 f4 bd f2 92 f0 bc a0 1e 87 bd 2a 22 ec bc
       -0.11939422 -0.029366944 -0.06597638 -0.028824884
000230 0e af f7 bd d7 84 03 3e 7f 1a de 3d 03 b6 c8 3d
       -0.12093936 0.12843643 0.108448975 0.09800341
000240 35 ce b7 bd c0 54 b8 bd 2f 93 a8 bc 61 ad 09 3e
       -0.08974878 -0.0900054 -0.020577995 0.13445045
000250 74 f7 b9 3d 56 7c 36 3e 7b 61 fd bd af 1b 4a 3e
       0.09080401 0.17820868 -0.123721085 0.19737123
000260 82 a9 3e be f6 76 01 3d a9 74 87 bd ab 58 3e 3e
       -0.1861935 0.03160759 -0.06614048 0.18588512
000270 af 56 a3 bd 84 97 2e 3e d1 ed 26 3e 55 e7 22 3e
       -0.07975518 0.17049986 0.16301657 0.15908559
000280 0b bc 30 3e 7a 99 ea 3c e0 37 a7 bd 33 2a 78 3e
       0.17259233 0.028637636 -0.08164954 0.24234848
000290 a5 ca d3 3d 91 d2 32 3e 2c 24 a7 3d 34 a9 84 3d
       0.10341386 0.17463137 0.08161196 0.064775854
0002a0 63 ac 71 3e 9f c7 40 3e 1e 34 16 be 73 bc 63 3e
       0.23600917 0.1882615 -0.14668319 0.22239856
0002b0 f2 7d 77 3d 58 de 9a 3c ca 75 5e bd 1f 90 0c bd
       0.060422845 0.01890485 -0.05431155 -0.034317132
0002c0 54 bd 0a be ca a8 56 3d 7f 06 68 3c 33 ea 2b 3e
       -0.13548785 0.052407064 0.014161705 0.16788559
0002d0 8e b2 52 3e 6f 51 6f 3d 55 fc 02 3e 54 07 62 b8
       0.20575926 0.05842727 0.1279157 -5.3889424e-05
0002e0 11 e1 05 bd d1 36 48 3e 95 38 12 bd 1c 65 d5 bc
       -0.032685343 0.19552161 -0.035698492 -0.02604919
0002f0 5c 01 c1 bd 20 d5 00 3e 0f 53 0f 3e f1 db a7 bd
       -0.094240874 0.125813 0.13996528 -0.08196247
000300 6a 5b 13 3e 7a 1b 1f 3e e3 e2 22 3e dc e1 2a be
       0.1439034 0.15537825 0.15906863 -0.16687721
000310 c0 5f f8 3d 07 74 bd 3d 35 c1 37 be 58 c7 09 be
       0.12127638 0.09250646 -0.17944796 -0.1345495
000320 82 d4 de bd d9 5b cc 3d 21 2a d2 bd 25 2d 09 bd
       -0.108803764 0.09978456 -0.10261942 -0.03349032
000330 cb 86 0e 3e e1 79 a3 bd dc df b6 bd e0 9e 23 be
       0.13918607 -0.07982231 -0.089294165 -0.15978575
000340 ef e1 2d 3d 7a 81 ba bd ed d8 f5 3d f1 b5 92 bd
       0.042451795 -0.09106727 0.12004266 -0.07163609
000350 38 65 2a bd ca bb 20 3e a3 54 ea 3d 28 6d 91 3d
       -0.041600436 0.15696636 0.114419244 0.07100898
000360 c2 b5 e3 3d f4 e3 e0 3d 57 ce ef 3d 2d 23 c2 bc
       0.11118652 0.109809786 0.11709278 -0.023698414
000370 9a aa 26 3d 39 d5 cf bd e4 c2 09 be 75 dc 7e bd
       0.040690042 -0.10148091 -0.13453251 -0.062221963
000380 c5 ea f2 3d ef 0d f8 3d 97 09 13 3d ce 7b cd 3d
       0.11861185 0.121120326 0.035897817 0.100333795
000390 97 6e dc 3d 76 7a ca bd 82 17 05 be 0b 47 c8 bd
       0.10763281 -0.09886639 -0.12997249 -0.09779175
0003a0 0e 60 21 3e cf f7 16 be d2 03 a9 bd 1e cb 34 3e
       0.15759298 -0.14742969 -0.08252682 0.17655608
0003b0 14 32 29 be a8 d1 1d be f4 52 2b be 96 e2 08 be
       -0.1652301 -0.15412009 -0.16730863 -0.13367686
0003c0 16 52 8c 3d 94 17 df bd 70 01 35 3e bd 57 bf 3d
       0.06851594 -0.10893169 0.1767633 0.093429066
0003d0 58 59 45 bd f1 cd 25 bc 08 1f 2a be a2 b4 33 3e
       -0.048180908 -0.010119901 -0.166134 0.17549375
0003e0 d5 d1 1f be b1 02 bc bd 88 d4 21 be 5d f1 14 3d
       -0.15607388 -0.09180201 -0.1580373 0.036362994
0003f0 23 49 cf bc 29 85 da bb 78 e0 f1 bd 6d 00 73 3a
       -0.025303429 -0.006668706 -0.11810392 0.0009269778

hidden_layers.0.bias f4 [32]
000000 91 6e 0a be 19 8f 6d 3e 1e 78 dc 3c 52 fe 1e 3e
       -0.1351874 0.23199119 0.026912745 0.15526703
000010 f8 d9 6b 3d b7 12 69 3e 5e db f9 bd 31 1b 1f 3e
       0.057580918 0.22761045 -0.12200044 0.15537716
000020 ba 0c 5b 3e 2f 0f 92 3d 62 7a b7 bd bf 28 09 3e
       0.21391574 0.07131802 -0.089588895 0.1339445
000030 d3 1b 22 3d 02 15 ef 3d 51 dd 84 3c 0c 62 0a 3e
       0.039577316 0.11673929 0.016218813 0.13513964
000040 0d 05 2e be d7 fc 9f bb b2 75 00 bb 50 39 ba bd
       -0.16994114 -0.004882436 -0.0019601402 -0.09092963
000050 7f a1 db bd c4 ab e7 bc 84 a8 2c 3d 5d 1d dc bd
       -0.10724162 -0.028280146 0.042152897 -0.10747788
000060 49 4b 31 3c 46 fc d9 3d 77 c5 90 bd 8a 48 73 3d
       0.010821172 0.106438205 -0.070689134 0.05939535
000070 c2 ff 24 be bf d6 5c 3e 1a 80 20 bc ce 10 3b bd
       -0.16113189 0.21566294 -0.009796167 -0.045670323

hidden_layers.1.weight f4 [32, 32]
000000 f6 41 03 3e 63 00 44 3c 16 25 1d 3d ea b6 3f 3e
       0.12818131 0.011962983 0.038365446 0.1872212
000010 c3 5d fd 3d d3 24 a2 3d 04 28 85 bd ce 52 2d be
       0.12371399 0.0791718 -0.06501773 -0.16926119
000020 0e bf ac 3d dd 8e e4 3d 41 7b 92 bd 9a 09 18 3d
       0.08434878 0.111600615 -0.07152415 0.03711853
000030 cd a7 c9 3d c1 cb 52 3e a2 98 e2 3b 94 37 ad bd
       0.098464586 0.20585538 0.006915168 -0.08457866
000040 8f 77 84 3d 84 fe c6 bd 94 26 af bd a2 46 e2 3d
       0.064681165 -0.09716514 -0.0855228 0.110486284
000050 bd 03 b4 bd 40 bc 8a 3d f3 c4 18 bd 1d ad 59 3e
       -0.087897755 0.06774187 -0.0372972 0.21257444
000060 3b 10 90 3c 2b f3 b1 bd 10 55 c5 bc ab 24 8f bd
       0.017585864 -0.08688959 -0.024088413 -0.06989416
000070 ae c8 0d be e6 b0 0b 3e 94 bf e8 bc d3 8b f2 bd
       -0.13846084 0.136417 -0.028411664 -0.118430756
000080 25 57 e4 bd 72 00 ee 3d 79 db ed bd be 3a bf 3c
       -0.11149434 0.11621179 -0.11614127 0.02334344
000090 18 d0 45 3e 83 a6 d4 3c 39 1b 28 be 7e 28 0b 3e
       0.19317663 0.025958305 -0.16416635 0.13589665
0000a0 4c 5e 2a 3c 86 d2 0b 3c 7a 60 bb 3d ac 13 8d bd
       0.010398459 0.008534079 0.09149261 -0.06888518
0000b0 6c de 29 be 35 f4 38 3d 2b 79 ce bd f9 bf 6f bd
       -0.16588753 0.04515477 -0.10081705 -0.05853269
0000c0 49 86 e1 bd cb e3 06 be fa dd 17 3e 6d ea 1e 3e
       -0.11011941 -0.13172834 0.14830771 0.15519114
0000d0 e0 bc 3c bb 91 fd 80 3d 0c 40 1f 3a 13 fb 1d bc
       -0.0028799102 0.06298364 0.00060749124 -0.00964238
0000e0 4c d7 22 be 76 37 78 bc f5 c2 2f 3e b6 cb 1f be
       -0.15902442 -0.015149942 0.17164214 -0.15605053
0000f0 18 c3 26 3e bf ee 2a 3e 22 87 3a 3d b3 9c d9 37
       0.1628536 0.16692637 0.04553903 2.5941385e-05
000100 c0 95 01 be 96 c5 de 3d 0c 45 15 3e e3 83 27 3e
       -0.12654781 0.1087753 0.1457712 0.16358905
000110 52 07 70 3d cc 07 3d 3e 05 c4 8d bd ce b1 0e 3e
       0.05860073 0.18460006 -0.069221534 0.13935015
000120 41 a2 bf bd 14 5c f0 bc 3b b3 d0 3d 19 be fd 3d
       -0.09357119 -0.029340781 0.101904355 0.12389774
000130 f3 40 e3 bc f6 1e 20 bd ec 98 98 bd 46 47 da 3c
       -0.027740931 -0.039092027 -0.074510425 0.026645314
000140 72 05 94 bb 69 b4 20 3e a9 dc 19 bd f7 9b 04 3d
       -0.0045172507 0.15693821 -0.037563954 0.032375302
000150 b5 de 56 bc 3a 6f 08 3b b0 5d 04 be cf 18 40 3e
       -0.013114621 0.002081825 -0.12926364 0.18759464
000160 29 66 1e be f0 97 bc bd d7 1e d1 bd 23 b0 0b 3e
       -0.15468659 -0.09208667 -0.1021096 0.1364141
000170 ac 74 21 3e 8e bc bb 3d a7 54 99 bd 13 29 a7 bd
       0.15767163 0.09166823 -0.07486849 -0.08162131
000180 2d 52 c6 bc 3e 29 da 3d 2b 3c 1d bd 3a 3e 53 bd
       -0.024209106 0.106523976 -0.03838746 -0.051573016
000190 32 ef 44 3e 93 d1 d1 bd a3 eb a8 bd 21 d2 9a bd
       0.19231871 -0.10245051 -0.08248069 -0.0755961
0001a0 bd e1 4c bc 21 fb 61 3e 3e d0 fc 3d 7c e0 48 3c
       -0.012504992 0.22068454 0.123444065 0.0122605525
0001b0 6e cc 0f be 5b 8b dc bd 93 ec f4 3d 1e 15 05 3e
       -0.14042827 -0.107687674 0.119591855 0.12996337
0001c0 63 04 21 be 03 80 50 3e 9f 69 a2 3d f1 97 1e 3e
       -0.1572433 0.20361333 0.07930302 0.15487649
0001d0 e8 d2 3a 3e 70 3f 95 3d 70 21 02 be c2 79 d5 3d
       0.18244517 0.0728749 -0.12708068 0.10423614
0001e0 63 be 92 3d 62 83 a6 bd 81 d6 0d 3e 85 5e 3e 3d
       0.0716522 -0.08130528 0.13851358 0.04647686
0001f0 1c c1 89 3d db e2 72 3d 4c b9 51 3e a0 de 01 3e
       0.06726286 0.059298377 0.20480841 0.12682581
000200 3e a4 49 3d 7f 3b ea 3d a8 a5 df 3d 22 50 38 3e
       0.0492289 0.11437129 0.10920268 0.17999318
000210 d8 aa 2d 3e 47 c2 12 be 8a 6a d8 3d 36 4d 9b bc
       0.16959703 -0.14331923 0.10567196 -0.018957715
000220 d7 7e ea 3d 8c 42 02 be 00 69 ee bd 81 54 2a 3e
       0.11449974 -0.12720698 -0.11641121 0.16633798
000230 e6 08 59 bd e8 2d d1 3d f2 0b 83 bd b6 5c a1 bd
       -0.052987 0.10213834 -0.06398763 -0.07879011
000240 aa 8c a0 ba 3c 7f a6 bd ea e8 b6 bd f2 c0 15 be
       -0.0012248952 -0.08129737 -0.089311436 -0.14624384
000250 1d 53 4f 3e 4d 9c 9e 3d 49 16 6c 3d af 37 28 3e
       0.20246549 0.07744656 0.05763844 0.16427492
000260 88 db 46 3e 53 c1 bc 3d f1 f3 ed bd 2f 1b 08 be
       0.19419682 0.09216561 -0.11618794 -0.1329162
000270 59 92 34 3e e8 34 89 3d de 0b f4 3d 5d c1 e4 3d
       0.17633952 0.06699544 0.11916326 0.111696936
000280 61 39 f4 bd 30 8c a6 bd e4 8d 03 3c 0e bd 11 be
       -0.11925007 -0.081322074 0.008029435 -0.14232275
000290 45 42 53 3d 3f 4b 07 be 89 b1 3c bd 5e 21 70 bd
       0.05157687 -0.13212298 -0.04606775 -0.05862557
0002a0 c7 73 1d 3e 14 8c 07 be ce 34 06 3e 43 56 1e be
       0.15376197 -0.1323703 0.13106081 -0.15462594
0002b0 ea 26 89 3d 07 94 29 3e e6 22 2d 3e ee e6 c0 3c
       0.066968754 0.16560374 0.16907844 0.023547616
0002c0 61 f8 57 bd f4 2f 93 bd 9b 5a e7 3d 05 46 7a bd
       -0.052727107 -0.07186881 0.112965785 -0.061101932
0002d0 ff 48 06 3d 7d 85 22 3d 89 c1 f0 3d 60 09 88 3d
       0.03278446 0.039678086 0.11755664 0.06642413
0002e0 37 df 0c 3e 8b 40 c3 3d ec 47 9a bc 26 91 e4 3d
       0.13757025 0.09533795 -0.018833123 0.11160497
0002f0 17 2b f7 bd f0 76 27 3e 31 52 c8 bc 87 9a 6b bc
       -0.120687656 0.16353965 -0.024453254 -0.014380104
000300 e4 90 a8 3d ef be 34 3d e1 ae 78 3d b3 cd 32 3e
       0.08230761 0.0441274 0.060713653 0.1746128
000310 e0 ba 4d 3e bb c2 ed bd d7 a6 3f 3e cc 85 1c 3c
       0.20090818 -0.116094075 0.18715988 0.009553384
000320 59 12 45 bd e7 0b f4 bd 63 c6 86 bd cc 31 2c 3e
       -0.0481132 -0.11916333 -0.06580808 0.16815871
000330 d7 cd e0 bd e2 de 1e 3e fc ca ce bd c1 ba fe bb
       -0.10976761 0.1551471 -0.1009731 -0.0077737276
000340 a3 db ba bd 5b 18 d5 bc ce a5 ec bb 06 e6 df bc
       -0.09123924 -0.02601259 -0.007221914 -0.027331363
000350 2b 63 24 bd 47 42 2a be 34 9a 53 bd 5f 4a 27 3e
       -0.040133636 -0.16626845 -0.05166073 0.16336964
000360 df 68 cd 3d b2 15 1e 3e 57 36 10 3e 0c cb 23 3e
       0.10029768 0.15437964 0.14083229 0.15995425
000370 56 93 39 3d 9d fd c1 bd f9 11 9b bd 9a c2 0e 3e
       0.045306526 -0.09472201 -0.075717874 0.13941422
000380 7a ef 03 be 1d 57 4d 3e 14 1e bf 3d 86 cd 60 3e
       -0.12884322 0.20052762 0.09331909 0.21953401
000390 00 27 fb 3d 56 da 4e 3e 49 a9 05 be 7d 72 e9 3d
       0.12263298 0.20200476 -0.13052858 0.1139879
0003a0 c9 80 05 3e c8 04 20 3c 1c e8 d0 3d 32 aa 52 3d
       0.13037409 0.009766765 0.10200521 0.051431842
0003b0 91 23 39 bb 78 b0 fe 3d ea 33 90 bd 8a 92 fa 3a
       -0.002824996 0.124360025 -0.07041152 0.0019117158
0003c0 23 34 a5 bd d4 a3 25 3e cb 69 46 3e 03 04 a0 bd
       -0.08066585 0.16175777 0.19376294 -0.07813265
0003d0 c4 c7 eb 3d 75 e3 1c be bb df 87 3d c4 c5 4a 3d
       0.11512712 -0.15321143 0.0663447 0.04950501
0003e0 f2 06 98 3d a9 cb 4e 3b 61 1e f1 ba b3 db b2 3c
       0.074232 0.0031554496 -0.0018395894 0.021833276
0003f0 71 f5 38 3e 3e ee 8c bc ed e0 ab 3c 98 02 0d be
       0.18062378 -0.017203446 0.020981276 -0.1377052

hidden_layers.1.bias f4 [32]
000000 0e ee 0d 3e ed 96 bb bd 99 15 b6 bd 37 4c 4e 3e
       0.13860342 -0.09159646 -0.08890838 0.20146261
000010 1c aa b7 bd 21 d6 57 bd 10 91 3c 3d 9b b4 0e bd
       -0.08967993 -0.052694444 0.04603678 -0.034840208
000020 bb 14 45 3d 37 0e 9e bc 5d 8c c8 bd a6 48 8f 3e
       0.048115473 -0.019293888 -0.09792397 0.27985114
000030 02 40 54 3d f8 dc 21 3d 33 44 fe bc 0a 1c b9 bc
       0.051818855 0.039517373 -0.03103838 -0.022596378
000040 97 e1 1a bc 8d 2e a6 3d 6d e3 ee bd 92 92 b1 bd
       -0.009453199 0.081143476 -0.11664472 -0.08670534
000050 ab ce f5 bd 27 5f e0 3d 9d 66 43 3e d0 05 12 3d
       -0.120023094 0.10955649 0.19082113 0.035650074
000060 ee 1c 35 3e 52 bb 55 3d df 54 81 3e ae d6 fa bd
       0.17686817 0.052180596 0.25260064 -0.12247978
000070 3d 60 ae 3d 9e 2a 2c 3e 34 27 38 3d 0d c5 ac 3d
       0.0851445 0.16813132 0.044959262 0.08436022

hidden_layers.2.weight f4 [32, 32]
000000 db a0 0c 3e 9d 21 94 bc 30 fe a8 3d 35 63 c7 bc
       0.13733236 -0.018082434 0.082516074 -0.024339298
000010 ce 36 07 3e 52 f7 76 3b 15 24 45 3e ef 1b bd 3d
       0.132045 0.0037684035 0.19252045 0.092338435
000020 68 02 98 3d 66 c9 0f 3c 6e b8 30 3b 78 a0 88 3e
       0.07422334 0.0087760445 0.0026965397 0.26684928
000030 00 5f c5 bd f0 17 dc 3d a5 2f cf 3c 2d fa 83 3d
       -0.096372604 0.10746753 0.025291273 0.064442016
000040 d6 f0 eb 3d 4a 89 8e 3c 5b 45 0e 3e c0 f9 1e bd
       0.11520545 0.017399449 0.13893645 -0.0388124
000050 d2 88 ce 3d d3 ba 41 3d 20 56 6c 3e ab 87 8f 3e
       0.1008469 0.04729731 0.23079729 0.28033194
000060 d9 5b a0 3d 5a 78 12 3e cb d0 c6 3d b5 e7 15 3e
       0.078300186 0.14303723 0.09707793 0.1463917
000070 a0 cc 0c 3d 4d c0 c2 3d 6a e0 80 3e de 9c d7 3d
       0.034374833 0.09509335 0.25171214 0.10527967
000080 46 5a aa 3d 8c 6b 43 3e c3 eb 5c 3d 3c 7a 08 3d
       0.083179995 0.19083995 0.053935777 0.033319697
000090 25 83 59 3e f0 06 2c 3e 24 75 08 be b5 b2 66 3e
       0.21241434 0.16799521 -0.13325936 0.22529109
0000a0 b2 76 93 3d 05 a6 3c 3e c9 c3 d2 3d 81 fc 1a 3e
       0.07200374 0.18422706 0.10291249 0.15135385
0000b0 90 9c cf bd 00 c3 8c bd 06 79 80 3d 3a ae 07 be
       -0.10137284 -0.06873131 0.062730834 -0.13250056
0000c0 eb 50 28 3e cf ce 37 bd e7 73 e2 bc 07 32 0b be
       0.16437118 -0.044874962 -0.027643157 -0.13593303
0000d0 03 1b 9f bd 97 4d 1f 3e 24 e6 50 bd c1 64 0f 3d
       -0.07768824 0.15556942 -0.05100073 0.035008196
0000e0 27 76 c9 bd 05 e9 50 3d 8f 8c 91 bd f1 84 c1 bc
       -0.09836989 0.051003475 -0.071068875 -0.023622962
0000f0 7b a7 16 be d3 6c 5f bd 1c c8 c7 3c 28 61 ee bd
       -0.14712326 -0.054547142 0.024387412 -0.11639625
000100 2b 23 61 bd e0 6c 02 be b0 68 dc 3b 31 a2 b2 3d
       -0.05496518 -0.12736845 0.006726347 0.08722342
000110 bb fc 00 be a8 48 40 3e 45 79 07 3d 74 08 8f 3d
       -0.12596409 0.18777716 0.033074636 0.06984034
000120 a2 d5 20 3d 5c 29 04 be c4 dc d7 bd 97 4b c0 bc
       0.039266236 -0.12906402 -0.105401546 -0.023473544
000130 57 97 96 3d 2e 63 a1 3c df 29 d7 3d cb 07 1e 3e
       0.073530845 0.019700613 0.10506033 0.1543266
000140 db 52 a8 bd 00 50 c7 3d 44 7e 28 3e 61 6b f0 3d
       -0.082189284 0.09732056 0.16454417 0.11739231
000150 79 47 aa 3d b9 eb 35 bd 91 23 a9 bc bd 3a 1e 3e
       0.083144136 -0.044414256 -0.020646842 0.15452094
000160 5e f3 f8 3d d6 b6 1b 3e 48 ca 83 bc fe 44 0d 3e
       0.121557936 0.15206465 -0.016087666 0.1379585
000170 0d d9 0f be 95 ff 16 be 7b 14 40 3e f2 cb 21 3e
       -0.14047642 -0.14745934 0.18757813 0.15800455
000180 ec 01 50 3d c3 46 e4 3b da db 40 3e 48 f1 f0 3c
       0.050783083 0.0069664433 0.18833867 0.029411927
000190 c8 6b f3 3d 80 95 1f 3e 68 67 b7 bd eb 51 13 bd
       0.11885792 0.15584373 -0.0895527 -0.035966795
0001a0 61 77 1b 3e ae ee e0 3d f8 4d 52 bd 3a fa dd bc
       0.15182258 0.109830245 -0.051343888 -0.027096856
0001b0 12 39 58 3d 6a 4f a1 3d 9a 8b dd bc cb bb 05 3e
       0.0527888 0.07876475 -0.027044106 0.13059919
0001c0 bb 13 d4 3d 01 c0 b9 bd 05 62 d5 bd 38 71 bc 3c
       0.10355326 -0.09069825 -0.10419086 0.023003206
0001d0 34 6c 15 be 5c ef 91 3c 96 a8 8e 3d 21 5d fd bd
       -0.14592057 0.01781433 0.06965749 -0.123712786
0001e0 aa f1 89 bd 7e b8 85 3d 9b 22 7c bd 2d 44 c9 3d
       -0.06735547 0.0652933 -0.06155644 0.098274566
0001f0 e7 9a f1 bc 18 06 ee bd fd 5e 26 3e a2 c1 84 bd
       -0.029492809 -0.11622256 0.16247173 -0.06482245
000200 a0 39 24 3e ef b1 aa 3d 03 bb dc bd 5e 7a 9e bd
       0.16037607 0.083347194 -0.10777857 -0.077381834
000210 85 fa 08 3c 5e ac 72 bc 75 f3 ed bd 15 ee 90 bd
       0.00836051 -0.014811603 -0.11618701 -0.070766605
000220 1b a0 b5 bd e1 5d ea bd b5 c7 f2 3d 4c 76 a8 bd
       -0.08868428 -0.11443687 0.11854497 -0.08225688
000230 23 7f d4 bb 3a 4e d4 3d 05 c2 ef bd 41 e5 01 3e
       -0.0064848824 0.10366483 -0.11706928 0.1268511
000240 63 2f 18 be 5c 56 2e bd 93 74 e9 bd 67 5e bf 3d
       -0.14861827 -0.042562827 -0.11399188 0.09344178
000250 b2 1f 25 3e 24 e0 9a 3c 3d e4 a4 3d d9 60 a9 3c
       0.16125372 0.018905707 0.080513455 0.020676063
000260 c1 36 41 bc 6d dc 20 3e 73 34 aa bb 7e 08 23 be
       -0.0117928395 0.15709086 -0.0051942407 -0.15921208
000270 ae 8c 42 3b 31 cd 5f bd 6c e6 da 3d 74 cc 90 3c
       0.0029685902 -0.054639045 0.10688481 0.017675616
000280 66 b2 37 bc 4c e7 4e bd 62 ce 49 bd f3 07 3d be
       -0.011211967 -0.05051355 -0.049269088 -0.18460064
000290 b5 8e ee bc 0f 0d f9 bd 59 c9 1b 3e cf 83 f7 bd
       -0.029120782 -0.12160694 0.15213527 -0.12085687
0002a0 a4 1b ab 3d d8 08 f9 3d d0 bb 0c be 27 a3 9a 3d
       0.083548814 0.1215989 -0.1374352 0.0755065
0002b0 71 0c 0b bd b6 9b 96 3c 33 c9 a7 bd 56 f0 b1 3d
       -0.033947412 0.018384796 -0.081926726 0.086884186
0002c0 2d e8 2b be 77 41 56 bd c6 2e 43 3b c9 23 96 3d
       -0.16787787 -0.052308526 0.0029782518 0.07331044
0002d0 76 d7 03 3e 1a 74 09 be 2e cc ed 3d 29 a8 b9 bd
       0.1287516 -0.13423195 0.1161121 -0.09065277
0002e0 bc be 0a 3e f4 46 c7 3d 91 16 8d 3d e6 69 0f be
       0.13549322 0.0973033 0.0688907 -0.14005241
0002f0 70 8c 12 3d eb 93 be 3d 93 e5 cd 3d 16 da 8b 3d
       0.035778463 0.09305557 0.100535534 0.06828706
000300 9c 9a 03 be 08 29 db bd 16 94 bf 3d 16 4a 0a be
       -0.12851948 -0.107011855 0.09354417 -0.13504824
000310 0d 1e 22 3e af d4 0f 3d ad 6a 27 3e 04 b0 03 be
       0.15831776 0.03511494 0.16349287 -0.12860113
000320 05 f7 2a 3e 8c af 2f 3d 5a d2 2b 3e 08 e4 e3 3d
       0.16695793 0.042892024 0.16779462 0.11127478
000330 00 4a 9a bd 0b 68 dd bc 4f 5f fc 3d 38 c7 1b be
       -0.07533646 -0.02702715 0.12322866 -0.15212715
000340 c7 86 f7 bd 96 d3 03 be 4f 3a d1 bd 95 a4 1c 3e
       -0.120862536 -0.12873682 -0.102161996 0.15297158
000350 e2 5f 33 be db d7 c8 ba ab 84 a5 3c 25 a0 a5 3d
       -0.17517045 -0.0015323119 0.020204863 0.08087186
000360 2e ca 1b be af 1b cd 3d 55 5e b1 bc a6 6a a9 bd
       -0.15213844 0.10015046 -0.021651426 -0.08272295
000370 8b 35 99 3d 1c b3 ae 3d 3c f0 27 3e df f6 2d be
       0.07480916 0.08530256 0.16400236 -0.16988705
000380 8b 70 5a 3e 4f 35 2b 3d 1a 74 10 bd 8d 21 7c 3d
       0.21331994 0.041798886 -0.035266973 0.061555434
000390 51 2f 11 3d 56 78 22 3e 1a 3b 99 bd 0a e8 03 3e
       0.035445515 0.15866217 -0.07481976 0.12881485
0003a0 bf 70 14 3e 35 4c c9 bd ce 61 40 bd 1e 96 ad bb
       0.14496134 -0.098289885 -0.046968274 -0.0052974364
0003b0 f0 59 5a bd 6b 47 79 3d a8 cc 75 bd e4 23 0e be
       -0.053308427 0.060859125 -0.06000963 -0.13880879
0003c0 1d c6 56 3e 47 5d 88 3e 1a c4 4b 3b f0 3b d7 bd
       0.20974012 0.26633665 0.0031092227 -0.10509479
0003d0 77 71 0a 3e 6f bd a4 3c b9 7e e4 3d 49 24 4a 3e
       0.13519846 0.02010986 0.11156983 0.19740404
0003e0 2b a0 fa 3d 14 54 19 3e 84 3b 77 3e 4c 6a b2 3d
       0.12237581 0.1497348 0.24143797 0.08711681
0003f0 63 eb 0b be f7 94 6f 3e 7a ae 92 3d d7 67 8d 3d
       -0.13664012 0.2339667 0.07162185 0.069045715

hidden_layers.2.bias f4 [32]
000000 ba 49 80 3e 79 d2 fc 3d f5 25 27 3a 9c 91 3c 3e
       0.2505625 0.12344832 0.00063762005 0.1841492
000010 d3 0c e8 bc 60 f1 24 be 38 9f 37 bc 5d d4 24 3e
       -0.028326428 -0.16107702 -0.011207394 0.16096635
000020 b8 fd 12 3e 3e f8 79 ba 64 fb 0c bd a8 c0 3a be
       0.14354599 -0.0009535587 -0.034419432 -0.18237555
000030 45 36 08 3d 05 64 6b 3e 61 8d 9c 3c c8 b7 1c be
       0.03325488 0.22987373 0.019110383 -0.15304482
000040 e0 be 37 3d e0 8a 59 bc c9 8b f6 bd e9 54 c2 bd
       0.044859767 -0.013277739 -0.12038381 -0.094888516
000050 e9 e9 71 3d 98 1f 34 be 6b e6 e7 3d 6c ea 3d 3e
       0.059060965 -0.17590177 0.113232456 0.18546456
000060 9d 1f a7 bd d4 ac c9 3d de a6 06 3c f4 b4 63 bd
       -0.08160327 0.098474175 0.008218495 -0.055592492
000070 5e b7 e9 3d b3 ad 1d be 7e 61 5e 3d 5c a8 85 3e
       0.11411928 -0.15398292 0.054292195 0.2610501

output_layer.weight f4 [2, 32]
000000 c3 14 75 bd d8 c6 80 3d 9f cb 23 3e 21 9c 46 3e
       -0.059834253 0.062879264 0.15995644 0.19395496
000010 66 e9 04 be d0 8f 08 be 5e c9 3e bd 7f 3e 9a 3c
       -0.1297966 -0.1333611 -0.046578757 0.018828629
000020 45 68 07 3e c7 dc 02 3e 64 06 b4 bb a2 a4 00 bd
       0.1322337 0.12779532 -0.005493926 -0.031407006
000030 3b 8d d9 bd 97 d5 1a bd 99 e8 21 be 8b 03 f6 bd
       -0.10622641 -0.03780135 -0.15811385 -0.120123945
000040 45 03 45 3d 10 25 a8 bd 36 32 e7 3c 29 97 6e 3d
       0.04809882 -0.08210194 0.028222185 0.058249626
000050 d1 db 5a 3d 90 e6 52 bd 13 9b a6 bd 44 f0 4e 3d
       0.05343229 -0.051489413 -0.08135047 0.050522104
000060 0b 53 17 3e 8e e7 a1 bd 26 78 d1 3d 99 f5 33 3e
       0.14777772 -0.07905494 0.102279946 0.17574157
000070 08 65 28 3e 4a 90 8f bb f7 1c 0b 3e 38 63 c7 3c
       0.1644479 -0.0043812143 0.13585268 0.024339303
000080 90 63 6b be ea 79 1c be c0 06 9c be 73 96 22 be
       -0.22987199 -0.15280882 -0.304739 -0.15877704
000090 41 a3 80 bd 6d bd 98 3d 0f 92 e6 bd f6 ba 81 be
       -0.06281138 0.07458005 -0.11258327 -0.25337952
0000a0 29 84 98 bc 0c 57 35 be f4 d8 a3 3c 6b c1 96 3d
       -0.018617706 -0.17708987 0.020000912 0.0736111
0000b0 27 c1 07 be b7 44 1c be 7e 5a 2c 3e 4a d1 e3 bd
       -0.13257276 -0.15260588 0.16831395 -0.11123903
0000c0 4e 64 85 be 8c 0f 66 3d 5d 5a 2e be 5a 3e e4 bd
       -0.2605309 0.05616717 -0.17026658 -0.11144705
0000d0 82 5c 13 be cd 6c d1 bd cc f2 86 be d0 d5 5e be
       -0.14390758 -0.1022583 -0.26357114 -0.2176125
0000e0 db 5f af bd f5 79 af bb d8 86 8f 3d d5 ce d8 bb
       -0.08563205 -0.0053551146 0.07008141 -0.006616453
0000f0 fd 93 29 be 83 94 09 3e f6 97 ed bd 0d 2c 9c be
       -0.1656036 0.13435559 -0.1160125 -0.30502358

output_layer.bias f4 [2]
000000 15 d1 a0 bd 6a bc a0 bd
       -0.07852379 -0.07848437
