synthetic_flows_raw/saved_models/phi_only_0.6.pt (torch, 16963 bytes, 10 tensors)

input_layer.weight f4 [32, 3]
0.040930662 -0.09460545 0.18716973 -0.05203127 0.5739177 0.3527442 -0.09540096 0.01543343
-0.24641788 -0.5195092 0.018368866 0.43676615 0.53762656 -0.017653221 0.06044734 -0.08388679
0.50321954 0.52910215 -0.56608707 -0.24504338 0.5667035 0.06821617 0.27405247 -0.19646211
0.55652386 0.53200454 -0.29156873 -0.571242 -0.114475645 -0.12590164 0.24949123 0.54564214
0.42719138 -0.2493704 -0.001544879 0.21769895 -0.38666707 -0.414975 0.5051485 0.23584715
0.37190795 -0.18294373 0.42993456 0.41522902 0.1602513 0.4567914 -0.3992304 0.5929865
0.003761904 0.14055043 -0.5070204 0.3201694 -0.033566806 -0.30712828 0.23606992 0.34656867
-0.22088559 0.50608003 0.2840727 0.030536702 0.5275265 0.22387336 -0.5545475 0.037375446
-0.36360234 0.29612336 0.20781319 0.21570195 0.24722819 0.31566483 -0.052054968 0.52377236
-0.5348328 -0.47824013 0.44631973 -0.5296987 0.17132989 0.45939657 0.4152475 0.15745334
0.44229823 0.0851635 -0.45805863 0.35475555 0.31951982 -0.10809286 0.4263132 -0.39418408
-0.1201216 0.053499687 -0.21515302 0.307701 -0.42807057 0.04227307 0.27791333 0.40023586
00000000: e9a6 273d 81c0 c1bd 6ca9 3f3e be1e 55bd
00000010: 45ec 123f e39a b43e 9461 c3bd 7fdc 7c3c
00000020: f854 7cbe 8efe 04bf 4e7a 963c d09f df3e
00000030: e5a1 093f 7d9d 90bc a197 773d d6cc abbd
00000040: ffd2 003f 3d73 073f 15eb 10bf a7ec 7abe
00000050: 7b13 113f ebb4 8b3d 9b50 8c3e 5d2d 49be
00000060: 5978 0e3f 7331 083f 7f48 95be ea3c 12bf
00000070: 3572 eabd 5cec 00be a17a 7f3e 34af 0b3f
00000080: d4b8 da3e f45a 7fbe 8a7d caba 79ec 5e3e
00000090: 3af9 c5be 9a77 d4be 6951 013f ea81 713e
000000a0: b86a be3e 9a55 3bbe 6220 dc3e e698 d43e
000000b0: eb18 243e 90e0 e93e ed67 ccbe f7cd 173f
000000c0: 478a 763b 74ec 0f3e 17cc 01bf 3eed a33e
000000d0: 597d 09bd eb3f 9dbe 50bc 713e 7371 b13e
000000e0: d52f 62be 768e 013f fa71 913e 1b28 fa3c
000000f0: fa0b 073f 0f3f 653e d3f6 0dbf ff16 193d
00000100: 162a babe 7b9d 973e fbcc 543e f9e0 5c3e
00000110: 6329 7d3e d29e a13e 9737 55bd f215 063f
00000120: cdea 08bf e4db f4be 0584 e43e 569a 07bf
00000130: 1a71 2f3e 0736 eb3e 529b d43e 733b 213e
00000140: ea74 e23e 336a ae3d a986 eabe 85a2 b53e
00000150: 1a98 a33e ca5f ddbd b945 da3e 7fd2 c9be
00000160: 5002 f6bd 7d22 5b3d 1351 5cbe fc8a 9d3e
00000170: 112c dbbe 8726 2d3d a84a 8e3e b7eb cc3e

input_layer.bias f4 [32]
-0.5702991 -0.41487944 0.1985486 -0.21261224 -0.04033566 0.55659103 -0.21027556 0.38790414
-0.47038758 0.433999 0.6391541 -0.44079652 0.18997847 0.20242186 -0.33805144 0.3187392
-0.1969087 -0.50777966 -0.5709277 0.19460987 0.34692782 -0.39237317 -0.30844766 -0.0014187098
0.64142406 0.5062785 -0.008825423 -0.10549297 0.4560518 0.04996648 -0.2893846 -0.2088401
00000000: 1fff 11bf 146b d4be 5350 4b3e 06b7 59be
00000010: 0137 25bd c07c 0e3f 7a52 57be 5f9b c63e
00000020: a4d6 f0be 1e35 de3e 9a9f 233f 15b0 e1be
00000030: b789 423e ad47 4f3e 1415 adbe c931 a33e
00000040: 6fa2 49be d9fd 01bf 5128 12bf cf47 473e
00000050: 86a0 b13e 23e5 c8be daec 9dbe 00f4 b9ba
00000060: 5e34 243f 789b 013f 8298 10bc b30c d8bd
00000070: 9f7f e93e a7a9 4c3d 382a 94be 2eda 55be

hidden_layers.0.weight f4 [32, 32]
0.040372793 0.15264644 0.1788139 -0.08419143 0.12910725 0.15586545 -0.15461236 0.1233886
0.13531655 0.0090042185 -0.09999422 -0.1320211 0.12089071 -0.018822372 0.12888813 -0.008354506
0.17039846 0.17099008 -0.13938387 0.021503523 0.13528225 -0.15995832 -0.057793863 0.08102326
-0.04999066 0.1246979 0.08751184 0.039901078 0.035727553 -0.0384939 -0.026860172 0.16945381
0.083805405 0.14730924 0.1639754 0.06307858 -0.119315 -0.05327223 -0.103659794 0.16733648
-0.09396218 -0.034080904 0.05407345 -0.037598856 0.18661526 0.06706174 0.016177109 0.048297994
0.11762969 -0.13533413 -0.04364494 0.10312193 0.04576991 -0.066813335 -0.044564854 0.10208616
-0.020444764 0.021192528 -0.10221997 0.0082491925 0.11288891 0.11776684 0.123907514 0.0017234965
-0.11143898 0.17719695 -0.0989747 0.052316803 0.02380704 0.012987718 0.13757363 0.17087767
0.17462754 0.16695592 0.16727465 0.17673773 0.008646432 0.20592995 -0.07386823 0.16886027
-0.054483704 -0.14546445 0.053297758 0.09919341 -0.050660633 0.14975098 0.07165837 -0.09027986
-0.044578295 0.23911957 -0.05253658 -0.010292562 -0.057900127 0.1817618 -0.07568682 -0.032832317
0.034699857 -0.012998214 -0.13644096 -0.15976176 -0.15705527 -0.016421234 0.11144887 -0.1701431
-0.10101784 -0.05531833 -0.1733877 0.096191816 0.07745735 -0.04162524 -0.1149177 -0.12775573
0.026351452 0.15058494 0.14951807 0.0795758 -0.00934149 0.06878089 -0.17053433 -0.16556948
-0.1624753 0.11360548 -0.0030929253 0.16455613 0.13953392 0.06701585 -0.16516225 0.15420704
-0.07095426 -0.06516188 -0.13570817 -0.0054890937 -0.16465333 0.013699853 -0.07688082 0.1405673
0.017280553 -0.10165532 -0.17462422 -0.15858822 0.03991304 0.16163936 0.090221286 -0.012007023
-0.1106574 -0.08933136 -0.15050563 0.040417 -0.071837604 0.15689728 -0.09656516 0.05366823
-0.01805616 0.00886676 0.10344154 0.08386753 -0.17070562 0.07437995 -0.010743217 0.054147203
-0.007167872 -0.12092186 0.08793185 0.08053692 -0.09572726 0.1055176 0.118112236 -0.14859188
-0.15197977 -0.18789238 0.016903102 0.16234474 -0.10017035 -0.12078717 0.08083 -0.028688535
0.121226795 0.13605644 0.114044145 0.054611605 -0.048592832 0.0847806 -0.14038868 -0.1841083
0.0060912957 -0.024037583 -0.11454133 0.007849155 0.011554047 0.055368826 -0.11326669 0.081427164
0.0965292 -0.033461884 0.20342211 0.045091275 -0.15836608 0.041241646 -0.037398435 0.18169375
-0.16025932 0.0024876765 -0.04803518 -0.16269381 0.106258914 0.06766948 0.15125984 0.0675562
0.029429505 0.055658057 -0.10323945 0.03911846 0.11470614 0.107136615 -0.031132106 0.037146773
0.10212109 -0.016464747 -0.14859454 0.050848126 -0.038043506 0.1081402 -0.10833797 0.14397164
0.10803727 -0.09674341 -0.08874812 0.13332117 -0.071845286 -0.083624 -0.14035654 0.068533726
0.003912481 0.15358149 -0.034345698 0.08564616 0.08229091 -0.03347542 0.01621042 -0.10916276
-0.02298606 0.10581541 0.14392395 -0.086097635 0.063248135 0.109295644 -0.10194885 -0.20561951
-0.027756246 -0.09191671 -0.051521797 0.13089906 -0.026799394 0.027874688 -0.03811526 0.115685366
00000000: f15d 253d 594f 1c3e fe1a 373e 8e6c acbd
00000010: b134 043e 319b 1f3e b452 1ebe 2ab3 fc3d
00000020: 6c90 0a3e 6e86 133c c5c9 ccbd 8a30 07be
00000030: 8c95 f73d 6031 9abc 40fb 033e 57e1 08bc
00000040: ef7c 2e3e 0618 2f3e a5ba 0ebe 2828 b03c
00000050: 6e87 0a3e 1dcc 23be 42b9 6cbd 86ef a53d
00000060: 02c3 4cbd 9d61 ff3d 6839 b33d 506f 233d
00000070: 0e57 123d c8ab 1dbd dd09 dcbc 4d85 2d3e
00000080: 2ba2 ab3d 3cd8 163e 2be9 273e 582f 813d
00000090: 6c5b f4bd fb33 5abd 964b d4bd 415a 2b3e
000000a0: 3e6f c0bd 6b98 0bbd 1f7c 5d3d 4201 1abd
000000b0: 1218 3f3e aa57 893d db85 843c 1ed4 453d
000000c0: d6e7 f03d 0895 0abe 09c5 32bd 9731 d33d
000000d0: 3b79 3b3d 6ed5 88bd a389 36bd 8c12 d13d
000000e0: c77b a7bc f49b ad3c b458 d1bd 9f27 073c
000000f0: 4d32 e73d be2f f13d 39c3 fd3d f2e6 e13a
00000100: 1f3a e4bd 1e73 353e 3fb3 cabd 254a 563d
00000110: fb06 c33c 70ca 543c 1ae0 0c3e 8efa 2e3e
00000120: 90d1 323e 7ef6 2a3e 0c4a 2b3e bcfa 343e
00000130: c4a9 0d3c 4ddf 523e 3a48 97bd b5e9 2c3e
00000140: 4e2a 5fbd a2f4 14be c04e 5a3d ea25 cb3d
00000150: 8681 4fbd 5258 193e a0c1 923d a6e4 b8bd
00000160: bb97 36bd c3db 743e 9930 57bd 22a2 28bc
00000170: af28 6dbd c41f 3a3e b101 9bbd 2e7b 06bd
00000180: 7021 0e3d 76f6 54bc 2eb7 0bbe 9698 23be
00000190: 19d3 20be d385 86bc 4e3f e43d fe39 2ebe
000001a0: 71e2 cebd 7995 62bd 8c8c 31be 3700 c53d
000001b0: f6a1 9e3d 3a7f 2abd f959 ebbd 66d2 02be
000001c0: 00df d73c f032 1a3e 441b 193e a3f8 a23d
000001d0: 0d0d 19bc ffdc 8c3d 8da0 2ebe 0c8b 29be
000001e0: ed5f 26be fda9 e83d adb2 4abb 6781 283e
000001f0: fbe1 0e3e 9b3f 893d 4b20 29be 73e8 1d3e
00000200: 7850 91bd 9773 85bd 15f7 0abe dbdd b3bb
00000210: e29a 28be 5975 603c b173 9dbd e0f0 0f3e
00000220: f28f 8d3c aa30 d0bd b1d0 32be f364 22be
00000230: db7b 233d ca84 253e f0c5 b83d 1bb9 44bc
00000240: 59a0 e2bd 5cf3 b6bd 261e 1abe 4c8c 253d
00000250: 981f 93bd aea9 203e f4c3 c5bd 38d3 5b3d
00000260: 83ea 93bc e345 113c 28d9 d33d bdc2 ab3d
00000270: 74cd 2ebe 8454 983d 5104 30bc 75c9 5d3d
00000280: 78e0 eabb e1a5 f7bd 9d15 b43d 8af0 a43d
00000290: a70c c4bd 9d19 d83d d4e4 f13d 7828 18be
000002a0: 96a0 1bbe dc66 40be 6078 8a3c b33d 263e
000002b0: 1d26 cdbd 445f f7bd 338a a53d 3804 ebbc
000002c0: c145 f83d 6152 0b3e fa8f e93d 6bb0 5f3d
000002d0: 4709 47bd 74a1 ad3d 0dc2 0fbe e386 3cbe
000002e0: 7e99 c73b 77ea c4bc a594 eabd be99 003c
000002f0: 304d 3d3c 6cca 623d 5ef8 e7bd 49c3 a63d
00000300: 1ab1 c53d 540f 09bd e34d 503e a1b1 383d
00000310: b82a 22be 00ed 283d 1a2f 19bd ed0d 3a3e
00000320: 051b 24be 4908 233b 89c0 44bd 3599 26be
00000330: 469e d93d 4c96 8a3d dce3 1a3e e85a 8a3d
00000340: 2516 f13c b4f9 633d 346f d3bd ae3a 203d
00000350: 0deb ea3d 716a db3d c208 ffbc 3727 183d
00000360: dd24 d13d 14e1 86bc 2b29 18be 2046 503d
00000370: 82d3 1bbd 9c78 dd3d 4ce0 ddbd 4d6d 133e
00000380: a542 dd3d 6921 c6bd 93c1 b5bd 5885 083e
00000390: 9f23 93bd 0f43 abbd a0b9 0fbe 695b 8c3d
000003a0: 4534 803b 7744 1d3e 13ae 0cbd 4167 af3d
000003b0: 2388 a83d 861d 09bd b7cb 843c ba90 dfbd
000003c0: 434d bcbc c0b5 d83d cd60 133e f553 b0bd
000003d0: 3d88 813d 65d6 df3d 8fca d0bd ec8d 52be
000003e0: 1161 e3bc d43e bcbd 8508 53bd 670a 063e
000003f0: 678a dbbc 7559 e43c bf1e 1cbd 73ec ec3d

hidden_layers.0.bias f4 [32]
-0.103258274 0.25746623 0.13889773 -0.06570331 0.09971165 0.083009265 0.018425858 0.045428153
-0.00026820556 0.11011397 -0.06548372 -0.13710113 0.19181058 -0.12397282 0.24374832 0.19950128
0.24333344 -0.08499123 0.13441136 -0.040531285 0.010060735 0.24087785 0.0579309 -0.10391221
0.015453376 -0.15526485 0.027579632 0.079496935 0.22508511 -0.021732794 -0.15762237 0.15510042
00000000: 1379 d3bd 9dd2 833e 353b 0e3e 758f 86bd
00000010: 9f35 cc3d c300 aa3d d3f1 963c df12 3a3d
00000020: f19d 8cb9 6f83 e13d 541c 86bd 3d64 0cbe
00000030: fe69 443e 76e5 fdbd 2999 793e 104a 4c3e
00000040: 672c 793e e20f aebd 22a3 093e 2204 26bd
00000050: c8d5 243c afa8 763e f448 6d3d edcf d4bd
00000060: 2830 7d3c c0fd 1ebe aeee e13c 4acf a23d
00000070: b67c 663e f908 b2bc c267 21be a5d2 1e3e

hidden_layers.1.weight f4 [32, 32]
-0.0152191585 0.13293163 0.20877431 -0.014513773 -0.056647547 0.057856463 -0.028257376 -0.05124438
0.19042481 0.2214435 -0.16016679 -0.13074274 0.06865059 0.12787212 -0.08249492 0.21966666
0.18414225 0.16684823 0.22305751 0.048313245 0.08512201 0.15377653 -0.08905687 -0.09688131
0.15787554 -0.16725278 0.081822276 0.0429309 0.19889829 0.13412432 -0.07157747 0.024356222
-0.0639214 0.10448697 0.025839819 0.16700402 -0.105240785 0.02938435 0.1594423 0.074418865
-0.16755545 0.048213597 -0.03308573 0.11687462 -0.15495057 -0.078113005 0.09624411 -0.104256265
0.06562339 0.035400607 -0.06062992 0.1536418 -0.11609589 0.07283572 -0.13878581 -0.061365705
-0.070296325 0.07205781 -0.0915496 0.041180495 0.11118161 -0.008859536 0.0124826105 -0.08438706
-0.031821027 0.113933735 -0.020209065 -0.16521685 0.14289176 0.004047596 -0.16186745 -0.048603084
-0.14893562 -0.14027968 0.15719257 0.001568516 -0.17730217 -0.117433265 -0.043829776 0.14399956
0.09381678 -0.114122435 0.14994977 0.04786797 0.09044398 -0.03813264 -0.18626061 0.107566215
-0.119909175 0.06548934 0.021504022 -0.18095763 0.1346503 -0.022759458 0.13559571 0.121890455
-0.008740827 0.26083425 0.21782738 -0.14833549 0.051725246 0.11347253 0.11579397 0.031944927
0.034886573 0.06298033 -0.026397433 -0.06147364 0.006641358 0.10764319 0.04500261 -0.036288314
0.15060876 0.1740194 0.12982123 0.117094934 -0.043255143 0.24941106 0.08341915 -0.12113366
-0.14468585 -0.13469233 0.12295178 0.22519839 0.20677246 0.06159325 -0.045759 0.08549745
0.13511413 0.22503628 0.11751917 0.032575972 0.09982692 0.0077619953 0.0026316436 -0.002238729
0.074759856 0.12287282 0.0064044534 0.13043912 -0.11373384 0.022386026 0.16639866 0.22401607
0.15073055 0.047545414 0.072936445 0.18977994 -0.049873933 0.1996521 -0.0057857614 0.073096275
-0.0097462125 -0.09839284 -0.109086305 0.11649869 0.12945838 -0.07219726 0.015869658 0.11037374
-0.12269235 0.14313959 0.044741064 0.15526319 0.089667 0.08341156 -0.060087226 0.11440519
-0.07448402 -0.117637426 0.00046827487 -0.16870184 -0.11220794 -0.08294501 -0.14780085 0.1642918
-0.039246213 0.14041398 0.07222872 -0.13711964 0.1574787 0.120248415 -0.008939394 0.01157143
-0.06041028 0.042135827 -0.044393044 0.037931897 -0.04635172 0.14756654 -0.06286314 -0.10399374
-0.023344485 -0.10235063 -0.049428076 0.14185944 -0.05388506 -0.08191975 0.0075108 -0.101631895
-0.1185087 0.089904934 -0.035911664 -0.07766692 -0.16330834 0.09906971 -0.13100979 0.023342546
-0.023309251 0.016741065 -0.17676803 -0.15950015 0.09757086 0.12332189 0.16925554 -0.12497282
0.17556982 0.12873481 0.08255206 0.002786855 -0.1218188 -0.013825894 0.11225071 -0.122655585
-0.15286921 -0.09265445 0.11500467 0.10753401 0.004246611 -0.16202435 -0.16062933 -0.019590339
0.031442814 0.034614448 -0.017038496 -0.07875587 -0.15055326 0.16350652 -0.011683801 0.10447997
0.055251926 -0.011457578 -0.10633237 -0.021082865 0.003289962 -0.15750746 0.029266791 -0.16542722
-0.009498782 0.16680478 0.08644126 -0.0022070196 0.025183879 -0.14759448 -0.10339797 -0.009276311
00000000: c759 79bc 3b1f 083e efc8 553e 2dcb 6dbc
00000010: 4207 68bd e6fa 6c3d 037c e7bc a1e5 51bd
00000020: b9fe 423e 16c2 623e c302 24be 6de1 05be
00000030: ae98 8c3d e9f0 023e 19f3 a8bd 4cf0 603e
00000040: c98f 3c3e 43da 2a3e 3069 643e 1ce4 453d
00000050: 7354 ae3d 9877 1d3e 7363 b6bd b569 c6bd
00000060: 20aa 213e 5044 2bbe 7092 a73d 50d8 2f3d
00000070: feab 4b3e e357 093e 3597 92bd b386 c73c
00000080: 39e9 82bd 44fd d53d 07ae d33c 1a03 2b3e
00000090: 7b88 d7bd 73b7 f03c d844 233e eb68 983d
000000a0: a893 2bbe 9f7b 453d e784 07bd f65b ef3d
000000b0: 5dab 1ebe b6f9 9fbd a21b c53d 4f84 d5bd
000000c0: 8e65 863d 3a00 113d 1457 78bd 4754 1d3e
000000d0: afc3 edbd e52a 953d de1d 0ebe 9b5a 7bbd
000000e0: 85f7 8fbd 0c93 933d 5b7e bbbd e1ac 283d
000000f0: 2fb3 e33d 9627 11bc dd83 4c3c 1fd3 acbd
00000100: c456 02bd 1756 e93d 7b8d a5bc 9b2e 29be
00000110: 3852 123e b2a1 843b 95c0 25be 0714 47bd
00000120: 9482 18be 7aa5 0fbe 17f7 203e aa96 cd3a
00000130: b38e 35be da80 f0bd da86 33bd 9f74 133e
00000140: 0323 c03d 06b9 e9bd 6f8c 193e 3411 443d
00000150: b23a b93d f930 1cbd 1abb 3ebe ad4b dc3d
00000160: f192 f5bd 461f 863d 3429 b03c f54c 39be
00000170: c5e1 093e 0b72 babc 9ad9 0a3e b4a1 f93d
00000180: b035 0fbc 118c 853e 240e 5f3e 42e5 17be
00000190: dadd 533d 4964 e83d 6425 ed3d afd8 023d
000001a0: 39e5 0e3d d5fb 803d 6e3f d8bc c9cb 7bbd
000001b0: c09f d93b 0874 dc3d a854 383d 0ea3 14bd
000001c0: 2f39 1a3e 2432 323e dbef 043e 78cf ef3d
000001d0: 4e2c 31bd 9d65 7f3e a9d7 aa3d ed14 f8bd
000001e0: 8728 14be c9ec 09be 25ce fb3d 689a 663e
000001f0: 29bc 533e 3449 7c3d ca6d 3bbd 4919 af3d
00000200: 5c5b 0a3e e96f 663e e4ad f03d 626e 053d
00000210: 0e72 cc3d 5658 fe3b a777 2c3b a4b7 12bb
00000220: b21b 993d bfa4 fb3d 73dc d13b d591 053e
00000230: 4aed e8bd e662 b73c 6964 2a3e 7864 653e
00000240: 1c59 1a3e fbbe 423d b45f 953d ac55 423e
00000250: 9c48 4cbd 9a71 4c3e 7c96 bdbb 80b3 953d
00000260: 94ae 1fbc 2f82 c9bd a468 dfbd dd96 ee3d
00000270: bd90 043e 28dc 93bd 1601 823c a10b e23d
00000280: 2046 fbbd 2f93 123e 6842 373d 50fd 1e3e
00000290: 55a3 b73d aed3 aa3d 061e 76bd 454d ea3d
000002a0: 148b 98bd e4eb f0bd ca82 f539 2dc0 2cbe
000002b0: 47cd e5bd 13df a9bd 1b59 17be 1c3c 283e
000002c0: a3c0 20bd afc8 0f3e a7ec 933d 1769 0cbe
000002d0: 1942 213e cd44 f63d 8976 12bc 1896 3d3c
000002e0: c570 77bd 9e96 2c3d 7bd5 35bd 7a5e 1b3d
000002f0: 4ddb 3dbd af1b 173e 64be 80bd acfa d4bd
00000300: ef3c bfbc 359d d1bd 1875 4abd 9a43 113e
00000310: 95b6 5cbd 8bc5 a7bd 281d f63b 6224 d0bd
00000320: b0b4 f2bd 1420 b83d 1c18 13bd d60f 9fbd
00000330: 4d3a 27be 0fe5 ca3d 6e27 06be de38 bf3c
00000340: 0bf3 bebc 8f24 893c ae02 35be 0254 23be
00000350: 3bd3 c73d 3090 fc3d 5351 2d3e c0f1 ffbd
00000360: 93c8 333e 0fd3 033e 0e11 a93d aba3 363b
00000370: 237c f9bd 0186 62bc b3e3 e53d da32 fbbd
00000380: bf89 1cbe 9ec1 bdbd 9287 eb3d cb3a dc3d
00000390: 2827 8b3b b6e9 25be 047c 24be eb7b a0bc
000003a0: 2eca 003d e1c7 0d3d 5194 8bbc c24a a1bd
000003b0: a22a 1abe 416e 273e 6a6d 3fbc 98f9 d53d
000003c0: d84f 623d 91b8 3bbc c9c4 d9bd f9b5 acbc
000003d0: 679c 573b a349 21be e9c0 ef3c c165 29be
000003e0: c8a0 1bbc dfce 2a3e 1e08 b13d a5a3 10bb
000003f0: 6c4e ce3c 0223 17be 51c2 d3bd abfb 17bc

hidden_layers.1.bias f4 [32]
0.19306259 -0.11002112 -0.022362506 -0.009568808 0.121711105 -0.11088086 -0.06571294 -0.14361951
-0.14710127 0.23109959 0.15785424 0.03991943 -0.03538099 0.09779914 0.10600331 -0.06007638
-0.12752078 0.16165498 0.20799719 0.03777966 -0.0514489 -0.043860298 0.21709937 -0.086131394
-0.053315725 -0.13320333 0.23185281 0.019476574 0.06925624 -0.077909306 -0.05432558 -0.13059686
00000000: 33b2 453e c152 e1bd 9331 b7bc 7dc6 1cbc
00000010: ac43 f93d 8115 e3bd 8294 86bd fe10 13be
00000020: b7a1 16be 5fa5 6c3e 8ba4 213e 8e82 233d
00000030: a8eb 10bd ea4a c83d 4318 d93d a612 76bd
00000040: cf94 02be e288 253e 37fd 543e d8be 1a3d
00000050: 15bc 52bd dba6 33bd 4c4f 5e3e a865 b0bd
00000060: 9761 5abd 7466 08be d36a 6d3e 568d 9f3c
00000070: 37d6 8d3d ea8e 9fbd 8084 5ebd 2fbb 05be

hidden_layers.2.weight f4 [32, 32]
-0.10172428 -0.17554554 -0.1652396 -0.059442166 -0.08932965 -0.09513332 -0.16394106 -0.10200022
0.069384165 -0.058198664 -0.11774358 -0.117220074 -0.12167154 0.09749388 -0.07586197 0.14801644
-0.16355987 0.029598972 -0.1314574 0.11849982 0.07266011 0.15710768 -0.026397582 -0.13358335
-0.16661234 0.1639236 -0.14696957 -0.009301367 0.03748231 0.076637655 -0.15103605 0.13519977
0.0042682956 -0.12192156 -0.091370426 -0.13482258 -0.08382667 0.16154076 -0.12695071 0.0027212533
0.0072457595 -0.17407657 -0.11406511 0.05658992 0.008130654 0.025292935 0.12524402 -0.09575686
-0.12534264 -0.061284088 0.016367517 -0.099776275 -0.115821056 -0.010815408 0.14283073 0.064895734
0.07555634 0.04659216 -0.17191139 -0.03840307 -0.0007714981 -0.13801849 -0.17140955 0.0962037
-0.106256165 0.051686756 -0.065911464 0.019913435 0.1954833 -0.11925686 0.07423031 -0.085736044
-0.05797101 0.015990902 0.2114024 0.06128964 0.07931973 0.001704775 0.12729186 0.049297005
0.054017298 -0.12200156 -0.05344711 0.13038163 -0.13929896 -0.032678135 0.1123226 0.1383916
0.012881852 0.033638444 0.19311273 0.0016533821 0.15296942 -0.012461629 0.04796792 0.16108948
0.22315356 -0.16120982 -0.119471565 0.10980021 0.22716454 -0.08132638 0.044244707 -0.035705734
-0.06658897 0.17488112 0.14187948 0.18364885 -0.11293961 -0.060883876 0.09209684 0.11712576
-0.037671737 -0.062341657 -0.009848857 -0.09044834 0.08246309 0.10687106 0.006131012 -0.10324514
-0.060220413 0.00045874427 -0.0813344 0.08954584 0.17977142 -0.108673014 0.097575344 0.00096477405
0.16242492 -0.046677325 0.02018216 -0.009774388 0.028291445 0.050294913 -0.10544813 -0.09209628
-0.027886664 0.23213992 0.124179155 0.18262 0.0053444155 0.09531935 0.011028875 0.045204792
-0.15739563 0.2566536 0.102478065 -0.13811187 0.097192995 0.048883654 0.055230577 0.1354108
-0.01893605 -0.15001237 0.16122517 -0.033980858 0.1879365 -0.15919033 -0.025705826 0.17325847
0.07893858 0.05545972 -0.1608714 -0.019318448 0.09877607 -0.04388941 0.04814249 -0.15290406
-0.09419576 -0.14748025 -0.14529961 0.029236821 0.1627885 -0.11682797 -0.016734032 0.16719879
-0.009698832 -0.18176399 0.10367245 -0.09964157 0.09859001 0.1529227 -0.033701476 0.11205643
0.041783802 -0.008168176 -0.12548359 0.008384805 -0.021397037 -0.107628234 0.14839679 -0.023869554
0.052293546 -0.038265713 0.046482038 0.13639916 0.14978194 0.049981356 -0.097042635 0.061430506
0.099945046 0.0075109056 0.044607397 0.24407251 -0.106566384 0.13556427 0.15180974 -0.04004359
-0.061664127 0.24982715 0.17496158 -0.0067390576 -0.111752525 0.016162893 -0.025821462 0.16963139
0.10061427 -0.10980796 0.24067433 0.06044645 -0.03985327 0.08348007 -0.043493144 0.046364143
-0.113208264 -0.056481324 -0.16342321 0.030235989 0.0504221 -0.07523189 0.15544769 -0.10860143
0.1058494 -0.17766784 0.13210823 0.006989946 -0.00811414 -0.18241057 0.077697106 -0.10804985
-0.05636873 0.035280317 0.013896148 0.14881338 0.12264935 0.08923901 -0.17072266 0.052181534
0.084053986 0.101569414 -0.17343196 0.024144927 0.112030566 -0.12872353 -0.10686026 -0.108806655
00000000: d254 d0bd 36c2 33be 9234 29be a179 73bd
00000010: 77f2 b6bd 42d5 c2bd 2ae0 27be 7ee5 d0bd
00000020: 4919 8e3d b961 6ebd 8c23 f1bd 1411 f0bd
00000030: ee2e f9bd dfaa c73d 855d 9bbd 9f91 173e
00000040: 3d7c 27be 8b79 f23c c59c 06be 09b0 f23d
00000050: d3ce 943d d6e0 203e be3f d8bc 13ca 08be
00000060: 6d9c 2abe 97db 273e 317f 16be c364 18bc
00000070: 0d87 193d 34f4 9c3d 32a9 1abe cf71 0a3e
00000080: 0fdd 8b3b 03b2 f9bd 6b20 bbbd ee0e 0abe
00000090: 51ad abbd f16a 253e 5eff 01be 0e57 323b
000000a0: d66d ed3b 2141 32be f89a e9bd d5ca 673d
000000b0: 6f36 053c 2133 cf3c f83f 003e 2c1c c4bd
000000c0: d259 00be 0605 7bbd 2c15 863c 8157 ccbd
000000d0: 9733 edbd 1c33 31bc 3842 123e 0ee8 843d
000000e0: 48bd 9a3d 6cd7 3e3d 8a09 30be 8a4c 1dbd
000000f0: 5c3e 4aba b854 0dbe fc85 2fbe 7206 c53d
00000100: d59c d9bd 7eb5 533d 97fc 86bd 8021 a33c
00000110: c62c 483e f13c f4bd 1006 983d 6196 afbd
00000120: 0373 6dbd 5aff 823c df79 583e d80a 7b3d
00000130: 6272 a23d c272 df3a cc58 023e a8eb 493d
00000140: 3e41 5d3d f4db f9bd 5beb 5abd c382 053e
00000150: 63a4 0ebe 82d9 05bd 6409 e63d 87b6 0d3e
00000160: 670e 533c 77c8 093d 58bf 453e 4cb6 d83a
00000170: 04a4 1c3e dc2b 4cbc 027a 443d a4f4 243e
00000180: 5e82 643e 3014 25be 82ad f4bd efde e03d
00000190: d29d 683e 728e a6bd f039 353d 2d40 12bd
000001a0: cc5f 88bd 0914 333e db48 113e 720e 3c3e
000001b0: e24c e7bd 5f61 79bd 459d bc3d a1df ef3d
000001c0: ae4d 1abd f759 7fbd 1a5d 21bc fb3c b9bd
000001d0: 69e2 a83d 37df da3d a8e6 c83b 3072 d3bd
000001e0: aea9 76bd 9d83 f039 a692 a6bd cf63 b73d
000001f0: 0016 383e f58f debd 95d5 c73d e4e8 7c3a
00000200: b852 263e b930 3fbd 0f55 a53c c124 20bc
00000210: 76c3 e73c 0a02 4e3d 30f5 d7bd f99c bcbd
00000220: 9372 e4bc 16b6 6d3e a451 fe3d bd00 3b3e
00000230: 3520 af3b cb36 c33d 74b2 343c a928 393d
00000240: 522c 21be 1a68 833e 05e0 d13d 336d 0dbe
00000250: 1f0d c73d 3a3a 483d 7539 623d 21a9 0a3e
00000260: c61f 9bbc d89c 19be 3618 253e 832f 0bbd
00000270: 6d72 403e ca02 23be 0695 d2bc ab6a 313e
00000280: 8daa a13d bb29 633d 79bb 24be b941 9ebc
00000290: 1c4b ca3d 62c5 33bd 0f31 453d e292 1cbe
000002a0: b5e9 c0bd 1005 17be 6cc9 14be 0f82 ef3c
000002b0: 07b2 263e 8143 efbd cf15 89bc 2936 2b3e
000002c0: dae7 1ebc 5720 3abe 3952 d43d e110 ccbd
000002d0: 8fe9 c93d c597 1c3e 8f0a 0abd d77d e53d
000002e0: 7e25 2b3d d0d3 05bc c57e 00be 6c60 093c
000002f0: d748 afbc 316c dcbd 54f5 173e 158a c3bc
00000300: c231 563d 82bc 1cbd f363 3e3d 39ac 0b3e
00000310: 7060 193e 40b9 4c3d 4abe c6bd 8e9e 7b3d
00000320: fdaf cc3d 0b1e f63b 3fb6 363d 25ee 793e
00000330: 7a3f dabd 5cd1 0a3e 0374 1b3e bf04 24bd
00000340: 8693 7cbd b0d2 7f3e 2129 333e 50d3 dcbb
00000350: 82de e4bd 0b68 843c 8887 d3bc dab3 2d3e
00000360: db0e ce3d ffe2 e0bd 5573 763e b296 773d
00000370: 2f3d 23bd 99f7 aa3d de25 32bd 54e8 3d3d
00000380: bcd9 e7bd f658 67bd 6a58 27be 77b1 f73c
00000390: 6787 4e3d 2d13 9abd ae2d 1f3e 6d6a debd
000003a0: 92c7 d83d 8fee 35be 6147 073e eb0b e53b
000003b0: 2bf1 04bc d6c9 3abe a91f 9f3d 3d49 ddbd
000003c0: e6e2 66bd 1882 103d abac 633c 8962 183e
000003d0: 952f fb3d f1c2 b63d ecd1 2ebe 4ebc 553d
000003e0: 7f24 ac3d a003 d03d 2698 31be 95cb c53c
000003f0: 4870 e53d 1ad0 03be 8dd9 dabd 06d6 debd

hidden_layers.2.bias f4 [32]
0.026718087 -0.051281776 0.15693837 0.19383898 0.10049177 0.072335266 0.2029635 0.032132395
0.2568373 0.053360596 -0.10637624 -0.16956216 -0.071787365 -0.14390306 -0.04539229 0.05251708
-0.025690649 0.008433268 -0.038367096 0.27278578 -0.034618113 0.15488552 0.10616287 -0.09858993
-0.12266033 0.06938975 0.14133684 -0.015485607 -0.15513839 0.11368916 0.08141575 -0.13094787
00000000: e4df da3c d70c 52bd 74b4 203e ba7d 463e
00000010: a1ce cd3d 8324 943d aad5 4f3e 429d 033d
00000020: 2e80 833e a490 5a3d c9db d9bd b4a1 2dbe
00000030: 4105 93bd 535b 13be 44ed 39bd 261c 573d
00000040: 3275 d2bc b12b 0a3c d126 1dbd 94aa 8b3e
00000050: b9cb 0dbd 4f9a 1e3e eb6b d93d 84e9 c9bd
00000060: 5735 fbbd 371c 8e3d 9bba 103e 58b7 7dbc
00000070: 99dc 1ebe ddd5 e83d 4dbd a63d 3317 06be

output_layer.weight f4 [2, 32]
-0.16935326 0.07163036 -0.09032011 0.22854957 -0.05608563 -0.15703116 0.15096174 -0.08150449
0.17390725 0.18506612 -0.069462135 0.01751172 -0.031442318 0.19347002 0.11714254 0.091442525
0.03656826 0.23030193 -0.15227057 -0.004991084 0.045062926 -0.11930969 0.21985452 0.16821176
0.06811698 0.004281809 0.14586161 0.19041826 -0.009994388 0.22866488 -0.15914358 -0.12112056
0.11565232 0.057870258 -0.26775038 -0.32989404 -0.32523978 -0.15539968 -0.26207602 -0.06579696
-0.31172338 -0.07227825 0.1368978 0.17458358 -0.25728154 -0.009214695 -0.18276367 0.012515226
0.12472711 -0.21513489 -0.08316494 -0.3030869 0.076503485 0.1301724 -0.15230368 -0.1130097
0.12277678 0.10473206 -0.123108864 -0.28647026 0.021139637 -0.08440962 0.14953643 0.1302935
00000000: f16a 2dbe f0b2 923d c0f9 b8bd e608 6a3e
00000010: 0cba 65bd c7cc 20be b795 1a3e d3eb a6bd
00000020: be14 323e f981 3d3e 2a42 8ebd bd74 8f3c
00000030: a9c9 00bd 011d 463e 6ee8 ef3d 3846 bb3d
00000040: 9ac8 153d 45d4 6b3e d1ec 1bbe 3f8c a3bb
00000050: e793 383d a458 f4bd 8b21 613e b43f 2c3e
00000060: ea80 8b3d 6b4e 8c3b bf5c 153e 01fd 423e
00000070: 80bf 23bc 2027 6a3e 89f6 22be 0e0e f8bd
00000080: 20db ec3d 5d09 6d3d 9416 89be dfe7 a8be
00000090: d485 a6be 1821 1fbe d42e 86be 8ec0 86bd
000000a0: 359a 9fbe 9e06 94bd f02e 0c3e 0ac6 323e
000000b0: 68ba 83be 3bf9 16bc 6626 3bbe aa0c 4d3c
000000c0: ed70 ff3d 524c 5cbe 6152 aabd 352e 9bbe
000000d0: dcad 9c3d ea4b 053e 7ff5 1bbe a171 e7bd
000000e0: 6472 fb3d c37d d63d 8020 fcbd 3bac 92be
000000f0: 082d ad3c f3de acbd 1420 193e a96b 053e

output_layer.bias f4 [2]
0.008671689 -0.14356323
00000000: b313 0e3c 3d02 13be
