synthetic_flows_raw/saved_models/phi_only_0.0.pt (torch, 16963 bytes, 10 tensors)

input_layer.weight f4 [32, 3]
0.06257024 -0.48524523 -0.1540538 -0.5834322 0.14835115 -0.26694244 -0.18515104 -0.35761622
0.0820065 -0.0892789 0.3043262 0.51614213 -0.44700295 0.48553944 0.50815326 -0.5861206
0.19811717 -0.4172385 0.5415407 0.5128113 0.2954756 0.0066409227 -0.53210074 -0.05113033
-0.56311244 0.06504038 -0.33856848 0.03836355 0.07900604 0.10748022 0.0306554 0.0878516
0.2127903 -0.41736022 -0.3269847 0.08450223 -0.55644363 -0.3021581 0.23821492 -0.120163426
-0.4522268 -0.41252726 -0.29357445 0.4952728 0.26722884 0.06688856 -0.40160432 -0.15646653
0.42951486 0.14432287 0.50098723 -0.12419964 -0.2321492 -0.45792264 0.4518134 0.040922265
-0.2158682 -0.23200154 0.198572 -0.4884723 0.17435178 0.5797984 0.40427878 -0.4573113
0.48172873 -0.08614478 -0.0829304 0.06837852 0.41724995 0.5524703 0.29456583 -0.38773108
0.08315899 -0.5090242 -0.17872517 -0.20977703 0.4375897 -0.16142964 0.39078924 0.14728533
-0.21795416 0.5470722 -0.1991746 -0.4556393 -0.55412495 0.31232965 -0.27495956 0.2527221
0.22275075 -0.038289078 0.113030255 0.2127994 0.40489712 -0.45192304 -0.5325064 0.37977704
00000000: d324 803d 1072 f8be 48c0 1dbe d05b 15bf
00000010: 5de9 173e aeac 88be 3c98 3dbe 7919 b7be
00000020: 06f3 a73d dbd7 b6bd a5d0 9b3e e421 043f
00000030: 92dd e4be a098 f83e 5516 023f 000c 16bf
00000040: 3adf 4a3e 49a0 d5be 69a2 0a3f 9a47 033f
00000050: 9448 973e 199c d93b c137 08bf 096e 51bd
00000060: 2328 10bf e433 853d d958 adbe 1923 1d3d
00000070: ebcd a13d 971e dc3d 0921 fb3c 8aeb b33d
00000080: b3e5 593e 3db0 d5be 8a6a a7be 810f ad3d
00000090: 1773 0ebf 77b4 9abe 9dee 733e 3e18 f6bd
000000a0: 458a e7be c636 d3be 644f 96be 6594 fd3e
000000b0: 38d2 883e dffc 883d 159f cdbe c338 20be
000000c0: 5fe9 db3e 60c9 133e b340 003f 615c febd
000000d0: 85b8 6dbe d674 eabe 1654 e73e 1b9e 273d
000000e0: 8e0c 5dbe d091 6dbe 7556 4b3e 0b19 fabe
000000f0: 4689 323e ab6d 143f a1fd ce3e b524 eabe
00000100: 26a5 f63e ad6c b0bd 6ad7 a9bd 0a0a 8c3d
00000110: c9a1 d53e b26e 0d3f 55d1 963e b084 c6be
00000120: 434f aa3d 694f 02bf bb03 37be cacf 56be
00000130: c20b e03e d04d 25be 8715 c83e f7d1 163e
00000140: 602f 5fbe ec0c 0c3f 6df4 4bbe 8e49 e9be
00000150: 22db 0dbf ace9 9f3e 80c7 8cbe cb64 813e
00000160: c618 643e 02d5 1cbd 687c e73d 16e8 593e
00000170: ad4e cf3e 7562 e7be 5752 08bf 2372 c23e

input_layer.bias f4 [32]
-0.18086654 0.18931928 0.31317377 -0.3975201 0.52843505 0.5376843 -0.18041444 0.3414427
-0.4761376 0.45617318 0.59507513 -0.2338479 0.085587025 -0.5508184 -0.44270018 0.1257147
-0.408439 0.06610986 0.35444534 0.36003184 0.10795388 -0.18144347 0.29885155 0.34497428
0.58142114 -0.25139758 0.53752685 0.35931632 0.079162866 -0.40188086 0.20669593 -0.33755556
00000000: 1435 39be eadc 413e 5058 a03e c187 cbbe
00000010: 8547 073f aea5 093f 90be 38be 94d1 ae3e
00000020: 4fc8 f3be 888f e93e d856 183f d375 6fbe
00000030: 4048 af3d 6f02 0dbf 99a9 e2be 5bbb 003e
00000040: eb1e d1be 9b64 873d dc79 b53e 1856 b83e
00000050: ed16 dd3d 51cc 39be 1203 993e 78a0 b03e
00000060: 04d8 143f 2fb7 80be 5c9b 093f 4ff8 b73e
00000070: 2420 a23d 54c3 cdbe 19a8 533e 15d4 acbe

hidden_layers.0.weight f4 [32, 32]
0.14917168 -0.023476921 -0.10908067 0.047776382 0.037623193 0.15625815 0.053595886 0.12545915
0.14916474 -0.122929655 0.20222938 -0.10461198 -0.053779975 -0.04363505 0.10932318 -0.036113426
0.011649354 0.021577723 0.21173362 0.18764888 0.10042448 -0.14564504 -0.034072205 0.035871577
0.09629073 0.06483083 0.0548753 0.21855496 -0.0769787 0.07818485 0.18681541 0.02528351
-0.031302083 0.106645815 -0.042928882 -0.073429756 -0.079178944 -0.08309268 -0.06806644 -0.12956291
-0.11542418 0.0456502 -0.027791357 0.15219823 -0.078190625 0.12273573 -0.06499809 -0.09681395
0.13596407 -0.17309712 -0.06299768 -0.04935634 0.0627371 -0.15986148 -0.06853225 0.12723888
-0.17526783 0.13502249 -0.097469285 0.0014839694 0.0790671 0.053798743 0.011107401 -0.079983845
-0.07091153 -0.0254811 -0.13613555 0.044578616 -0.10529 -0.12747115 0.06950447 -0.005706472
-0.008304509 0.02817679 -0.07148738 -0.1572453 0.1620224 -0.0819184 -0.03721573 -0.039301854
-0.14020015 0.09579651 0.13582693 0.0051682633 -0.10683549 -0.12811087 -0.010283548 -0.11338534
0.116047844 -0.1023328 -0.120082386 -0.10973604 0.06792678 -0.14899863 -0.14630131 0.14121664
0.10139341 0.08253002 -0.058380093 -0.054475706 -0.13917802 -0.15551557 0.17082018 0.029914116
0.017466813 -0.038954817 0.16755493 0.16220024 -0.09204969 0.15842022 0.17341173 0.08000161
-0.018588055 -0.1400703 -0.12362648 0.14459921 0.08949535 -0.059266917 -0.10287002 -0.012087
0.10880799 -0.083195835 -0.012677675 -0.08883747 0.08727144 0.13861445 -0.066663176 0.055135112
-0.14956847 -0.021588504 0.17843106 -0.14288174 0.0043531405 -0.041733842 -0.0069374917 -0.0056583667
-0.030412627 -0.03452979 0.03715295 0.12833466 -0.027682818 -0.09765007 0.022566391 0.18228745
-0.09783244 0.13177533 -0.047693774 0.17810233 0.123144306 0.0024156384 0.19170457 -0.020769248
0.21628664 -0.010155315 -0.05705352 0.0025586213 -0.021321928 0.07392234 -0.005436256 0.004878009
-0.06396585 -0.09306663 0.2388533 0.16650781 0.08770193 0.18504356 0.017787196 0.029130315
0.0523435 0.1907247 0.14451243 0.1026274 -0.08473357 -0.09082694 0.08825385 0.13074738
-0.013201992 0.09145703 0.19956017 -0.032727107 0.115131326 0.06319105 -0.07303031 -0.090730414
-0.07063753 -0.06113383 0.208193 0.012289833 -0.11784088 0.056063082 0.047898713 -0.1403818
0.053390756 -0.15885338 -0.0428549 -0.11977652 -0.12557212 0.013032086 -0.031181838 0.06873833
0.16534303 0.020753564 -0.12812537 0.08534048 0.014134588 0.07022687 0.15425701 0.106383525
0.17556097 0.1440818 -0.15191568 -0.08174299 0.027468584 0.092561305 0.12667981 0.01582446
0.12793687 -0.022696499 0.023859508 0.026700076 -0.100954875 0.05964392 0.14764188 -0.06519399
0.13130018 -0.018021904 0.13949841 0.024554452 -0.17881274 0.010868119 -0.09498554 -0.033552665
0.16681759 0.12620027 -0.080823205 0.016287744 0.13938494 0.10558921 -0.13238084 -0.10066466
-0.118466996 -0.15851091 0.0890216 0.105167136 -0.020131504 -0.013251851 -0.12585214 0.02261228
0.08829304 -0.111118004 -0.013104115 0.13399434 0.10620726 0.01943979 -0.12877777 0.1645841
00000000: 76c0 183e ac52 c0bc b065 dfbd 2bb1 433d
00000010: c71a 1a3d 2302 203e 5c87 5b3d 5d78 003e
00000020: a4be 183e 8bc2 fbbd 3815 4f3e ce3e d6bd
00000030: 6448 5cbd abba 32bd d5e4 df3d aceb 13bd
00000040: efdc 3e3c c4c3 b03c b3d0 583e 0727 403e
00000050: 5aab cd3d f923 15be 4c8f 0bbd 13ee 123d
00000060: 1334 c53d 07c6 843d ecc4 603d dfcc 5f3e
00000070: 02a7 9dbd 611f a03d 8a4c 3f3e 5d1f cf3c
00000080: 9d36 00bd 1f69 da3d 32d6 2fbd 5762 96bd
00000090: 9228 a2bd 7f2c aabd 6b66 8bbd 24ac 04be
000000a0: 8363 ecbd b4fb 3a3d b3aa e3bc dad9 1b3e
000000b0: 6822 a0bd df5c fb3d b81d 85bd 6446 c6bd
000000c0: 2a3a 0b3e 5f40 31be ed04 81bd e029 4abd
000000d0: 4f7c 803d bab2 23be a35a 8cbd e94a 023e
000000e0: 6979 33be 5643 0a3e fa9d c7bd c081 c23a
000000f0: efed a13d 125c 5c3d d1fb 353c 92ce a3bd
00000100: 103a 91bd bdbd d0bc 1e67 0bbe 1198 363d
00000110: 49a2 d7bd cc87 02be 5c58 8e3d 5bfd babb
00000120: a30f 08bc 03d3 e63c fa67 92bd e904 21be
00000130: 33e9 253e d6c4 a7bd 856f 18bd fbfa 20bd
00000140: a190 0fbe f630 c43d 3716 0b3e 895a a93b
00000150: 91cc dabd 7f2f 03be 547c 28bc 9336 e8bd
00000160: 7eaa ed3d dc93 d1bd c1ed f5bd 4abd e0bd
00000170: 321d 8b3d 1993 18be 03d0 15be 189b 103e
00000180: 59a7 cf3d 8005 a93d f71f 6fbd eb21 5fbd
00000190: af84 0ebe 793f 1fbe 7ceb 2e3e 730e f53c
000001a0: 9016 8f3c 168f 1fbd 8593 2b3e d217 263e
000001b0: 8c84 bcbd e938 223e d892 313e e2d7 a33d
000001c0: fa45 98bc 976e 0fbe e12f fdbd d111 143e
000001d0: 5749 b73d dec1 72bd 84ad d2bd 8d08 46bc
000001e0: b9d6 de3d 9462 aabd 06b6 4fbc 6bf0 b5bd
000001f0: 5ebb b23d f2f0 0d3e b486 88bd 5bd5 613d
00000200: 7a28 19be 60da b0bc a2b6 363e 974f 12be
00000210: caa4 8e3b 1bf1 2abd e653 e3bb d269 b9bb
00000220: e723 f9bc 1c6f 0dbd b12d 183d 296a 033e
00000230: 14c7 e2bc c3fc c7bd 27dd b83c 90a9 3a3e
00000240: 605c c8bd 1df0 063e 8c5a 43bd 7560 363e
00000250: 1533 fc3d b04f 1e3b 344e 443e 4524 aabc
00000260: 3f7a 5d3e 7a62 26bc f4b0 69bd 8bae 273b
00000270: 53ab aebc 9964 973d 9f22 b2bb b5d7 9f3b
00000280: 8700 83bd b899 bebd f695 743e 0681 2a3e
00000290: 129d b33d 0f7c 3d3e 74b6 913c b3a2 ee3c
000002a0: 2366 563d 564d 433e 11fb 133e 502e d23d
000002b0: cb88 adbd 7a03 babd 6fbe b43d a4e2 053e
000002c0: 2b4d 58bc d34d bb3d 8059 4c3e dc0c 06bd
000002d0: f9c9 eb3d 4f6a 813d ea90 95bd ded0 b9bd
000002e0: 69aa 90bd 7867 7abd 8c30 553e 4c5b 493c
000002f0: 8f56 f1bd 67a2 653d 7131 443d 3fc0 0fbe
00000300: 44b0 5a3d 76aa 22be 9f88 2fbd 644d f5bd
00000310: fa95 00be 8884 553c 0e71 ffbc aec6 8c3d
00000320: af4f 293e 6103 aa3c 4c33 03be fdc6 ae3d
00000330: c294 673c 1bd3 8f3d 8df5 1d3e 9bdf d93d
00000340: 41c6 333e 2e8a 133e c98f 1bbe de68 a7bd
00000350: cc05 e13c c890 bd3d 5ab8 013e 4ca2 813c
00000360: e201 033e 02ee b9bc 0475 c33c 1eba da3c
00000370: 6ec1 cebd 2f4d 743d 6f2f 173e 6d84 85bd
00000380: 8e73 063e aca2 93bc acd8 0e3e 6b26 c93c
00000390: b01a 37be 3210 323c c787 c2bd 856e 09bd
000003a0: 3bd2 2a3e a53a 013e a386 a5bd e06d 853c
000003b0: edba 0e3e 283f d83d d88e 07be 4629 cebd
000003c0: d39e f2bd af50 22be f550 b63d de61 d73d
000003d0: d3ea a4bc 4b1e 59bc 62df 00be 633d b93c
000003e0: fbd2 b43d d691 e3bd a4b2 56bc d035 093e
000003f0: 3183 d93d 3240 9f3c 52de 03be bc88 283e

hidden_layers.0.bias f4 [32]
0.22239868 -0.13540138 0.059732277 -0.16509438 0.13248315 0.1611407 -0.017754726 -0.07923878
0.08638458 0.0073869806 -0.15310177 -0.113847926 0.2039081 -0.08724691 0.187013 0.05045105
-0.12966348 0.18568927 -0.011419707 0.23580185 -0.05714401 0.25990975 0.07600384 -0.110096775
-0.09840286 0.18977511 0.22548841 0.21914329 0.1117424 0.011087942 -0.022541609 -0.0054755853
00000000: 7bbc 633e a9a6 0abe d5a9 743d 800e 29be
00000010: aaa9 073e 1102 253e 5c72 91bc f147 a2bd
00000020: 66ea b03d 7c0e f23b b6c6 1cbe 1a29 e9bd
00000030: 49cd 503e 82ae b2bd 5680 3f3e c3a5 4e3d
00000040: 81c6 04be 5425 3e3e b919 3bbc 0a76 713e
00000050: d60f 6abd e412 853e e7a7 9b3d 6b7a e1bd
00000060: 7087 c9bd 6854 423e 6fe6 663e 1967 603e
00000070: 33d9 e43d 33aa 353c 2ea9 b8bc 8a6c b3bb

hidden_layers.1.weight f4 [32, 32]
0.13652582 0.14331527 -0.012955224 0.0809669 -0.11965874 -0.116055794 -0.15819477 -0.13773718
-0.15550417 -0.052730594 -0.027727863 0.07629511 -0.1052666 -0.08337403 0.14792863 -0.100752585
0.1471865 0.12558608 -0.022799443 -0.053584173 -0.15922597 0.055917677 -0.12236724 -0.17538205
-0.07140498 -0.05217588 0.120249175 0.07287504 0.07015821 -0.09526056 0.11120128 -0.051064804
0.066761 -0.0822603 0.12588906 0.08641394 0.18597157 -0.010890617 0.08056464 0.07448559
-0.014096829 -0.074344344 -0.12551725 0.16187975 -0.027802352 0.21945523 0.22828007 0.17953311
-0.1286632 0.008441966 -0.055145256 0.059972625 -0.01649542 0.18998894 0.218106 -0.02882741
0.12630776 0.2326824 -0.028196258 0.20699978 0.13617954 0.14208752 0.10704876 0.045258284
-0.07496998 -0.0032983068 0.010040922 -0.15911019 -0.1513414 -0.042357918 0.021008892 0.07604029
0.035924375 0.12982565 0.048869837 -0.11462576 0.064389415 0.009520542 0.08984178 0.10994405
0.14386341 -0.1888043 -0.10093681 -0.14423087 -0.16296726 -0.02288248 0.08026644 0.048425205
0.08868308 -0.09648238 -0.12548673 -0.0025224662 0.12130785 0.11942134 -0.12462559 -0.10559053
0.092030905 0.105656624 -0.0615801 -0.057073265 0.086024076 0.118240885 0.09413824 0.1719707
-0.13584316 -0.056244943 0.14053132 -0.010278689 0.0919994 -0.08529443 -0.0730998 -0.013236439
-0.1531866 0.14739227 0.08275717 0.12920053 0.15601777 0.20846501 -0.015065241 -0.12506181
-0.088079855 -0.092976235 0.23161632 0.10202987 0.24492604 0.23090622 0.1664009 -0.033627536
-0.01941538 0.058268838 -0.08448123 -0.058119617 -0.075011775 0.09682141 -0.14449231 -0.11542016
0.205452 -0.04678641 -0.10901322 -0.009962167 0.25553784 -0.036479652 0.010029386 0.19664593
0.12593722 -0.06632677 0.17417613 -0.03647802 0.047768377 -0.022908356 0.20680745 -0.10718042
-0.07471254 0.19945706 0.01949479 0.12701528 -0.047769524 0.0043251542 -0.0017457857 -0.033188436
-0.08294818 0.09290988 0.13161872 -0.09085154 0.16360955 0.09462355 0.02244718 0.015988385
-0.06102206 0.044594336 0.05738582 -0.09922139 -0.058276933 -0.16690405 0.104042806 -0.108783476
0.10441998 -0.16457236 -0.10468234 0.10988992 0.013116584 -0.014675047 0.13608362 0.023403576
-0.09213244 -0.04865491 -0.030982232 -0.079281 0.122431554 0.17438498 -0.117559105 -0.15615162
0.12548421 0.079170704 0.11861813 0.030696498 0.04912763 -0.105358206 -0.04952141 -0.14533748
-0.10892225 -0.079365656 0.025671266 -0.094171904 0.03876429 0.0078058913 0.0089901965 0.013930123
0.012383313 -0.06282268 0.1474743 -0.15100366 0.13171075 -0.10721195 -0.09702413 0.078019105
-0.1415638 -0.09440829 0.07977096 -0.050875038 -0.06617312 0.07884381 -0.13246672 0.04234003
-0.13738446 -0.08783144 -0.14958598 0.119945616 -0.034584463 0.0640118 -0.041829936 0.084463544
0.006335278 -0.047500756 0.036366295 0.11768954 0.08284913 0.09882659 0.09290857 0.06843488
0.17085917 0.1260363 -0.07435783 -0.14870511 0.008466577 0.030635936 -0.14163089 0.031175597
-0.007707938 -0.15278749 0.14196263 -0.10565249 -0.16703069 0.15474527 0.1092539 -0.07044554
00000000: 6dcd 0b3e 3dc1 123e 2642 54bc f9d1 a53d
00000010: a40f f5bd a9ae edbd cffd 21be fa0a 0dbe
00000020: 7c3c 1fbe 09fc 57bd 8b25 e3bc 9c40 9c3d
00000030: 0496 d7bd 01c0 aabd 9a7a 173e 5f57 cebd
00000040: 0fb8 163e a399 003e e6c5 babc 147b 5bbd
00000050: 220c 23be ef09 653d ad9b fabd 5a97 33be
00000060: c63c 92bd 60b6 55bd 3345 f63d 823f 953d
00000070: 1caf 8f3d f817 c3bd 7fbd e33d 5429 51bd
00000080: feb9 883d 1778 a8bd 10e9 003e cbf9 b03d
00000090: 556f 3e3e 8f6e 32bc 13ff a43d e78b 983d
000000a0: 63f6 66bc d941 98bd 9887 00be cec3 253e
000000b0: c2c1 e3bc dfb8 603e 40c2 693e 87d7 373e
000000c0: 49c0 03be 2c50 0a3c fedf 61bd dba5 753d
000000d0: 6721 87bc 768c 423e 2e57 5f3e 7627 ecbc
000000e0: d256 013e 4c44 6e3e d7fb e6bc c0f7 533e
000000f0: a672 0b3e 647f 113e 613c db3d c060 393d
00000100: dc89 99bd 6828 58bb ae82 243c c8ed 22be
00000110: 3df9 1abe 7f7f 2dbd d71a ac3c 03bb 9b3d
00000120: 7025 133d 04f1 043e bd2b 483d e9c0 eabd
00000130: 99de 833d 0cfc 1b3c f8fe b73d 592a e13d
00000140: ee50 133e ea55 41be f5b7 cebd 42b1 13be
00000150: e4e0 26be 0a74 bbbc bb62 a43d 8259 463d
00000160: 7a9f b53d 8e98 c5bd 987f 00be f64f 25bb
00000170: 4070 f83d 2d93 f43d b43b ffbd d93f d8bd
00000180: b37a bc3d 8062 d83d 6a3b 7cbd a8c5 69bd
00000190: 642d b03d 4728 f23d 8dcb c03d 1619 303e
000001a0: 781a 0bbe 1961 66bd 71e7 0f3e f267 28bc
000001b0: 2e6a bc3d d9ae aebd 59b5 95bd a6dd 58bc
000001c0: f3dc 1cbe 00ee 163e 977c a93d 254d 043e
000001d0: 1fc3 1f3e da77 553e 33d4 76bc 3410 00be
000001e0: 3663 b4bd 536a bebd d42c 6d3e 09f5 d03d
000001f0: e4cd 7a3e ae72 6c3e ff64 2a3e 07bd 09bd
00000200: 010d 9fbc 4eab 6e3d 7f04 adbd d60e 6ebd
00000210: c69f 99bd 4e4a c63d cbf5 13be 6861 ecbd
00000220: 0262 523e 1ba3 3fbd 5342 dfbd 5b38 23bc
00000230: dbd5 823e b06b 15bd 4b52 243c 8d5d 493e
00000240: b0f5 003e 54d6 87bd 3a5b 323e fa69 15bd
00000250: c6a8 433d 4eaa bbbc 55c5 533e 6881 dbbd
00000260: e302 99bd 793e 4c3e 8ab3 9f3c 4b10 023e
00000270: faa9 43bd 06ba 8d3b d9d2 e4ba 99f0 07bd
00000280: bce0 a9bd 8947 be3d 0fc7 063e 5f10 babd
00000290: 4389 273e fec9 c13d 26e3 b73c 13fa 823c
000002a0: 45f2 79bd 8da8 363d 650d 6b3d 9634 cbbd
000002b0: cbb3 6ebd e5e8 2abe 6514 d53d dfc9 debd
000002c0: 24da d53d a885 28be b263 d6bd f70d e13d
000002d0: f1e6 563c 9c6f 70bc 8159 0b3e dbb8 bf3c
000002e0: efaf bcbd 5f4a 47bd 73ce fdbc 145e a2bd
000002f0: 65bd fa3d fa91 323e d4c2 f0bd 36e6 1fbe
00000300: ef7e 003e 4024 a23d 10ee f23d 3977 fb3c
00000310: 0e3a 493d 0bc6 d7bd f6d6 4abd 59d3 14be
00000320: a112 dfbd 768a a2bd 8c4c d23c 33dd c0bd
00000330: 4ec7 1e3d 90c8 ff3b 9e4b 133c 2c3b 643c
00000340: 61e3 4a3c 2da9 80bd 8103 173e b4a0 1abe
00000350: 2fdf 063e f091 dbbd 96b4 c6bd 7bc8 9f3d
00000360: 1af6 10be 2259 c1bd f55e a33d 5862 50bd
00000370: c685 87bd dd78 a13d 5ba5 07be bd6c 2d3d
00000380: 83ae 0cbe f8e0 b3bd 112d 19be 0ca6 f53d
00000390: 70a8 0dbd 9e18 833d de55 2bbd 39fb ac3d
000003a0: 2a98 cf3b 2790 42bd d3f4 143d 3707 f13d
000003b0: ceac a93d 9865 ca3d d946 be3d 9627 8c3d
000003c0: b5f5 2e3e a90f 013e eb48 98bd 2746 18be
000003d0: 66b7 0a3c 37f8 fa3c b007 11be f763 ff3c
000003e0: df92 fcbb 5374 1cbe a75e 113e 5560 d8bd
000003f0: 180a 2bbe 8b75 1e3e 82c0 df3d c045 90bd

hidden_layers.1.bias f4 [32]
-0.0976054 -0.057347775 0.14698477 0.20458691 0.085532635 -0.123828806 -0.037184794 -0.00019138538
0.18017703 0.09451113 0.07124197 0.048591543 0.12737612 -0.17195658 -0.07438375 0.09531445
-0.03462621 -0.0008519353 0.1466709 0.03581618 0.24237458 0.147423 -0.14704457 0.0027059126
-0.17170912 0.020361958 -0.1392951 -0.16814075 -0.024798308 -0.081066534 -0.15597664 0.16639382
00000000: 57e5 c7bd 80e5 6abd 2d83 163e 3b7f 513e
00000010: bc2b af3d f599 fdbd 154f 18bd 9fae 48b9
00000020: 5480 383e 0d8f c13d 4fe7 913d ed07 473d
00000030: e36e 023e 6315 30be 8256 98bd 3934 c33d
00000040: 36d4 0dbd 6954 5fba e530 163e fdb3 123d
00000050: 0b31 783e 0ef6 163e da92 16be ae55 313b
00000060: 84d4 2fbe 1fce a63c 60a3 0ebe 172d 2cbe
00000070: d225 cbbc 3606 a6bd 57b8 1fbe 2463 2a3e

hidden_layers.2.weight f4 [32, 32]
0.13335145 0.12399918 0.15678318 0.18133372 0.009583264 0.008992515 -0.0034642601 -0.020309698
0.15652256 0.2258333 -0.04567571 0.15043658 0.2843101 -0.07275098 -0.094097935 -0.13579653
-0.13693954 0.15053023 0.191501 -0.1257909 0.08634327 0.139899 0.06895746 -0.08672712
-0.13138103 0.021949237 0.0980467 0.06890114 0.1177349 0.17552175 0.07186347 0.16558896
-0.05963214 0.10878765 -0.17914353 -0.052558657 -0.10374427 0.017307518 0.092727594 -0.0076321955
0.104008496 -0.054543197 -0.09404831 0.17118835 0.050576363 0.1633892 -0.08092372 0.061938178
0.057482358 -0.11383225 0.13219589 -0.010435298 0.033576597 -0.078333296 -0.06959003 0.11887847
0.11920054 -0.07938838 0.14294463 0.13044924 0.14928505 0.11930295 -0.040686123 0.017129598
0.038390383 0.20603982 -0.14129463 0.103144325 -0.101720944 0.07921133 0.110532746 -0.027487805
-0.004749108 -0.09026484 0.15096933 -0.15589757 0.045266833 -0.02396979 -0.16543084 -0.04427538
0.16915971 0.084581695 0.091982886 0.007426255 0.12415281 0.04223814 0.1388178 -0.031013034
-0.1577764 -0.0705603 0.1065255 -0.14164595 -0.061325323 0.105396114 0.09531149 0.1729166
-0.0007720249 -0.05948684 -0.15225235 -0.0810829 -0.06861785 0.1665082 -0.04324532 -0.009739378
-0.11757274 0.04775223 0.13367394 -0.15900141 -0.050828613 0.07660885 -0.08335854 -0.13996151
-0.08586423 0.019886928 -0.04609333 -0.15314817 0.15745918 -0.11074712 -0.16836043 0.045790378
0.12509416 0.0844198 0.12878996 0.031797584 0.15762095 -0.14938293 -0.10268784 -0.1636951
-0.1461188 0.07240111 0.089436054 -0.030661885 -0.11550298 0.0066171815 -0.10626558 0.12514551
-0.07073115 0.105064124 -0.06963465 -0.051788844 0.020968266 -0.07719914 0.008924827 -0.17518923
-0.07955742 -0.16136083 0.13992096 0.105764575 -0.15638433 -0.093607195 -0.10816118 -0.059379056
0.093113944 -0.0793615 -0.09980066 0.15541442 -0.00026888726 -0.0011220333 0.021061137 -0.027476402
-0.025402516 0.0010362014 -0.04931666 0.018298328 0.08955419 0.117500775 0.12637416 -0.13919926
0.013069105 -0.117639646 0.015916841 -0.05551924 -0.09022801 0.038204156 -0.107119225 0.15674779
-0.15700191 -0.09656344 -0.09556897 -0.1424613 0.17530303 -0.15815763 0.093153216 -0.09800866
0.03987267 -0.13749325 0.14808431 -0.12636921 0.12818556 -0.024668444 -0.112535685 -0.15060753
0.05583528 -0.12354104 -0.16422293 -0.12267862 -0.04725267 -0.112372875 -0.015215433 -0.0661031
-0.011593293 0.16719934 0.040886115 0.016040457 0.028485138 -0.04022693 0.012679436 0.038923416
0.16382115 -0.09035639 0.114310436 -0.049232382 0.00040587754 0.03590716 -0.10608085 0.15380874
-0.09503557 -0.11472644 -0.083226286 0.040964566 0.011628974 0.05678432 0.014623713 -0.13416503
0.098008215 0.010742546 -0.14961392 0.15241541 0.15805961 0.06593775 -0.055193804 0.07957248
0.10958143 -0.03646633 0.12721495 0.1363929 0.00629667 -0.024709791 0.07186767 -0.0073946854
-0.1588873 0.016424417 0.10760967 -0.0715606 -0.08296975 -0.09159499 0.118185006 -0.09541114
0.03429683 0.07837572 0.16129448 -0.14629148 0.029351402 -0.15299352 -0.07033839 0.12123952
00000000: 488d 083e 48f3 fd3d c58b 203e 8caf 393e
00000010: 1f03 1d3c 5755 133c a408 63bb 8660 a6bc
00000020: 7347 203e d840 673e 7416 3bbd 0c0c 1a3e
00000030: 1891 913e 77fe 94bd 6bb6 c0bd 3f0e 0bbe
00000040: e139 0cbe 9924 1a3e d718 443e 54cf 00be
00000050: bed4 b03d af41 0f3e 9239 8d3d fd9d b1bd
00000060: c088 06be e3ce b33c b5cc c83d 0a1c 8d3d
00000070: ff1e f13d f9bb 333e 282d 933d 2790 293e
00000080: d540 74bd 0fcc de3d 6771 37be bf47 57bd
00000090: e077 d4bd 7fc8 8d3c f7e7 bd3d 7f17 fabb
000000a0: 6802 d53d b068 5fbd 669c c0bd 004c 2f3e
000000b0: 2929 4f3d 804f 273e 56bb a5bd e3b2 7d3d
000000c0: 9f72 6b3d e220 e9bd 5c5e 073e d0f8 2abc
000000d0: 9d87 093d 356d a0bd 3885 8ebd 8e76 f33d
000000e0: 6a1f f43d 6096 a2bd 1460 123e 7c94 053e
000000f0: 2ede 183e 1b55 f43d 7ea6 26bd 5f53 8c3c
00000100: 3c3f 1d3d 1afc 523e 8aaf 10be 553d d33d
00000110: 1253 d0bd 8d39 a23d fe5e e23d 1b2e e1bc
00000120: 689e 9bbb c6dc b8bd b497 1a3e 9da3 1fbe
00000130: b769 393d 4b5c c4bc b466 29be 1a5a 35bd
00000140: 3438 2d3e 2b39 ad3d 8661 bc3d f157 f33b
00000150: d443 fe3d e601 2d3d 4126 0e3e 0c0f febc
00000160: 2390 21be eb81 90bd 0b2a da3d a30b 11be
00000170: 4330 7bbd ebd9 d73d ac32 c33d 0d11 313e
00000180: b761 4aba 79a8 73bd 0ae8 1bbe cb0e a6bd
00000190: 8487 8cbd 2081 2a3e 0122 31bd e991 1fbc
000001a0: fac9 f0bd d897 433d d2e1 083e 44d1 22be
000001b0: aa31 50bd 1ae5 9c3d e2b7 aabd 1252 0fbe
000001c0: 96d9 afbd e9e9 a23c 5ccc 3cbd e0d2 1cbe
000001d0: fb3c 213e 63cf e2bd ad66 2cbe b18e 3b3d
000001e0: af18 003e 4ae4 ac3d 84e1 033e 2f3e 023d
000001f0: 6367 213e d7f7 18be 014e d2bd b09f 27be
00000200: 2ba0 15be 0847 943d 402a b73d a22e fbbc
00000210: d48c ecbd f1d4 d83b c5a1 d9bd 2526 003e
00000220: 7edb 90bd dc2b d73d 9d9c 8ebd 8a20 54bd
00000230: a4c5 ab3c 951a 9ebd 7039 123c ce64 33be
00000240: 00ef a2bd c63b 25be 7147 0f3e 199b d83d
00000250: 3723 20be 21b5 bfbd 9c83 ddbd 7437 73bd
00000260: 86b2 be3d 4888 a2bd 4a64 ccbd f524 1f3e
00000270: 70f9 8cb9 3111 93ba 6888 ac3c 3116 e1bc
00000280: f018 d0bc 26d1 873a 4400 4abd 60e6 953c
00000290: 3068 b73d 3fa4 f03d 3a68 013e 408a 0ebe
000002a0: cd1f 563c 0eed f0bd 0964 823c 2568 63bd
000002b0: 77c9 b8bd f67b 1c3d 5361 dbbd 7e82 203e
000002c0: 1cc5 20be 0ec3 c5bd aab9 c3bd 60e1 11be
000002d0: a382 333e 13f4 21be 1dc7 be3d c4b8 c8bd
000002e0: 8651 233d 08cb 0cbe 6aa3 173e ee66 01be
000002f0: 1343 033e 7a15 cabc 1c79 e6bd dc38 1abe
00000300: 89b3 643d 1603 fdbd 0e2a 28be ee3e fbbd
00000310: 048c 41bd c023 e6bd 274a 79bc 1061 87bd
00000320: ccf1 3dbc 4e36 2b3e 3378 273d 4767 833c
00000330: aa59 e93c fec4 24bd 69bd 4f3c 296e 1f3d
00000340: bbc0 273e c50c b9bd 971b ea3d e5a7 49bd
00000350: f6cb d439 6313 133d eb40 d9bd 0a80 1d3e
00000360: 02a2 c2bd b2f5 eabd 8b72 aabd 76ca 273d
00000370: 7487 3e3c ad96 683d 4c98 6f3c 8f62 09be
00000380: 88b8 c83d 8101 303c 6434 19be c912 1c3e
00000390: 61da 213e 5f0a 873d e612 62bd e5f6 a23d
000003a0: 3b6c e03d b85d 15bd a344 023e 95aa 0b3e
000003b0: 4c54 ce3b 306c cabc 5b2f 933d 1e4f f2bb
000003c0: 5ab3 22be 808c 863c 7562 dc3d 5d8e 92bd
000003d0: 0bec a9bd 2796 bbbd fb0a f23d ea66 c3bd
000003e0: d57a 0c3d 7383 a03d 612a 253e 6fcd 15be
000003f0: 5a72 f03c 55aa 1cbe 930d 90bd 6d4c f83d

hidden_layers.2.bias f4 [32]
0.09716572 0.029015914 0.2101736 -0.08458198 -0.0069407513 -0.031037698 0.020629272 -0.116756365
-0.09621195 0.13669388 -0.14618506 0.01301594 0.07876963 0.19578947 -0.1717144 0.07681682
-0.13115391 -0.002202571 -0.08634271 0.022649718 0.16975567 -0.09050392 0.111265585 -0.09917542
0.17247894 0.2306128 0.15145962 0.1267586 0.058058012 0.038031776 -0.015058414 0.0950238
00000000: d2fe c63d c8b2 ed3c c037 573e 5139 adbd
00000010: 3e6f e3bb c542 febc b8fe a83c f61d efbd
00000020: c50a c5bd 7bf9 0b3e 89b1 15be cf40 553c
00000030: f951 a13d 097d 483e e6d5 2fbe 2352 9d3d
00000040: 364d 06be 0259 10bb 72d4 b0bd e78b b93c
00000050: 6ed4 2d3e 1f5a b9bd 36df e33d 7c1c cbbd
00000060: 529e 303e c325 6c3e 3b18 1b3e 02cd 013e
00000070: 3dce 6d3d 35c7 1b3d 91b7 76bc d79b c23d

output_layer.weight f4 [2, 32]
0.12384008 -0.12569764 0.18934138 0.13974684 -0.12143796 0.06336176 -0.15176792 -0.063616514
-0.04026627 0.16798426 -0.038552374 0.10999701 -0.14115646 0.22164275 0.095698334 0.18433425
0.10123416 0.21410896 0.012042808 0.14270295 0.1401618 0.0034689447 0.1311516 0.025933037
0.06805165 0.15461391 0.14105368 0.17945857 -0.05169855 0.05965115 0.14476776 -0.052268054
-0.16484317 0.0053992053 -0.0031555598 0.004713598 -0.12617995 0.13460289 0.0942833 -0.17491548
-0.021263048 -0.11835477 0.13033663 -0.05619152 -0.14244328 0.030484432 0.051680487 -0.19976652
-0.061338477 -0.2190511 -0.16968244 -0.018711006 -0.02793087 0.09894574 -0.16969302 0.065082766
-0.085396186 -0.23691718 0.025004148 -0.13094045 0.00013052768 0.022389818 -0.056560803 -0.05933799
00000000: de9f fd3d e2b6 00be b5e2 413e cc19 0f3e
00000010: 77b4 f8bd cfc3 813d 0d69 1bbe 6049 82bd
00000020: 3fee 24bd 1104 2c3e 18e9 1dbd 1d46 e13d
00000030: 528b 10be 51f6 623e 7dfd c33d 1ec2 3c3e
00000040: db53 cf3d 613f 5b3e 334f 453c b920 123e
00000050: 9386 0f3e 3c57 633b 9b4c 063e 8571 d43c
00000060: aa5e 8b3d 1c53 1e3e 6070 103e fdc3 373e
00000070: dcc1 53bd c454 743d 003e 143e 0717 56bd
00000080: a6cc 28be d1eb b03b 82cd 4ebb 8774 9a3b
00000090: 5135 01be 57d5 093e 9a17 c13d 0b1d 33be
000000a0: d82f aebc fc63 f2bd f776 053e 1429 66bd
000000b0: a7dc 11be 7dba f93c ebae 533d 988f 4cbe
000000c0: 0e3e 7bbd ee4e 60be 3cc1 2dbe d347 99bc
000000d0: 48cf e4bc 10a4 ca3d 02c4 2dbe 1d4a 853d
000000e0: 32e4 aebd 6b9a 72be 80d5 cc3c 4115 06be
000000f0: 42de 0839 da6a b73c 4dac 67bd 640c 73bd

output_layer.bias f4 [2]
-0.054271936 -0.02510068
00000000: 404c 5ebd f19f cdbc
