synthetic_flows_raw/saved_models/phi_only_0.7_unfitted_base.pt (torch, 17067 bytes, 10 tensors)

input_layer.weight f4 [32, 2]
-0.3569747 -0.6197831 0.014741175 -0.18740267 -0.21778092 -0.6612781 0.60693187 -0.28228545
-0.52513444 0.16274422 0.16832715 -0.30200872 0.25359097 -0.1682374 0.35970443 -0.6681652
-0.31347612 0.4068754 -0.56367105 -0.1731742 -0.11008632 -0.32822892 0.47069553 -0.3687263
0.25917396 -0.39290187 -0.2015608 0.6122152 -0.23217109 0.59313846 -0.62087375 -0.3435188
0.7037266 -0.3180346 0.10674448 0.43460754 -0.6270165 -0.65973306 -0.39410388 0.38065982
-0.020237032 0.53746265 -0.54799 -0.62846327 0.20991226 -0.4440527 -0.6667982 -0.6726341
0.40146184 -0.24043895 0.29958546 -0.2453029 -0.39448315 -0.15969335 -0.41261408 0.30309105
0.1064012 -0.7087548 0.2857647 -0.05546582 -0.67297053 -0.2642988 -0.2647093 -0.21361208
00000000: 63c5 b6be 1baa 1ebf f884 713c 7ce6 3fbe
00000010: f601 5fbe 8649 29bf e35f 1b3f b887 90be
00000020: 366f 06bf 6ca6 263e f45d 2c3e e3a0 9abe
00000030: add6 813e 6d46 2cbe 2e2b b83e e00c 2bbf
00000040: f17f a0be f951 d03e bf4c 10bf 9454 31be
00000050: f074 e1bd 9f0d a8be 01ff f03e b2c9 bcbe
00000060: 73b2 843e 6f2a c9be f465 4ebe 23ba 1c3f
00000070: 42be 6dbe ecd7 173f 95f1 1ebf b2e1 afbe
00000080: 6d27 343f 6ed5 a2be da9c da3d e184 de3e
00000090: 2784 20bf 44e4 28bf fcc7 c9be d8e5 c23e
000000a0: 22c8 a5bc 2797 093f 1349 0cbf f8e2 20bf
000000b0: 3df3 563e e05a e3be 49b3 2abf c031 2cbf
000000c0: 688c cd3e a135 76be 4463 993e af30 7bbe
000000d0: b2f9 c9be a786 23be 2742 d3be c02e 9b3e
000000e0: dfe8 d93d f470 35bf c04f 923e 2130 63bd
000000f0: cc47 2cbf 2c52 87be fa87 87be 20bd 5abe

input_layer.bias f4 [32]
-0.34448135 -0.073402174 -0.46108145 -0.117606506 -0.14514868 0.22943382 -0.23000917 -0.42855304
-0.42562756 -0.25281796 0.77199924 0.33705783 -0.19074415 -0.5250457 -0.00901748 0.59132886
0.34230483 -0.15508632 0.51634187 0.01834717 -0.5702786 -0.5311263 -0.2211007 0.61581844
0.35793427 0.091073684 -0.3501683 -0.0025560395 -0.1575174 0.3579451 0.01662549 -0.596569
00000000: dc5f b0be e153 96bd de12 ecbe aedb f0bd
00000010: dba1 14be b3f0 6a3e 8687 6bbe 4e6b dbbe
00000020: dbeb d9be 5b71 81be bea1 453f d892 ac3e
00000030: 6f52 43be 6569 06bf 0dbe 13bc 5461 173f
00000040: 9442 af3e f3ce 1ebe fb2e 043f ce4c 963c
00000050: c7fd 11bf e5f7 07bf 3968 62be 47a6 1d3f
00000060: 2943 b73e d784 ba3d 4249 b3be 3a83 27bb
00000070: 3e4c 21be 9544 b73e 2e32 883c bfb8 18bf

hidden_layers.0.weight f4 [32, 32]
0.06283373 0.028743735 -0.045326788 -0.10314554 -0.043890595 0.033341 -0.042397942 0.13803022
-0.08660147 -0.11845979 0.11232612 -0.043915264 -0.09436039 0.13017514 0.19827908 0.20502281
0.049864743 0.10819112 0.07158501 0.12307391 0.034833565 0.099340975 0.15238051 0.016275562
0.22319447 0.14889583 -0.10626792 -0.04168241 -0.06410828 0.04845799 0.014612422 0.1112404
-0.028867334 0.002825423 0.09955512 -0.06440613 0.047502525 -0.124759875 0.044945132 0.001527804
-0.04391123 -0.048175815 0.12579729 0.09267498 0.05885071 0.18510818 -0.0053630634 0.23021203
-0.029909376 -0.009344945 0.13485031 -0.1260787 0.08481185 -0.0033374445 0.11372099 -0.045566514
0.06499625 0.060330484 0.007829855 -0.044524815 0.05055564 0.168574 0.023488097 0.039155427
-0.10759592 0.20978613 0.035971075 0.03735277 0.12234119 -0.11425545 -0.10357674 0.048681546
-0.13984771 0.08073794 0.13008015 0.1255167 0.024749842 0.059455715 0.16907306 -0.053884413
0.14235187 0.08762457 0.20260544 0.021809213 0.04272493 0.10924836 -0.09453321 -0.046648163
0.0478663 0.10916913 -0.07323874 0.20670591 0.1384025 0.026925951 -0.043776706 0.09473583
0.08041331 0.09824711 0.19079378 0.19057222 -0.020976454 -0.052401148 0.16183631 0.048121776
-0.045576103 0.15089731 0.0061669257 0.03942244 0.076116666 -0.15578276 -0.06054295 -0.049050026
-0.12621988 -0.038763218 0.10085792 -0.06022643 0.028907517 0.007915763 0.10654214 0.10078424
-0.09933802 0.06995066 -0.11366322 0.13823603 0.21361195 -0.010679842 0.12444863 -0.10094427
-0.024320079 0.080170974 0.17375 0.11762475 -0.16471532 -0.13980696 0.002051873 0.036974728
-0.16147903 -0.096302964 0.021961708 0.17631046 -0.03595964 -0.13462831 -0.05320694 -0.0949481
-0.1352864 0.11302332 -0.17778073 -0.17134845 -0.14946319 0.09808916 -0.08809419 0.0047511356
0.036897544 -0.010493161 0.06314753 -0.14732245 0.08445174 -0.15426584 -0.11666877 -0.13318472
-0.17314589 0.12813109 -0.12987304 0.13307464 -0.020959733 -0.117216475 0.049287964 -0.14377685
0.025525762 -0.080726594 0.056066077 -0.15228462 0.06382659 -0.0937385 -0.11807984 -0.18017942
-0.096591 -0.20053275 -0.19951326 -0.07139498 0.1550834 -0.12985256 0.054084726 -0.20937292
0.09798718 0.11743635 0.015646806 -0.13653742 -0.16828814 0.114349514 -0.12554258 -0.0066197524
0.14424986 -0.102673866 0.09758492 0.04419196 0.13219036 -0.12644397 -0.17313421 -0.049057055
0.15258247 -0.120111205 -0.07990296 -0.1754494 -0.05606492 -0.16578224 -0.01543274 -0.026996857
-0.032295927 -0.1261301 -0.04574961 -0.102974825 0.113418885 0.15384312 0.0065063355 -0.09228594
-0.15375872 0.10829475 0.13497862 -0.028984886 -0.10689919 0.02706384 -0.080184005 0.082815625
-0.09489589 0.11385481 0.018651024 -0.057824783 0.099098496 0.13714525 -0.10104918 -0.1029483
-0.07296545 0.005150466 0.2351246 -0.09208364 0.009090277 0.20155545 0.049495507 0.030958131
0.048891775 -0.03774799 0.11683182 0.12740068 0.13158073 0.059708904 0.13014874 -0.07209363
0.19056612 -0.011019304 0.02439985 -0.069299765 0.16281864 0.07412355 0.13360794 -0.048430473
00000000: f8ae 803d fb77 eb3c 95a8 39bd f83d d3bd
00000010: a0c6 33bd 9390 083d 77a9 2dbd cb57 0d3e
00000020: 1d5c b1bd 0c9b f2bd 3d0b e63d 7ee0 33bd
00000030: 0540 c1bd a24c 053e ac09 4b3e 80f1 513e
00000040: f93e 4c3d 4e93 dd3d 299b 923d 2d0e fc3d
00000050: a4ad 0e3d 4873 cb3d a309 1c3e 5454 853c
00000060: 178d 643e 2678 183e ffa2 d9bd 2dbb 2abd
00000070: 344b 83bd e37b 463d f168 6f3c 02d2 e33d
00000080: 307b ecbc bb2a 393b 8ee3 cb3d 5ce7 83bd
00000090: 0292 423d 1b82 ffbd 6318 383d 9840 c83a
000000a0: 43dc 33bd 0154 45bd 01d1 003e 61cc bd3d
000000b0: 710d 713d 008d 3d3e a3bc afbb b4bc 6b3e
000000c0: 8204 f5bc 8a1b 19bc 3316 0a3e c61a 01be
000000d0: d6b1 ad3d 07b9 5abb 8de6 e83d f4a3 3abd
000000e0: c11c 853d 191d 773d cb48 003c a75f 36bd
000000f0: 6e13 4f3d aa9e 2c3e 1c6a c03c 7161 203d
00000100: 405b dcbd 2dd2 563e 6856 133d 38ff 183d
00000110: 058e fa3d c3fe e9bd 0b20 d4bd 4d66 473d
00000120: 3d34 0fbe ef59 a53d bb33 053e 7387 003e
00000130: 2ec0 ca3c d687 733d 7d21 2d3e e7b5 5cbd
00000140: b0c4 113e 8374 b33d cd77 4f3e 3ca9 b23c
00000150: 5600 2f3d 9bbd df3d a19a c1bd 2512 3fbd
00000160: 740f 443d 1194 df3d 31fe 95bd b7aa 533e
00000170: 63b9 0d3e d093 dc3c 344f 33bd dc04 c23d
00000180: bcaf a43d c835 c93d 725f 433e 5d25 433e
00000190: d0d6 abbc 96a2 56bd 6bb8 253e 571b 453d
000001a0: 02ae 3abd d384 1a3e ec13 ca3b 6d79 213d
000001b0: 0ee3 9b3d 8485 1fbe e2fb 77bd aee8 48bd
000001c0: c93f 01be 2ec6 1ebd 998e ce3d fdaf 76bd
000001d0: 75cf ec3c 1eb1 013c c432 da3d f867 ce3d
000001e0: bb71 cbbd 4b42 8f3d 43c8 e8bd bf8d 0d3e
000001f0: 17bd 5a3e 81fa 2ebc ecde fe3d dfbb cebd
00000200: e73a c7bc ae30 a43d 85eb 313e 3fe5 f03d
00000210: 22ab 28be 8e29 0fbe b778 063b d072 173d
00000220: c25a 25be 7d3a c5bd 0ae9 b33c bb8a 343e
00000230: 6a4a 13bd 01dc 09be 85ef 59bd 2674 c2bd
00000240: 8588 0abe c578 e73d 270c 36be f875 2fbe
00000250: e10c 19be f8e2 c83d ba6a b4bd 6aaf 9b3b
00000260: e121 173d 82eb 2bbc 7e53 813d b2db 16be
00000270: 09f5 ac3d ddf7 1dbe 09f0 eebd 9361 08be
00000280: 284d 31be cc34 033e 70fd 04be b844 083e
00000290: bfb3 abbc 310f f0bd 2de2 493d 3d3a 13be
000002a0: 671b d13c fc53 a5bd 8ba5 653d 80f0 1bbe
000002b0: 84b7 823d f8f9 bfbd d8d3 f1bd f480 38be
000002c0: 81d1 c5bd 7558 4dbe 344d 4cbe 8837 92bd
000002d0: 2fce 1e3e 12f8 04be f287 5d3d db65 56be
000002e0: 81ad c83d 7882 f03d bb2d 803c 77d0 0bbe
000002f0: ba53 2cbe 1430 ea3d 3c8e 00be 82ea d8bb
00000300: 3cb6 133e ad46 d2bd 9ada c73d a102 353d
00000310: e95c 073e 877a 01be 184a 31be 0df0 48bd
00000320: 943e 1c3e ddfc f5bd 2aa4 a3bd 02a9 33be
00000330: 54a4 65bd d2c2 29be 9ad9 7cbc 8328 ddbc
00000340: bc48 04bd 4028 01be f163 3bbd 77e4 d2bd
00000350: 2948 e83d 0d89 1d3e 1933 d53b 6900 bdbd
00000360: ed72 1dbe a3c9 dd3d d637 0a3e b671 edbc
00000370: f6ed dabd fcb4 dd3c 8337 a4bd 3d9b a93d
00000380: c758 c2bd b62c e93d 08ca 983c aed9 6cbd
00000390: 27f4 ca3d ce6f 0c3e dff2 cebd 8fd6 d2bd
000003a0: e96e 95bd 3ec5 a83b 81c4 703e 5996 bcbd
000003b0: 63ef 143c 8d64 4e3e cdbb 4a3d e89b fd3c
000003c0: be42 483d a39d 1abd 8545 ef3d 5375 023e
000003d0: 19bd 063e 5391 743d b645 053e d3a5 93bd
000003e0: c423 433e 508a 34bc 32e2 c73c 09ed 8dbd
000003f0: eeb9 263e 16ce 973d 85d0 083e 085f 46bd

hidden_layers.0.bias f4 [32]
0.0063942517 0.043153815 0.21968867 -0.011421149 -0.016741894 -0.009051225 -0.04520933 0.18303859
0.20376737 0.13607511 0.13005058 0.19356124 0.11397868 -0.012932053 0.1621656 -0.075202055
-0.06099981 0.16414696 0.017275518 -0.09016585 0.102475904 -0.15150075 0.08062525 0.19802907
-0.17591822 -0.057193223 0.19690725 0.083378136 0.111254014 0.1652517 -0.136128 0.22458202
00000000: df86 d13b 0ec2 303d 11f6 603e c51f 3bbc
00000010: 4c26 89bc 974b 14bc 6b2d 39bd 786e 3b3e
00000020: 65a8 503e 4657 0b3e fb2b 053e eb34 463e
00000030: a76d e93d f6e0 53bc bd0e 263e 8903 9abd
00000040: f0da 79bd 2416 283e 6385 8d3c e0a8 b8bd
00000050: e3de d13d 0323 1bbe da1e a53d 22c8 4a3e
00000060: e823 34be 7143 6abd 0ea2 493e 28c2 aa3d
00000070: 25d9 e33d be37 293e 2365 0bbe d4f8 653e

hidden_layers.1.weight f4 [32, 32]
0.067638226 0.117538325 -0.0005753781 0.2204546 0.16902696 -0.14929013 -0.09149632 -0.060486555
-0.009205139 0.06583431 0.04152672 -0.06754904 0.033850063 -0.091322586 0.15054664 0.090673104
0.13133116 0.017282406 -0.13512632 -0.0749577 -0.008656092 -0.006020825 0.0420258 0.11979708
-0.036768172 -0.048330206 -0.09589129 0.011758731 0.01607214 -0.02107412 -0.03234151 0.0593877
0.06346772 -0.1330931 0.029804755 0.104279 0.13652186 -0.05567702 0.051472366 -0.055087112
-0.027301421 0.13391957 -0.09058308 -0.03462311 0.06382375 -0.0010140742 -0.096981056 -0.095994964
0.108798906 -0.028173799 -0.008176868 -0.0035737155 0.119386934 0.020313159 -0.037913114 -0.12949944
0.1608884 -0.10286258 -0.022369038 -0.07624314 0.1246756 -0.07552561 0.0125384135 -0.023963602
-0.035809282 -0.0013235579 0.1386295 -0.072512515 -0.16244078 0.03576249 -0.044396557 -0.0028582534
-0.07299953 0.2087161 0.03059982 0.18305 0.14125475 -0.00048645103 0.22287324 0.17894821
-0.10046741 -0.019599527 -0.15892375 -0.11728198 -0.07325669 0.010163165 0.18624184 0.14373459
0.039257534 0.17855163 0.10501344 0.018334465 0.16976634 0.13270487 0.007825195 0.16797403
0.026116295 -0.17003675 0.15865855 0.15782815 -0.14640741 0.074692346 0.02674493 0.013057746
-0.14723618 0.046525028 0.004536981 -0.084781356 0.1058253 0.08069653 -0.029072976 -0.05032497
0.07271785 -0.06938714 -0.08942122 0.13211466 0.10046991 -0.01270502 0.06431136 0.09486696
-0.029576128 0.00013492005 0.018624837 0.21189417 -0.0830558 -0.013394996 -0.17289954 0.012422415
-0.10961076 0.13688953 0.041001838 0.16851313 0.067557484 0.14808021 -0.085015796 0.042182203
0.13216218 -0.102313295 -0.1697352 0.045845933 0.053923786 0.17376412 0.033859927 -0.12281548
-0.017173687 0.030259347 0.12142793 0.19781695 -0.087566815 -0.09167466 0.14568825 -0.08979635
-0.1699517 -0.14078102 -0.011276011 -0.022839101 -0.035467718 0.13110341 -0.15363628 0.13766603
-0.045666765 -0.124513656 -0.17511371 -0.19170032 -0.12707733 0.11114279 0.101591066 -0.1042167
-0.10728933 0.029002618 0.08063183 0.0045336075 -0.05646984 -0.16576868 -0.08433045 0.15634133
0.13312835 -0.09564859 0.14071263 0.12762332 -0.054090854 0.029495249 0.13382202 0.026404226
0.09459 -0.05875229 0.04913802 0.10785772 -0.0013918456 0.026956402 -0.02851114 0.11850423
-0.07088596 -0.09805008 0.09024889 -0.098115824 -0.033205237 0.12246077 -0.11141864 0.10221713
-0.09423713 -0.01598579 0.0165008 0.09719166 0.13878135 -0.10444902 0.033735353 0.15270351
0.05768029 0.08455802 0.005400295 0.086990006 0.16605431 0.002155748 0.16944331 -0.07873772
0.028221656 0.088930584 -0.12990917 0.062071152 0.19812043 0.09412108 -0.12383376 -0.093971394
-0.063725345 -0.07992555 0.15991387 0.06569543 -0.13138606 0.052813154 -0.022273386 0.21727608
0.14559527 0.09707419 0.21353255 -0.00991729 -0.04624987 0.016845854 0.18281999 -0.08563861
0.081339836 -0.10917685 0.16721383 0.10916245 -0.12433158 0.11612428 0.20850939 -0.06669574
0.029908288 0.0807513 0.052715972 -0.07238272 0.17065121 0.061245184 0.09186626 0.14506681
00000000: e985 8a3d efb7 f03d f8d4 16ba dabe 613e
00000010: 6715 2d3e 83df 18be 6c62 bbbd c0c0 77bd
00000020: 27d1 16bc 24d4 863d ec17 2a3d 2757 8abd
00000030: 5da6 0a3d 5607 bbbd e628 1a3e d2b2 b93d
00000040: ad7b 063e d593 8d3c 8e5e 0abe 6c83 99bd
00000050: 48d2 0dbc 574a c5bb 3f23 2c3d 2c58 f53d
00000060: 399a 16bd e5f5 45bd a762 c4bd b1a7 403c
00000070: b8a9 833c a2a3 acbc 8878 04bd 8440 733d
00000080: 5dfb 813d 8f49 08be 1a29 f43c 3a90 d53d
00000090: 63cc 0b3e 960d 64bd b0d4 523d 06a3 61bd
000000a0: 3ba7 dfbc 3622 093e 9f83 b9bd f6d0 0dbd
000000b0: 07b6 823d afea 84ba 019e c6bd 0299 c4bd
000000c0: f6d1 de3d bdcc e6bc 45f8 05bc ff34 6abb
000000d0: 2381 f43d c867 a63c c84a 1bbd 809b 04be
000000e0: eebf 243e 9ea9 d2bd 463f b7bc 5d25 9cbd
000000f0: ec55 ff3d 2cad 9abd eb6d 4d3c 514f c4bc
00000100: c1ac 12bd 3c7b adba e4f4 0d3e 7181 94bd
00000110: e056 26be b07b 123d 2ad9 35bd 8951 3bbb
00000120: c780 95bd acb9 553e 79ac fa3c 7671 3b3e
00000130: 16a5 103e 5a0a ffb9 e238 643e 333e 373e
00000140: dcc1 cdbd 308f a0bc e8bc 22be 8931 f0bd
00000150: 9a07 96bd 6783 263c 2eb6 3e3e 292f 133e
00000160: 82cc 203d 3dd6 363e 4911 d73d 2932 963c
00000170: 3ad7 2d3e c9e3 073e 3f35 003c 6201 2c3e
00000180: d7f1 d53c 1d1e 2ebe 6377 223e b49d 213e
00000190: d3eb 15be 4df8 983d 2f18 db3c 28f0 553c
000001a0: 15c5 16be 0791 3e3d f5aa 943b d9a1 adbd
000001b0: efba d83d 3944 a53d 732a eebc 8e21 4ebd
000001c0: 19ed 943d d81a 8ebd 7922 b7bd 1149 073e
000001d0: 2bc3 cd3d b728 50bc adb5 833d 9c49 c23d
000001e0: a349 f2bc 5379 0d39 1d93 983c c9fa 583e
000001f0: 2919 aabd af76 5bbc 940c 31be 6387 4b3c
00000200: 9b7b e0bd c52c 0c3e 8bf1 273d b58e 2c3e
00000210: 945b 8a3d 57a2 173e c31c aebd 3fc7 2c3d
00000220: 8655 073e a289 d1bd 10cf 2dbe f2c8 3b3d
00000230: 30df 5c3d 39ef 313e b5b0 0a3d af86 fbbd
00000240: d5af 8cbc 73e2 f73c 35af f83d 8790 4a3e
00000250: 3b56 b3bd edbf bbbd 4d2f 153e 26e7 b7bd
00000260: d207 2ebe e628 10be 05bf 38bc 1119 bbbc
00000270: 9946 11bd f93f 063e d452 1dbe 53f8 0c3e
00000280: 130d 3bbd 0401 ffbd 0251 33be 174d 44be
00000290: 8f20 02be d59e e33d fa0e d03d 916f d5bd
000002a0: 82ba dbbd e696 ed3c 4d22 a53d a88e 943b
000002b0: eb4c 67bd 44bf 29be 71b5 acbd f117 203e
000002c0: cc52 083e 68e3 c3bd f916 103e b0af 023e
000002d0: 5f8e 5dbd 05a0 f13c a408 093e ad4d d83c
000002e0: 67b8 c13d 3ea6 70bd f344 493d 82e4 dc3d
000002f0: 976e b6ba acd3 dc3c 3290 e9bc 59b2 f23d
00000300: a82c 91bd 7bce c8bd 69d4 b83d f3f0 c8bd
00000310: 3702 08bd b6cc fa3d 752f e4bd 3757 d13d
00000320: 65ff c0bd a2f4 82bc b02c 873c 6c0c c73d
00000330: b31c 0e3e 5ee9 d5bd 152e 0a3d 4f5e 1c3e
00000340: 2b42 6c3d c12c ad3d f5f4 b03b d127 b23d
00000350: 240a 2a3e 7347 0d3b 8c82 2d3e 3e41 a1bd
00000360: 1a31 e73c 3d21 b63d e906 05be 523e 7e3d
00000370: 15e0 4a3e 8ec2 c03d 8e9c fdbd 1374 c0bd
00000380: 6f82 82bd 02b0 a3bd 76c0 233e 538b 863d
00000390: 118a 06be 9b52 583d ad76 b6bc 9f7d 5e3e
000003a0: ed16 153e d5ce c63d 47a8 5a3e 217c 22bc
000003b0: 8170 3dbd 5100 8a3c 2a35 3b3e 4c63 afbd
000003c0: 8095 a63d 1d98 dfbd 1a3a 2b3e 9090 df3d
000003d0: 8ea1 febd 91d2 ed3d 7c83 553e c797 88bd
000003e0: 3a02 f53c f060 a53d b4ec 573d 643d 94bd
000003f0: 31bf 2e3e 3bdc 7a3d 6124 bc3d 658c 143e

hidden_layers.1.bias f4 [32]
0.1330444 -0.14660533 -0.040073063 0.09740536 0.12937894 0.13656402 -0.0011691876 0.20605601
0.006278325 0.052074116 -0.02979331 0.036003437 0.06972073 0.1449801 -0.07856622 -0.09551774
0.0734367 -0.03146637 -0.07638547 0.06141217 0.020425497 -0.028188469 0.062052716 0.07649889
0.14992014 0.040130123 -0.08664328 0.012157607 -0.07365168 0.14558244 -0.018129852 0.18438363
00000000: cb3c 083e b51f 16be a723 24bd 767c c73d
00000010: ea7b 043e 70d7 0b3e 6d3f 99ba 5900 533e
00000020: 68ba cd3b ab4b 553d 1a11 f4bc 5778 133d
00000030: bec9 8e3d aa75 143e 54e7 a0bd ce9e c3bd
00000040: fb65 963d e1e2 00bd fc6f 9cbd 548b 7b3d
00000050: 5f53 a73c 81eb e6bc fd2a 7e3d 73ab 9c3d
00000060: aa84 193e 7c5f 243d 0872 b1bd b330 473c
00000070: b1d6 96bd 9013 153e 0e85 94bc 10cf 3c3e

hidden_layers.2.weight f4 [32, 32]
-0.010772588 -0.08246138 0.14073655 0.12910964 -0.122226335 -0.007326225 0.17004801 -0.007767616
-0.08139966 0.05571091 -0.049792096 -0.048896126 -0.056992963 -0.07329205 -0.15110378 -0.09028639
0.1213218 0.08632277 -0.11013732 0.17459169 -0.11777777 -0.011220611 0.022851678 -0.09579127
-0.13298407 -0.11276607 -0.15025316 0.100554205 0.055449925 0.15918599 0.15689524 0.0529712
0.14316192 -0.16717343 0.15329157 -0.10288198 0.10465099 -0.031576194 -0.10002204 -0.048400816
0.030366452 -0.10590065 0.10707984 0.18209347 -0.089194834 0.11705143 0.083088346 0.08474045
-0.117033504 0.030991003 -0.17006485 0.13005732 -0.06340587 -0.0079041645 -0.07012924 -0.05588859
-0.09986665 -0.14102721 0.097312294 0.16765387 0.18873079 0.07360148 -0.023243126 0.15563145
0.07808081 -0.12751456 0.18925034 0.032130048 0.03610874 -0.055259313 0.009627673 0.22053508
-0.08642714 0.18858095 -0.1627035 0.118895754 0.15757781 -0.05851132 -0.10959398 0.093838505
-0.01699429 0.15074681 -0.080859825 -0.08257746 -0.10471223 -0.14409517 0.23189238 -0.008755356
-0.055138107 -0.1698939 -0.05139773 0.05176749 -0.06732478 0.013811398 0.11628893 0.19716476
-0.0048768446 -0.04246139 0.052705534 -0.018090246 0.07871357 0.031879317 0.053981576 0.0045970036
-0.14162028 -0.035254393 0.062175937 0.14512122 -0.0062657297 0.18010119 0.027546754 0.07091782
0.102344505 0.1419137 -0.1221038 0.1489746 0.03312013 -0.022141391 0.0012295599 0.14276823
-0.046091992 -0.06540973 -0.057929598 0.109672174 0.14378773 0.12044421 -0.10678269 0.020036811
0.00081529265 -0.048677396 0.0446887 0.05448273 -0.07911084 -0.0023297872 0.20793906 -0.02754121
-0.1191924 0.053353325 0.12568298 0.11143609 0.0695285 0.09687556 -0.07291333 -0.15658857
0.074529 0.10309838 0.030108739 -0.0072131655 -0.15053184 -0.07284901 0.12025452 -0.08644427
0.19664565 -0.0794505 -0.15714699 0.009466551 -0.12198222 -0.029610146 0.19305737 0.16923161
-0.0023888818 0.054625496 0.04262919 0.065127194 0.15324529 -0.05952593 0.07716655 0.036124405
0.109950125 -0.12431414 0.12622939 0.00822165 0.18156323 -0.13475205 -0.09877838 0.09066153
0.0048643434 0.08022754 0.02144811 -0.04828981 -0.142857 -0.14607123 -0.020695983 0.17798966
0.08125596 0.004435181 0.055623963 -0.17638087 -0.14024712 0.05410629 -0.16458534 -0.037752435
0.10271749 -0.15724194 -0.12541366 -0.10408003 -0.008078812 0.15643425 0.0133236125 -0.076943986
-0.19324403 -0.025086107 0.087570295 -0.17827731 0.118872516 0.14122999 0.061700616 -0.12552261
-0.060212977 -0.11433315 -0.00019905956 -0.08519683 0.15199304 0.04528381 -0.12681407 0.05336583
-0.02155875 -0.16910015 -0.11030699 0.12020301 -0.10667923 -0.17123377 0.119193755 0.1366706
0.060211305 -0.10480195 0.15902545 -0.14188407 0.052777905 0.12885146 0.13736989 -0.08901648
-0.17209335 -0.07381919 0.00900558 0.1078121 -0.056794852 -0.15954337 -0.13652071 0.0053471285
-0.1155512 0.12928092 0.11962523 -0.11140563 -0.11387539 -0.13123648 -0.094119176 -0.12591887
-0.11199421 0.16838734 0.05650493 -0.11155082 0.011434096 0.11991712 0.12915835 -0.021749182
00000000: 827f 30bc 83e1 a8bd 3e1d 103e 5135 043e
00000010: cd51 fabd d410 f0bb 1121 2e3e 7c87 febb
00000020: ddb4 a6bd 2031 643d ccf2 4bbd 4e47 48bd
00000030: 7471 69bd 241a 96bd f3ba 1abe 12e8 b8bd
00000040: 9077 f83d fec9 b03d ad8f e1bd 2ac8 323e
00000050: 7935 f1bd a7d6 37bc 7133 bb3c 372e c4bd
00000060: fa2c 08be e6f1 e6bd f7db 19be 5def cd3d
00000070: 761f 633d a701 233e 25a9 203e 54f8 583d
00000080: 0a99 123e 832f 2bbe 77f8 1c3e cab3 d2bd
00000090: 4253 d63d 0a56 01bd 5bd8 ccbd ef3f 46bd
000000a0: 11c3 f83c 71e2 d8bd ad4c db3d b676 3a3e
000000b0: c8ab b6bd a9b8 ef3d 392a aa3d 678c ad3d
000000c0: 43af efbd d8e0 fd3c 7b25 2ebe bf2d 053e
000000d0: f0da 81bd 7880 01bc eb9f 8fbd 6feb 64bd
000000e0: e386 ccbd 7069 10be ab4b c73d 75ad 2b3e
000000f0: a542 413e 5fbc 963d 5e68 bebc da5d 1f3e
00000100: d5e8 9f3d 2d93 02be d7ca 413e cc9a 033d
00000110: c2e6 133d 9757 62bd 63bd 1d3c f3d3 613e
00000120: b600 b1bd 5d1b 413e bf9b 26be 9e7f f33d
00000130: 145c 213e 91a9 6fbd cf72 e0bd 672e c03d
00000140: 9c37 8bbc 5f5d 1a3e d699 a5bd 5f1e a9bd
00000150: 5e73 d6bd af8d 13be 3275 6d3e a072 0fbc
00000160: 7fd8 61bd abf8 2dbe 6d86 52bd 260a 543d
00000170: 93e1 89bd 3449 623c e428 ee3d 8fe5 493e
00000180: f0cd 9fbb ffeb 2dbd c2e1 573d ff31 94bc
00000190: 9534 a13d e393 023d c91b 5d3d 76a2 963b
000001a0: e804 11be e966 10bd 32ac 7e3d a89a 143e
000001b0: c050 cdbb 726c 383e bba9 e13c 5d3d 913d
000001c0: ff99 d13d d351 113e 8f11 fabd cc8c 183e
000001d0: f9a8 073d dd61 b5bc 2f29 a13a d631 123e
000001e0: f5ca 3cbd 89f5 85bd 9647 6dbd ce9b e03d
000001f0: 173d 133e 74ab f63d e2b0 dabd 3d24 a43c
00000200: 5db9 553a f361 47bd 800b 373d 4829 5f3d
00000210: dd04 a2bd 58af 18bb faed 543e 1b9e e1bc
00000220: 251b f4bd 0489 5a3d 0ab3 003e 9b38 e43d
00000230: f564 8e3d b266 c63d 9553 95bd c158 20be
00000240: a9a2 983d 3e25 d33d 9aa6 f63c 6b5c ecbb
00000250: 0525 1abe dd31 95bd 0048 f63d b209 b1bd
00000260: 7a5d 493e f2b6 a2bd 24eb 20be 9819 1b3c
00000270: d0d1 f9bd fa90 f2bc d5b0 453e 0d4b 2d3e
00000280: c98e 1cbb fcbe 5f3d f29b 2e3d 6861 853d
00000290: 55ec 1c3e 76d1 73bd 7f09 9e3d 2ff7 133d
000002a0: 882d e13d 6998 febd 4742 013e 19b4 063c
000002b0: b6eb 393e 71fc 09be 524c cabd c1ac b93d
000002c0: 1265 9f3b 564e a43d f2b3 af3c 89cb 45bd
000002d0: 1b49 12be b293 15be 9f8a a9bc ec42 363e
000002e0: 8669 a63d ff54 913b f4d5 633d 309d 34be
000002f0: f19c 0fbe 8f9e 5d3d 0f89 28be 4ca2 1abd
00000300: 8c5d d23d 0804 21be 706c 00be e927 d5bd
00000310: fe5c 04bc 4d30 203e 484b 5a3c cf94 9dbd
00000320: c3e1 45be 6181 cdbc 0e58 b33d 548e 36be
00000330: 6f73 f33d 989e 103e c9b9 7c3d 0089 00be
00000340: e2a1 76bd 8027 eabd a5ba 50b9 ad7b aebd
00000350: 10a4 1b3e 847b 393d 8cdb 01be 2196 5a3d
00000360: fa9b b0bc 9728 2dbe a2e8 e1bd ff2c f63d
00000370: a47a dabd e857 2fbe db1b f43d 61f3 0b3e
00000380: 21a0 763d 68a2 d6bd 91d7 223e 0f4a 11be
00000390: a52d 583d a3f1 033e b1aa 0c3e 464e b6bd
000003a0: 3d39 30be 842e 97bd 248c 133c 97cc dc3d
000003b0: b8a1 68bd 565f 23be 16cc 0bbe f736 af3b
000003c0: 1ca6 ecbd 3862 043e 13fe f43d a328 e4bd
000003d0: 8037 e9bd db62 06be 8ec1 c0bd e0f0 00be
000003e0: 385d e5bd bb6d 2c3e b771 673d c274 e4bd
000003f0: 1356 3b3c 1b97 f53d 1642 043e 572b b2bc

hidden_layers.2.bias f4 [32]
0.11979015 0.08678792 0.09180009 -0.14187074 0.2150652 -0.027610045 0.14463662 -0.050918654
-0.0934637 0.110311195 0.05852111 -0.05899164 0.20410122 -0.09365612 -0.058676764 0.1330243
-0.026372278 0.13475683 -0.059054036 0.0443708 0.013925045 -0.00057334214 0.013646786 -0.029036986
0.14685714 -0.058269866 -0.15961252 -0.056222614 -0.08337441 -0.1388381 0.034274217 -0.1113915
00000000: 8a54 f53d ddbd b13d b001 bc3d 9046 11be
00000010: 0d3a 5c3e 762e e2bc 9f1b 143e 1490 50bd
00000020: e569 bfbd d6ea e13d d5b3 6f3d 38a1 71bd
00000030: e9ff 503e c8ce bfbd 0c57 70bd 8637 083e
00000040: ad0a d8bc b2fd 093e a5e2 71bd 28be 353d
00000050: df25 643c 574c 16ba c596 5f3c f9de edbc
00000060: b861 163e 62ac 6ebd 7771 23be af49 66bd
00000070: 34c0 aabd 932b 0ebe 1f63 0c3d 3a21 e4bd

output_layer.weight f4 [2, 32]
0.103259385 0.122475356 0.11001989 -0.15042576 0.20382549 0.010029682 -0.10935302 -0.16352776
-0.021947043 0.08846871 -0.01605276 -0.0974188 0.061480258 -0.03138354 0.037323073 -0.032797046
-0.12453582 0.0072995774 0.15669549 -0.082835995 -0.13425465 0.014487445 0.08423782 0.07067919
-0.09001205 -0.15544474 0.13872749 0.103455715 0.097143196 -0.0019955586 0.06562719 0.18989763
0.058594216 0.0741301 -0.19232146 -0.16766147 -0.14470464 -0.06512595 0.17168126 0.050891876
0.04849493 0.002772898 -0.095381595 -0.004405626 -0.060687866 -0.022567594 0.12895173 0.11448875
-0.02600715 0.041610837 -0.019401122 0.05912958 0.14838833 0.12479477 0.010030444 -0.02847283
0.04993008 -0.19036618 -0.08434988 0.1204908 -0.1262506 -0.11814202 -0.112856515 -0.10888807
00000000: a879 d33d 5cd4 fa3d 1c52 e13d 3609 1abe
00000010: a1b7 503e 8953 243c 7af4 dfbd d273 27be
00000020: 49ca b3bc 152f b53d 1481 83bc 8283 c7bd
00000030: b9d2 7b3d 078c 00bd 14e0 183d 3256 06bd
00000040: a30c ffbd 4b31 ef3b c874 203e eba5 a9bd
00000050: 0d7a 09be c05c 6d3c e184 ac3d 40c0 903d
00000060: 3d58 b8bd e82c 1fbe 940e 0e3e 97e0 d33d
00000070: 03f3 c63d ebc7 02bb 8c67 863d 8674 423e
00000080: 7d00 703d 86d1 973d ebef 44be 73af 2bbe
00000090: 742d 14be c160 85bd 36cd 2f3e 0074 503d
000000a0: 9fa2 463d 82b9 353b 6d57 c3bd 125d 90bb
000000b0: d793 78bd addf b8bc ec0b 043e 1479 ea3d
000000c0: f20c d5bc 2070 2a3d 1aef 9ebc dc31 723d
000000d0: 1cf3 173e 6694 ff3d bb56 243c da3f e9bc
000000e0: 7c83 4c3d 5aef 42be a1bf acbd e1c3 f63d
000000f0: d647 01be 72f4 f1bd 5121 e7bd b500 dfbd

output_layer.bias f4 [2]
-0.1032739 -0.076109484
00000000: 4481 d3bd 4adf 9bbd
