synthetic_flows_raw/saved_models/phi_only_1.2.pt (torch, 16963 bytes, 10 tensors)

input_layer.weight f4 [32, 3]
000000 a4 2d 20 bd e9 04 c7 3e c9 1d e8 3d f9 36 f1 be
       -0.039106026 0.38870934 0.11333806 -0.47112253
000010 af dd ae 3e 7b 4d f0 be 85 09 e1 3e 36 7a 9e be
       0.34153506 -0.46934113 0.43952575 -0.30952615
000020 af a4 66 3e 5d 0b ad 3d 89 bb 6b 3e 4e e4 df 3e
       0.2252376 0.08449433 0.23020758 0.4372887
000030 82 a5 8b 3e 30 83 98 3d 78 3d 79 3d 84 36 ee 3e
       0.2727471 0.07446897 0.060849637 0.46525967
000040 99 db 0e 3f 7f 9c c7 3e f9 56 90 3d d4 62 d8 be
       0.5580383 0.38986585 0.07047839 -0.422629
000050 8a f0 02 bf 00 f7 5a 3e 0a be 69 be 05 08 1f 3d
       -0.51148283 0.21383286 -0.228264 0.038826007
000060 00 1d 0e 3f 72 03 96 be 79 0a 8c bd 7d 57 0f bf
       0.55513 -0.29299504 -0.06837935 -0.5599287
000070 0a 68 eb 3e a0 43 02 be 86 21 a3 be d2 d9 30 be
       0.45977813 -0.1272111 -0.31861514 -0.17270592
000080 5e de 39 3e b2 a5 af 3d 54 a0 ef 3e fa 09 a2 3e
       0.18151233 0.08576526 0.46802008 0.31648237
000090 a6 e7 8a bd 83 c2 c6 3e c0 89 99 be 7d c0 7a 3d
       -0.06782465 0.38820276 -0.29987907 0.061218727
0000a0 5f 01 d5 be 59 0f 11 3f cc 6a 0c bf 91 a2 cd 3e
       -0.4160261 0.56664044 -0.5485046 0.4016309
0000b0 29 26 0f bf f2 f1 c2 3d 7d 4f fd 3e 02 87 f3 3e
       -0.559176 0.09518804 0.49474707 0.4756394
0000c0 19 07 f4 3e 05 7e c7 be 95 6a 0d 3e 1f 64 0d 3f
       0.47661665 -0.38963333 0.13810189 0.552309
0000d0 55 cd 04 be 90 1b 7f be 48 5e bf be 7d 7f 01 3e
       -0.12968953 -0.24912858 -0.37376618 0.12646289
0000e0 28 50 49 be 9e b6 1c 3e 2e 94 2b 3e 79 48 d5 3e
       -0.19659483 0.15304038 0.16755745 0.41656855
0000f0 de 49 04 be 53 71 d1 3e 31 c5 af be af c6 17 3f
       -0.12918803 0.40906772 -0.34330133 0.5928754
000100 d7 8d 02 3f 74 7e d9 bc b0 65 76 3e 3a 5c 87 3e
       0.5099768 -0.026549555 0.24062228 0.2643755
000110 37 26 e3 3e 02 2c e2 3e cb 4f 76 3e 48 3c b2 be
       0.44365093 0.441742 0.24053876 -0.34811616
000120 54 e8 7a bd 55 10 9a ba f1 c7 0f 3f 44 26 ed be
       -0.06125672 -0.0011754135 0.5616446 -0.46318257
000130 44 e1 e5 bd 64 d3 d2 3e 76 79 a9 3e 11 2d 79 3e
       -0.11224607 0.41176903 0.3310048 0.24333598
000140 a0 27 c1 3e 67 26 55 3e c8 78 9b 3e f2 98 86 3a
       0.37725544 0.2081543 0.30365586 0.001026897
000150 2f 9b 5f be e0 65 78 3e 07 38 e6 bd ae ec b1 bd
       -0.21836542 0.24257612 -0.11241155 -0.08687721
000160 0c 7b 97 bd 8b e6 2f be c8 7b d1 3e 9f 39 d3 be
       -0.07396516 -0.17177789 0.4091475 -0.412549
000170 72 ed 27 bd c5 22 d0 3e cb a8 9a be c1 ae c9 3d
       -0.04099793 0.40651527 -0.30206904 0.09847785

input_layer.bias f4 [32]
000000 e7 7d c0 be ef 37 0d 3f d1 3c 0d bf 27 dd b3 be
       -0.37596056 0.5516347 -0.55170923 -0.35129663
000010 1e b8 14 3f c4 1e 8f bd 64 83 f2 3e 2e fe b3 be
       0.5809344 -0.0698829 0.47365868 -0.3515486
000020 ab 3d 21 3f 48 c6 97 3e 67 68 7d 3d ca 0d 12 3f
       0.6298472 0.29643464 0.061867144 0.5705229
000030 21 3b 5d 3e dc bf a9 3e f4 95 2e 3e a7 c1 89 3e
       0.21604587 0.3315419 0.1704939 0.26905558
000040 eb 5b cd 3e 10 82 09 bf 0b 2d 36 be d8 0d 26 3e
       0.4010919 -0.53714085 -0.1779062 0.16216218
000050 c9 73 ca be 2b 67 b5 3d fb 48 a0 3d a0 5e 98 be
       -0.39541462 0.08857568 0.0782642 -0.29759693
000060 cb 16 cc bc f8 f8 9c 3e 49 1c ea be ff 48 8d be
       -0.024913212 0.30658698 -0.45724705 -0.27594754
000070 9b f2 16 3f a3 11 9d 3d b0 6a 04 3e 38 7f f0 3e
       0.58963937 0.076693796 0.12931323 0.4697206

hidden_layers.0.weight f4 [32, 32]
000000 3f 89 52 3d 0f 31 40 bd 7e 15 17 be 14 9d 95 bc
       0.05140042 -0.046921786 -0.14754292 -0.018263377
000010 a4 78 8a 3d 67 bb ae bc 20 76 ac bd 36 03 a1 bd
       0.067612916 -0.021329595 -0.08420968 -0.078619406
000020 d2 b9 0d be 4e 61 c1 3b 30 ff 39 be 92 00 0f be
       -0.13840416 0.005901492 -0.18163753 -0.13965061
000030 67 af 01 3e eb a7 17 3e 41 d8 c5 bd 58 4b 7f 3d
       0.12664567 0.1481015 -0.09660388 0.062327713
000040 cb 75 15 bd 35 bf f6 3d fc 6a dc bc ed 1d 38 bd
       -0.03648929 0.120481886 -0.026906483 -0.044950414
000050 0d 62 b7 3d 9d 62 28 3b 4c 9b 77 bd a2 07 d4 3c
       0.089542486 0.0025693544 -0.060450837 0.025882546
000060 a9 b5 01 be e0 c8 eb 3d f5 7a 4f bc db 96 e8 3d
       -0.12666954 0.11512923 -0.012663593 0.113568984
000070 8e 2d cf 3d 01 cd 50 bc 88 a3 09 be 73 45 4f bd
       0.10116111 -0.012744189 -0.13441288 -0.05060334
000080 93 48 e0 bd 84 f2 dd bc 50 01 0b 3d 77 8a e8 3d
       -0.109513424 -0.02709318 0.0339368 0.11354535
000090 b6 85 07 be 52 6d 09 bd a9 7f d5 3d 8b 4e 15 be
       -0.132346 -0.03355152 0.1042474 -0.14580743
0000a0 94 9d d2 3d 49 12 3a 3d 69 a5 03 3e 77 a1 4a bd
       0.10283962 0.045427594 0.12856068 -0.04947039
0000b0 18 c9 11 3c 1b ab 34 be be 8b 64 3d ee 75 d0 bd
       0.008898042 -0.17643397 0.05579733 -0.10178743
0000c0 ab b3 ff 3d 2e a4 26 3d 82 4b 4f bc 61 97 1f 3e
       0.12485441 0.040683918 -0.01265228 0.1558509
0000d0 1e 33 1b bd 1c bd 3b bd 7e 72 3a bd 15 38 25 3d
       -0.037890546 -0.045834646 -0.045519345 0.040336687
0000e0 ac d3 be 3c 3f a1 89 3c 62 30 94 3d 76 ac 13 be
       0.023294292 0.016800521 0.07235791 -0.14421257
0000f0 f5 e5 39 bd 23 44 91 bd 46 e6 ed 3d dc 4e 43 3d
       -0.04538532 -0.07093074 0.11616187 0.047682628
000100 a0 40 12 3e 85 6f c3 bc af 6f 07 bd 79 0e ea 3d
       0.14282465 -0.023856888 -0.033065494 0.11428542
000110 9e 4e f8 bd b0 57 65 3c 43 98 f7 3d 54 6b 7f bd
       -0.1212437 0.013997957 0.120895885 -0.062358215
000120 c1 2a a1 bd ed cd 11 be 7d 2e f7 3d 21 b1 d8 3c
       -0.07869483 -0.1423871 0.12069414 0.02645165
000130 77 15 86 3d 73 9e 26 bb 69 ae 28 be 2b 65 1d be
       0.06547063 -0.0025424033 -0.16472782 -0.15370624
000140 eb 5e fb 3d a9 d1 86 bd 87 91 05 bd 74 8f 19 3e
       0.122739635 -0.06582958 -0.03260949 0.1499613
000150 a3 ab b4 3d 1c 97 16 3e b9 34 1f 3e 54 5a 8c 3d
       0.088217996 0.14706081 0.15547456 0.06853166
000160 44 4e 8e 3c 05 e3 78 3d 1b b7 90 bd d9 7d 1b be
       0.017371304 0.060763378 -0.070661746 -0.15184726
000170 44 fe ca bc ce c2 01 be 58 4f 2a bc 49 1f 01 bd
       -0.024779446 -0.12671968 -0.010394894 -0.031523976
000180 44 fe ed bd d2 d4 60 bb 06 23 3b 3e 86 13 03 3e
       -0.11620763 -0.0034306538 0.18275079 0.12800416
000190 04 0f 24 be 72 dc a0 3b 1e af 81 3c cc 4a fb 3b
       -0.16021353 0.0049090916 0.015830573 0.0076688286
0001a0 ce 9c 50 3d b5 d5 0d be 44 13 47 3d 3c d1 1d be
       0.05093079 -0.13851054 0.048602358 -0.15411848
0001b0 80 ba 47 bc 6f 61 06 bd 93 a0 15 bc 37 95 81 bd
       -0.012190461 -0.032807764 -0.009132522 -0.063272886
0001c0 bf cd 19 3e 4e cf 28 3e 0a ad 0f 3e 53 30 86 3d
       0.15019892 0.1648533 0.14030853 0.06552186
0001d0 b7 f8 20 be 97 6f 25 be a2 46 fe bc d6 8e 91 bd
       -0.15719877 -0.1615585 -0.03103954 -0.07107322
0001e0 72 04 80 bd e8 b3 41 3d ac 94 37 3e 2d e4 fa 3d
       -0.06250848 0.047290713 0.17927808 0.12250552
0001f0 13 05 39 be 28 4c 98 bd 66 08 e1 bd d4 29 cd bd
       -0.18068342 -0.07436401 -0.1098793 -0.10017744
000200 0e 93 13 be 20 0d 93 3d aa a9 cb 3b 8a 7a ed bd
       -0.14411566 0.07180238 0.006215294 -0.11595638
000210 b7 fe b2 3d fc f3 80 3d d6 42 a1 ba 9f a8 c1 3d
       0.08739989 0.06296536 -0.0012303244 0.0945599
000220 dc cf 91 3d fb e1 49 3e 24 6f 35 3e 05 f5 3d bd
       0.07119724 0.19715111 0.17718178 -0.046376247
000230 24 c3 69 3e 22 f2 11 3e dc 07 0f be c1 02 ca 3c
       0.22828346 0.14252523 -0.13967842 0.024659516
000240 33 c9 f5 bd 05 03 13 bd ea 6f 28 be 90 be 0e 3e
       -0.12001266 -0.03589155 -0.16448942 0.13939881
000250 d4 a8 be bd 6f d1 92 3d 0e e7 9b 3d 23 5c 2c 3d
       -0.09309545 0.071688525 0.076124296 0.042080056
000260 8a e2 11 be df 17 2d 3e 23 4f b8 bd e2 f2 69 bd
       -0.14246574 0.16903637 -0.08999469 -0.057116397
000270 05 01 36 3d 36 c9 32 3e 0a de ca bd df d6 38 3e
       0.044434566 0.17459568 -0.09905632 0.18050717
000280 09 35 a8 bd 0e 7a be 3c 15 44 39 3e 11 ea 2e 3e
       -0.08213241 0.02325156 0.18092377 0.17081477
000290 27 71 d5 3d 08 fc a3 bd d1 40 0d 3d 65 49 21 3e
       0.10421973 -0.080070555 0.034485642 0.15750654
0002a0 ba e5 05 be a5 a9 ef 3d bd 0c 36 bb 45 34 05 be
       -0.13075915 0.11702279 -0.0027778589 -0.1300822
0002b0 92 b2 7d 3d ea b0 de bc 81 85 89 bd 7d ad d5 bc
       0.061937876 -0.027183969 -0.06714917 -0.026083702
0002c0 f4 37 0d 3d f7 71 bd bd 74 a0 29 be b2 f2 f8 bd
       0.03447719 -0.09250253 -0.16565114 -0.121556655
0002d0 3f 36 24 be c3 9e 38 3d 2f d1 24 3e b2 c7 49 bd
       -0.16036318 0.045073282 0.16095422 -0.04926271
0002e0 65 0b 27 3d 93 27 81 3c 6e b7 09 3e 73 6b 4f bd
       0.04078235 0.01576594 0.13448879 -0.05063958
0002f0 d3 b3 34 3d 5f bc 0a be 6e ea eb bd 17 22 e7 ba
       0.044116806 -0.1354842 -0.11519323 -0.0017634061
000300 9e 6a a8 bd e3 b2 03 3e 08 9f 3b 3e f4 2d a3 3d
       -0.082234606 0.12861209 0.18322384 0.07967749
000310 ce f4 17 3e f2 0e d3 bd 0a 58 eb 3d e8 2e cc bd
       0.1483948 -0.10305585 0.114914015 -0.09969884
000320 a2 dc 7d 3e 11 51 5e 3e cf 2c 49 3e 35 d4 99 3d
       0.24791196 0.21710612 0.19646 0.075111784
000330 a7 eb 04 bd e9 64 8e bd 8f 02 25 bd 8b c5 9d bd
       -0.032451298 -0.06952841 -0.040285643 -0.07703694
000340 38 ce 76 3c b8 09 0a be e5 60 27 bd 9a a7 32 3d
       0.015063815 -0.1348027 -0.04086389 0.04361687
000350 cb 3c 1e be 49 25 57 3e c4 61 2f 3e a9 69 0e 3e
       -0.15452878 0.21010317 0.17127138 0.13907494
000360 dd 5a 59 bd d0 3c c9 3d 3c 8f 55 3d 1c 58 f3 3d
       -0.05306517 0.09826052 0.052138552 0.1188204
000370 1a cf 55 3e 16 7f be 3d b1 4a 14 bd 98 3c 4a 3d
       0.20879784 0.093015835 -0.036204044 0.049374193
000380 d5 6e 5f bd 2c 53 9a bd f8 26 3b bd 37 3b 1f bc
       -0.054549057 -0.07535395 -0.04569146 -0.009718708
000390 7f 2a fc bd e4 07 6b bc 1e 0a 3a 3d 50 5e 28 3d
       -0.12312793 -0.014345143 0.045419805 0.04110557
0003a0 bd c8 47 bd 3a 1c 5c 3d 53 6f b3 bd 81 a9 29 3e
       -0.048775423 0.053737856 -0.08761468 0.16568567
0003b0 b3 98 05 be 69 13 28 3e 2e c5 20 3d 86 18 f3 3c
       -0.13046531 0.16413654 0.039250545 0.02967478
0003c0 ef 8c 26 be a2 50 dd 3d 53 be 99 bd 56 4c 06 be
       -0.162647 0.10806395 -0.075070046 -0.13115057
0003d0 06 48 2e 3e 53 bf 2b 3d 93 84 2d be f9 a1 27 be
       0.17019662 0.041930508 -0.16945104 -0.16370381
0003e0 bc 1e 19 3d 73 58 b8 3c 96 f3 21 3e d5 f7 50 bd
       0.037382826 0.022503113 0.15815577 -0.0510176
0003f0 91 3e 29 be 97 af 01 be e0 16 a5 bd 63 3d 8e 3d
       -0.16527773 -0.12664638 -0.08061004 0.06945302

hidden_layers.0.bias f4 [32]
000000 75 d6 4f bc fd d1 fe bd 2b 24 e7 bd 49 df 35 3e
       -0.012685408 -0.12442396 -0.11286195 0.17760958
000010 47 71 e1 bd b0 a1 2f bd 0e 32 7e 3e 1e 29 2a bd
       -0.11007934 -0.042878807 0.24823782 -0.04154312
000020 06 e6 37 3e 8e 26 23 3e de f9 bd bd 7b b0 a7 3c
       0.1795884 0.15932676 -0.09276174 0.020469895
000030 e0 b6 c6 3d 95 40 39 3e ca a7 16 be fc b7 37 3e
       0.097028494 0.18091042 -0.14712444 0.17941278
000040 d4 6a a8 bd db 0e 6b bd ed 63 59 3e c2 b2 15 bd
       -0.08223501 -0.057387214 0.21229525 -0.03654743
000050 d7 23 e6 3b 7f 5a 37 3e 68 19 ef bc 44 1b 0d 3e
       0.0070233154 0.17905615 -0.02918692 0.13779932
000060 c8 bb a2 bd 36 bd 30 be e0 90 74 3e cb 73 02 3e
       -0.07945973 -0.17259678 0.2388339 0.12739484
000070 13 92 5e 3e 3f 82 6e 3b d1 1a a5 3d 28 f1 71 3d
       0.2173541 0.003639355 0.080617554 0.059067875

hidden_layers.1.weight f4 [32, 32]
000000 99 71 ee bd 21 3f 28 bb a2 c7 b3 3d b6 e2 1e bd
       -0.11642761 -0.0025672393 0.08778311 -0.038790427
000010 b3 28 13 3e 14 74 08 3c f2 b9 15 3e ae 24 26 3d
       0.14370994 0.008328456 0.14621714 0.040562324
000020 b3 1c 24 be 90 5c 79 bd 6b 5b 08 3d c3 90 a8 bd
       -0.16026573 -0.06087929 0.033290308 -0.08230736
000030 36 5c bf bd 13 00 b3 bd 66 59 04 3d a0 1e a3 bd
       -0.0934376 -0.087402485 0.03231182 -0.07964826
000040 f2 22 d3 bc fd c6 3e be 7b a0 98 3c 39 b7 23 3e
       -0.0257735 -0.18630596 0.01863121 0.15987863
000050 8e 8d 14 bb 28 6b 85 3c 9d 2f e0 bd 59 65 f3 bd
       -0.002266738 0.016286448 -0.109465815 -0.11884565
000060 76 b0 46 be c5 67 ef 3d d9 10 1b 3e ab 1b 56 3d
       -0.19403252 0.11689714 0.15143146 0.05227248
000070 5b 21 25 3c 5f f3 1f bd 18 d9 22 3c d4 a6 34 be
       0.010078753 -0.039050456 0.0099394545 -0.17641765
000080 13 fb 1e be fa f8 2b 3d eb 4e 2b be c6 1c b6 bd
       -0.15525465 0.04198549 -0.16729324 -0.08892207
000090 05 fb 42 3c 0e 0b 07 be 7b 46 10 3e 14 f6 e6 bd
       0.011900668 -0.13187811 0.14089386 -0.112774044
0000a0 e3 fa 63 3e fd 74 8f 3c 66 f6 21 be a7 8d 1d 3e
       0.22263674 0.017511839 -0.1581665 0.15386067
0000b0 cc 34 43 bd 4d 96 a0 bc 4d a9 31 be 9d af 2d 3e
       -0.047657773 -0.019602919 -0.1734974 0.16961522
0000c0 1c f0 6f 3e f3 90 53 bd c4 ea 7e 3d 7e 96 b3 3d
       0.23431438 -0.051651906 0.06223561 0.087689385
0000d0 9e 60 82 3c 15 3b 31 3e 10 a3 1f 3d 9d e1 80 3e
       0.015915211 0.17307694 0.038973868 0.2517213
0000e0 3b de f9 3c 72 41 13 bc 7f c9 6b bc 57 39 3d 3d
       0.030501476 -0.008987771 -0.014391302 0.04619726
0000f0 ef 1e 24 3a b6 cb ff 3d e3 6c 10 3e 8e 37 47 3e
       0.0006260713 0.12490027 0.14104037 0.19454786
000100 bb 2a 3c bc 9e 2b 07 be 15 5d 1d 3e 2d b1 e6 3d
       -0.011484797 -0.13200232 0.15367539 0.11264262
000110 ca 40 28 3d cf f3 22 be 6e 03 6f 3e 66 83 4b bd
       0.041077413 -0.15913318 0.23341152 -0.04968586
000120 3d cd d5 3d 14 cb f7 bc 6c 2d 13 be 74 ea 69 bd
       0.10439537 -0.030248202 -0.14372796 -0.057108358
000130 45 54 2f 3e 19 c7 8c 3d 9b 5d 11 be 08 19 d9 3d
       0.1712199 0.06873912 -0.14195864 0.106004775
000140 a5 b5 0a 3e fd 8a 25 3b 7a 80 f2 3d e7 03 84 bc
       0.13545854 0.0025259845 0.11840911 -0.016115142
000150 86 ee 09 3d f7 3f 4a 3e cf e5 9f 3b f9 cb dd 3d
       0.03367474 0.19750963 0.0048796902 0.1082992
000160 a2 e9 45 3e 79 31 6b bc 5a 9b 3a 3b c0 4c 84 3e
       0.19327405 -0.014355057 0.0028473944 0.25839806
000170 58 49 a8 bd 87 39 92 bd 43 ca 2e 3e eb 30 b8 3d
       -0.08217114 -0.07139879 0.17069344 0.08993705
000180 08 2c 14 be 36 27 aa 3c 5d 3a ea bd c4 33 e2 bd
       -0.14469922 0.02077065 -0.11436913 -0.1104503
000190 32 55 45 bd 00 50 80 3d 25 ea 6e 3e a3 ea a2 bd
       -0.04817695 0.06265259 0.23331507 -0.0795491
0001a0 11 a9 29 3d 14 2e 0c bd 7c 4c 11 bd 8a 9a 7c bd
       0.041421 -0.03422363 -0.03547333 -0.061670817
0001b0 6c b0 01 3e 6a 67 1b 3e ef a1 8e 3d 55 88 eb bc
       0.12664956 0.15176168 0.0696448 -0.028751532
0001c0 d2 3a d6 39 07 94 b7 3d c4 79 a8 bd 9b 23 06 be
       0.00040861085 0.08963781 -0.0822635 -0.1309952
0001d0 84 40 05 3e fe 36 6e 3e 6d 87 59 3e 93 d3 49 3c
       0.13012892 0.23263165 0.21243067 0.01231851
0001e0 3d f3 1c 3e 68 e5 a2 3d 86 fb 60 3e ad 06 6b 3e
       0.15327163 0.07953912 0.21970949 0.22951765
0001f0 b9 7b a7 bd 76 2d 92 3d db 2a 1c be 92 a3 62 3e
       -0.08177895 0.07137577 -0.15250723 0.2213271
000200 95 ad 45 bb 99 d1 07 3e 71 6c 4f bc b1 44 a9 3d
       -0.0030163277 0.13263549 -0.012660132 0.08265055
000210 37 7f d2 3d 9c 75 1a be 9f 99 04 3e 11 a5 ca bd
       0.102781706 -0.15083927 0.12949227 -0.09894765
000220 d7 7d 21 be 96 b3 fe bd 5a 85 92 bd da 20 e8 bd
       -0.1577066 -0.12436597 -0.07154341 -0.11334391
000230 e1 73 39 be 41 71 0b 3e 4d 21 0e be b4 12 1e be
       -0.1811061 0.13617422 -0.1387989 -0.15436822
000240 a7 35 11 3e 42 b7 33 be 7a 26 b9 3d 03 9b 17 bd
       0.14180623 -0.17550376 0.09040542 -0.037013065
000250 0b ff 98 3d 1f 27 25 be 78 8f 4f bd cb 37 00 bd
       0.074705206 -0.16128205 -0.05067393 -0.03130321
000260 c3 22 a4 3d 8e bd 99 bb 57 a3 ab bd a1 42 0a bd
       0.08014443 -0.004691786 -0.08380764 -0.03375495
000270 12 e5 c3 3d 51 ac bd 3d f6 8b 1e 3e 16 a4 24 be
       0.09565176 0.09261382 0.15483078 -0.16078219
000280 16 b0 32 be e1 1e 8c 3d 16 1d 23 3e 2a 72 03 be
       -0.17449984 0.06841827 0.15929064 -0.12836519
000290 1d 0d b5 bd 1d ea ea bd 42 54 10 be f3 ac 0d 3e
       -0.08840392 -0.11470435 -0.14094642 0.13835506
0002a0 1b ab 08 3e 3e 7b ff 3c c7 df 9c 3d 81 b5 8e bd
       0.13346522 0.031186696 0.0765987 -0.06968213
0002b0 bc 32 14 bd ec 8e db bd a8 8c 05 bd c6 8d 4c 3d
       -0.036181197 -0.107206196 -0.032604843 0.049939893
0002c0 f5 fe 31 3d a2 17 4d bd 6a b6 11 be f0 dd e6 bd
       0.043456037 -0.050071366 -0.14229742 -0.112728
0002d0 62 c6 d9 3b 03 ae 61 bd 72 aa 84 3d 63 75 06 be
       0.0066459635 -0.05509759 0.06477822 -0.13130717
0002e0 38 d9 0b 3e cc 55 3a bd c0 3b 85 3b f1 0d ef bd
       0.13657081 -0.04549198 0.0040659606 -0.11672581
0002f0 f2 c6 14 3e fe b0 e7 3d b4 3f f3 3d 67 38 39 bc
       0.14529017 0.113130555 0.11877385 -0.011304951
000300 91 90 65 3d 52 4b 23 be 48 f7 f5 bd 8f c4 68 3d
       0.056046072 -0.15946701 -0.12010056 0.056828078
000310 d2 e6 34 bd 83 26 34 3e 17 e6 94 bd 12 db 60 bc
       -0.04416544 0.17592816 -0.07270449 -0.013724105
000320 81 8a 6c 3e 30 e3 53 3e d4 5c 94 bb 42 4d 81 bc
       0.2309971 0.20692134 -0.0045276675 -0.01578391
000330 91 12 40 3e fb c6 28 3e 4f 93 04 be 3f 2e 61 3e
       0.18757083 0.16482155 -0.12946819 0.21990298
000340 4a ac 05 3e 2b c4 e0 bd 4f 2d 57 3e 29 b5 a7 bd
       0.13054004 -0.10974916 0.21013378 -0.081888504
000350 02 a2 43 3e 8b 7e ca 3c c1 6f 5e 3d bf f1 ee 3d
       0.1910477 0.024718544 0.054305796 0.11667203
000360 95 e9 1e 3d 55 e7 5c 3c 03 f1 f9 3d df 0e 6e 3e
       0.03879698 0.013482888 0.122041725 0.2324786
000370 a1 af 43 bd 42 62 bc 3d 87 4f b5 bd eb 98 20 3e
       -0.047774915 0.09198429 -0.08853059 0.15683334
000380 6e 3d 2c be 18 cf 02 bd ca 8b c1 bd d1 36 ef 3d
       -0.16820309 -0.03193578 -0.09450491 0.11680377
000390 71 56 40 3d 21 90 0e 3d a0 30 17 be 49 e4 a4 3d
       0.046957437 0.03480542 -0.14764643 0.080513544
0003a0 be 9f d8 3d b6 61 1d bd f0 19 10 be bf 98 db bd
       0.105773434 -0.038423263 -0.14072394 -0.107224934
0003b0 d6 a1 08 3e 11 64 cd bd ae 6e 3a bd a2 85 0c 3e
       0.13342986 -0.10028852 -0.04551571 0.13722852
0003c0 cc 72 e0 3d 78 97 99 bc 81 cb a4 3d 90 09 a9 bd
       0.10959396 -0.018748984 0.08046628 -0.08253777
0003d0 e7 dc 5b bd 68 2e ee bd 22 fc 32 be c4 b0 af 3d
       -0.053677466 -0.11629945 -0.17478994 0.08578637
0003e0 fc e2 0b be 90 fe 0d be a3 7f 97 3d fd 3f 1e be
       -0.13660806 -0.13866639 0.07397392 -0.15454097
0003f0 99 a6 13 b8 d3 74 83 3d e8 bf bb bd 71 19 59 bd
       -3.5202687e-05 0.06418767 -0.091674626 -0.05300278

hidden_layers.1.bias f4 [32]
000000 2e d5 f2 3d 1f 7f 40 3e b6 9b 7e 3e 70 9a 11 3e
       0.11857067 0.18798493 0.24864087 0.1421907
000010 59 e8 0e bc 86 12 3c bd 05 c5 84 3d 18 af 4e 3d
       -0.008722388 -0.045916103 0.06482891 0.05045995
000020 3c 56 38 3e 27 ef 9b 3b 70 5e 8c 3e 03 3f 83 3e
       0.18001646 0.004758734 0.274158 0.25634012
000030 69 12 70 bd 62 42 21 3e 0f 9d d4 bd 18 f4 40 3e
       -0.058611307 0.1574798 -0.10381519 0.18843114
000040 34 17 02 be 05 02 b6 bd e5 42 17 3e ee 23 09 3b
       -0.12704164 -0.08887104 0.14771612 0.0020925957
000050 c6 1a 60 3e 82 bb 07 bb 64 1c 35 3e 0b 81 02 3e
       0.21885213 -0.0020711129 0.17686611 0.12744538
000060 8f 19 13 3e 92 24 85 3d 7c 7f 16 bd 2f 15 11 bd
       0.14365219 0.06501116 -0.036742672 -0.035420593
000070 2a 34 a8 bd 45 c2 80 bc 24 98 c6 bd 7d d4 94 bd
       -0.082130745 -0.015717635 -0.09696987 -0.072670914

hidden_layers.2.weight f4 [32, 32]
000000 a5 6d 09 be 26 0c d1 3d 1e 25 d8 ba 9e fd 8d 3d
       -0.13420732 0.10207395 -0.0016490554 0.06933139
000010 45 41 d8 bd f9 c1 b0 bd 3e 56 98 3d 1b f9 23 3e
       -0.10559324 -0.08630747 0.074383244 0.16012995
000020 04 6c b4 bc dc 35 09 3e f3 cc 8a 3a 2f 70 c0 bc
       -0.022024162 0.13399452 0.0010589644 -0.023490993
000030 28 2c c9 bd 6b 12 8c bd 59 d9 dd 3d 37 07 85 3d
       -0.09822875 -0.068394504 0.108324714 0.06495517
000040 f5 ad 96 3d 7d 4e 11 3e 9f 11 01 3d be 19 f0 bd
       0.073573984 0.14190097 0.031510945 -0.1172366
000050 41 b2 3b be 3b e3 64 bd c8 4f 8d bc 07 c4 a1 3d
       -0.18329717 -0.055880766 -0.017249957 0.078987174
000060 ea 6c 2b be d3 4d d2 bd 91 49 d0 bd f7 3f 03 3e
       -0.16740766 -0.1026875 -0.10170282 0.1281737
000070 67 ec 2a 3e 31 98 c0 bd 8f 5d cb bd 69 2b 0f be
       0.16691743 -0.09404028 -0.09929954 -0.13981403
000080 1f 57 7a bc d9 07 39 3d 2d 34 8a bd 41 8a 89 3c
       -0.01527956 0.0451735 -0.06748233 0.016789557
000090 c4 3d 2c 3e 3b 43 f2 3c 3a 92 14 be 64 29 ed bd
       0.16820437 0.029573074 -0.14508906 -0.1158016
0000a0 9b bd 66 bd 5f a3 13 be bb c9 06 3e 71 b5 a7 3d
       -0.056333166 -0.1441779 0.13162892 0.08188904
0000b0 28 b9 c9 3d 67 b6 86 bc 92 21 73 bd b0 01 bd bc
       0.09849769 -0.016444398 -0.059358187 -0.023072094
0000c0 01 c0 17 bd 49 92 d0 bd fa 45 2c be 74 6f bc 3d
       -0.037048344 -0.10184152 -0.16823569 0.092009455
0000d0 70 5a c8 bd fe f7 d3 bc 7f 89 8e 3d 4c 55 22 3e
       -0.097828746 -0.025875088 0.06959819 0.1585285
0000e0 f4 88 e5 3d bb 79 e8 3d f1 05 1a be da 7b 1b 3e
       0.11207762 0.11351343 -0.15041329 0.15183964
0000f0 46 54 a3 3d 6f e9 a2 bd 8e 3d bc bd 7d f1 86 3d
       0.07975058 -0.0795468 -0.09191428 0.06589029
000100 e4 f1 2b 3e e5 76 1e 3e be ad 67 3e 8b 35 82 bd
       0.16791493 0.15475042 0.22624871 -0.06357869
000110 a7 93 f7 3d 6c bf 71 3d fc c6 92 bd 06 46 cc bd
       0.12088709 0.059020445 -0.071668595 -0.099742934
000120 78 a6 79 3e e5 50 d5 bd 08 31 7e 3e cd be b7 3d
       0.24379909 -0.1041582 0.24823391 0.08971939
000130 0d 2d 98 3d 5f 4d 00 3e a5 26 11 3e 27 cd 3d 3e
       0.07430468 0.12529515 0.14174898 0.1853529
000140 b3 0f 09 bb dc 8c d9 3d 42 e5 78 bd fa d3 2c 3d
       -0.0020913898 0.1062257 -0.060765512 0.042194344
000150 fa 0f 89 bd ac 8f 24 bc 50 bf 13 3e 1f 03 b2 bb
       -0.066925004 -0.01004402 0.14428449 -0.005432501
000160 bf 72 3e bd fb fd 39 3e f1 18 25 3e 7e c8 81 3d
       -0.04649615 0.18163292 0.16122796 0.06337069
000170 2d 8b d8 3d 94 62 88 bd c1 24 10 be b4 3a e4 bb
       0.10573421 -0.06659427 -0.1407652 -0.006965006
000180 33 86 ef bd c4 52 af bc 55 d8 cf bd c9 b5 02 3e
       -0.11695518 -0.02140177 -0.10148684 0.12764658
000190 0a 2e 0a 3e 86 b7 f9 3d 18 97 21 bd bb 47 9d bd
       0.13494125 0.121932074 -0.039450735 -0.07679697
0001a0 bd e7 fc bd 27 49 e5 3d 3a 3c 3a bc 7b 27 a7 3d
       -0.12348888 0.11195593 -0.011366898 0.08161827
0001b0 f6 d9 98 bc d6 f8 12 3e 14 ce 82 bd d1 dc 1c 3e
       -0.01865862 0.14352736 -0.063869625 0.1531861
0001c0 77 a5 bf bd 3e 93 08 be 8f 50 2b be 1e 94 cd bd
       -0.09357732 -0.13337418 -0.1672995 -0.10038017
0001d0 a0 79 44 3e 54 6d 43 3d 6d 62 5d bd dc ad 32 3b
       0.19187021 0.047711685 -0.054048944 0.0027264273
0001e0 0d f8 0e 3b f6 59 0e be e5 48 9c bd c5 73 9d bd
       0.002181533 -0.13901505 -0.07631091 -0.07688097
0001f0 5a 7e 2a 3e 6f f1 2b be aa 45 40 3e b5 a6 e4 3d
       0.16649762 -0.16791318 0.18776575 0.11164609
000200 75 20 dc bc 3d dd 17 3e a8 9f d9 bd b5 a9 f9 bc
       -0.026870945 0.1483049 -0.10626155 -0.03047643
000210 38 10 16 3e 2e 6a af bd 3e ce 6b 3d cb cb e1 3d
       0.14654624 -0.08565174 0.057569735 0.110251985
000220 01 3e cd 3d 97 06 2d bd 24 58 04 be 9d e2 94 3d
       0.10021592 -0.042242613 -0.12924248 0.072697856
000230 90 ab a7 3d 12 4e 22 bc be f7 16 be 69 ad e7 3d
       0.0818702 -0.009906309 -0.14742944 0.11312372
000240 25 4a 1a 3e ad be b5 3d ab 6e 0f 3e b7 1a 17 3e
       0.15067346 0.08874259 0.1400706 0.14756285
000250 29 f0 da bc e4 56 d2 bd bd 27 bb 3c ac 0c 62 3d
       -0.026725845 -0.10270479 0.022846097 0.055187866
000260 b6 88 3e be 3e 53 08 3e 48 ac 0b be 32 c0 a7 3d
       -0.18606839 0.13313004 -0.13639939 0.08190955
000270 26 b4 a5 3d 79 57 12 be e8 32 e0 3c e8 6b 9f bc
       0.08091001 -0.1429118 0.027368024 -0.019460633
000280 8f bd f8 bd 47 72 c6 3d bc 8d 4e 3e 16 37 80 3e
       -0.121455304 0.096897654 0.20171255 0.25042027
000290 e6 c6 c3 bd 10 16 76 bd 01 e9 80 3e 04 06 db 3d
       -0.09559421 -0.060079634 0.25177768 0.10694507
0002a0 ca d8 7d 3e d3 0d 69 bd e5 6d d3 3d f3 dc f3 3d
       0.2478973 -0.05689795 0.10323695 0.11907377
0002b0 f0 8c 16 be c9 3d 30 3e 6c 38 1a 3e ac 2f db 3d
       -0.14702201 0.17211069 0.15060586 0.10702452
0002c0 d8 c4 56 3d 8a b3 f6 bd d3 58 00 be 97 b0 53 3c
       0.05243382 -0.12045963 -0.12533884 0.01292052
0002d0 9e ee 35 3e 2b 67 ca 3d 2a 97 45 3e 7e bb f4 3d
       0.17766806 0.09882959 0.19295946 0.11949824
0002e0 5f 47 ea 3d 23 a0 a9 3d a7 79 a5 bd 4e cd a5 bd
       0.11439394 0.08282497 -0.08079844 -0.080957994
0002f0 2e 26 1a be 5e d9 db bd eb 91 e0 3d d0 89 77 3e
       -0.15053627 -0.10734819 0.10965332 0.24173665
000300 35 5b 2e be 41 91 b6 3d 8a 71 f8 bd 87 49 0d be
       -0.1702698 0.08914424 -0.12131031 -0.1379758
000310 01 d8 9b bd e0 32 22 bd 6a aa 72 3d 37 98 32 3c
       -0.07609559 -0.0395993 0.05924455 0.010900549
000320 48 7e 1c 3d 14 e6 15 be 54 90 05 be ee c3 82 bd
       0.03820637 -0.14638549 -0.13043338 -0.06385027
000330 53 b7 49 bd 21 76 06 3e 24 d7 d8 3d 2e 4d 90 bd
       -0.049247097 0.13131 0.1058791 -0.07045971
000340 96 5a ec bd 74 25 bf 3d 41 c0 3b bd 52 c6 84 3d
       -0.115407154 0.093333155 -0.045837644 0.06483139
000350 0c 25 0b 3e a0 10 2c 3e 35 ef 2f be e8 4e c7 bd
       0.13588351 0.16803217 -0.17181094 -0.09731847
000360 8a cc 46 bd 78 57 96 3b 7a 9d 7e 3d 4d 8e a9 3d
       -0.048534907 0.004588064 0.0621619 0.08279095
000370 f4 9e 9a 38 27 a8 b2 3c 12 ae 06 3e 6d a5 29 3e
       7.3728996e-05 0.021808697 0.1315234 0.16567011
000380 79 c3 99 3d 7b be 3e bc 30 23 3e 3d a1 a1 ce bc
       0.075079866 -0.011642094 0.046420276 -0.025223555
000390 d2 08 b8 3d 6f d1 85 3d ce 52 5d 3e 31 61 60 bd
       0.08986057 0.06534087 0.21613619 -0.05478019
0003a0 eb 97 f4 bb 83 92 cf bd 35 d8 bf bd b3 80 41 3e
       -0.007464399 -0.10135367 -0.0936741 0.18896751
0003b0 6e 6e 36 3d 00 92 8c 3d 31 fd 2e 3e da a0 d2 bc
       0.044538908 0.06863785 0.17088772 -0.025711466
0003c0 e0 f3 48 3d 3f 16 e7 bd 8d 35 42 bd 36 9b fc 3c
       0.049060702 -0.1128354 -0.04741435 0.03083573
0003d0 29 61 ae 3a 20 3f 8e 3c 55 13 8b bd 82 6f 74 bd
       0.0013304102 0.017364085 -0.06790797 -0.059676655
0003e0 c5 37 4e 3e 8d c3 09 be 26 f9 74 3d 4c b4 11 3e
       0.20138462 -0.13453503 0.05980792 0.14228934
0003f0 43 e7 b0 3d 83 85 f2 3d 9f ab 13 3e ee 89 c8 3c
       0.0863786 0.118418716 0.14420937 0.024479833

hidden_layers.2.bias f4 [32]
000000 31 64 c0 3c 7b d2 d5 bd 14 b4 d6 3d 7a 5c d2 bd
       0.023485275 -0.104405366 0.10483566 -0.10271545
000010 aa 7f 6d bc ac b7 a3 3d c3 9d a6 bd 66 11 43 3e
       -0.0144957695 0.07994017 -0.081355594 0.19049606
000020 02 5e 31 be 8d e8 0d be fd 45 ee bd 27 cd 61 3e
       -0.17321017 -0.13858242 -0.11634443 0.22050916
000030 4b 58 ea 3d 0a 70 51 be 8d a1 16 be 26 1d ce bd
       0.11442622 -0.20452896 -0.14710064 -0.100641534
000040 66 9b f6 bc f1 8f ab 3d 62 93 cf bc d4 95 1f 3e
       -0.030103397 0.08377064 -0.025338832 0.15584499
000050 1a f5 74 bd dd 1f 7f 3e d8 9a 92 bd a2 e8 7e 3e
       -0.05980406 0.24914499 -0.0715844 0.2489343
000060 0d 0d 83 3e 72 94 fc 3d a8 68 25 be d7 ed 89 3c
       0.25595894 0.12333001 -0.16153204 0.016837044
000070 f6 cb b0 bd 45 d6 21 bd 36 69 0f be 14 11 98 bd
       -0.086326525 -0.039510984 -0.14004979 -0.074251324

output_layer.weight f4 [2, 32]
000000 1e f6 e3 bc 31 fc 34 be ed 3d d0 3d 95 28 80 bd
       -0.027827319 -0.17674328 0.101680614 -0.062577404
000010 d4 a6 12 be 17 61 22 3e c9 c1 fb ba 54 d5 2b 3e
       -0.14321452 0.1585735 -0.0019207533 0.16780597
000020 86 ed ab bd e6 bc 13 3e 9e 35 c0 bd 65 ee 3b 3e
       -0.083949134 0.14427528 -0.09385227 0.18352659
000030 b8 1b 99 bd 40 6f 65 bd e0 a0 b8 bd 69 37 8d bd
       -0.0747599 -0.0560143 -0.090150595 -0.06895334
000040 c9 99 23 be 0d 46 e5 3c 69 99 14 be 9c b9 cd 3c
       -0.15976633 0.027987504 -0.14511646 0.02511292
000050 7f 72 b7 3a 79 0e 6c 3e 25 a5 37 bd 82 3a 71 3e
       0.0013995914 0.23052396 -0.04483523 0.23557475
000060 a4 90 56 bc 83 ac ec 3d 34 9b 32 bc b6 67 70 bd
       -0.013096008 0.115563415 -0.010901261 -0.058692656
000070 50 d1 e1 3d e5 2a 09 3e 45 6b f6 3d 45 55 e2 3d
       0.11026251 0.13395269 0.12032179 0.1105142
000080 1d ad 20 3d c6 b1 4f be 8f ca 6a be 64 ec 30 be
       0.039227594 -0.20282659 -0.22928832 -0.17277676
000090 0a 2b 27 be 8d 8f 5d be f2 2a d6 3d 61 4c 4c bc
       -0.16325012 -0.21636792 0.1045741 -0.012469382
0000a0 c6 18 cf 3d e1 f4 ee 3d fa 14 11 be e5 76 e2 b9
       0.10112147 0.11667801 -0.14168158 -0.00043194662
0000b0 48 8f 09 3e 31 dc 92 3d 3a d6 15 3e ab 62 d5 3c
       0.13433564 0.071709044 0.14632502 0.026048025
0000c0 4e db 6f 3c fe 08 49 be 43 92 82 bc 78 14 b1 bd
       0.014639689 -0.19632336 -0.015938884 -0.08646482
0000d0 cb 22 11 3e a1 94 71 be 89 f9 06 3e 3e aa 1c be
       0.14173429 -0.23591854 0.13181128 -0.15299317
0000e0 42 26 8a be e6 fc f0 3b f1 4b 10 be 9b 7b 55 bc
       -0.26982313 0.0073543666 -0.1409147 -0.013029958
0000f0 fa e3 00 be 72 f9 00 3d d6 84 0e 3e ba 8d 21 3d
       -0.12586966 0.03148789 0.1391786 0.0394418

output_layer.bias f4 [2]
000000 58 40 9a 3d 86 6e 83 be
       0.07531804 -0.2567026
