synthetic_flows_raw/saved_models/phi_only_0.2.pt (torch, 16963 bytes, 10 tensors)

input_layer.weight f4 [32, 3]
0.31214035 -0.37323257 -0.1163888 -0.28816083 -0.4792098 -0.05490473 -0.5083737 -0.48705804
0.49997196 -0.36219677 0.27067053 -0.51669824 -0.5218187 0.1411944 -0.39664602 0.04798365
0.25709423 0.16526973 -0.0013823281 0.29095957 -0.5705699 -0.016758338 -0.07675984 -0.5302421
-0.20520149 -0.043533903 0.3796149 0.39579892 0.23762959 -0.43515384 -0.40456122 0.042369418
0.37292853 0.097171254 -0.24354978 0.21431229 0.09591602 -0.42602926 0.1088998 0.11094705
-0.46049923 -0.061192904 0.50161 -0.087645575 -0.0634536 -0.10849244 0.16517636 -0.15533511
-0.15931275 0.1763125 0.13575989 -0.39410636 0.44171128 -0.37956545 -0.47004187 0.45766053
0.14263643 -0.40452635 -0.37335506 0.39416325 0.46982262 0.34065148 -0.11277156 -0.25109336
0.15824836 -0.06870337 0.19221988 -0.17757504 -0.2826171 -0.17676425 -0.27977955 0.5577314
0.16214727 0.01593107 -0.22729298 0.45080337 -0.37931556 0.12633872 0.19872624 0.06519912
0.14481622 -0.06201771 0.475841 -0.26247787 0.07325423 -0.18370734 -0.4677521 0.23821503
0.2334363 -0.58976036 -0.20023276 0.2268255 -0.20170729 -0.032778863 0.1449934 -0.45364335
00000000: dcd0 9f3e 5718 bfbe 405d eebd d189 93be
00000010: fd5a f5be c8e3 60bd c724 02bf ac5f f9be
00000020: 53fc ff3e db71 b9be 5495 8a3e 5646 04bf
00000030: e995 05bf 4495 103e 3015 cbbe 818a 443d
00000040: dba1 833e 783c 293e 3c2f b5ba a7f8 943e
00000050: de10 12bf c848 89bc 4334 9dbd f2bd 07bf
00000060: 5720 52be 9b50 32bd e25c c23e 28a6 ca3e
00000070: 2c55 733e 7ccc debe a622 cfbe 8e8b 2d3d
00000080: 7df0 be3e b901 c73d 1d65 79be ae74 5b3e
00000090: 9e6f c43d 8220 dabe dc06 df3d 3538 e33d
000000a0: 8ec6 ebbe 69a5 7abd 8369 003f 867f b3bd
000000b0: f6f3 81bd 4931 debd fe23 293e 2b10 1fbe
000000c0: e222 23be 448b 343e a404 0b3e 4fc8 c9be
000000d0: fb27 e23e 6756 c2be 54a9 f0be 7b52 ea3e
000000e0: 490f 123e 141e cfbe 6528 bfbe c4cf c93e
000000f0: 978c f03e df69 ae3e c7f4 e6bd 4f8f 80be
00000100: dc0b 223e 5ab4 8cbd 4ad5 443e 3bd6 35be
00000110: 30b3 90be b001 35be 443f 8fbe 7cc7 0e3f
00000120: ef09 263e e081 823c 7ebf 68be b3cf e63e
00000130: a635 c2be f05e 013e e47e 4b3e 1e87 853d
00000140: b44a 143e 4806 7ebd 6ea1 f33e 8063 86be
00000150: 5006 963d c71d 3cbe 347d efbe a4ee 733e
00000160: ed09 6f3e 89fa 16bf d109 4dbe f244 683e
00000170: 5b8c 4ebe 2143 06bd 2679 143e f143 e8be

input_layer.bias f4 [32]
-0.22159277 0.5298786 -0.4324015 -0.0911009 -0.16849345 -0.378317 0.026837569 -0.31685054
-0.13491474 0.037110627 -0.24074596 0.039515596 0.016591107 0.10753533 0.39811024 -0.3266072
0.28109944 0.42038366 -0.27851403 -0.14952299 -0.27263725 -0.01990595 0.511543 0.4995808
0.10626377 -0.31079856 0.18563196 0.45429128 -0.36389062 0.06399429 -0.28441983 0.5278422
00000000: 37e9 62be 20a6 073f bb63 ddbe 1c93 babd
00000010: 8c89 2cbe c4b2 c1be 76da db3c 3c3a a2be
00000020: 1727 0abe 5001 183d 1c86 76be 1bdb 213d
00000030: 13ea 873c 7c3b dc3d 1bd5 cb3e 0f39 a7be
00000040: 44ec 8f3e 873c d73e 6499 8ebe 8e1c 19be
00000050: 1c97 8bbe ce11 a3bc 7bf4 023f 0ec9 ff3e
00000060: d2a0 d93d fd20 9fbe 4e16 3e3e de98 e83e
00000070: df4f babe 700f 833d 7a9f 91be ab20 073f

hidden_layers.0.weight f4 [32, 32]
0.12857297 -0.06535668 0.04225431 -0.08333646 -0.123802006 0.03233717 0.033224575 -0.041955497
-0.06879437 0.09100478 0.15966551 0.036702942 -0.024535665 0.1255714 -0.10630473 0.13892347
0.17269726 0.04758905 0.08870679 -0.1470594 -0.12194413 -0.10179558 0.2269404 -0.023042455
0.14832221 -0.07508336 0.07563857 0.0603855 -0.12448434 0.18507655 0.009646566 -0.03016143
-0.061889544 -0.08290724 0.1380975 -0.17287455 -0.1514964 -0.15320595 0.07612014 -0.049970876
0.16147359 -0.14562166 -0.07605181 0.083205 -0.02374684 0.16444425 -0.1914347 -0.14389138
0.11066359 -0.1751942 0.10344999 0.11098817 -0.021397179 0.029676134 0.00917957 -0.18170121
0.10388808 -0.03654615 0.035266772 0.101033464 0.063408144 0.13765347 -0.12706263 0.09399484
0.0523726 0.1449593 -0.03930988 0.12373378 -0.0038916017 -0.04442055 -0.015257742 0.14124103
0.15078108 0.06469692 -0.05578283 -0.14037612 -0.16352192 -0.15550916 -0.08085697 0.08435482
-0.12370029 -0.11207354 0.073857605 0.04319504 -0.12796988 -0.024568906 -0.0017726935 -0.09534367
-0.08353648 -0.043077536 0.023342462 0.10641372 0.072270274 0.057703618 -0.02487076 0.04619455
-0.09141075 0.16777833 -0.09054032 -0.16244467 0.09565736 0.061600503 -0.14429905 -0.12458312
0.17288251 -0.017152706 0.024629904 -0.12312075 -0.108715385 0.028957305 0.033078272 -0.1161403
0.042946283 0.012436598 0.16625576 0.16707823 -0.09009542 -0.14665526 0.11323483 0.11704398
0.095036514 -0.06264768 0.10398854 0.11963777 0.14489332 -0.061015967 0.051000323 -0.03702223
0.011315225 0.043804485 0.067232504 0.15920003 0.011039638 0.004863389 0.08384387 0.019366879
-0.13142003 0.17145114 -0.15784833 0.1710078 -0.123723924 0.11965096 -0.002816815 -0.16419578
0.12664357 0.11557083 0.08812102 -0.0015884124 -0.018711586 0.12355986 -0.013799161 0.18724015
0.21732903 -0.14165722 0.13527307 -0.06713231 0.064450644 0.17861335 0.10146507 -0.047837682
0.07190442 0.106643684 0.028751047 -0.07365918 -0.09991675 -0.17201225 0.1855083 0.13032648
0.15388452 0.17546153 0.15152285 0.0069387695 -0.110477015 -0.12420424 -0.08110271 0.14609896
0.15997866 -0.02804179 -0.14965726 -0.09153756 0.1510628 0.17417534 0.034024443 0.10684165
0.19484885 0.15817001 0.17559657 0.010849631 -0.02966371 -0.07036593 0.033415735 0.16324991
-0.13707738 -0.12521048 -0.033037256 0.16515568 -0.046570785 0.01221148 0.1511809 0.08010479
-0.07893229 0.005804543 0.12313049 -0.13426124 0.09185006 -0.17125063 -0.00092672487 0.00541405
-0.08582768 0.03198207 -0.03975638 0.061716344 0.050468616 0.11973747 0.008888271 0.08510231
0.05710249 -0.17024119 0.11248591 -0.117392585 0.0053925626 -0.14365022 -0.0737438 -0.120280586
0.10761972 -0.02695668 -0.037904195 -0.0141085535 0.101778865 0.15230429 -0.13674343 0.12529199
-0.04637833 -0.12162723 0.11646661 -0.045050804 -0.027505195 0.116965905 0.011684879 -0.074326
0.008988667 0.21310784 -0.1290041 -0.11328261 -0.13703467 -0.117899604 -0.077267736 0.09733062
0.23345703 0.045929775 0.22211434 0.20512976 0.13351291 0.11633109 0.118455745 -0.013654724
00000000: a2a8 033e b9d9 85bd db12 2d3d 4eac aabd
00000010: e88b fdbd fb73 043d 7e16 083d 87d9 2bbd
00000020: 10e4 8cbd b760 ba3d 5b7f 233e d355 163d
00000030: 05ff c8bc ca95 003e 4bb6 d9bd f441 0e3e
00000040: 8dd7 303e bcec 423d e8ab b53d bd96 16be
00000050: d8bd f9bd 337a d0bd 1063 683e 88c3 bcbc
00000060: c7e1 173e 4ec5 99bd 65e8 9a3d c956 773d
00000070: a5f1 febd b584 3d3e a10c 1e3c 1a15 f7bc
00000080: e47f 7dbd 45cb a9bd 6e69 0d3e 0706 31be
00000090: df21 1bbe 05e2 1cbe e0e4 9b3d 43ae 4cbd
000000a0: 5559 253e d81d 15be 0dc1 9bbd 6267 aa3d
000000b0: bc88 c2bc 1364 283e 7507 44be 4358 13be
000000c0: 98a3 e23d 1c66 33be 97dd d33d c44d e33d
000000d0: 2349 afbc 5d1b f33c e865 163c e20f 3abe
000000e0: 46c3 d43d 6ab1 15bd e473 103d a2ea ce3d
000000f0: 21dc 813d 08f5 0c3e b51c 02be 5e80 c03d
00000100: a784 563d 3670 143e 6603 21bd 2368 fd3d
00000110: 3e0a 7fbb 53f2 35bd 9cfb 79bc 7da1 103e
00000120: 5b66 1a3e d27f 843d 897c 64bd c2be 0fbe
00000130: 4a72 27be cb3d 1fbe 5798 a5bd 38c2 ac3d
00000140: 9456 fdbd d086 e5bd a842 973d 48ed 303d
00000150: 890a 03be bb44 c9bc b959 e8ba 8b43 c3bd
00000160: 2d15 abbd 1272 30bd b138 bf3c 70ef d93d
00000170: 7002 943d a15a 6c3d c4bd cbbc 7f36 3d3d
00000180: 8f35 bbbd 15ce 2b3e 346d b9bd e557 26be
00000190: 02e8 c33d cf50 7c3d 21c3 13be 6f25 ffbd
000001a0: 1d08 313e d583 8cbc a7c4 c93c bb26 fcbd
000001b0: 2ca6 debd df37 ed3c 157d 073d f7da edbd
000001c0: 71e8 2f3d dfc2 4b3c f33e 2a3e 8e16 2b3e
000001d0: f383 b8bd cc2c 16be aae7 e73d c1b4 ef3d
000001e0: 81a2 c23d 6d4d 80bd f2f7 d43d a604 f53d
000001f0: ea5e 143e e1eb 79bd b7e5 503d 9fa4 17bd
00000200: 7e63 393c 556c 333d 32b1 893d 5505 233e
00000210: 99df 343c 105d 9f3b 56b6 ab3d 4aa7 9e3c
00000220: f992 06be e390 2f3e fea2 21be ab1c 2f3e
00000230: f862 fdbd 900b f53d 509a 38bb f022 28be
00000240: daae 013e 66b0 ec3d cb78 b43d 4732 d0ba
00000250: 0a49 99bc f40c fd3d e015 62bc e2bb 3f3e
00000260: 808b 5e3e 970e 11be 0685 0a3e aa7c 89bd
00000270: b3fe 833d 6be6 363e ebcc cf3d 72f1 43bd
00000280: a042 933d 0168 da3d 5187 eb3c a0da 96bd
00000290: 27a1 ccbd fb23 30be e3f5 3d3e 4e74 053e
000002a0: e793 1d3e 30ac 333e ce28 1b3e 9e5e e33b
000002b0: c641 e2bd cb5e febd 2d19 a6bd f79a 153e
000002c0: 72d1 233e e5b7 e5bc c13f 19be 0b78 bbbd
000002d0: 35b0 1a3e 055b 323e 375d 0b3d cccf da3d
000002e0: 7586 473e 52f7 213e 96cf 333e a7c2 313c
000002f0: 4f01 f3bc 031c 90bd f0de 083d fc2a 273e
00000300: 035e 0cbe 2d37 00be 1352 07bd 921e 293e
00000310: 02c1 3ebd a912 483c 2acf 1a3e fb0d a43d
00000320: 41a7 a1bd 0934 be3b d72b fc3d c77b 09be
00000330: e21b bc3d 535c 2fbe 74ef 72ba 5868 b13b
00000340: 6cc6 afbd a2ff 023d 96d7 22bd 47ca 7c3d
00000350: 2eb8 4e3d eb38 f53d 1ca0 113c 1f4a ae3d
00000360: 4de4 693d b553 2ebe 035f e63d 866b f0bd
00000370: 18b4 b03b 0b19 13be fd06 97bd ab55 f6bd
00000380: ba67 dc3d 41d4 dcbc 6e41 1bbd 9027 67bc
00000390: 7071 d03d a8f5 1b3e 7806 0cbe 8b4c 003e
000003a0: 34f7 3dbd b217 f9bd 0c86 ee3d 3187 38bd
000003b0: 9352 e1bc d28b ef3d ef71 3f3c 3b38 98bd
000003c0: 3445 133c f138 5a3e a719 04be b700 e8bd
000003d0: d152 0cbe 5975 f1bd 8c3e 9ebd 4755 c73d
000003e0: 5c0f 6f3e dc20 3c3d f171 633e 890d 523e
000003f0: 9cb7 083e ff3e ee3d ed98 f23d 10b8 5fbc

hidden_layers.0.bias f4 [32]
0.031008229 0.0899342 -0.14978825 0.05996507 0.14468636 0.114072144 -0.006593889 0.095155045
-0.0008483646 0.23265812 0.10599785 0.16400063 0.19938062 0.18775137 0.107509255 0.004769351
-0.0019100064 -0.051582117 -0.077931195 0.14573321 0.10960987 0.124267325 0.106845014 -0.021060921
-0.15659651 0.07587089 -0.067653984 0.24380125 0.13588606 0.22807541 0.026750857 -0.12677276
00000000: f804 fe3c 6c2f b83d 1762 19be ef9d 753d
00000010: a928 143e a89e e93d 8d11 d8bb a6e0 c23d
00000020: c964 5eba ee3d 6e3e 6715 d93d c8ef 273e
00000030: 6f2a 4c3e e541 403e d02d dc3d 3748 9c3b
00000040: 2e59 faba c547 53bd 649a 9fbd 163b 153e
00000050: 247b e03d de7f fe3d 8fd1 da3d f487 acbc
00000060: d65a 20be 3262 9b3d 2c8e 8abd 09a7 793e
00000070: b725 0b3e 9a8c 693e 9d24 db3c b8d0 01be

hidden_layers.1.weight f4 [32, 32]
-0.15612449 -0.16417146 0.029918993 0.10712418 0.06074979 -0.011923322 0.09867079 0.006039538
-0.043317307 -0.078020625 0.16069229 0.122075856 0.10729888 -0.04648496 0.04396367 0.16143991
-0.122216605 -0.07645908 0.09532359 -0.08578997 0.09989682 -0.105366886 -0.04433431 0.09683896
0.02023428 0.16032179 0.17019893 -0.11849844 -0.0993495 -0.15892361 0.09342713 -0.13878666
0.1367456 0.06253134 0.04542267 0.153025 0.14957553 -0.1688113 -0.049132075 0.027295085
-0.06362865 0.11201065 -0.17316741 -0.05567404 0.059846755 -0.17409675 -0.1434854 0.13059427
0.005266207 -0.17186825 0.09548096 0.06990853 -0.07570707 -0.062448237 0.06923738 0.13432385
0.081502855 0.13607024 -0.039694954 -0.071229756 -0.040171847 0.05714725 -0.13080114 0.0119157145
0.0059917434 -0.15447119 0.15990287 -0.08903604 -0.07874007 0.03592001 0.14113691 0.027418442
-0.14025818 -0.17183891 -0.15716389 0.13300972 0.10299096 0.07197923 -0.13648449 -0.06457257
0.010078218 -0.022177799 0.033289477 -0.077982314 -0.13725324 0.11491323 -0.06452073 -0.023202198
0.08028256 -0.029964386 -0.015470696 0.077758156 -0.1365592 -0.09787036 0.04549181 0.02087371
0.16650937 -0.009211575 -0.07620483 -0.048079625 0.1250243 -0.13210046 -0.026822537 0.12302206
-0.07044761 0.17583692 -0.09178547 0.14675975 0.107182264 0.07140671 0.048022147 0.08948148
0.024524102 0.1845598 -0.12177251 -0.15502451 -0.022013394 0.12718903 0.013708105 0.12692022
0.083002925 -0.058319632 -0.024698975 0.06420654 0.12731738 -0.017303107 -0.1337855 0.14643094
-0.12798505 0.13309424 0.17434484 -0.064972684 0.16445144 0.24797946 -0.12615153 0.23871377
-0.10352964 0.05078174 -0.04067531 0.10481701 -0.037637588 0.10657761 -0.12454142 0.12770832
0.17163049 0.13614152 0.011072804 0.14371 0.24940966 0.12787862 0.23988734 0.018882912
0.16190805 0.14024979 -0.14510755 0.072886236 0.0040621157 -0.047585513 0.04803567 0.027390772
-0.015295308 0.14592852 0.075200126 -0.019525953 0.1293579 0.08827268 -0.12507646 0.24515632
-0.09294551 0.24090348 0.10528002 0.15721437 0.21478319 -0.03507928 0.061917637 0.08816746
0.10926125 -0.052891344 0.18875094 0.22818366 0.2388098 0.023836816 -0.020831887 0.19955398
-0.056139454 0.16198182 -0.13398466 0.23316766 -0.07385028 -0.10282648 -0.049134057 -0.089917496
0.13756903 0.046477355 -0.094584525 0.09958429 -0.10407124 -0.1286892 0.16810325 -0.013702928
0.08290995 -0.0083054155 -0.009501311 -0.15617572 -0.17100073 0.0387877 0.13145347 -0.14226885
0.078731366 0.001073986 0.025631879 -0.12414862 -0.1452124 -0.09394758 -0.0829686 0.039086208
-0.11456913 0.01607243 -0.09862554 0.0028860685 0.03190664 0.052677974 0.086925134 -0.06777532
0.07515413 -0.15049957 -0.025762966 0.07615811 0.090896055 -0.0030297893 0.04779916 0.051989123
-0.016944623 0.23837188 -0.014916882 0.11478742 0.15960138 0.043121774 0.15069325 0.12052971
0.04217728 0.098825 -0.1358625 0.049671266 0.1147735 0.18161345 0.16271295 -0.070174195
0.14008448 0.06502318 -0.12334109 -0.00415289 0.04017148 0.09101918 0.012023147 0.081979305
00000000: 19df 1fbe 901c 28be ad18 f53c ec63 db3d
00000010: c6d4 783d 0a5a 43bc e913 ca3d 51e7 c53b
00000020: 7d6d 31bd 47c9 9fbd 858c 243e e802 fa3d
00000030: 84bf db3d 0367 3ebd 4013 343d 8150 253e
00000040: b34c fabd 9496 9cbd 0439 c33d a7b2 afbd
00000050: b496 cc3d 98ca d7bd e597 35bd 8153 c63d
00000060: 5cc2 a53c 652b 243e a148 2e3e 4faf f2bd
00000070: c077 cbbd dfbc 22be b956 bf3d 171e 0ebe
00000080: 0a07 0c3e 6e10 803d 1f0d 3a3d 96b2 1c3e
00000090: 542a 193e dfdc 2cbe b73e 49bd f199 df3c
000000a0: bd4f 82bd d765 e53d cc52 31be 760a 64bd
000000b0: df21 753d 6b46 32be d6ed 12be 81ba 053e
000000c0: 2590 ac3b 3bfe 2fbe 868b c33d 342c 8f3d
000000d0: 4f0c 9bbd b9c9 7fbd 54cc 8d3d 318c 093e
000000e0: f8ea a63d ff55 0b3e 2d97 22bd e8e0 91bd
000000f0: 3c8b 24bd 3c13 6a3d bcf0 05be 213a 433c
00000100: 6356 c43b b22d 1ebe 94bd 233e 8758 b6bd
00000110: 7942 a1bd dc20 133d 3286 103e a49c e03c
00000120: d79f 0fbe 8af6 2fbe 92ef 20be b333 083e
00000130: edec d23d d969 933d 97c2 0bbe a03e 84bd
00000140: 1c1f 253c 37ae b5bc 8c5a 083d 31b5 9fbd
00000150: 1d8c 0cbe a157 eb3d 7223 84bd 8912 bebc
00000160: 2f6b a43d df77 f5bc cd78 7dbc ab3f 9f3d
00000170: 2dd6 0bbe 4170 c8bd 9f55 3a3d 58ff aa3c
00000180: 6f81 2a3e 25ec 16bc 4711 9cbd 24ef 44bd
00000190: 5f06 003e 5845 07be f0ba dbbc fdf2 fb3d
000001a0: d646 90bd 980e 343e 05fa bbbd 3048 163e
000001b0: 6082 db3d ae3d 923d dfb2 443d 1142 b73d
000001c0: c5e6 c83c 3ffd 3c3e de63 f9bd bfbe 1ebe
000001d0: 6f55 b4bc d73d 023e f697 603c 60f7 013e
000001e0: 70fd a93d 91e0 6ebd 8155 cabc b87e 833d
000001f0: 7d5f 023e 3fbf 8dbc 11ff 08be fef1 153e
00000200: 830e 03be db49 083e 7487 323e 6610 85bd
00000210: f565 283e 54ee 7d3e de2d 01be 6271 743e
00000220: 5907 d4bd 8400 503d 279b 26bd 4daa d63d
00000230: df29 1abd 5d45 da3d 920f ffbd f8c5 023e
00000240: e7bf 2f3e af68 0b3e b56a 353c b728 133e
00000250: 3f65 7f3e 9df2 023e 07a5 753e 56b0 9a3c
00000260: 39cb 253e a49d 0f3e 1397 14be 6145 953d
00000270: 7f1b 853b 07e9 42bd 0dc1 443d 9d62 e03c
00000280: 2c99 7abc 496e 153e 8602 9a3d e4f4 9fbc
00000290: 6676 043e 4fc8 b43d 0b14 00be 420a 7b3e
000002a0: 375a bebd 67af 763e 0d9d d73d cefc 203e
000002b0: 20f0 5b3e 4baf 0fbd 599d 7d3d 2491 b43d
000002c0: 5dc4 df3d 98a4 58bd ed47 413e faa8 693e
000002d0: 8e8a 743e 6d45 c33c a2a7 aabc e157 4c3e
000002e0: 7cf2 65bd 90de 253e 4633 09be 81c3 6e3e
000002f0: d13e 97bd b196 d2bd cb40 49bd aa26 b8bd
00000300: e5de 0c3e 0a5f 3e3d 88b5 c1bd d9f2 cb3d
00000310: 4d23 d5bd 1ac7 03be 4223 2c3e 3f82 60bc
00000320: b1cc a93d 7013 08bc 63ab 1bbc 87ec 1fbe
00000330: d11a 2fbe dadf 1e3d bd9b 063e edae 11be
00000340: e93d a13d fdc4 8c3a f2f9 d13c a241 febd
00000350: 8fb2 14be 9767 c0bd 71eb a9bd dc18 203d
00000360: 38a3 eabd 54aa 833c 30fc c9bd 3224 3d3b
00000370: 89b0 023d dcc4 573d ce05 b23d c9cd 8abd
00000380: 69ea 993d 8f1c 1abe db0c d3bc c8f8 9b3d
00000390: b627 ba3d 6e8f 46bb 0dc9 433d 8cf2 543d
000003a0: 73cf 8abc c217 743e f065 74bc ab15 eb3d
000003b0: 8b6e 233e 75a0 303d 554f 1a3e 48d8 f63d
000003c0: 15c2 2c3d c364 ca3d 8a1f 0bbe 1974 4b3d
000003d0: 5e0e eb3d e0f8 393e 399e 263e 7db7 8fbd
000003e0: 4e72 0f3e df2a 853d 419a fcbd f714 88bb
000003f0: da8a 243d 4468 ba3d bcfc 443c c4e4 a73d

hidden_layers.1.bias f4 [32]
-0.10129776 -0.041913625 -0.086259045 -0.13528879 0.1289151 0.20419884 -0.06168742 -0.025225012
0.15566505 0.01836867 -0.016223967 0.028659703 -0.017110588 -0.07920533 0.1263194 -0.0782467
0.113882296 0.1685891 0.14128317 0.09719169 0.08056451 -0.17387596 0.049619563 -0.1581024
-0.12282171 -0.06205858 -0.08777709 -0.14438038 -0.046350617 0.1874701 -0.09909074 -0.037682988
00000000: 3375 cfbd 9fad 2bbd 95a8 b0bd 2589 0abe
00000010: 5202 043e 8019 513e f3ab 7cbd afa4 cebc
00000020: a966 1f3e e579 963c 20e8 84bc c1c7 ea3c
00000030: 812b 8cbc 6736 a2bd df59 013e ce3f a0bd
00000040: 1f3b e93d 9fa2 2c3e 89ac 103e 700c c73d
00000050: 01ff a43d 8a0c 32be e23d 4b3d 98e5 21be
00000060: f389 fbbd 2331 7ebd 7ac4 b3bd 73d8 13be
00000070: 25da 3dbd 29f8 3f3e 16f0 cabd 7a59 1abd

hidden_layers.2.weight f4 [32, 32]
-0.03919834 0.08641347 0.006185071 0.16586192 -0.06364648 -0.13711733 -0.063876666 -0.021624368
0.043133423 -0.062796146 0.06516385 -0.110124215 -0.13731934 -3.4138948e-06 -0.1348019 0.113069475
0.02843945 -0.0548718 -0.06394952 -0.02067326 -0.012367444 0.05442728 -0.020734457 -0.04381148
-0.15825416 -0.011324542 -0.10060221 0.16851187 0.096382424 0.026228279 -0.039978623 0.17239968
-0.023286555 -0.065520234 0.14327937 0.17306247 0.15630741 0.14178151 0.15792418 -0.047758833
0.10534852 0.037102923 0.13066334 -0.124112085 -0.06405389 -0.028976485 -0.10049602 -0.10841166
0.14656581 0.18232542 0.13175178 0.23048013 0.22472566 0.06774554 0.1999046 -0.017454654
0.1570619 -0.008048025 0.11981478 -0.0788726 0.218596 0.1337566 0.03004596 0.018625084
-0.16633962 -0.080345824 -0.037188545 0.10691963 0.1873084 -0.0028438265 0.16869801 0.11397921
0.0859232 -0.13753252 0.21292366 0.010848704 0.08322638 -0.1247717 0.15596041 -0.060314078
-0.084073946 0.18842892 0.012203867 0.13050707 0.032919507 0.1318525 -0.03407286 -0.034994002
-0.06544345 -0.10361873 -0.15890935 -0.07752959 0.095454775 0.06197637 0.13003932 -0.13079122
-0.12559015 0.12248947 -0.064241596 -0.15709704 -0.12359983 0.1329017 0.03965911 -0.11670068
-0.04199143 0.14226903 -0.010305157 -0.06563569 -0.005703733 -0.12085606 -0.17505579 -0.009652787
-0.10017033 -0.13915709 -0.009334199 0.09115223 0.12430608 0.1504227 -0.123669915 -0.14689803
-0.0910826 -0.08295083 -0.026485438 -0.08559108 -0.032738388 -0.06986506 -0.004261868 -0.10776205
-0.034216814 0.1356397 -0.074885614 -0.047070153 0.0016155773 -0.066842765 0.14832628 -0.08797369
-0.14637658 -0.11087765 0.0034171834 -0.091576874 -0.17137599 0.12678406 0.07573053 0.020760125
-0.08990554 -0.054593418 -0.09129269 0.013618753 0.03053504 0.07645959 -0.14058402 -0.11646883
-0.16442905 -0.09702245 -0.12222929 -0.09548116 0.13758309 0.0022413859 -0.02351046 -0.033139363
0.08101345 -0.05403412 0.0018687069 0.021893872 0.17398076 -0.05136756 0.07855692 0.14277963
0.031060297 0.0051844837 0.17014489 0.047781356 0.11919087 0.14062047 -0.028351223 0.02182054
0.056538027 -0.15904388 0.16828676 -0.05701528 -0.09954897 -0.050931536 -0.13069509 -0.13354588
0.11114634 0.109283 -0.16810608 0.012173612 -0.07452575 0.113252446 0.11564324 -0.061415747
-0.16601978 0.090796806 0.080076374 -0.13365394 0.045674823 0.13413444 0.03845995 0.08197749
-0.09950096 0.013973766 -0.06722797 0.060604215 -0.10688553 -0.16906005 -0.024116004 -0.14166842
0.15364948 -0.16858 -0.08898985 0.05348499 -0.1582817 -0.055685174 -0.1915914 -0.08886793
0.10685528 -0.010601686 -0.107735835 0.12542379 -0.088814914 -0.05463303 -0.0045718793 0.111234635
-0.11762005 -0.04772115 0.15345445 0.11161165 0.006176244 -0.08409274 -0.029537734 0.06081714
0.015809702 0.041660726 0.13740279 -0.04484926 -0.015208642 0.053642716 0.040389843 -0.16911668
0.06151437 -0.018555017 -0.16162735 0.07677311 -0.058927678 -0.014666998 -0.1633718 -0.16043383
-0.103967294 0.09812526 -0.04214575 -0.09331072 0.064904414 -0.0010442646 0.016657235 -0.11405296
00000000: 708e 20bd 8cf9 b03d 23ac ca3b b5d7 293e
00000010: 1659 82bd 7c68 0cbe c5d1 82bd 9625 b1bc
00000020: acac 303d 449b 80bd a074 853d ce88 e1bd
00000030: 719d 0cbe 441a 65b6 8209 0abe f890 e73d
00000040: d9f9 e83c 41c1 60bd f7f7 82bd f85a a9bc
00000050: d2a0 4abc 24ef 5e3d 4fdb a9bc ab73 33bd
00000060: 610d 22be 928a 39bc 8808 cebd 608e 2c3e
00000070: 2664 c53d b0dc d63c a0c0 23bd 8b89 303e
00000080: 72c3 bebc 792f 86bd d4b7 123e 4a37 313e
00000090: 0d0f 203e 2c2f 113e e0b6 213e c49e 43bd
000000a0: f7c0 d73d 3cf9 173d 9ccc 053e 7a2e febd
000000b0: b02e 83bd 1860 edbc dbd0 cdbd ef06 debd
000000c0: 5915 163e 84b3 3a3e f0e9 063e fc02 6c3e
000000d0: 7c1e 663e 2cbe 8a3d cbb3 4c3e 10fd 8ebc
000000e0: d6d4 203e dddb 03bc 7461 f53d f587 a1bd
000000f0: a1d7 5f3e 7df7 083e f222 f63c a293 983c
00000100: ef54 2abe 5a8c a4bd 0453 18bd aef8 da3d
00000110: c6cd 3f3e 7e5f 3abb 2cbf 2c3e ef6d e93d
00000120: 81f8 af3d 53d5 0cbe a908 5a3e c3be 313c
00000130: 9872 aa3d 4e88 ffbd 16b4 1f3e e50b 77bd
00000140: f62e acbd 83f3 403e baf2 473c a5a3 053e
00000150: 9bd6 063d 5704 073e fc8f 0bbd df55 0fbd
00000160: 3707 86bd 0f36 d4bd 22b9 22be d5c7 9ebd
00000170: cb7d c33d efda 7d3d 0729 053e 22ee 05be
00000180: b49a 00be c2db fa3d 1991 83bd 0cde 20be
00000190: e821 fdbd 6217 083e 9771 223d c400 efbd
000001a0: 35ff 2bbd f9ae 113e f6d6 28bc 016c 86bd
000001b0: 61e6 babb 6283 f7bd d341 33be b926 1ebc
000001c0: 1a26 cdbd 327f 0ebe 78ee 18bc 05ae ba3d
000001d0: 3094 fe3d 6908 1a3e a746 fdbd 706c 16be
000001e0: 8489 babd 20e2 a9bd fdf7 d8bc 604a afbd
000001f0: b018 06bd 6a15 8fbd 24a7 8bbb 5ab2 dcbd
00000200: ee26 0cbd 22e5 0a3e a15d 99bd a2cc 40bd
00000210: c7c1 d33a dce4 88bd d8e2 173e 8d2b b4bd
00000220: bee3 15be d213 e3bd d3f2 5f3b a88c bbbd
00000230: 307d 2fbe aed3 013e 9c18 9b3d 2311 aa3c
00000240: 6520 b8bd 599d 5fbd a9f7 babd 3121 5f3c
00000250: 9f24 fa3c d896 9c3d 42f5 0fbe 3687 eebd
00000260: 1760 28be b5b3 c6bd 5a53 fabd a08b c3bd
00000270: 95e2 0c3e 37e4 123b 0299 c0bc 24bd 07bd
00000280: 61ea a53d e252 5dbd 66ef f43a c75a b33c
00000290: 0328 323e ca66 52bd 73e2 a03d d334 123e
000002a0: 2a72 fe3c 9ae2 a93b 763a 2e3e 62b6 433d
000002b0: 581a f43d d0fe 0f3e d340 e8bc fdc0 b23c
000002c0: 6b94 673d 66dc 22be 5d53 2c3e db88 69bd
000002d0: 55e0 cbbd 969d 50bd efd4 05be 40c0 08be
000002e0: b1a0 e33d c4cf df3d 0024 2cbe d473 473c
000002f0: f5a0 98bd e6f0 e73d 5dd6 ec3d 148f 7bbd
00000300: 1701 2abe adf3 b93d 15ff a33d 94dc 08be
00000310: 8615 3b3d 8a5a 093e 2e88 1d3d d0e3 a73d
00000320: 29c7 cbbd 39f2 643c d1ae 89bd 203c 783d
00000330: cde6 dabd 141e 2dbe ed8e c5bc 8711 11be
00000340: 4a56 1d3e 3ca0 2cbe 4f40 b6bd 1413 5b3d
00000350: 9914 22be 2316 64bd 8930 44be 6400 b6bd
00000360: f1d6 da3d b2b2 2dbc 9ba4 dcbd 186f 003e
00000370: 98e4 b5bd e2c6 5fbd b4cf 95bb fcce e33d
00000380: c8e2 f0bd 4177 43bd 2a23 1d3e a694 e43d
00000390: 1762 ca3b d138 acbd 1ef9 f1bc 651b 793d
000003a0: 5983 813c 70a4 2a3d 51b3 0c3e dcb3 37bd
000003b0: ab2d 79bc 77b8 5b3d d26f 253d ec2c 2dbe
000003c0: 7ef6 7b3d b100 98bc a481 25be 383b 9d3d
000003d0: 265e 71bd d94d 70bc f04a 27be c448 24be
000003e0: ceec d4bd e5f5 c83d 06a1 2cbd b119 bfbd
000003f0: 9bec 843d b5df 88ba c174 883c 9994 e9bd

hidden_layers.2.bias f4 [32]
-0.0002202805 0.055154555 0.04098256 -0.13891162 0.08995668 -0.10945299 0.097983584 -0.098258935
-0.027911814 0.09207041 0.032778528 -0.16831301 -0.039866135 -0.08925231 0.07166673 0.17110628
-0.041911375 0.023448382 0.15361945 -0.09155831 -0.11760326 -0.08659787 -0.12091905 -0.099276274
0.12953384 -0.07338795 0.15849727 0.045473196 0.1651361 0.122164935 -0.10329023 -0.011156399
00000000: 19fb 66b9 bee9 613d 54dd 273d d93e 0ebe
00000010: 353b b83d e428 e0bd 9eab c83d fb3b c9bd
00000020: 51a7 e4bc 698f bc3d c742 063d 3f5a 2cbe
00000030: ac4a 23bd eac9 b6bd 02c6 923d 7c36 2f3e
00000040: 43ab 2bbd d216 c03c 6b4e 1d3e ec82 bbbd
00000050: fad9 f0bd 395a b1bd 68a4 f7bd 5c51 cbbd
00000060: 85a4 043e 6c4c 96bd 1c4d 223e 1a42 3a3d
00000070: 7019 293e 9c31 fa3d d489 d3bd 54c9 36bc

output_layer.weight f4 [2, 32]
-0.16541801 0.051870916 0.16182925 -0.15936853 -0.12862206 -0.066569254 -0.075701736 -0.08865577
0.018015206 -0.050408624 0.09494187 0.098025374 0.14820777 -0.15604913 0.074612305 0.21721497
0.10008376 0.028304268 0.16539828 0.11116383 -0.13012213 -0.17169943 0.15243159 0.18645966
0.02149185 -0.020710703 0.16467144 0.14131862 0.1319459 0.21542265 0.05139144 -0.004538537
-0.07364091 -0.09252694 -0.07398725 0.03285486 0.05226237 -0.08420675 -0.046448376 0.040651634
0.122508116 0.11142508 -0.0937736 -0.1671425 -0.11246922 -0.13608806 -0.25059962 0.06866347
-0.08481343 0.16482589 -0.019530028 -0.21948904 -0.18521705 -0.17482215 0.005855887 -0.028637744
-0.21501034 0.13791862 0.041422438 -0.021175314 -0.26908818 0.03485046 0.1414733 0.07030429
00000000: 5763 29be 9976 543d 91b6 253e 8131 23be
00000010: 80b5 03be 7655 88bd 8309 9bbd 2891 b5bd
00000020: a094 933c 4679 4ebd e270 c23d 87c1 c83d
00000030: c7c3 173e 58cb 1fbe 56ce 983d 9a6d 5e3e
00000040: b7f8 cc3d 5ade e73c 2b5e 293e dda9 e33d
00000050: bc3e 05be fad1 2fbe 0717 1c3e 48ef 3e3e
00000060: ad0f b03c 7ea9 a9bc a19f 283e d4b5 103e
00000070: d31c 073e c197 5c3e d57f 523d 02b8 94bb
00000080: 0cd1 96bd c47e bdbd a186 97bd d192 063d
00000090: 1111 563d 9774 acbd a740 3ebd 5482 263d
000000a0: 89e5 fa3d d532 e43d 600c c0bd 6727 2bbe
000000b0: 4356 e6bd ab5a 0bbe 984e 80be 6f9f 8c3d
000000c0: aab2 adbd 1ec8 283e 70fd 9fbc bcc1 60be
000000d0: 8aa9 3dbe 9404 33be bee2 bf3b b499 eabc
000000e0: ac2b 5cbe 8a3a 0d3e 93aa 293d da77 adbc
000000f0: edc5 89be 5bbf 0e3d 60de 103e b2fb 8f3d

output_layer.bias f4 [2]
0.072374016 -0.23944767
00000000: d438 943d c531 75be
