synthetic_flows_raw/saved_models/phi_only_1.1.pt (torch, 16963 bytes, 10 tensors)

input_layer.weight f4 [32, 3]
000000 80 b2 e9 3d 71 17 97 bd 08 30 60 bd b9 06 d9 3e
       0.11410999 -0.07377518 -0.054733306 0.4238794
000010 70 9f 9d be 0f 64 b4 3e 19 17 58 be bc 75 87 bd
       -0.30785704 0.3523259 -0.21102561 -0.06614253
000020 02 12 8c be 9e 0f a1 be a8 8d e2 bd e3 dc c0 3e
       -0.2735749 -0.31457227 -0.11062175 0.37668523
000030 ea 5f ea 3e 96 86 f3 be 30 53 fc bd 03 61 fe be
       0.45776302 -0.47563618 -0.12320554 -0.4968339
000040 22 4c b2 3d b0 56 d3 be f8 a3 07 bf 39 04 92 3e
       0.087059274 -0.41277075 -0.5298457 0.28518847
000050 50 99 e4 3d 56 3f 92 be 4a 50 01 be 3b f1 44 be
       0.111620545 -0.28563946 -0.12628284 -0.19232647
000060 2c 29 22 bb 7d 8a 6b 3e b1 2f ee 3e 88 39 0a be
       -0.0024743779 0.23002048 0.4652076 -0.13498509
000070 83 db ed 3d 8f 4c fb bd e3 3d 9c be 24 25 07 3d
       0.11614134 -0.12270462 -0.30515966 0.032994404
000080 bd ef d8 3e 5f c5 b4 3e c4 a3 9c 3d 34 cc 89 3e
       0.42370406 0.35306832 0.07648423 0.26913607
000090 1b 1b fc 3e e9 2a 57 3e 15 d1 c2 be ce 05 16 bf
       0.4923943 0.21012463 -0.38050142 -0.5860261
0000a0 47 bc ee be ed 24 29 be 1a be fd 3d 3b 6f 97 3e
       -0.4662802 -0.16517992 0.123897746 0.2957705
0000b0 3a db 45 3d d6 77 d4 3e d2 93 e7 bd a6 73 a6 be
       0.048304774 0.41497678 -0.11307491 -0.32510108
0000c0 13 e9 b5 be 4d 1f 58 be a4 21 57 3e 6b bd 02 bf
       -0.35529384 -0.2110569 0.21008927 -0.5107028
0000d0 fd e7 b0 be 20 16 7b be 90 0c 8c 3e fc 00 03 3e
       -0.34551993 -0.24520159 0.27353334 0.12793344
0000e0 6f e7 cf be 3e bb f7 3e 14 ea 02 bd 36 4a 5d be
       -0.40606257 0.48385042 -0.031961516 -0.2161034
0000f0 99 90 c9 3e ab 65 70 3e c8 86 0d bf db 47 9d 3e
       0.39368132 0.23476283 -0.55283785 0.30718884
000100 c0 4a 2b bd 98 f1 5b 3e 43 26 1a 3f 54 83 0a be
       -0.041819334 0.2147888 0.6021463 -0.1352666
000110 a7 e1 a7 3d 82 97 be be 29 af 28 3e b6 bc a2 be
       0.08197337 -0.37224966 0.16473068 -0.317846
000120 d4 ba a0 3e 1c a9 0d be 3c 51 7a be bf 3a 0e 3e
       0.3139254 -0.13834041 -0.24445051 0.13889597
000130 aa 39 5a be cb d7 9f 3d 68 bc f7 3e e5 2e c6 bd
       -0.2131106 0.07804831 0.4838593 -0.09676913
000140 73 f4 40 3e 36 f2 ae 3d 44 a7 11 3d 45 59 15 bf
       0.1884325 0.08542292 0.035559908 -0.5833934
000150 f0 31 aa 3e da 42 2c be 63 5c ad bd f5 58 6f be
       0.33241224 -0.16822377 -0.08464887 -0.23373778
000160 0d 31 a7 3c 13 4f de 3e 40 b5 10 bf 98 59 64 be
       0.020409131 0.43419704 -0.56526566 -0.22299802
000170 bc cb 0f 3f f4 c6 ff 3d 61 ce be be a0 7b e0 be
       0.5617025 0.12489119 -0.3726683 -0.43844318

input_layer.bias f4 [32]
000000 47 7d 57 3b 49 ec 8a be 10 23 ad be 17 c7 73 be
       0.0032881068 -0.27133396 -0.33815813 -0.23806415
000010 aa b3 65 be 11 ae 0a bf 2d 9d 84 3e fc 65 ac bd
       -0.22431818 -0.54171854 0.25901166 -0.084178895
000020 97 70 0c 3e 41 a8 bc 3d 31 13 91 3e e6 8b 01 3f
       0.13714825 0.092117794 0.28334954 0.50604093
000030 fc f4 cc 3e 92 80 bb bc 46 ec eb be e9 ae 86 be
       0.40030658 -0.022888456 -0.460787 -0.2630532
000040 8b d6 0f 3f 59 22 9a 3e 02 03 bb 3e 5d 81 0c 3f
       0.5618674 0.3010433 0.36525732 0.5488489
000050 5d c8 b3 3e 92 14 b4 3e ee 0d b9 3e 2b a0 b3 3e
       0.35113803 0.35171944 0.3614344 0.35083136
000060 b6 61 9a be 2b e8 15 3f 9b 5b e5 3e dc 67 fb 3d
       -0.30152673 0.58557385 0.44796452 0.12275669
000070 75 ed e5 bd 4a 25 1f 3f 39 6f e9 be 37 84 2a 3e
       -0.11226932 0.62166274 -0.4559267 0.16651998

hidden_layers.0.weight f4 [32, 32]
000000 a4 12 9c bd d6 08 22 3e f0 fc 04 bd 8e fd 2c 3d
       -0.07620743 0.15823683 -0.032467782 0.042233996
000010 6e a9 16 be e9 31 f0 3d 22 16 b5 3c 34 5d 47 bd
       -0.1471307 0.117282696 0.02210528 -0.04867287
000020 b6 ed 46 3e c0 cb 21 3e c3 91 9e 3d 32 3e 59 b7
       0.19426617 0.1580038 0.077426456 -1.2948689e-05
000030 58 61 7b 3e c0 72 81 bd 78 23 d3 3d b9 8a 0b 3d
       0.24548852 -0.06320715 0.103094995 0.034067843
000040 5d 7c 7b 3d d8 d4 5d 3e e9 25 31 3e d2 d4 24 bd
       0.0613979 0.21663225 0.17299618 -0.040242024
000050 ad e9 14 3e 7e c3 15 3e 2f a1 aa bd 19 cf c3 3d
       0.14542265 0.14625356 -0.083315246 0.09560985
000060 ab d5 80 3c 73 3b b4 3d 78 e3 0d bc ed 39 49 3e
       0.015726885 0.088004015 -0.00866019 0.19651003
000070 1b 93 22 3e 75 7c 70 3e 2c 48 02 be 98 8e 8d 3d
       0.15876429 0.23484977 -0.12722844 0.06911963
000080 2f 9e 80 3c d7 13 c4 bd 52 48 94 3d f1 7f 6e bd
       0.015700428 -0.09574097 0.072403565 -0.058227483
000090 70 c9 c4 bd 85 27 bb bd a8 09 d7 bd 70 30 ec bd
       -0.09608734 -0.09138397 -0.10499889 -0.11532676
0000a0 fb 67 36 3e 5a ad 68 3e f5 bf ef 3d c8 b4 1b 3c
       0.17813103 0.22722378 0.11706535 0.009503551
0000b0 bc b1 92 3c ab e2 dc 3d 35 cf a0 bc 4b c1 df bd
       0.017907016 0.10785421 -0.019630054 -0.109255396
0000c0 90 7f cf 3d ed e5 32 3e fa 09 81 bd 5a 4e cd 3d
       0.101317525 0.17470522 -0.06300731 0.1002471
0000d0 2b 3e 9e 3d 11 c3 31 3e c8 7e f8 3d 22 41 51 bd
       0.07726701 0.17359568 0.121335566 -0.051087506
0000e0 0c 43 1d be 11 17 4b 3c 08 d6 90 3d 38 45 0d bd
       -0.15357608 0.012395636 0.07072073 -0.03448984
0000f0 97 a5 27 3e 82 ff 11 3e 47 a4 10 3e ee 2f ee 3c
       0.16371761 0.14257625 0.14125167 0.029075589
000100 14 27 e8 bd a6 18 00 3e 3e 32 a4 bd 2c 8a 4c bd
       -0.113355786 0.12509403 -0.080173954 -0.04993646
000110 9a be 61 3c 2d 37 cb 3d 57 b6 bf bd 13 ef f7 bd
       0.013778353 0.09922633 -0.093609504 -0.12106147
000120 c6 2e 8b 3d e2 14 ee 3d 14 fd 26 3d 97 6d 48 3d
       0.06796031 0.11625077 0.040768698 0.048932638
000130 e8 c4 20 be d9 a1 81 bd f0 03 47 3d 69 20 d4 3d
       -0.15700114 -0.06329698 0.04858774 0.10357744
000140 a3 7b 40 bd 21 99 e9 3d 2c f6 14 3d 33 95 05 be
       -0.04699291 0.1140616 0.03636758 -0.13045196
000150 61 fc 96 3d 70 79 79 3c fe dd 4c be 59 c3 eb 3c
       0.07372356 0.015226707 -0.20006558 0.028779672
000160 bf 19 66 bd 56 2d 54 be e7 04 ea 3d 18 84 36 3d
       -0.056176897 -0.2072042 0.11426716 0.04455957
000170 72 b3 c9 bd 1e 54 14 3c 14 fc 50 bd 8a b8 46 be
       -0.098486796 0.009053258 -0.05102165 -0.19406334
000180 83 a0 3c 3e 2e 0a 4d 3d 67 e2 19 be 5a 29 4d 3d
       0.18420605 0.050058536 -0.15027772 0.050088264
000190 56 ee 1b 3e 63 de b9 bd ec 91 46 3e 37 4f d3 3a
       0.15227637 -0.0907562 0.19391602 0.001612163
0001a0 cb a8 96 3d c0 71 b3 bd e8 e8 90 3d 3a eb 15 3e
       0.073564135 -0.087619305 0.07075673 0.14640513
0001b0 0d f9 90 3d be cf fe 3d bd 16 aa bd 46 a1 33 bd
       0.07078753 0.124419674 -0.08305118 -0.043854974
0001c0 b5 c5 97 3c bd c3 21 3a 6e cd 2e 3e 38 a5 6f bc
       0.018526891 0.000617083 0.17070553 -0.014626794
0001d0 48 4a a1 bc d1 e7 46 3e fa 67 aa 3c 84 2c f2 3d
       -0.01968874 0.19424368 0.020801533 0.11824897
0001e0 0a 79 04 bd 85 8f 63 3e 1b 4b 45 3e 61 0a 0f bd
       -0.032341994 0.22222717 0.19266932 -0.034922007
0001f0 c6 a8 18 3e 65 96 71 3e fb 12 1f 3e 99 3a 9d 3d
       0.14908132 0.23592527 0.15534584 0.07677192
000200 a5 37 db 3d 9a cc 85 3c c6 15 e6 bb 65 c8 e0 ba
       0.10703973 0.016332913 -0.0070216386 -0.0017149566
000210 3a 0e 11 3e 1e 7b a8 3c 0d 26 1b 3e f4 b5 c9 bd
       0.14165583 0.02056652 0.15151234 -0.09849158
000220 c8 b9 c2 3d b1 65 c2 bd 18 4f 2d 3e ec b5 b5 bb
       0.09508091 -0.09492052 0.16924703 -0.0055453684
000230 1d e3 03 3e 0d 99 17 be 03 67 ed bc 6c 1c 42 3e
       0.12879606 -0.14804478 -0.028979784 0.18956155
000240 7b be 80 3d 2e b2 17 3e 2b 73 22 3d 44 ab f3 3b
       0.06286331 0.14814064 0.039660614 0.007436188
000250 22 ff b5 3d 8e 50 05 3d 9e 73 2c 3e bd 9c f0 bd
       0.08886553 0.032547526 0.1684098 -0.117486455
000260 8e df d0 3d e5 e9 27 bc 3f e0 98 3d 89 f5 b4 3d
       0.1019889 -0.010248636 0.074646465 0.088358946
000270 66 a0 ff 3d 60 4e 22 3e f5 9f e1 3d 5f 7a a3 3d
       0.124817654 0.1585021 0.110168375 0.07982325
000280 e5 a5 d4 bc ae e0 98 bd c5 73 05 3e ba f9 02 3e
       -0.02595801 -0.07464729 0.13032444 0.12790576
000290 77 40 29 3e 99 bf 2d be e4 94 3f bc 52 61 5c bd
       0.16528498 -0.1696762 -0.011693213 -0.05380375
0002a0 f6 2d b4 bd 41 cc 80 bd 4e d0 74 3e 98 17 bf 3d
       -0.08797829 -0.06288958 0.23907587 0.09330672
0002b0 9d 96 ee 3c 40 29 c1 3d dc 59 e5 bc 45 64 48 bd
       0.029124552 0.09431696 -0.02799695 -0.04892375
0002c0 38 68 75 3c 70 66 5e 3e 97 6f 32 3d 21 69 47 3e
       0.014978461 0.21718764 0.04356345 0.19473697
0002d0 2f a4 b4 3d 5e 2e 21 3e ca c5 16 3e 93 4c 3b 3e
       0.08820378 0.15740344 0.14723888 0.1829093
0002e0 d0 f7 53 3d 43 f7 6a bd 1a 35 7b 3d 55 a8 2b 3e
       0.051750004 -0.057364713 0.06132994 0.16763432
0002f0 3e 37 18 3e 15 98 9c bd 2b b8 0f be 23 07 00 3e
       0.14864823 -0.07646195 -0.14035098 0.12502722
000300 e4 9b 7e 3d 05 53 30 3e 00 2e 2f 3e 5f 60 f3 bd
       0.062160388 0.1721917 0.17107391 -0.11883616
000310 e0 5d 6a 3d 57 0c b3 bd 6b 38 80 bd 4b a0 ac bc
       0.057218432 -0.08742588 -0.06260761 -0.021072527
000320 15 b1 0e 3e e9 2a 7f 3d 3c df 55 3e ec 82 4f 3e
       0.13934739 0.06229678 0.20885938 0.20264786
000330 54 a4 b0 bc 49 93 a2 bd 3d 5e a1 bd 98 6a 11 3e
       -0.021562733 -0.07938249 -0.07879303 0.14200819
000340 e7 4a d0 3d 08 fb 9b bb a9 fd 41 3e a9 17 8f 3c
       0.101705365 -0.00476015 0.1894442 0.017467337
000350 c9 07 81 3d 2b 51 3a 3e ea b3 63 3e 89 df 5b 3d
       0.06300313 0.18195026 0.222366 0.053679977
000360 c6 65 8c 3d 6c f5 02 3e 78 30 3e bc cf ae 54 bd
       0.06855349 0.12788934 -0.011608236 -0.051924523
000370 8b 8d bc 3d e3 07 3c 3c d5 16 97 bd 92 e9 2e 3e
       0.09206685 0.01147649 -0.07377402 0.17081288
000380 15 a4 5d bd 1f fa 1d 3d f6 20 43 3d f8 5d 8c 3d
       -0.05411156 0.038568612 0.047638856 0.068538606
000390 b2 e0 63 3d 2b 71 fb bb 2a d3 b1 3d 63 73 01 be
       0.055634208 -0.007673403 0.086828545 -0.12641673
0003a0 ee 7e 79 bd ba 40 0b 3e 72 d5 0a 3e eb f3 b8 bd
       -0.060912065 0.1359891 0.13557985 -0.09030899
0003b0 48 bc a5 bd e4 d2 38 3e 0c 38 20 be f3 e7 07 bd
       -0.080925524 0.18049198 -0.1564638 -0.03318019
0003c0 1a ba 45 3c e3 f2 8d 3d 0e 2e 0f 3e c9 d7 d6 3c
       0.012068296 0.069310926 0.13982412 0.026225941
0003d0 2a d6 81 bc 1e 35 21 bc 1b 8c 4e 3e 9a 38 15 3e
       -0.015849192 -0.009839324 0.20170633 0.14572373
0003e0 d1 b0 5d bd 98 ce 04 3e f4 10 50 3e f9 48 b6 bd
       -0.054123703 0.12969434 0.20318967 -0.08900637
0003f0 db 5d 10 be 70 71 b5 bd b9 4c bd 3c 18 2c 07 3e
       -0.14098303 -0.08859527 0.023107873 0.13200414

hidden_layers.0.bias f4 [32]
000000 91 46 b2 3c fe 12 4a 3e 17 89 02 3e 02 58 24 3e
       0.021762164 0.19733807 0.12747608 0.16049197
000010 79 5b 0c 3e f1 32 f3 3d 92 52 c2 3d e8 da 78 bd
       0.13706769 0.11874951 0.09488405 -0.06075564
000020 ab 44 ff 3d c4 24 9e bd ff e3 dd 3d 58 9d aa bd
       0.12464269 -0.07721856 0.108345024 -0.08330792
000030 71 55 4d bd 93 55 79 3d 78 11 25 3e 8e c3 16 3e
       -0.05013031 0.060872626 0.16119945 0.14723036
000040 46 02 30 be 25 a2 90 3d bf ee 06 bd d6 be d3 3d
       -0.17188367 0.070621766 -0.03294253 0.103391334
000050 d2 c7 66 3e c9 bd 57 bd 0c e2 db bd 61 e3 13 be
       0.22537163 -0.052671228 -0.107364744 -0.14442207
000060 52 aa 34 3d 98 9b c8 bd fc b6 88 bc 7a d2 6b 3e
       0.044107743 -0.09795302 -0.016688816 0.23029509
000070 58 fe fe bc 01 f8 ff bd 17 7a 6d 3e 66 2d d8 3b
       -0.03112714 -0.12498475 0.23191105 0.006597209

hidden_layers.1.weight f4 [32, 32]
000000 51 0c 82 3c 50 0f 09 bc 37 4e 94 bd ce fa 57 bd
       0.015875014 -0.008365467 -0.07241481 -0.05272942
000010 75 88 d7 bd 3b d5 91 bd 84 b4 24 be fc f2 ae 3b
       -0.10524074 -0.071207486 -0.16084486 0.0053390246
000020 2d 69 da 3d 0f c3 6a bd 44 5e 41 be ab 6a dd 3d
       0.10664592 -0.05731493 -0.18883616 0.10811361
000030 1d 57 ff bc 2b d3 bd 3d 5b 7f be 3c b3 1d 5b bc
       -0.031169469 0.09268793 0.023254087 -0.01337378
000040 fb 54 0c 3c f2 99 c7 bd 3d 48 d8 bd 07 92 82 bd
       0.008565183 -0.097461596 -0.10560653 -0.06375509
000050 57 d5 53 bd 06 12 97 bd 7d a5 e6 3c f6 a0 a3 3d
       -0.05171713 -0.073764846 0.028155083 0.07989685
000060 ad ae 1b 3e 47 8f 37 be 17 44 26 3d 1a a3 d5 bd
       0.15203352 -0.1792575 0.04059228 -0.104315
000070 86 ff de 3d 3e 47 28 be 59 9e 0d be fc 88 c3 3c
       0.10888581 -0.16433427 -0.13829936 0.02386903
000080 f2 ce 24 3e ee e6 de 3d 6a a6 d9 3d 00 b0 67 3b
       0.16094568 0.1088389 0.10627444 0.0035352707
000090 66 55 68 3e 5c d8 2c 3e 36 7a b9 3d 33 2f 54 3e
       0.22688827 0.1687941 0.09056513 0.2072113
0000a0 14 83 f5 bd d5 da be bb 18 c3 39 3c 0f 15 d9 bd
       -0.11987892 -0.0058244267 0.011338018 -0.1059972
0000b0 f3 10 70 3b ee 14 5e 3e f0 08 9c bd 58 03 fb 3c
       0.0036631196 0.21687672 -0.07618892 0.030641243
0000c0 25 c4 86 bd 98 a4 95 bd 3a e4 96 bd a3 72 0e 3e
       -0.0658038 -0.073067844 -0.073677495 0.13910918
0000d0 e3 07 f1 3d 1d 5c ae bd 20 cb de 3d b0 22 f1 bd
       0.117690824 -0.08513663 0.10878587 -0.11774194
0000e0 0f 77 23 3e 83 79 52 3d 9f 1c 86 3d 30 a9 69 3d
       0.15963386 0.051385414 0.06548428 0.057046115
0000f0 d1 5a d6 bc f6 67 a1 3c 0d ae cf 3d b8 74 0f 3e
       -0.026166352 0.019702893 0.101406194 0.14009368
000100 70 eb ad bd d5 32 a5 bc fc c7 11 be 73 bf 62 3e
       -0.08492172 -0.02016584 -0.14236444 0.22143345
000110 d0 bf 71 3e 94 44 73 3e cd 4c 4c 3e 76 ac 9b 3c
       0.23608327 0.23756629 0.19951172 0.019003134
000120 d5 1b 86 bd 1b 11 58 3e 3e a7 8e 3d ea be f8 bc
       -0.06548277 0.21100275 0.06965493 -0.030364472
000130 5b 9a d6 bd 01 93 41 3e 2b f4 6c 3e e0 fb 6a 3d
       -0.1047866 0.18903734 0.23140018 0.057369113
000140 15 f4 80 bd 55 ac 97 3d 02 5c 2b 3e 55 95 22 3e
       -0.06296555 0.074059166 0.16734317 0.15877278
000150 01 07 71 3e 4d e5 2b 3e df ed ca bd 9e 30 34 bd
       0.23537828 0.1678669 -0.099086516 -0.043991677
000160 dc 2e df bc 48 df 83 3d d2 ab 47 3e 95 81 52 3e
       -0.027244024 0.06439072 0.19499138 0.20557244
000170 a7 76 d8 3d da 5b 75 3c 2e a1 0a 3c 77 76 28 3d
       0.10569506 0.014975512 0.00846128 0.041128602
000180 9c d7 da 3d a2 00 90 bd b0 2b 8e 3d 28 49 fc 3d
       0.106856555 -0.07031371 0.069419265 0.12318641
000190 12 57 63 3d 80 ce 6e 3e 49 77 09 bd 4f e1 de bd
       0.05550296 0.23320961 -0.033561025 -0.10882818
0001a0 87 0a 18 3e 8d d1 07 3d 43 7c 7e 3e e8 b1 bc 3d
       0.14847766 0.033158828 0.2485209 0.092136204
0001b0 e7 db cb 3d f1 0f 1e bd e7 0b 3f 3b c2 66 32 3e
       0.099540524 -0.03858942 0.0029151381 0.17422011
0001c0 cd af 94 bd 02 ff a4 bc 8a 5f 7b 3d 7f 8e 81 bc
       -0.07260094 -0.020141128 0.06137041 -0.015815018
0001d0 bd 7f 23 3e 03 09 12 3e 3a 91 c4 bd f6 7b 4b bd
       0.15966697 0.1426125 -0.09598012 -0.049678765
0001e0 56 23 7a 3d e0 cb 92 bc bd 6c 56 3d c7 68 6f bd
       0.061068855 -0.01791948 0.052349795 -0.058449533
0001f0 80 93 44 3e 31 2d bb 3d 23 a9 80 3d b7 5d 81 3d
       0.19196892 0.09139479 0.0628226 0.06316703
000200 4c 82 5f 3e 50 9d 3d 3e 96 7f 20 be 77 47 28 3d
       0.21827048 0.18517041 -0.1567367 0.04108378
000210 58 48 31 3d 2c 04 6e 3e 38 bd 1b 3e 60 cb e2 3d
       0.043281883 0.23243779 0.152089 0.11073947
000220 7f fe ae bd d7 21 cd bb 14 e1 15 3e 28 69 81 bd
       -0.08544635 -0.0062601375 0.14636642 -0.06318885
000230 4e 06 a3 bb f3 bb 8b 3d de ed ad 3b 31 2f 43 3e
       -0.004975117 0.06822958 0.005307897 0.19060971
000240 ca 26 c3 3c 84 39 5d 3e 04 97 c7 3d cf e2 8e bd
       0.023822207 0.21603972 0.09745601 -0.06976854
000250 34 a4 29 3e ee a2 cc bd 9e d3 bf bd f3 08 11 be
       0.16566545 -0.09992014 -0.09366535 -0.1416357
000260 03 af 19 3e 36 36 d8 bd e3 c0 3d 3d 94 93 64 3e
       0.15008168 -0.10557215 0.04632653 0.22321922
000270 86 6f 0a 3e 3b 50 2b 3e 31 d3 54 3e a0 69 4a 3e
       0.13519105 0.16729824 0.20783688 0.19766855
000280 86 b0 47 3e e1 de 82 3e 2f 97 22 bd da 7b 25 3e
       0.19500932 0.25560668 -0.03969496 0.16160527
000290 00 eb 50 3e f8 31 af bc 65 0d 96 3d 84 8b 94 3d
       0.20402145 -0.021386132 0.073267736 0.07253173
0002a0 1f 76 dc bd a9 6a 5f 3e b3 27 45 3d d8 09 43 3e
       -0.10764717 0.21818031 0.048133563 0.19046724
0002b0 d8 5d c4 bd 04 86 14 bc 7f 42 a0 3d 49 64 76 3e
       -0.09588212 -0.009065155 0.07825183 0.24061693
0002c0 72 a7 a4 bd d3 7a 1e 3c 4e 1f 75 3e 11 dc 1e 3e
       -0.0803975 0.009672838 0.23937723 0.15513636
0002d0 68 6b a8 bd 1f 3b d2 bd fa 40 23 3e 06 22 2e bd
       -0.08223611 -0.10265183 0.15942755 -0.042512916
0002e0 3e 0f c3 bd e9 96 9b bd 64 c2 79 3e af d7 29 3e
       -0.095243916 -0.07597143 0.2439056 0.16586183
0002f0 aa 65 a0 3c 34 56 bf 3d 37 86 39 3e f9 42 d5 3d
       0.019579727 0.09342614 0.18117605 0.10413165
000300 17 1d cb bd 71 45 e6 3d d1 44 17 3e cf 16 07 3d
       -0.09917658 0.11243714 0.14772345 0.032980736
000310 ad 65 38 3e 93 51 0b 3e 3d 73 6b 3d 6f b1 27 3e
       0.18007536 0.13605337 0.057482947 0.1637628
000320 61 fd af 3d e9 e5 02 3e 77 0d 57 3e ba 4b a2 bd
       0.0859325 0.12783016 0.2100123 -0.079246
000330 1c 8d a8 3c e6 d8 f9 3d ae 80 ad 3d 9e bf 3b 3e
       0.020575099 0.12199573 0.08471809 0.18334815
000340 71 44 a8 bd ad 04 55 3e 63 bf 4f 3e 84 2b ca 3d
       -0.08216179 0.20802565 0.20287852 0.09871581
000350 11 28 1b 3d 46 12 69 bd 9c ec 51 3a dc 00 27 3e
       0.037880007 -0.056902193 0.0008007975 0.16308922
000360 2b e1 cf 3d 70 0e 9e 3d 75 de e1 3d c7 8b d4 bd
       0.10150369 0.077175975 0.110287584 -0.10378223
000370 48 42 c0 bd a9 76 07 3d 7f 7a bc 3c b5 06 53 3e
       -0.09387642 0.033072148 0.02300763 0.20608027
000380 05 2c a6 bd c4 82 64 3e e9 81 8b bd 99 47 14 3e
       -0.08113865 0.22315508 -0.06811888 0.14480437
000390 ad a7 c0 bd 20 b2 6b 3e 92 f8 15 3e 87 fe 3e 3e
       -0.094069816 0.23017168 0.14645603 0.18651782
0003a0 96 16 d9 bd 05 39 f1 bc 96 f7 2b 3e f2 0e 1f 3d
       -0.10600011 -0.029446134 0.16793665 0.038832612
0003b0 ca 1d 84 bc 78 b5 9d bd b0 38 f0 ba 47 b7 fc 3d
       -0.016127486 -0.07700628 -0.0018327441 0.12339645
0003c0 e0 09 2e 3e 76 33 5c bd e3 b0 38 3e 4f fa 34 3e
       0.16995955 -0.053760014 0.18036227 0.1767361
0003d0 35 74 7f 3e fb 2c fe 3d 8f 3c d0 3d 82 64 7f ba
       0.24946673 0.12410923 0.10167801 -0.0009742455
0003e0 db 62 42 3e 0d 64 e7 3c 21 9e a1 3a 73 df 1e 3d
       0.18983023 0.02824595 0.0012330451 0.038787317
0003f0 f2 06 7c 3e 7e 90 1b be bf 13 d5 3d f7 f0 e9 3c
       0.24612024 -0.15191838 0.10404157 0.028557284

hidden_layers.1.bias f4 [32]
000000 11 be e1 3d 0e 30 74 3e 40 ca 68 bd 6d cf 81 3e
       0.110225804 0.23846456 -0.056833506 0.25353566
000010 b0 fb 07 3e cb 4b a2 bb 2d 34 5e 3e 5d 3f 5b 3e
       0.13279605 -0.004952883 0.21699591 0.2141089
000020 32 b3 21 bd cf 1c 12 be 55 09 73 3e 98 ff 04 be
       -0.039477535 -0.14268802 0.23734029 -0.12988126
000030 86 45 8a 3d 20 55 28 be a6 30 84 bd dc 54 8e 3d
       0.06751542 -0.16438723 -0.064545915 0.069497794
000040 25 b1 a1 3d 32 fe c3 bc e5 5a f4 bc b8 ac b5 3d
       0.07895116 -0.02392492 -0.029828498 0.08870834
000050 ca 99 23 3e 28 ef 3c 3e 23 33 df 3d c1 d6 1b 3e
       0.15976635 0.18450606 0.108984254 0.15218641
000060 53 b5 36 bd 03 03 e2 ba df 7f a0 3d 68 86 8c 3d
       -0.044606518 -0.0017243329 0.078368895 0.068615735
000070 c7 b3 e9 bd b8 8e 72 3d c8 c5 8f bd 61 e1 64 3e
       -0.11411243 0.05921814 -0.07020146 0.223516

hidden_layers.2.weight f4 [32, 32]
000000 94 a4 fa bd 94 0d a2 bd 2c a3 2d 3e 2d 2a c2 3d
       -0.12238422 -0.07912746 0.16956776 0.09480701
000010 f5 4a 5f 3e 09 10 73 3e 77 d2 67 bd 34 5b e7 3d
       0.21805938 0.23736586 -0.0565972 0.112966925
000020 47 13 11 3e a1 95 b7 bd dc 85 94 bd 12 b4 3d bb
       0.1416751 -0.08964086 -0.07252094 -0.0028946442
000030 89 98 91 3d 3b f2 9b bd 6c ad 1e be 6d a7 85 3d
       0.07109172 -0.07614561 -0.15495843 0.065260746
000040 55 99 86 3d b5 cd 53 3e e3 59 33 3c 68 d9 fc 3d
       0.065722145 0.2068394 0.010946724 0.123461545
000050 be 18 64 bc c2 ec 76 bd a7 2e ae bd 58 11 f4 bd
       -0.013921915 -0.060284384 -0.08504992 -0.119173706
000060 b9 d3 31 3c 22 9b c8 3c e0 27 6f 3e 5e 39 02 3b
       0.010853701 0.024488036 0.23355055 0.001987062
000070 56 ab e5 bd 39 d0 12 3e ff 82 9a 3d af 0d 7e 3e
       -0.1121432 0.14337243 0.07544517 0.24809907
000080 79 d3 99 bd b4 8d ca 3c be 6e 30 bc b0 8d 39 3d
       -0.07511038 0.024725772 -0.0107685905 0.04530114
000090 34 4e e5 3d e8 4e 19 be 3e 49 31 bd bc 52 24 3e
       0.11196557 -0.14971507 -0.04328274 0.16047186
0000a0 bb b7 3a 3e 08 d9 75 bd af 28 fb bd a2 81 25 3d
       0.1823415 -0.06002143 -0.12263619 0.04040683
0000b0 61 d1 d1 bc 29 fe b5 3d 94 ee 29 be e0 6d b8 bd
       -0.025612535 0.08886368 -0.16594917 -0.09005332
0000c0 ce e1 36 bb b5 8f 2e 3e ba c5 a8 bd f9 17 a9 bd
       -0.0027905586 0.17047007 -0.08240838 -0.082565255
0000d0 06 a3 04 3d 4f 29 c9 3d 30 aa 8e 3d 7b 9a 0f bd
       0.032382034 0.09822332 0.069660544 -0.035059433
0000e0 8a 42 c8 bd 64 c4 9f bd 6e 18 3e 3e 30 b6 be 3d
       -0.09778316 -0.078011304 0.18564007 0.09312093
0000f0 70 c3 9f 3d ef 97 05 be 26 c0 98 3d be f8 1d be
       0.078009486 -0.1304624 0.074585244 -0.15426919
000100 98 4a 69 3d af 47 43 bd 21 b1 7e bd ea 80 64 3d
       0.056955904 -0.047675785 -0.062180642 0.055787005
000110 df 72 d8 3d 64 f7 4c be 68 52 09 be 85 19 20 bd
       0.10568785 -0.20016247 -0.13410342 -0.039086837
000120 3e 6c a4 bb a6 aa 4b bd 1c 87 fe bd 50 42 0c 3e
       -0.0050177863 -0.04972329 -0.12428114 0.13697171
000130 79 d4 37 bd 04 0b 91 3c f5 66 83 3d b5 8c c4 bd
       -0.044880364 0.017705448 0.06416122 -0.0959715
000140 3f 31 18 be fb 68 07 3d b7 c7 f4 3d db dd 9f 3d
       -0.14862536 0.0330591 0.11952155 0.078059874
000150 d4 45 87 3d a1 4c 07 bd 5a 3a 26 3e bb ee 23 3e
       0.066051155 -0.033032063 0.16233197 0.16009037
000160 6c 14 9b bd 0f 66 f1 3d 17 66 c0 3d 53 66 05 3c
       -0.075722545 0.11787044 0.09394472 0.008142072
000170 b7 d2 70 bd 94 98 23 3c 1a d6 cb bd 39 59 91 bd
       -0.058794703 0.009985108 -0.09952946 -0.07097096
000180 8a af 0d 3e 0a 86 be 3d c7 0d 3c be ce 5c 90 bd
       0.13836494 0.0930291 -0.1836463 -0.07048951
000190 a4 5e 07 be d2 b0 1a 3e 91 2b b7 3c 81 ad 20 bd
       -0.13219696 0.15106514 0.022359641 -0.039227966
0001a0 13 15 4b bd db 94 55 3c 83 3d 35 be 88 32 e4 bd
       -0.049580645 0.013035978 -0.17699246 -0.111424506
0001b0 6e f0 ed 3d 74 f6 10 3e fd 72 f1 3d 63 ca b7 bd
       0.11618124 0.14156514 0.117895104 -0.08974149
0001c0 5d 69 e2 3d 6a 7a a5 bd ea 89 a1 3d 58 11 12 be
       0.11055253 -0.08079989 0.07887633 -0.14264429
0001d0 19 f2 16 3d a9 c0 46 be 95 2c f9 bd 15 5c 13 3d
       0.036851976 -0.19409432 -0.121667065 0.03597649
0001e0 f0 e1 0a be 0d 95 0a 3d ea 04 b6 bd 9f fa 16 3e
       -0.13562751 0.033833552 -0.08887656 0.14744042
0001f0 b2 6a c8 3a 85 54 d6 3d 2e 8e 90 bd 2c 00 00 be
       0.0015290587 0.104653396 -0.070583686 -0.12500066
000200 11 88 0b 3e bb 27 93 bd c0 93 29 be 97 af 90 3d
       0.13626124 -0.07185312 -0.16560268 0.07064741
000210 5a 48 da bd 4d cd 2f 3e ea f1 e4 3c 72 7c 4f bb
       -0.10658331 0.1716816 0.027947385 -0.0031659869
000220 47 85 af bc 22 63 d1 bd f1 44 30 be d7 07 14 3e
       -0.021425856 -0.10223986 -0.17213799 0.14456116
000230 54 a8 b4 3d 2c 74 15 be 4d fc 29 3e 1e da e8 bc
       0.088211685 -0.14595097 0.16600151 -0.028424319
000240 aa 65 f7 bd 99 cc aa bd 92 33 e2 3d 29 ff 06 3d
       -0.12079938 -0.08339805 0.110449925 0.032958183
000250 fa c7 20 be 39 4b 33 be fc 0a ae 3d 7e 93 6d 3d
       -0.15701285 -0.17509164 0.08498189 0.058001988
000260 42 e9 f4 bd 30 b9 f1 bd 2d 5c d9 bb b2 b4 6a bd
       -0.11958553 -0.118029 -0.0066333027 -0.05730123
000270 c5 fd c0 3c 92 74 1a 3d 83 f1 22 bd f2 90 12 be
       0.023558507 0.037708826 -0.039781105 -0.14313105
000280 19 f3 8a 3d d0 3e 68 3e f6 a1 d5 3b 5b fb 71 3e
       0.067846484 0.22680211 0.0065195514 0.23631041
000290 98 ba 4c 3e 7d 96 f9 3c 1b 38 2c 3d 8f 83 6c 3e
       0.19993055 0.030467266 0.042045694 0.2309706
0002a0 28 15 64 3d 4f a5 10 be 86 2f 74 3e 8c ca 79 bd
       0.05568424 -0.1412556 0.23846254 -0.06098418
0002b0 d7 0c f6 3d d6 17 90 bd d1 c9 dc 3d 6e 3b ca bd
       0.12014168 -0.07035796 0.10780681 -0.098746166
0002c0 f3 53 49 3d 99 08 5d bd 0a 49 6f bc f1 69 1d 3b
       0.049152326 -0.053963277 -0.014604816 0.0024019445
0002d0 57 36 33 3e 1a b5 23 3e ca 7b 28 be 89 6e 04 be
       0.17501198 0.15987054 -0.16453472 -0.12932791
0002e0 ab c9 7a 3d e4 ca 0e 3e 24 6e 9f 3d 0f e1 b0 bb
       0.06122748 0.13944584 0.077846795 -0.005397923
0002f0 bc dc e1 bd fe 2c c3 bd 48 02 66 bc 91 1b 46 3e
       -0.1102843 -0.09530066 -0.01403863 0.19346453
000300 d4 36 0a bc d8 97 58 bd e5 ec 04 bd 38 a3 40 3c
       -0.008435924 -0.052879184 -0.032452483 0.011757664
000310 58 e5 6c 3d 4b 62 0a be 4d c6 13 bc 78 5e 6f bd
       0.057835907 -0.13514058 -0.009019447 -0.0584397
000320 93 78 29 3e ee 46 ff bd b7 dd f3 bd 57 f3 c2 3d
       0.16549902 -0.12464701 -0.11907523 0.0951907
000330 2c 88 ad bd ad 3c 92 3d 52 b7 f1 3d e9 ba a4 3d
       -0.08473238 0.07140479 0.11802544 0.08043463
000340 93 63 34 be 89 43 21 be 45 55 1c 3d ac 05 0c bd
       -0.1761611 -0.15748419 0.038167257 -0.034185097
000350 a2 dd 07 be 65 dd 82 bc c3 26 02 3d 6f 15 91 3d
       -0.1326814 -0.01597471 0.031775247 0.07084166
000360 ed d0 c8 3d a3 1b 34 be 39 ce 2c be 23 38 ff bd
       0.098054744 -0.17588668 -0.16875543 -0.12461879
000370 d0 ce fb bc a4 b8 1c be fc 6b e2 3d c8 10 df bd
       -0.030738264 -0.1530481 0.11055753 -0.10891873
000380 f8 04 5b bd de 8d 0b be e0 83 f8 bd e6 87 e5 bd
       -0.053471535 -0.13628337 -0.12134528 -0.11207561
000390 1f 68 14 3e 84 63 25 be 75 1a 13 be ed ac 1f be
       0.14492844 -0.16151243 -0.14365561 -0.1559331
0003a0 36 f9 31 3e cb ce 1d be db 90 72 bd 68 35 db 3a
       0.17380223 -0.15410917 -0.059220176 0.001672429
0003b0 a8 b8 11 3d 07 33 8a bc a6 03 12 be a0 8c 11 3e
       0.035576493 -0.016870035 -0.14259204 0.142138
0003c0 b6 1e ff bd fe 89 36 bd ed 14 b1 3d d4 9a 0d 3e
       -0.124570295 -0.044565193 0.086465694 0.13828593
0003d0 d0 6d d4 bd f0 79 0a bd cd e7 3d 3c a1 a9 29 be
       -0.103725076 -0.033807695 0.01159091 -0.16568615
0003e0 ee 1a 88 bd b2 ad df 3d 76 ea f2 bd 41 f5 b7 3d
       -0.066457614 0.109218016 -0.11861126 0.08982325
0003f0 75 92 08 be 9f f9 cc bd 14 5f a1 bd 9e b3 8b 3d
       -0.13337119 -0.10008549 -0.07879463 0.06821369

hidden_layers.2.bias f4 [32]
000000 c3 59 80 3e df a4 a6 bd b8 cf 16 3e 2e c3 04 3e
       0.25068483 -0.081369154 0.14727676 0.1296508
000010 a9 a8 a1 3c 85 c0 60 bd ee 1d 9c bd d7 72 41 bd
       0.019733744 -0.0548711 -0.07622896 -0.04722866
000020 37 f7 34 be ab ed 88 bd 2e 7a 9d 3d b3 b3 b3 3d
       -0.1767243 -0.066859566 0.076893196 0.08774509
000030 f7 89 a8 3d 9c d1 05 be 9f d5 01 be 2b 9f 26 bd
       0.0822944 -0.13068241 -0.12679146 -0.04067914
000040 b8 ec 2f 3e 00 0d bd 3d d1 c3 12 be 51 56 82 3d
       0.17180145 0.09230995 -0.1433251 0.0636412
000050 d3 49 b7 bc 3f c7 50 3d 52 29 64 3d 23 47 2a be
       -0.02237407 0.050971266 0.05570347 -0.16628699
000060 9e a2 30 be b2 22 33 be 2d 67 52 3d e2 a6 0c be
       -0.17249534 -0.17493704 0.051367927 -0.13735536
000070 42 59 03 be dc ab 44 bd 07 a8 b9 3d d7 ea b2 bd
       -0.12827018 -0.04801546 0.09065252 -0.087361984

output_layer.weight f4 [2, 32]
000000 0e 23 ae 3d 41 85 06 be 8f f9 13 be 93 57 66 bd
       0.0850278 -0.1313677 -0.14450668 -0.05623586
000010 bf 2b 4b 3d aa 88 30 3e cd 94 ea 3d c9 21 87 3a
       0.049602266 0.17239633 0.11454163 0.0010309751
000020 02 82 18 be 8d 62 a0 bd df 94 29 3e 36 ac f8 3d
       -0.14893344 -0.07831297 0.16560696 0.12142222
000030 a3 e9 c9 3d 03 c5 c9 bd a7 64 35 be 99 7c 0b 3d
       0.09859016 -0.0985203 -0.17714177 0.034054372
000040 da 6c ea 3d 47 67 8e bd a4 c1 2b be 0b ad 06 be
       0.11446543 -0.06953292 -0.16773087 -0.13151948
000050 c7 3b f2 bd 94 1d 99 bd d8 4f 60 3e 1c 06 26 3e
       -0.11827808 -0.07476345 0.21905458 0.16213268
000060 c2 e8 5b bd 5f ab 05 be 04 de 2d 3e 4b 48 18 be
       -0.053688772 -0.13053654 0.16979223 -0.14871328
000070 d3 b1 94 bd c8 3b 2a 3e b1 72 47 3e 1a b7 31 be
       -0.0726048 0.16624367 0.19477345 -0.17355004
000080 53 04 83 be ae e4 23 be c9 48 0d 3e ff 0d 19 3e
       -0.25589237 -0.16005203 0.13797297 0.14946745
000090 35 c6 3e bd b3 db 09 be a1 06 bd 3d c6 49 eb bd
       -0.046575744 -0.13462715 0.0922978 -0.114886805
0000a0 5a 96 4b 3d d1 59 04 bd 61 ae 94 be 45 1e 36 be
       0.049703933 -0.032312218 -0.2903929 -0.17784984
0000b0 de 58 b6 bd 25 e5 70 bd fe d7 97 bd 9b 3c cb 3d
       -0.08903669 -0.05881228 -0.07414244 0.09923669
0000c0 dd 83 34 be b9 0f 83 be 2a 53 70 be 1e d3 c4 3d
       -0.17628427 -0.25597933 -0.23469225 0.0961058
0000d0 c7 b5 e8 bc 35 02 73 bb 4e 3b 41 3d f6 97 c4 3d
       -0.02840699 -0.0037080173 0.047175698 0.09599297
0000e0 e3 9e 8f 3d 2e bb 92 3d ab 3e 09 be f1 3d 00 3e
       0.07012727 0.07164608 -0.13402812 0.12523629
0000f0 92 22 34 3e b8 af 17 3d 50 df 04 be a9 0b 54 bd
       0.17591313 0.037032813 -0.12975812 -0.051768932

output_layer.bias f4 [2]
000000 88 fa 12 3e 8d f0 84 be
       0.14353383 -0.25964776
