synthetic_flows_raw/saved_models/phi_only_0.9.pt (torch, 16963 bytes, 10 tensors)

input_layer.weight f4 [32, 3]
0	0xbeefa272	-0.46803623
1	0xbf0b1571	-0.5432959
2	0x3c1796f7	0.009252301
3	0x3e348cbb	0.1763181
4	0xbf06e7b9	-0.5269733
5	0xbea29fe7	-0.3176262
6	0x3e7bcfa9	0.24590935
7	0xbe8e71bc	-0.27821147
8	0x3eb8c778	0.36089683
9	0x3d0a9bbe	0.033839934
10	0xbd899404	-0.06717685
11	0x3e0eab3d	0.1393251
12	0x3f13c02a	0.57715094
13	0x3e42b635	0.19014819
14	0x3e4b34cd	0.1984436
15	0xbdf7cfcf	-0.12100183
16	0xbe6eb7a9	-0.23312248
17	0x3eecc9ae	0.4624762
18	0x3ed60cd8	0.41806674
19	0x3d534e98	0.051588625
20	0x3dec28cf	0.11531221
21	0xbed2e31c	-0.41188896
22	0xbefe820f	-0.49708602
23	0xbe4bab32	-0.19889525
24	0xbe4f9c87	-0.20274554
25	0x3eee12da	0.46498758
26	0x3ecf1ab4	0.4045006
27	0x3ea1e3a0	0.31618977
28	0x3e1215ae	0.14266083
29	0x3f0b46ee	0.54405105
30	0xbe13c963	-0.14432292
31	0xbef797de	-0.48358053
32	0xbf001f51	-0.50047785
33	0xbe8bc3c4	-0.27297795
34	0xbedf5287	-0.4361765
35	0xbeea63d4	-0.45779288
36	0xbe3124df	-0.17299221
37	0x3dc1f689	0.09470851
38	0xbe074438	-0.13209617
39	0xbe3e7024	-0.18597466
40	0xbec98976	-0.39362687
41	0xbeedfd5e	-0.46482366
42	0xbe1641c9	-0.14673533
43	0xbe9d4ba1	-0.30721763
44	0x3de7727f	0.11301135
45	0x3f0850b7	0.5324816
46	0xbf08c950	-0.5343218
47	0x3ea1c5bd	0.31596175
48	0xbe9d269b	-0.30693516
49	0x3ecd52f0	0.4010234
50	0x3ebef78f	0.37298247
51	0xbedfedb0	-0.4373603
52	0xbf05e3cc	-0.52300715
53	0x3e1f7e6f	0.15575574
54	0xbe61a401	-0.22035219
55	0xbe9be972	-0.30451542
56	0xbe8bd44b	-0.27310404
57	0x3ed661ae	0.418714
58	0x3ea51344	0.3224126
59	0x3d466a4b	0.048441213
60	0xbc9bc5a4	-0.01901514
61	0x3ea573f4	0.32315028
62	0x3ed1a37d	0.40945044
63	0x3e68f129	0.22748245
64	0x3dc8a756	0.09797542
65	0x3ef99984	0.48749936
66	0xbe600bcd	-0.21879502
67	0xbe97e3cd	-0.29665986
68	0xbe50a740	-0.20376301
69	0xbd4fa53e	-0.050694697
70	0xbf0b63f8	-0.54449415
71	0xbf09fa45	-0.53897506
72	0xbea7c54d	-0.32767716
73	0x3d2b6af1	0.041850034
74	0x3e1f382e	0.15548775
75	0xbeed65e2	-0.46366793
76	0xbe92a17a	-0.28638822
77	0x3ec26d47	0.37973997
78	0xbead51a0	-0.33851337
79	0xbdfee188	-0.124453604
80	0xbee92fea	-0.45544368
81	0xbda1844a	-0.0788656
82	0x3dedcce0	0.116113424
83	0xbeddfe3a	-0.43358022
84	0xbe80ed74	-0.25181162
85	0x3ea94a75	0.3306462
86	0x3e2d16d0	0.16903234
87	0xbd62eb2f	-0.05540007
88	0x3ee52f6b	0.4476274
89	0x3e5fd97b	0.21860306
90	0xbe4176a0	-0.18892908
91	0x3ece6fdf	0.40319726
92	0x3ee44671	0.44584993
93	0xbf0bf0bb	-0.546642
94	0x3f0950e3	0.5363905
95	0xbe1b6084	-0.15173537

input_layer.bias f4 [32]
0	0xbe53fbcb	-0.2070152
1	0x3e4ab863	0.197969
2	0xbf07e413	-0.5308239
3	0x3e8830ec	0.26599824
4	0x3eb70f61	0.3575392
5	0x3f1a7e07	0.6034855
6	0xbea649a0	-0.32478046
7	0xbec85ba9	-0.3913243
8	0xbc3cd952	-0.011526423
9	0x3eead229	0.45863464
10	0x3ee9894a	0.45612556
11	0x3f190fca	0.5978972
12	0xbeb35830	-0.3502822
13	0xbf0cc613	-0.5498974
14	0x3f2344fd	0.6377714
15	0x3e42dd4a	0.19029728
16	0xbd7f1685	-0.062277336
17	0x3d8443b1	0.064582236
18	0x3f251eb3	0.6449997
19	0x3ef4ea08	0.47834802
20	0x3d8d33fe	0.06894682
21	0x3e3536bf	0.17696665
22	0x3e4b3dd7	0.19847809
23	0xbe2753c9	-0.16340555
24	0x3ec94c8e	0.3931622
25	0x3e1b7867	0.15182649
26	0xbecc4c49	-0.3990195
27	0x3f1d406e	0.61426437
28	0xbf06c392	-0.52642167
29	0x3e54e9bd	0.20792289
30	0x3f10951a	0.5647751
31	0x3e93c855	0.2886378

hidden_layers.0.weight f4 [32, 32]
0	0xbc7865f0	-0.015161023
1	0xbdb4a984	-0.08821395
2	0xbcbb0383	-0.022828823
3	0x3c940eeb	0.01807352
4	0x3d90eac3	0.07076027
5	0xbdd2b66f	-0.10288703
6	0xbde87329	-0.1135009
7	0x3da4b58c	0.0804244
8	0x3e0ba7ee	0.13638279
9	0xbe5042bd	-0.20337959
10	0x3d7c7f00	0.061644554
11	0xbdfd652c	-0.12372813
12	0xbe30cc70	-0.17265487
13	0x3dc84b94	0.097800404
14	0x3ddc9bdd	0.10771916
15	0xbd626619	-0.05527315
16	0x3d3edf65	0.046599764
17	0xbdc24404	-0.09485629
18	0xbdc2319c	-0.094821185
19	0x3d077b61	0.033076648
20	0xbd8423b9	-0.06452126
21	0x3dffefa4	0.1249688
22	0x3cc9fecb	0.024657628
23	0x3c8d6d02	0.017263893
24	0x3d845365	0.06461219
25	0xbd9674ea	-0.07346518
26	0x3d811bd4	0.06304136
27	0x3d954ee2	0.07290436
28	0xbe232809	-0.15933241
29	0x3dc06da6	0.09395914
30	0x3dae0d3d	0.08498619
31	0xbd92c853	-0.07167115
32	0xbdac7156	-0.084200546
33	0x3e1c5f73	0.15270786
34	0x3c81c858	0.015842602
35	0xbd2d773b	-0.042350035
36	0xbd6579ae	-0.056024246
37	0xbd6a9622	-0.057272084
38	0x3d0193fb	0.031635266
39	0x3cf49ab2	0.02985892
40	0xbdc96871	-0.09834374
41	0xbcc7a4b9	-0.024370538
42	0xbd8b5a32	-0.06804313
43	0x3e6882ec	0.22706193
44	0xbdab561e	-0.08366035
45	0xbdc81d7c	-0.09771249
46	0x3e4346ad	0.1906993
47	0xbd2800f4	-0.041016534
48	0xbe031605	-0.12801369
49	0x3e0e6729	0.1390654
50	0x3e28969d	0.16463704
51	0x3e023f63	0.12719493
52	0x3e2bb653	0.1676877
53	0x3e32e28a	0.1746923
54	0x3e213d15	0.15745957
55	0x3db3e3e6	0.087837026
56	0x3e27bfe5	0.16381796
57	0x3e40d1bc	0.18830007
58	0xbdf22671	-0.11823738
59	0xbd72c47e	-0.05926942
60	0xbe184b6a	-0.14872518
61	0x3d320004	0.043457046
62	0x3de25450	0.110512376
63	0x3e134574	0.14381963
64	0xbbcf3465	-0.0063233846
65	0x3dacd7f1	0.08439625
66	0x3de604b6	0.11231367
67	0x3e033d67	0.12816392
68	0x3d802d95	0.06258694
69	0x3e2b486d	0.16726847
70	0x3dc1fd65	0.09472159
71	0xbdf26744	-0.118361026
72	0x3dadbe29	0.08483536
73	0xbda7e0f6	-0.08197205
74	0x3e81fc4a	0.25387794
75	0xbd1a1a92	-0.037622996
76	0xbd2ce79b	-0.042213064
77	0xbdc9f989	-0.09862048
78	0x3dd7ca58	0.10536641
79	0xbd6d9cb2	-0.058010764
80	0xbd897f91	-0.067137845
81	0x3d01cf89	0.03169206
82	0x3e55c59c	0.20876163
83	0xbda6608e	-0.08123885
84	0xbcb6ea53	-0.022328531
85	0x3e5959c9	0.21225657
86	0x3cc20e97	0.023688598
87	0xbdd1dd37	-0.102472715
88	0x3d7e8eef	0.06214803
89	0xbc634724	-0.013871942
90	0x3dbb630e	0.091497526
91	0x3dc2d3ba	0.0951304
92	0xbd3a5789	-0.045493636
93	0x3d97720a	0.07394798
94	0x3e0920e4	0.13391453
95	0xbd2a6627	-0.041601326
96	0xbdc9bd84	-0.098506
97	0x3d298b7b	0.041392785
98	0xbd56e413	-0.052463602
99	0x3e69c751	0.2282994
100	0xbcbe1b72	-0.023206446
101	0xbde9a88e	-0.114091024
102	0x3d8533c6	0.065040156
103	0xbdfeabe9	-0.12435133
104	0xbde37ee7	-0.11108189
105	0xba368741	-0.00069629034
106	0x3d53cc8b	0.05170874
107	0x3dd559c1	0.1041751
108	0x3e089141	0.1333666
109	0xbd37be39	-0.044859145
110	0x3e0d00f7	0.137699
111	0x3db93ef9	0.09045214
112	0xbe0e86ca	-0.13918605
113	0xbcb1d734	-0.021709062
114	0x3e365685	0.17806442
115	0x3da56727	0.080763154
116	0x3e45d57d	0.1931972
117	0x3e25fdb7	0.16210066
118	0x3dab3dd5	0.08361403
119	0xbe254783	-0.16140561
120	0xbac6a686	-0.0015155829
121	0x3e05f5f0	0.13082099
122	0xbccfd6fc	-0.025371067
123	0x3db37107	0.08761793
124	0xbdd413f8	-0.10355371
125	0x3d2e090a	0.04248909
126	0x3d3d2b9c	0.046184167
127	0x3ddb3d3e	0.107050404
128	0x3d822830	0.063553214
129	0xbd853a5b	-0.06505271
130	0xbdd6ceae	-0.1048864
131	0x3df81cf9	0.12114901
132	0xbd7aa7e4	-0.06119527
133	0xbe275131	-0.16339566
134	0x3db533c8	0.08847767
135	0x3d0de2b8	0.034640044
136	0xbe131523	-0.14363532
137	0xbde7ac43	-0.11312153
138	0x3dcf0f8f	0.101103894
139	0xbd8b823f	-0.06811952
140	0xbdfdd50d	-0.12394152
141	0x3dd5ac0b	0.10433205
142	0x3a135f5a	0.00056218135
143	0x3e09622f	0.1341636
144	0xbd748d8e	-0.05970531
145	0xbcd4b6d6	-0.02596609
146	0x3d83eadb	0.064412795
147	0x3d561fe0	0.052276492
148	0xbe23be81	-0.1599064
149	0x3d67b76b	0.056571405
150	0x3d502cb1	0.05082387
151	0x3d58f7d3	0.05297072
152	0xbdcbca5f	-0.099507086
153	0x3c8dba13	0.017300641
154	0x3d9e938f	0.07742988
155	0xbcaf4cfc	-0.021399014
156	0xbe0c29e5	-0.13687856
157	0xbdc05cd6	-0.09392707
158	0xbe075345	-0.13215359
159	0xbd1b00cc	-0.037842557
160	0x3e2409f9	0.1601943
161	0xbdf9220d	-0.12164698
162	0xbe1e74f3	-0.154743
163	0x3d87f1ed	0.066379406
164	0xbdd473a2	-0.10373618
165	0x3ce769b8	0.028248653
166	0x3d0bab07	0.03409865
167	0xbd8f32be	-0.069921
168	0x3db3840a	0.08765419
169	0x3b7f2aef	0.0038935503
170	0x3cb39ae8	0.021924451
171	0x3e1764ca	0.14784542
172	0x3d89af13	0.06722846
173	0xbe150357	-0.14552055
174	0xbcc1d875	-0.023662785
175	0x3c8efd53	0.017454779
176	0x3db21fdc	0.08697483
177	0xbdd7603a	-0.10516401
178	0x3e2404e9	0.16017498
179	0x3db0d66c	0.08634648
180	0xbe0e5813	-0.13900785
181	0xbe0c5103	-0.13702779
182	0xbc2a64dd	-0.010400024
183	0x3b845397	0.004038285
184	0x3d49a6c8	0.04923132
185	0xbd14e12e	-0.03634756
186	0xbe23f84d	-0.16012688
187	0x3e06237c	0.13099474
188	0x3d0a89c6	0.033822797
189	0x3e093c27	0.13401853
190	0x3db3cb96	0.08779065
191	0x3e43e42c	0.1913001
192	0xbd6bff92	-0.057616778
193	0x3e28a9bc	0.16470999
194	0x3d99eeae	0.07516228
195	0x3de93f86	0.11389069
196	0xbd7bca57	-0.061472263
197	0x3e29aea4	0.16570526
198	0x3d599ee7	0.053130057
199	0x3e2ae2c3	0.16688065
200	0x3e0a6efa	0.13518897
201	0x3d7593a1	0.059955243
202	0x3d51bd1a	0.051205732
203	0xbcff65b3	-0.031176424
204	0xbe0c95e4	-0.13729054
205	0x3e23f3ed	0.16011019
206	0xbe207a7d	-0.15671726
207	0xbe0017fa	-0.12509146
208	0x3e2169ac	0.15762967
209	0xbe1a5d61	-0.15074684
210	0x3cd1d084	0.025612123
211	0x3cd2acc9	0.025717156
212	0xbe0fa25d	-0.1402678
213	0x3e0f3d0b	0.1398813
214	0x3da5e168	0.080996335
215	0xbd57ffbd	-0.052734125
216	0xbe03f566	-0.12886581
217	0x3bd689d5	0.0065471926
218	0x3e0ae7eb	0.13565032
219	0x3e11ad6e	0.14226314
220	0x3e18e6d3	0.14931802
221	0x3c96a2b7	0.018388135
222	0xbe335362	-0.17512277
223	0xbe3b4167	-0.18286668
224	0x3dae821b	0.085209094
225	0x3e417db9	0.18895616
226	0xbdbb2ff2	-0.09140004
227	0x3d863fe4	0.06555155
228	0xbcfe0f08	-0.031013027
229	0x3e818394	0.252957
230	0xbdf9173e	-0.12162636
231	0x3d429617	0.047506418
232	0xbd81f974	-0.063464075
233	0xbd7366b1	-0.059424106
234	0x3e245a23	0.1605001
235	0x3db11ae8	0.0864771
236	0x3e3c793a	0.1840562
237	0x3d8b04f4	0.06788054
238	0x3e0b6813	0.1361392
239	0x3db75959	0.089525886
240	0x3d9c7190	0.07638848
241	0xbc4735d0	-0.012158826
242	0x3e090a10	0.13382745
243	0xbd8a9fe5	-0.06768779
244	0xbd5d3c2b	-0.05401246
245	0xbda7064f	-0.081555
246	0x3e0a1fdc	0.13488716
247	0xbd125e0c	-0.03573422
248	0x3e1732d8	0.14765489
249	0x3e31f26b	0.17377631
250	0xbdbd26bc	-0.092359036
251	0xbd8c1298	-0.06839484
252	0x3dfb9506	0.12284283
253	0xbdda64e6	-0.10663776
254	0x3de65215	0.11246125
255	0x3e3d814f	0.18506359

hidden_layers.0.bias f4 [32]
0	0xbd898799	-0.06715316
1	0xbc31fe57	-0.010863862
2	0x3e84f975	0.2597157
3	0x3dedf109	0.116182394
4	0xbc9558dc	-0.018230848
5	0xbd6c0c1a	-0.05762873
6	0xbdf89fd0	-0.12139857
7	0x3de50e7d	0.11184404
8	0x3cab69b4	0.020924427
9	0x3d65330c	0.055956885
10	0xbcb71069	-0.022346692
11	0x3e00985a	0.12558118
12	0x3da0b35d	0.07846711
13	0xbd235a5a	-0.039881088
14	0xbde64523	-0.112436555
15	0x3e28f682	0.16500285
16	0x3d259aa8	0.040430695
17	0x3d768107	0.060181644
18	0xbc02763b	-0.007962759
19	0x3e20aee8	0.15691721
20	0x3d42fd9d	0.047605146
21	0x3e65816d	0.22412653
22	0xbe00bfbd	-0.12573142
23	0xbd3e7932	-0.0465023
24	0x3dd46834	0.10371438
25	0x3ddac243	0.10681584
26	0xbb25b6c9	-0.002528595
27	0x3e88a09c	0.26685035
28	0x3e5a8d81	0.21343042
29	0x3e7ac43f	0.24488924
30	0x3d437e49	0.047727857
31	0x3be20515	0.0068975785

hidden_layers.1.weight f4 [32, 32]
0	0x3d637fb7	0.05554172
1	0x3ca929ec	0.020649873
2	0x3e062e03	0.1310349
3	0x3cd3111d	0.025764996
4	0xbe204b32	-0.15653685
5	0xbc924bf2	-0.01785848
6	0x3baf93e4	0.005358206
7	0x3e071ff4	0.13195783
8	0x3e7333ae	0.23750183
9	0xbd52d6f2	-0.05147452
10	0x3d05e289	0.032686744
11	0xb907e045	-0.0001295815
12	0x3e520dee	0.20513126
13	0x3de31b31	0.11089171
14	0x3d952011	0.07281507
15	0x3d9a9337	0.0754761
16	0x3dca3ae0	0.09874511
17	0xbdd7172b	-0.10502466
18	0x3e34f418	0.1767124
19	0x3e40153c	0.187581
20	0x3e24f2c4	0.16108233
21	0x3d979507	0.074014716
22	0xbc0fe3d8	-0.0087823495
23	0xbc739bae	-0.01486866
24	0x3e5aa3e0	0.21351576
25	0x3ddb3295	0.10703007
26	0xbc97b487	-0.0185187
27	0x3c299baa	0.010352055
28	0x3dfd9038	0.12381023
29	0x3e72b105	0.2370034
30	0x3deb9dee	0.11504732
31	0x3d452c13	0.048137736
32	0xbc81ac2f	-0.015829174
33	0x3dd05687	0.10172754
34	0xbe13876a	-0.14407125
35	0xbd788ec3	-0.060683023
36	0xbda5c33b	-0.08093878
37	0x3d3a63da	0.045505382
38	0x3d9514d3	0.072793625
39	0xbd9c18af	-0.076218955
40	0xbe269c37	-0.16270529
41	0x3dd923bf	0.10602521
42	0x3e22706c	0.15863198
43	0x3dadad3e	0.08480309
44	0x3d81233a	0.06305547
45	0x3d08a3f8	0.033359498
46	0xbdddda3b	-0.1083264
47	0xba4d763b	-0.0007837747
48	0x3e2b21e2	0.16712144
49	0xbda261c3	-0.07928803
50	0x3d0f6a65	0.035013575
51	0x3d4d0dc4	0.050061956
52	0x3c57eaf2	0.013178574
53	0x3dbbbdde	0.09167074
54	0xbe03c0d0	-0.12866521
55	0xbe0df997	-0.13864742
56	0x3d98c657	0.07459705
57	0xbcd259be	-0.025677558
58	0x3d4b7e41	0.049680952
59	0xbe229928	-0.15878737
60	0xbe20e2d2	-0.15711525
61	0xbd97fa53	-0.074207924
62	0x3e1237df	0.14279126
63	0x3dbc64fd	0.091989495
64	0x3e251972	0.16122988
65	0x3e6ccef2	0.23125818
66	0xbd6486db	-0.05579267
67	0x3d92efd3	0.07174649
68	0x3d78a1e5	0.06070127
69	0x3e4c9c2f	0.19981454
70	0xbe2e6795	-0.17031701
71	0x3ce2ddf6	0.02769373
72	0xbceb61d3	-0.02873317
73	0xbdd0b2f7	-0.10190385
74	0x3de94ff3	0.11392202
75	0xbd0fddb4	-0.035123542
76	0x3d48373f	0.04888081
77	0x3d5f41ee	0.054506235
78	0x3e187dec	0.14891785
79	0x3e6faee5	0.2340656
80	0xbcafb8a7	-0.021450354
81	0xbdb525e0	-0.08845115
82	0x3e34fa7d	0.17673679
83	0x3dfe1240	0.12405825
84	0x3df7d792	0.12101664
85	0x3e23dba1	0.1600175
86	0xbe2f9157	-0.17145287
87	0x3ca919b7	0.020642145
88	0x3dfd9748	0.1238237
89	0x3dcbe19f	0.09955143
90	0x3e009e1f	0.12560318
91	0x3e8386cb	0.25688776
92	0x3d9edc21	0.0775683
93	0x3e5a70f2	0.21332148
94	0x3e66f751	0.22555281
95	0xbd89e0b4	-0.06732312
96	0x3d13a9d2	0.036050625
97	0xbdb54749	-0.08851487
98	0xbd3a2915	-0.045449335
99	0x3d741da6	0.059598587
100	0xbc8f466d	-0.017489636
101	0xbdd79d39	-0.10528035
102	0xbde20efa	-0.11038013
103	0x3d864ed7	0.06558006
104	0x3dbb4df2	0.09145726
105	0x3e226063	0.15857081
106	0xbcfa7c80	-0.030576944
107	0x3e1e4dc0	0.15459347
108	0xbdf801d8	-0.12109727
109	0xbe0253ca	-0.12727275
110	0xbd90faa7	-0.07079058
111	0x3d9f3c4f	0.07775175
112	0xbd87d7de	-0.0663297
113	0x3df088fc	0.11744878
114	0x3e1a2c86	0.15056047
115	0x3d680913	0.05664928
116	0x3db1165a	0.08646841
117	0xbe3256f9	-0.1741599
118	0x3e194709	0.14968504
119	0xbcddb16c	-0.02706214
120	0xbe2c7f66	-0.16845474
121	0x3d1c27cd	0.038123894
122	0x3cdc1f2b	0.02687033
123	0x3db793a7	0.08963709
124	0x3db4b9f8	0.08824533
125	0x3dae82bf	0.085210316
126	0xbe0e2748	-0.13882172
127	0xbe434dd7	-0.19072662
128	0x3e09517d	0.13409992
129	0x3da01587	0.07816606
130	0x3d671a06	0.056421302
131	0x3e3a7e5f	0.18212269
132	0xbdb0cfe4	-0.08633402
133	0x3df49ae4	0.119436055
134	0xbdb5948e	-0.08866225
135	0x3e6d61e6	0.23181877
136	0xbd2d5f2d	-0.042327095
137	0xbdb3bde1	-0.08776451
138	0x3e2ace89	0.1668035
139	0xbde7f273	-0.113255404
140	0x3e4f6bcc	0.20255965
141	0x3d855c82	0.06511785
142	0x3c5c2425	0.013436352
143	0xbde78d23	-0.113062166
144	0x3d9db193	0.07699885
145	0x3de9a96d	0.114092685
146	0x3e041382	0.12898067
147	0x3db8ed8a	0.09029682
148	0xbd97afbf	-0.07406568
149	0x3c32fffb	0.010925288
150	0xbe19e6ca	-0.15029445
151	0x3e2ab5c6	0.16670904
152	0x3e350f5a	0.17681637
153	0x3e46508e	0.19366667
154	0x3e679e8e	0.22619078
155	0x3e1d005b	0.15332167
156	0xbd9cc504	-0.07654765
157	0x3c8fd946	0.017559659
158	0x3c93ee2e	0.018057909
159	0xbd841819	-0.06449909
160	0x3ccc8783	0.02496696
161	0x3df02adf	0.11726927
162	0x3e1a8e8f	0.15093444
163	0x3e524428	0.20533812
164	0xbc7ee50a	-0.015557537
165	0x3dc295c0	0.09501219
166	0xbb833355	-0.004003922
167	0x3deaeb01	0.11470605
168	0xbcd215bd	-0.025645131
169	0xbca9ca74	-0.02072642
170	0xbc3c1409	-0.011479386
171	0x3d212e11	0.039350573
172	0xbc781f15	-0.015144129
173	0xbe18cc5c	-0.14921707
174	0x3cfee29f	0.03111392
175	0x3dd2603f	0.10272264
176	0x3e74a4af	0.23890947
177	0x3d2f15d1	0.042745415
178	0x3dc730ef	0.0972613
179	0xbbf714ef	-0.0075403373
180	0x3d8493cd	0.06473503
181	0x3e2bcca2	0.1677728
182	0xbe080e62	-0.13286737
183	0x3d6992d3	0.057024788
184	0xbd79f0e7	-0.061020758
185	0x3e62330b	0.22089784
186	0x3e0b5067	0.1360489
187	0x3e0ca4f8	0.13734806
188	0xbdfa81a8	-0.12231761
189	0x3a0d78b0	0.0005396707
190	0xbd1ce0c8	-0.038300306
191	0x3da0d4e4	0.07853106
192	0xbdb59b1d	-0.08867476
193	0x3d0808c5	0.03321149
194	0x3e629864	0.22128445
195	0x3dcb0c67	0.09914475
196	0xbe153598	-0.14571226
197	0x3e04e92f	0.12979577
198	0xbe215f75	-0.1575907
199	0x3e82f124	0.255746
200	0x3e21f4ab	0.1581599
201	0xbd483b09	-0.048884425
202	0x3e3c1743	0.18368249
203	0x3e2eaff3	0.17059307
204	0x3e2286d2	0.15871742
205	0xbd82f9d5	-0.06395308
206	0x3dcfdfce	0.10150109
207	0x3e2eb9a0	0.17062998
208	0x3db08e81	0.086209305
209	0x3d621fd5	0.05520614
210	0xbd22acd3	-0.0397156
211	0x3e19b30b	0.15009706
212	0x3e9a7e86	0.30174655
213	0x3e8b97f4	0.2726437
214	0x3d7a128d	0.061052848
215	0x3d214e4b	0.039381307
216	0x3e703ccc	0.23460692
217	0x3df037fd	0.11729429
218	0x3d8fc441	0.07019854
219	0x3dda97cb	0.106734835
220	0xbbb4efa4	-0.0055217315
221	0x3e463dd9	0.1935953
222	0x3e402eb2	0.18767813
223	0xbcbdeb33	-0.02318344
224	0xbc42a3e0	-0.011879891
225	0x3db93538	0.09043354
226	0x3e81eafd	0.25374594
227	0x3e094420	0.13404894
228	0xbd2a3566	-0.04155483
229	0xbe0c4628	-0.13698637
230	0xbe09e792	-0.13467243
231	0xbd3bd7f0	-0.04586023
232	0x3e25a9cf	0.16178058
233	0xbdb9e131	-0.09076155
234	0x3e2b6293	0.16736822
235	0xbdb54348	-0.088507235
236	0x3dcffafb	0.101552926
237	0xbc9226e6	-0.017840814
238	0x3e1eab4a	0.15495029
239	0x3e2ef279	0.17084683
240	0x3e2870c1	0.16449262
241	0x3e3c58ec	0.18393296
242	0x3dc982e1	0.09839416
243	0x3e40c9b6	0.18826947
244	0x3b827c34	0.0039820913
245	0xbde45bb0	-0.111503005
246	0xbe2f1e17	-0.17101322
247	0x3e4b5a61	0.19858696
248	0x3ddd6147	0.1080957
249	0x3e3fbb4d	0.18723793
250	0xbd0b028e	-0.033937983
251	0x3e49d21b	0.19709055
252	0x3e219925	0.15781076
253	0x3e52ffd3	0.20605402
254	0x3e6f09dd	0.23343606
255	0x3d9fe6d1	0.078076966

hidden_layers.1.bias f4 [32]
0	0x3e3eecbd	0.18644996
1	0xbdb21e12	-0.08697142
2	0x3dd2e1b6	0.10296957
3	0xbc97e932	-0.018543813
4	0x3e3af31e	0.18256804
5	0x3e42b06d	0.19012614
6	0x3e2677c9	0.16256632
7	0x3dae2004	0.085022
8	0x3e593fa2	0.2121568
9	0x3e058eb8	0.13042724
10	0xbe4080a4	-0.18799073
11	0xbd7d67df	-0.061866637
12	0x3e23c691	0.15993716
13	0x3e07e8f7	0.13272463
14	0x3e6269c3	0.22110657
15	0x3e504f21	0.20342685
16	0xbcc42a1a	-0.023945857
17	0x3e0712f6	0.13190827
18	0x3c42428c	0.011856686
19	0x3ddd0ee9	0.107938595
20	0x3a5597df	0.0008147936
21	0x3de71471	0.11283196
22	0xbd7dd11a	-0.061966993
23	0x3da13e77	0.07873242
24	0x3dc7257f	0.09723949
25	0x3e319c08	0.17344677
26	0xbd836ce0	-0.06417251
27	0x3d429ee2	0.047514804
28	0x3d6f95b6	0.058492385
29	0x3dcce33c	0.10004279
30	0x3c9821ed	0.018570865
31	0xbe07d009	-0.13262953

hidden_layers.2.weight f4 [32, 32]
0	0xbe0fb3fb	-0.14033501
1	0x3e068ab8	0.13138855
2	0xbcf85551	-0.03031412
3	0x3d45aaaf	0.04825848
4	0xbd9eff1c	-0.07763502
5	0x3e0fbb91	0.14036395
6	0xbe2d9fbe	-0.16955468
7	0x3d327899	0.043572042
8	0xbe17aa4a	-0.14811054
9	0x3e1e6f01	0.15472032
10	0xbc7a08e5	-0.01526091
11	0xbe098be0	-0.13432264
12	0x3e23b8e0	0.15988493
13	0xbcbe4e6b	-0.023230752
14	0xbe139544	-0.14412409
15	0xbdf6c63f	-0.12049531
16	0x3d0d6aa7	0.03452554
17	0x3e03d3a0	0.12873697
18	0x3e004178	0.12524974
19	0xbd9b9a38	-0.07597774
20	0xbe0f1bc7	-0.1397544
21	0x3e03291c	0.1280865
22	0x3d5e73f3	0.054309797
23	0x3e105af1	0.14097191
24	0x3c7be49a	0.015374327
25	0xbe21f1e5	-0.15814932
26	0xbe1140bd	-0.14184852
27	0xbdd0b324	-0.10190418
28	0x3d1c0131	0.038087074
29	0x3cccfa21	0.025021615
30	0xbcab19c6	-0.020886313
31	0x3e0e9af0	0.13926291
32	0xbdb55f10	-0.08856022
33	0xbd526430	-0.051365077
34	0x3e111033	0.14166336
35	0xbd5b0545	-0.053471822
36	0x3e5e932d	0.2173583
37	0x3df9fcef	0.122064464
38	0xbd5e9af7	-0.054347005
39	0x3de7e77f	0.11323451
40	0x3e6defbb	0.23235981
41	0xbcc8e280	-0.024522066
42	0x3e03aa89	0.12858023
43	0xbe0c972a	-0.1372954
44	0x3d14df27	0.036345627
45	0x3dc949be	0.09828518
46	0x3e6186ce	0.2202408
47	0x3d0ac7ae	0.033881836
48	0x3e5aab4b	0.21354406
49	0xbe2e9c46	-0.17051801
50	0x3dfd9398	0.12381667
51	0x3ca27231	0.019829841
52	0xbcf4d683	-0.029887443
53	0xbe064afc	-0.13114542
54	0x3dc40492	0.09571184
55	0x3e5af6e6	0.21383247
56	0xbd462a6b	-0.048380297
57	0x3e455808	0.19271863
58	0x3e27ff2d	0.16405936
59	0xbdb86167	-0.09002953
60	0xbd83a5d6	-0.06428115
61	0x3d484d6a	0.048901953
62	0x3e6c9383	0.23103146
63	0xbcafb964	-0.021450706
64	0x3e29c3a4	0.16578537
65	0xbdf06219	-0.11737461
66	0x3e074963	0.13211589
67	0xbe049b0c	-0.1294977
68	0x3da69939	0.08134694
69	0x3e9e456c	0.3091234
70	0x3df4509c	0.119294375
71	0x3e202372	0.15638521
72	0x3e912387	0.28347418
73	0x3daddf88	0.08489901
74	0xbc9e1aeb	-0.019299945
75	0xbd983e30	-0.07433736
76	0x3e2a0487	0.1660329
77	0x3e9aaee8	0.30211568
78	0x3e3a4b21	0.18192722
79	0x3da31141	0.07962275
80	0xbd10873f	-0.03528523
81	0x3e5fbcd1	0.21849371
82	0x3dc98870	0.098404765
83	0x3e83ebad	0.25765744
84	0x3def11ed	0.11673341
85	0x3e200b52	0.15629318
86	0x3e0cfabf	0.13767527
87	0x3e9f81a6	0.311536
88	0x3dbde5f0	0.09272373
89	0xbbbc2c32	-0.005742573
90	0x3ca8391e	0.020535048
91	0x3e1105a2	0.14162305
92	0xbdd7d5e2	-0.10538842
93	0x3e1df99f	0.15427254
94	0x3d9436dd	0.07237027
95	0x3de55682	0.11198141
96	0xbcb7d7e2	-0.022441808
97	0xbd2d90d4	-0.042374447
98	0x3d8242d5	0.063604034
99	0xbdeb4ea9	-0.114896126
100	0xbdaad06b	-0.08340534
101	0xbb53fe91	-0.0032347778
102	0xbde691ed	-0.11258302
103	0x3df1b9d0	0.11803019
104	0xbe20c13a	-0.1569871
105	0xbc14ffa3	-0.009094152
106	0xbd0882da	-0.033327915
107	0xbdbb5004	-0.09146121
108	0x3e3395cb	0.1753761
109	0x3db1c9de	0.08681081
110	0xbdfa0c30	-0.12209356
111	0x3d02404f	0.03179961
112	0x3e3375c3	0.17525391
113	0xbdc15fbf	-0.0944209
114	0xbdc9fcf1	-0.09862698
115	0xbe02be8a	-0.12767997
116	0x3d5b94ca	0.053608693
117	0xbdaf7fd2	-0.08569302
118	0xbddee124	-0.10882786
119	0x3daa53d6	0.08316772
120	0x3d93e6e7	0.072217755
121	0x3a1f0ff9	0.0006067749
122	0xbe20f73e	-0.15719315
123	0xbda79335	-0.081823744
124	0xbd88f13a	-0.06686635
125	0xbbbde9c4	-0.0057956893
126	0x3e14c100	0.14526749
127	0xbdc47ad8	-0.09593743
128	0x3de7784a	0.1130224
129	0xbe10a909	-0.14126982
130	0x3da2a655	0.079418816
131	0x3dda663f	0.10664033
132	0xbdf5e8bb	-0.120072804
133	0xbd5b593a	-0.05355189
134	0x3dca3a4c	0.098744005
135	0x3c9677c5	0.018367657
136	0xbe0701d4	-0.13184291
137	0x3dca6003	0.09881594
138	0xbe0e5647	-0.139001
139	0x3df4055a	0.11915083
140	0x3dbbdd8c	0.09173116
141	0x3de79129	0.11306984
142	0x3e059f32	0.1304901
143	0x3dc4e68c	0.09614286
144	0xbdcbf96e	-0.09959684
145	0x3de21c22	0.11040522
146	0x3d48adeb	0.048993986
147	0x3c888c8a	0.016668577
148	0xbd1070b6	-0.03526374
149	0xbd158429	-0.03650299
150	0x3e13f913	0.14450483
151	0x3dea6684	0.114453346
152	0x3d12d8b1	0.035851184
153	0x3dee9af3	0.11650648
154	0xbcf069d9	-0.029347347
155	0xbd874d6c	-0.06606564
156	0x3db77500	0.08957863
157	0xbd9c971f	-0.076460116
158	0x3cf05dd6	0.02934162
159	0xbdbf4456	-0.09339206
160	0x3e3f3362	0.18671945
161	0xbd0cfb9f	-0.034419652
162	0xbd0d7681	-0.034536842
163	0x3dc2a725	0.095045365
164	0xbdceceae	-0.10098015
165	0xbd9f6162	-0.07782246
166	0xbc8185d7	-0.01581089
167	0x3c94e8d2	0.018177424
168	0x3e1151c2	0.14191344
169	0x3c5bbd2c	0.013411801
170	0xbd672001	-0.056427006
171	0xbdb648ec	-0.089006275
172	0xbcd15a1a	-0.02555566
173	0x3e19397e	0.14963338
174	0x3da7a9dc	0.08186695
175	0x3e1b7478	0.15181148
176	0xbd9e395d	-0.07725785
177	0x3c666c0c	0.014063846
178	0xbc9d334a	-0.019189496
179	0xbd519238	-0.051164836
180	0xbd3430be	-0.043991797
181	0x3df80835	0.1211094
182	0xbde5ae0a	-0.11214836
183	0xbd891794	-0.0669395
184	0xbc773d42	-0.015090289
185	0xbdcff27e	-0.101536736
186	0x3e1d1773	0.15340976
187	0xbb5f4f33	-0.0034074306
188	0x3d1390c0	0.036026716
189	0xbd3c0381	-0.04590178
190	0xbd8669e8	-0.06563169
191	0xbdbcdd6e	-0.09221922
192	0x3e33be5f	0.1755309
193	0x3dc6f766	0.09715156
194	0x3e35d6fe	0.17757794
195	0x3caacdaa	0.020850021
196	0xbc0b5099	-0.008503103
197	0xbbb8646a	-0.0056272047
198	0xbd81e99f	-0.06343388
199	0xbe25d313	-0.161938
200	0xbd3bcde9	-0.045850668
201	0xbde32c21	-0.11092401
202	0xbe0f21e6	-0.13977775
203	0x3dfae03c	0.122498006
204	0x3d854810	0.065078855
205	0x3d0d67de	0.034522884
206	0xbe06bf31	-0.13158871
207	0xbd0b10d8	-0.03395161
208	0xbbc7d4f4	-0.006098384
209	0xbd6f7743	-0.058463346
210	0xbdbe2359	-0.09284086
211	0x3e045c4b	0.12925832
212	0xbdce98ed	-0.10087762
213	0x3d23dcc7	0.04000547
214	0x3e250a5d	0.16117235
215	0xbe184343	-0.14869408
216	0xbd051f27	-0.032500412
217	0xbdb0e3d2	-0.08637203
218	0x3d2ac65d	0.04169308
219	0xbca6f551	-0.020380648
220	0xbe169b29	-0.14707626
221	0xbdca4c47	-0.0987783
222	0x3e11c418	0.1423496
223	0x3e0522ef	0.13001607
224	0x3dcb68a1	0.09932066
225	0xbdfc89c6	-0.12330966
226	0x3d835a7e	0.064137444
227	0x3d9a888d	0.07545576
228	0xbd6444bd	-0.055729616
229	0x3e4ab224	0.19794518
230	0x3d5f15a7	0.05446401
231	0x3e6ec6e5	0.2331806
232	0x3d33fa3c	0.043939814
233	0xbddb2467	-0.107003026
234	0x3d565d23	0.052334916
235	0x3e0b888e	0.1362631
236	0xba294580	-0.00064571947
237	0x3dea24f0	0.114328265
238	0x3e11bf93	0.14233236
239	0xbca303e5	-0.019899318
240	0xbd5f74d2	-0.054554768
241	0x3dbb358e	0.09141074
242	0x3e613e4d	0.21996422
243	0x3ba3267b	0.0049789525
244	0xbcdb07c3	-0.0267371
245	0xbde499dc	-0.11162159
246	0xbe0ceb94	-0.13761741
247	0x3d525b77	0.05135676
248	0x3e04dbde	0.12974498
249	0x3d913ef4	0.070920855
250	0x3e194705	0.14968498
251	0x3d83eb71	0.06441391
252	0x3e012aaa	0.12613931
253	0x3e515e4c	0.20446128
254	0x3e7518f4	0.239353
255	0xbe2d641d	-0.16932721

hidden_layers.2.bias f4 [32]
0	0xbe339d9a	-0.17540589
1	0x3e2a9826	0.16659603
2	0xbcd20f7d	-0.025642151
3	0xbd9d6be6	-0.076865956
4	0xbd78c47b	-0.060734253
5	0xbe173dab	-0.14769618
6	0xbdd1f22a	-0.10251267
7	0xbdd1b1f5	-0.10239021
8	0xbdc642db	-0.096807204
9	0x3d53b910	0.05169016
10	0x3cfced21	0.03087479
11	0x3d4ced4c	0.05003099
12	0x3d13473d	0.03595661
13	0xbdc7cd05	-0.09755901
14	0x3e4181f2	0.18897226
15	0x3cdb6aa7	0.026784254
16	0x3e4d357a	0.20039931
17	0xbe11b3a5	-0.14228685
18	0xbcc2a02f	-0.023758022
19	0x3c2a9f84	0.010414008
20	0x3c0fcb2a	0.008776465
21	0xbdc6d6e2	-0.097089544
22	0xbb6b3060	-0.0035886988
23	0xbe2c0198	-0.16797483
24	0x3c551cc0	0.013007343
25	0x3dcf0f1c	0.10110304
26	0x3c1808ed	0.009279472
27	0xbe0a413c	-0.13501447
28	0xbd9c74dc	-0.07639477
29	0xbd45cd43	-0.048291456
30	0x3dd692a8	0.10477191
31	0xbdf508e1	-0.11964584

output_layer.weight f4 [2, 32]
0	0xbd7c51fb	-0.06160162
1	0x3dd4dffd	0.10394285
2	0x3a2b4902	0.00065340113
3	0xbe28030c	-0.16407412
4	0xbe48cae8	-0.19608653
5	0x3dc46d04	0.095911056
6	0x3d327d50	0.04357654
7	0x3e1758fa	0.14780036
8	0xbdb42fc4	-0.08798173
9	0xbdbe40b6	-0.092896864
10	0xbc8a5697	-0.016886992
11	0xbde2445a	-0.11048193
12	0xbdecf252	-0.115696564
13	0xbbfbd190	-0.007684894
14	0x3e08e6b2	0.13369253
15	0xbd96359c	-0.07334444
16	0x3d6013b1	0.05470628
17	0xbcb17afc	-0.021665089
18	0xbdb74f2f	-0.0895065
19	0x3dca20e2	0.09869553
20	0xbd4583d7	-0.048221435
21	0x3d989bd6	0.07451598
22	0xbdaa24b5	-0.083077826
23	0xbe0025c5	-0.12514408
24	0xbdc9d624	-0.09855297
25	0x3e4bf4ce	0.19917604
26	0xbe24cacc	-0.16092986
27	0xbe19b8a0	-0.15011835
28	0x3d2232f2	0.039599366
29	0xbdeeddea	-0.116634205
30	0x3cf1de67	0.029524995
31	0xbd96645f	-0.07343363
32	0xbe0cd6d1	-0.13753821
33	0xbe2fd2ca	-0.17170253
34	0xbe99123a	-0.29896718
35	0xbda9861c	-0.082775325
36	0x3d8d310c	0.068941206
37	0xbe24783e	-0.16061494
38	0xbd94435c	-0.0723941
39	0xbe1b07c2	-0.15139678
40	0xbdb8b278	-0.09018415
41	0xbcd525ba	-0.026018966
42	0x3dab4cca	0.08364256
43	0xbd9e31f1	-0.07724369
44	0xbea805a9	-0.32816818
45	0x3d2188bb	0.039437037
46	0xbe1930d9	-0.1496004
47	0x3d9d1cb7	0.076714925
48	0xbe361ff0	-0.1778562
49	0x3dc30da9	0.0952409
50	0x3d08952a	0.03334538
51	0xbe88e3ba	-0.26736242
52	0xbc873725	-0.016505787
53	0xbe2db7aa	-0.16964594
54	0x3cb11914	0.021618403
55	0x3db5fc1b	0.08885976
56	0x3d0aa9b8	0.033853263
57	0xbdaa902a	-0.08328278
58	0xbdde42c5	-0.10852579
59	0x3e0c9bda	0.13731328
60	0x3dacb77f	0.084334366
61	0x3cca903a	0.024726976
62	0x3db01a00	0.08598709
63	0xbdafa1e6	-0.085758016

output_layer.bias f4 [2]
0	0xbd87bcad	-0.06627784
1	0xbe2df8f6	-0.16989502
