synthetic_flows_raw/saved_models/phi_only_1.3.pt (torch, 16963 bytes, 10 tensors)

input_layer.weight f4 [32, 3]
0.32914028 0.0031391399 -0.094849326 -0.27305788 -0.31038073 -0.24287273 0.35934633 0.33754668
0.50371987 0.28467056 0.11525342 0.19576612 -0.3599529 -0.37853602 -0.5111292 0.16813888
-0.051602837 -0.31807148 0.48450416 -0.44665736 0.11079917 -0.25581947 0.21474272 0.21672016
-0.4500313 0.21135704 -0.0851456 -0.21035841 -0.12543042 0.05926288 0.4789869 -0.053356744
-0.53645504 -0.021170504 0.31195852 0.47811946 0.49124658 -0.43100354 -0.55474514 0.10609198
0.028405525 0.1325538 0.12613487 -0.56497246 -0.5611157 -0.22983502 -0.028422369 -0.14947699
0.34433636 -0.31491265 0.100858346 -0.3944325 0.22432157 -0.4050071 -0.5048085 -0.2933481
-0.5803009 -0.5166866 -0.55418384 0.02609182 0.057585873 -0.084540665 0.0012589968 0.44433352
-0.20102675 -0.05105929 0.2562656 0.15163834 -0.5350371 0.23949043 -0.5578287 -0.46015102
0.18146849 -0.34146425 0.3432809 0.4252433 -0.08691839 -0.49321812 0.48839194 0.5124513
-0.5333939 -0.24528456 -0.3652771 -0.2273668 0.45743334 -0.3762141 -0.021373548 -0.01782683
0.39596996 0.42074734 -0.0481828 0.28542775 -0.3836422 0.25997695 0.078182936 0.39237761
00000000: 1385 a83e 07ba 4d3b 5d40 c2bd 3ece 8bbe
00000010: 39ea 9ebe a1b3 78be 3efc b73e ebd2 ac3e
00000020: c9f3 003f 57c0 913e fc09 ec3d ea76 483e
00000030: bf4b b8be 79cf c1be 5dd9 02bf 992c 2c3e
00000040: 7f5d 53bd 44da a2be ee10 f83e 46b0 e4be
00000050: adea e23d c5fa 82be 84e5 5b3e e4eb 5d3e
00000060: 816a e6be fb6d 583e d160 aebd 3268 57be
00000070: d570 00be a2bd 723d c53d f53e 9a8c 5abd
00000080: 1e55 09bf c46d adbc 07b9 9f3e 13cc f43e
00000090: ac84 fb3e 7fac dcbe c703 0ebf c146 d93d
000000a0: b4b2 e83c 2fbc 073e 8029 013e 09a2 10bf
000000b0: 47a5 0fbf df59 6bbe 07d6 e8bc 7f10 19be
000000c0: db4c b03e 3b3c a1be d28e ce3d 0ef3 c9be
000000d0: 8eb4 653e 175d cfbe 213b 01bf b931 96be
000000e0: 9a8e 14bf 9345 04bf fede 0dbf 83be d53c
000000f0: 2adf 6b3d a823 adbd ec04 a53a af7f e33e
00000100: f5d9 4dbe 8c23 51bd 3f35 833e 1547 1b3e
00000110: 31f8 08bf fb3c 753e ddcd 0ebf ea98 ebbe
00000120: e0d2 393e 67d4 aebe 84c2 af3e 7db9 d93e
00000130: 4502 b2bd 1687 fcbe 820e fa3e 0230 033f
00000140: 818c 08bf e02b 7bbe 9a05 bbbe d8d2 68be
00000150: b434 ea3e 229f c0be 9417 afbc 9209 92bc
00000160: 93bc ca3e 326c d73e 545b 45bd 9623 923e
00000170: c06c c4be b31b 853e 601e a03d b8e5 c83e

input_layer.bias f4 [32]
-0.43549314 0.5632557 0.5098337 -0.5647902 0.37320894 0.49117017 0.2068721 -0.19364436
0.32017002 -0.17226458 -0.4851067 0.51750386 -0.44887227 -0.35459393 -0.39526355 -0.37902912
-0.58756006 0.2889195 -0.20926988 -0.28902826 0.24031352 -0.3569653 0.1534898 0.32859498
-0.35699174 -0.23167236 -0.19061291 0.1558738 0.16584055 -0.46690708 0.07251183 -0.5603126
00000000: f5f8 debe 8731 103f 7684 023f 1796 10bf
00000010: 3e15 bf3e a87a fb3e 48d6 533e b54a 46be
00000020: 53ed a33e 2066 30be e85f f8be 227b 043f
00000030: 96d2 e5be 568d b5be fc5f cabe 1b10 c2be
00000040: 566a 16bf 42ed 933e d84a 56be 83fb 93be
00000050: bf14 763e 28c4 b6be 6e2c 1d3e 9a3d a83e
00000060: 9fc7 b6be 853b 6dbe 0830 43be 629d 1f3e
00000070: 1bd2 293e 720e efbe 1581 943d a670 0fbf

hidden_layers.0.weight f4 [32, 32]
0.033419255 -0.09459648 0.094426915 -0.013843539 0.04591678 -0.034283724 0.13692528 -0.107307084
-0.038287025 -0.022905812 0.17759775 -0.11514114 -0.09367513 -0.11627681 0.0063809203 0.023541547
0.011084036 0.08880594 0.09481195 -0.07118586 0.24428041 -0.07222402 0.18439475 -0.043774772
-0.028124006 0.0676802 -0.04379072 -0.11077507 -0.021280514 -0.13779986 0.15379198 -0.045739617
0.048576366 -0.0751531 -0.022858817 -0.16667789 0.07347111 0.113911934 0.08564926 0.121933885
-0.16784818 0.054212667 -0.16262415 -0.03180767 -0.096937716 -0.013408511 0.15758702 -0.13463482
0.021926807 -0.17482042 -0.13859439 0.14660281 0.067406386 -0.17333905 -0.18627347 0.0027853583
0.09557295 -0.045439493 -0.06583272 -0.101573065 0.04238957 -0.058643427 -0.14067635 -0.035346445
-0.010394551 0.19859749 0.16495338 -0.0673353 0.12092328 0.18769446 -0.08111247 0.14264654
0.049173996 0.028823303 0.146201 0.17949833 0.07709189 0.083548985 0.012218559 0.09929312
-0.019334821 0.021799037 0.047446582 0.1630948 0.009811683 0.10163684 0.030876122 -0.095392756
0.084017985 -0.041238554 -0.09444646 -0.08144183 -0.04563948 -0.080024935 -0.11290552 -0.054375805
-0.0071396236 -0.18765974 -0.07886828 0.10889908 0.003440162 -0.12533882 -0.1602282 -0.06208219
0.07383683 -0.047842227 0.14777036 0.050550137 0.09231267 0.10990214 0.1362454 0.008855073
0.011462371 0.03185271 -0.027646558 -0.040749405 -0.108326636 -0.018526947 -0.0983892 -0.14119259
0.103303835 0.14395869 0.060952045 -0.092975974 0.0068483977 -0.15648432 0.03936424 0.13515614
-0.010270586 0.1271596 -0.05535362 -0.14712533 0.15497066 0.09249774 -0.15801775 0.12863547
-0.06296907 0.07349622 -0.0396844 -0.019267125 0.11135664 0.018519599 -0.026527299 0.17964199
0.060529575 -0.11463955 0.07517718 0.1332913 -0.1099299 -0.03565149 -0.0029063723 -0.14751919
-0.036552034 -0.0010949932 0.06602231 -0.046465106 -0.14457577 0.113297254 0.101693526 -0.0839349
-0.029621828 -0.061256565 0.22285672 -0.023082728 0.08231333 0.051089603 0.0317525 -0.15680927
0.14143248 0.0025174702 -0.0617105 0.029360276 -0.022183452 -0.14566346 0.010683589 -0.072406396
-0.13839698 0.19577125 -0.020768763 0.17900406 0.038308326 -0.023919025 0.1332685 0.026929516
0.07441209 0.12818632 0.14983687 0.03299523 0.066482954 -0.14860307 0.17419547 -0.113199934
0.14297107 -0.15822765 -0.19141924 -0.020197824 -0.05730008 0.12284899 -0.11075159 -0.08463687
0.1307365 0.014602932 -0.023197472 0.011130143 0.16589679 -0.011458526 0.030189436 0.06886452
-0.088872224 0.13379498 0.09314983 0.089418374 -0.13993339 -0.05829776 0.04566556 0.0680683
-0.0763616 -0.018464087 0.006629738 0.08514062 -0.012048889 0.015297796 -0.04105907 -0.036746655
0.030705221 -0.17989856 -0.104807235 -0.13263303 -0.14247409 0.000941801 0.14191279 0.078590915
-0.14825629 -0.1638552 -0.08284703 -0.07836814 -0.116479635 0.12974715 -0.08180754 0.04036143
0.0860877 0.083337165 0.11556679 -0.14934312 -0.12106606 -0.07856805 0.058487523 0.11848914
-0.040580627 -0.023774296 0.0897913 -0.14384532 -0.05053419 0.13341467 0.07008277 0.1413534
00000000: a1e2 083d cdbb c1bd e662 c13d 03d0 62bc
00000010: 3c13 3c3d 176d 0cbd 2436 0c3e d1c3 dbbd
00000020: dbd2 1cbd f8a4 bbbc 2fdc 353e 1ecf ebbd
00000030: bfd8 bfbd 8922 eebd 0a17 d13b 34da c03c
00000040: d199 353c e3df b53d c52c c23d e4c9 91bd
00000050: a524 7a3e 30ea 93bd fad1 3c3e 2d4d 33bd
00000060: 5164 e6bc eb9b 8a3d e65d 33bd 0ade e2bd
00000070: 7954 aebc 681b 0dbe a57b 1d3e 7759 3bbd
00000080: 03f8 463d dee9 99bd 6a42 bbbc 9cad 2abe
00000090: 0578 963d a94a e93d e168 af3d 79b8 f93d
000000a0: 65e0 2bbe 1a0e 5e3d f286 26be c248 02bd
000000b0: 4887 c6bd 5faf 5bbc 7e5e 213e b6dd 09be
000000c0: d99f b33c 2004 33be b0eb 0dbe 0c1f 163e
000000d0: 5c0c 8a3d cb7f 31be 79be 3ebe 8f8a 363b
000000e0: c0bb c33d c31e 3abd 4ed3 86bd 8a05 d0bd
000000f0: b0a0 2d3d 1734 70bd 760d 10be 6fc7 10bd
00000100: e84d 2abc 245d 4b3e 8ae9 283e 17e7 89bd
00000110: a0a6 f73d fa32 403e 4b1e a6bd ef11 123e
00000120: ac6a 493d d91e ec3c b7b5 153e 69ce 373e
00000130: 5ae2 9d3d bb1b ab3d 5a30 483c 315a cb3d
00000140: 0f64 9ebc e593 b23c 5957 423d 5302 273e
00000150: 2ec1 203c fa26 d03d ecef fc3c 475d c3bd
00000160: 9f11 ac3d c2e9 28bd 256d c1bd f9ca a6bd
00000170: 77f0 3abd 1de4 a3bd 023b e7bd 2ab9 5ebd
00000180: 81f3 e9bb e029 40be b185 a1bd 7b06 df3d
00000190: 5774 613b d258 00be dc12 24be e549 7ebd
000001a0: c437 973d 36f6 43bd 1d51 173e a90d 4f3d
000001b0: 6d0e bd3d 6014 e13d ea83 0b3e de14 113c
000001c0: abcc 3b3c fd77 023d 097b e2bc d9e8 26bd
000001d0: 5bda ddbd d3c5 97bc 4780 c9bd ca94 10be
000001e0: f690 d33d e869 133e daa8 793d 306a bebd
000001f0: 8668 e03b 6d3d 20be 663c 213d 5f66 0a3e
00000200: f645 28bc 2036 023e 7aba 62bd 06a8 16be
00000210: a1b0 1e3e 756f bd3d 68cf 21be 04b9 033e
00000220: eef5 80bd 3085 963d 1c8c 22bd 17d6 9dbc
00000230: f30e e43d 6ab6 973c c74f d9bc 12f4 373e
00000240: dced 773d 24c8 eabd 7ef6 993d 847d 083e
00000250: ed22 e1bd 4c07 12bd d678 3ebb 450f 17be
00000260: 96b7 15bd e085 8fba b436 873d 3252 3ebd
00000270: ac0b 14be 6408 e83d b244 d03d 10e6 abbd
00000280: 7aa9 f2bc 2ae8 7abd 8d34 643e fd17 bdbc
00000290: e493 a83d 5543 513d e90e 023d 9c92 20be
000002a0: add3 103e 24fc 243b 26c4 7cbd f684 f03c
000002b0: 12ba b5bc cd28 15be 380a 2f3c ce49 94bd
000002c0: f0b7 0dbe 4278 483e 4123 aabc d74c 373e
000002d0: 31e9 1c3d d5f1 c3bc 8a77 083e 4a9b dc3c
000002e0: 5e65 983d 4643 033e d66e 193e 0226 073d
000002f0: 3728 883d 672b 18be 4c60 323e 5ed5 e7bd
00000300: 0267 123e 6e06 22be 6803 44be e875 a5bc
00000310: 7db3 6abd 4098 fb3d bbd1 e2bd 1856 adbd
00000320: cadf 053e 2341 6f3c a008 bebc 345b 363c
00000330: d9e0 293e 8bbc 3bbc d64f f73c d708 8d3d
00000340: a402 b6bd 8d01 093e 57c5 be3d fb20 b73d
00000350: b34a 0fbe a2c9 6ebd cf0b 3b3d 6567 8b3d
00000360: 7863 9cbd ff41 97bc 463e d93b 355e ae3d
00000370: b468 45bc 9ba3 7a3c 8e2d 28bd a983 16bd
00000380: 8489 fb3c 5437 38be 2da5 d6bd f4d0 07be
00000390: bae4 11be 32e3 763a 9651 113e 46f4 a03d
000003a0: 7fd0 17be a8c9 27be b4ab a9bd 7a7f a0bd
000003b0: e08c eebd 70dc 043e b68a a7bd 0752 253d
000003c0: c04e b03d adac aa3d 48ae ec3d 67ed 18be
000003d0: 7cf1 f7bd 49e8 a0bd 9d90 6f3d 6faa f23d
000003e0: df37 26bd 50c2 c2bc 80e4 b73d 304c 13be
000003f0: f0fc 4ebd db9d 083e 8e87 8f3d f2be 103e

hidden_layers.0.bias f4 [32]
0.17274252 0.027445126 0.017161991 0.12984829 -0.10682196 0.037036262 0.12828988 0.08177524
0.1600267 -0.09969866 0.10485176 -0.007780809 0.06272617 0.17224897 -0.13900939 -0.064528786
0.24397495 0.19407375 0.1546426 0.07610762 -0.1542147 0.14373156 -0.08961994 -0.1029225
0.1663706 0.039800458 0.122961715 0.042397458 0.0672947 0.15782039 -0.124309205 0.10932069
00000000: 6ae3 303e 9ad4 e03c 4e97 8c3c f3f6 043e
00000010: 79c5 dabd 56b3 173d 6c5e 033e c779 a73d
00000020: 0ade 233e d02e ccbd 85bc d63d 28f6 febb
00000030: 9476 803d 0962 303e 7a58 0ebe ab27 84bd
00000040: 92d4 793e 45bb 463e a15a 1e3e 50de 9b3d
00000050: 75ea 1dbe 5e2e 133e a98a b7bd 08c9 d2bd
00000060: 0e5d 2a3e ce05 233d 5ad3 fb3d f5a8 2d3d
00000070: ced1 893d ab9b 213e d395 febd 87e3 df3d

hidden_layers.1.weight f4 [32, 32]
0.16420399 -0.044364855 0.1725794 -0.02826938 0.09355841 0.11092206 -0.14642197 0.11104223
0.03381777 -0.04421902 0.22550888 -0.116182014 0.21929191 0.20885503 0.055023674 -0.09897241
0.22912453 0.18857531 -0.070467144 -0.12723044 -0.13452385 0.16350278 0.022819191 -0.0042279214
-0.08776742 0.19257331 -0.09992059 -0.004308349 0.12276462 0.14810508 0.10292372 0.078407586
-0.03464454 -0.14393942 0.11578653 0.07552255 0.079691075 0.07457396 -0.016760105 0.04738148
-0.06394307 -0.16099213 0.1825544 -0.040517885 0.07609988 0.07014487 0.039830238 0.00062770926
-0.026558466 0.106170505 0.19633453 -0.012374112 -0.04343532 0.062920466 0.21836558 4.036043e-05
0.17914219 -0.090212844 0.08411176 -0.1534323 -0.034141973 -0.117156625 -0.08972561 0.0356971
-0.135089 -0.0056845937 0.17397878 -0.0897412 -0.14962104 -0.13802317 -0.0051822606 0.027439127
-0.026746614 0.17887294 -0.13929963 0.025068685 0.011825159 -0.14950462 0.15072839 0.17641158
-0.05100963 0.07614241 0.04658207 -0.10087254 0.14787026 -0.13717125 -0.007482795 -0.049124934
-0.1597028 0.12924773 -0.16189305 -0.009667872 0.041345637 0.082844965 0.14466773 -0.011530307
0.023125347 -0.02192536 -0.046540093 0.16430251 -0.16962798 -0.06927557 0.027261145 0.076986164
0.081331715 0.01961769 -0.0924293 0.03337035 -0.08987595 -0.002894469 0.050330695 -0.18164
-0.058229968 0.13117808 -0.09716582 -0.07553614 -0.0027027563 -0.13980447 -0.006986206 0.07235693
0.01394109 -0.025302133 0.16459036 0.077331066 0.04513904 -0.16342281 -0.094850205 -0.0054628993
-0.16118681 -0.15067422 -0.053985264 0.02120077 0.032915045 -0.07144054 -0.146815 -0.1322884
0.14137408 0.019794784 0.1402566 0.110541806 -0.050439846 0.041094292 -0.094462 -0.023751056
0.061635546 0.09033399 -0.010090497 -0.16433707 -0.1546899 0.12895186 -0.06196936 -0.1578506
0.08611794 -0.097759314 -0.16865845 0.00029176156 0.08577916 0.020581473 0.0051921546 0.013814853
0.16031119 -0.018373987 0.08175587 0.09760531 -0.01017081 0.12774968 -0.009019533 -0.0012560083
0.027469574 -0.019573614 0.12723188 0.00026616018 0.08426652 -0.0049941535 -0.07002119 0.14186186
0.22247757 0.13060372 0.13256778 -0.1301627 -0.11283572 -0.10092824 0.08406642 -0.07667956
0.19621034 0.24001302 -0.122078024 0.044271953 -0.041179854 0.19943818 0.09651504 0.053682677
0.084680624 0.032273877 0.041780364 -0.0071035563 -0.09741091 -0.097470984 -0.06429352 0.008724167
-0.018352037 -0.12524666 0.13407294 0.0067053284 -0.046524074 0.16608289 -0.062721476 -0.1032738
0.097400844 0.15877521 0.15869504 -0.07504401 0.054043945 0.20984527 0.10604653 0.13209769
0.097680904 0.18681516 -0.11633171 -0.14961141 -0.009665297 -0.057225086 -0.1050326 0.19921961
0.077544466 -0.1738698 -0.04494441 -0.16458337 -0.015775312 -0.13617152 -0.04405686 -0.08131153
0.078269795 -0.14219946 -0.08860789 -0.078442134 -0.045672916 0.08815175 -0.041957483 -0.17458658
-0.09705342 -0.05240322 -0.14379492 -0.14549492 -0.0957929 0.11803372 -0.01418212 -0.14844511
0.0061714575 0.05699533 -0.06888047 -0.13222387 -0.11796875 0.092017695 -0.085540734 -0.040932894
00000000: 1725 283e ecb7 35bd a7b8 303e 3095 e7bc
00000010: 8d9b bf3d 1b2b e33d a4ef 15be 1c6a e33d
00000020: 8184 0a3d 011f 35bd cdeb 663e d6f0 edbd
00000030: 0f8e 603e 18de 553e 8160 613d 0cb2 cabd
00000040: 9f9f 6a3e e319 413e 1451 90bd b248 02be
00000050: 9fc0 09be 466d 273e 50ef ba3c 608a 8abb
00000060: 68bf b3bd f031 453e 2ba3 ccbd 0d2d 8dbb
00000070: 046c fb3d dca8 173e acc9 d23d 2894 a03d
00000080: 6fe7 0dbd db64 13be 7d21 ed3d 91ab 9a3d
00000090: 1335 a33d 3bba 983d 7d4c 89bc 1513 423d
000000a0: 96f4 82bd 1fdb 24be 8aef 3a3e 15f6 25bd
000000b0: 41da 9b3d 1da8 8f3d 0825 233d db8c 243a
000000c0: 2491 d9bc ec6f d93d eb0b 493e cabc 4abc
000000d0: 3ce9 31bd 72dc 803d 3a9b 5f3e af48 2938
000000e0: 0d71 373e 83c1 b8bd c942 ac3d 5b1d 1dbe
000000f0: 74d8 0bbd d0ef efbd 10c2 b7bd 1f37 123d
00000100: c554 0abe d445 babb 7e27 323e 3cca b7bd
00000110: 4236 19be f255 0dbe f4cf a9bb 05c8 e03c
00000120: b71b dbbc 782a 373e 90a4 0ebe d85c cd3c
00000130: 50be 413c bd17 19be 8b58 1a3e 3da5 343e
00000140: 79ef 50bd 8df0 9b3d d7cc 3e3d 4396 cebd
00000150: 4d6b 173e 9f76 0cbe 3c32 f5bb 3a37 49bd
00000160: 2189 23be 8459 043e 4bc7 25be ff65 1ebc
00000170: 0b5a 293d 9faa a93d c723 143e 9de9 3cbc
00000180: 5e71 bd3c d09c b3bc d3a0 3ebd eb3e 283e
00000190: f5b2 2dbe 5ae0 8dbd c452 df3c ecaa 9d3d
000001a0: 3e91 a63d 47b5 a03c 934b bdbd 59af 083d
000001b0: e210 b8bd 22b1 3dbb 8f27 4e3d d6ff 39be
000001c0: 8c82 6ebd 8c53 063e e0fe c6bd b1b2 9abd
000001d0: ba20 31bb e728 0fbe 8bec e4bb df2f 943d
000001e0: 2b69 643c 6b46 cfbc 608a 283e c05f 9e3d
000001f0: b7e3 383d 4f58 27be d340 c2bd 1f02 b3bb
00000200: 280e 25be 584a 1abe a71f 5dbd 3dad ad3c
00000210: edd1 063d 6b4f 92bd ac56 16be 9c76 07be
00000220: 5ec4 103e ac28 a23c 6d9f 0f3e be63 e23d
00000230: 039a 4ebd 7d52 283d 4b75 c1bd 9391 c2bc
00000240: 8e75 7c3d 0701 b93d 9d52 25bc fa47 28be
00000250: 0767 1ebe f50b 043e 95d3 7dbd 96a3 21be
00000260: 9a5e b03d 0936 c8bd cdb4 2cbe 93f7 9839
00000270: fcac af3d 7a9a a83c f322 aa3b b157 623c
00000280: 9e28 243e 0b85 96bc 9f6f a73d 4be5 c73d
00000290: 78a3 26bc d0d0 023e aac6 13bc a5a0 a4ba
000002a0: df07 e13c d858 a0bc 1349 023e 6a8b 8b39
000002b0: ed93 ac3d ffa5 a3bb 4567 8fbd 3c44 113e
000002c0: 29d1 633e fbbc 053e d9bf 073e 5f49 05be
000002d0: 6a16 e7bd 77b3 cebd 042b ac3d 2c0a 9dbd
000002e0: 5deb 483e f9c5 753e 0b04 fabd 8256 353d
000002f0: 35ac 28bd 8639 4c3e ada9 c53d 5ee2 5b3d
00000300: 096d ad3d 9d31 043d e321 2b3d f3c4 e8bb
00000310: 5f7f c7bd de9e c7bd 52ac 83bd cfef 0e3c
00000320: 0357 96bc a940 00be 6b4a 093e 5fb8 db3b
00000330: 0790 3ebd a211 2a3e 1e74 80bd 3781 d3bd
00000340: 187a c73d f895 223e f480 223e adb0 99bd
00000350: 2f5d 5d3d aee1 563e ec2e d93d 9e44 073e
00000360: ed0c c83d 794c 3f3e 523f eebd bc33 19be
00000370: 325b 1ebc da64 6abd 551b d7bd 3a00 4c3e
00000380: a2cf 9e3d ed0a 32be a117 38bd 8b88 28be
00000390: 3a3b 81bc 8c70 0bbe f774 34bd a986 a6bd
000003a0: ea4b a03d bc9c 11be 0e78 b5bd 45a6 a0bd
000003b0: 8613 3bbd e888 b43d 9cdb 2bbd d3c6 32be
000003c0: f2c3 c6bd c2a4 56bd fa3e 13be 9ffc 14be
000003d0: 112f c4bd aabb f13d 1f5c 68bc ff01 18be
000003e0: f039 ca3b ef73 693d 3411 8dbd b265 07be
000003f0: 9a99 f1bd c673 bc3d fb2f afbd 40a9 27bd

hidden_layers.1.bias f4 [32]
-0.022151375 0.13931513 -0.105064206 -0.011933828 -0.17164624 -0.010276794 0.07381571 -0.0910193
0.21276495 -0.038992826 0.1488405 5.7907855e-05 0.011502426 0.017951548 0.116818905 -0.16977233
0.16502333 0.16695336 -0.022879416 -0.09068851 0.13254067 -0.058143537 0.018120265 0.18174571
-0.17649956 0.19405416 0.0019908675 0.022624532 -0.0030267213 0.017534103 -0.005948505 0.015951402
00000000: cd76 b5bc a0a8 0e3e e72b d7bd 1a86 43bc
00000010: 08c4 2fbe 0060 28bc b12c 973d 5468 babd
00000020: 0edf 593e f1b6 1fbd a569 183e 16e2 7238
00000030: ac74 3c3c 200f 933c c03e ef3d ccd8 2dbe
00000040: e0fb 283e d2f5 2a3e 9d6d bbbc e6ba b9bd
00000050: beb8 073e eb27 6ebd f370 943c 8c1b 3a3e
00000060: 4dbc 34be 22b6 463e 3779 023b 1557 b93c
00000070: f55b 46bb aea3 8f3c adeb c2bb 84ac 823c

hidden_layers.2.weight f4 [32, 32]
-0.11472635 0.122274265 -0.055810735 0.09949656 0.007900806 0.15028656 0.09154829 0.10278413
-0.16407517 0.152023 -0.023264928 0.11805444 -0.075600274 0.032217804 0.12799338 0.14893463
-0.06810251 0.07085683 0.13835132 -0.030352347 0.09648623 -0.047076523 -0.053180456 0.049076002
-0.017922526 -0.12641422 -0.03546003 -0.09387158 -0.09572529 0.018909447 0.01260926 -0.123750076
0.051339537 0.10364329 0.12808065 0.13617864 0.13170762 0.17294633 -0.007351874 0.042752434
-0.11414509 -0.070203274 0.034927327 0.1672661 0.23928927 -0.09599379 -0.017283797 0.17548555
0.098811105 0.2008372 0.05159385 0.021290628 0.10375849 -0.09080288 0.22074477 0.074281946
-0.10269737 0.09912101 0.05254886 -0.11591997 0.19348638 -0.043867942 0.080380544 -0.041925557
0.0042737885 -0.04116092 0.162957 0.12772596 -0.10155471 0.1418198 -0.15735634 -0.11402296
-0.14941564 0.10733789 0.058193345 0.024495093 0.13688244 0.05148484 0.16183335 0.096514575
0.15930156 -0.015988257 0.061878443 0.08737518 -0.14150815 -0.016127234 -0.116501965 0.08394093
0.15772738 -0.06885233 -0.019718794 0.063736305 -0.09232775 -0.05739702 -0.0919475 0.026808936
0.0881167 0.19498704 0.1344887 0.02049741 0.16211337 0.10973364 0.18298495 0.17105956
-0.027358783 -0.09544965 -0.07763078 -0.05109144 0.2164597 -0.07160307 0.1097028 -0.10710612
0.12985569 -0.02503852 0.09636727 0.1155106 0.22579378 -0.11893068 -0.0883264 -0.0024177823
-0.10889869 0.21350491 0.16616498 -0.08604625 0.22237837 0.085790664 0.059676576 -0.04459613
-0.042095162 0.060763072 -0.09947582 0.1670392 -0.013691852 0.042367306 -0.018331775 0.17396468
0.20152065 -0.09088568 0.02285441 0.11960562 0.02676362 -0.024979103 0.020355543 -0.17638402
0.09175515 0.01779003 0.048920628 -0.062059905 -0.08094469 0.0005395103 0.12380824 -0.09210298
0.0097091375 0.23123823 0.0578641 -0.10395299 0.19394542 0.1938976 -0.12449952 -0.07452414
-0.13912165 -0.18164384 0.089109726 0.15143608 -0.14937888 0.10987653 0.03811988 -0.14004873
-0.14675361 -0.05217921 -0.0748344 0.07208989 -0.007025732 -0.014852254 0.15808193 -0.09020715
0.051922902 0.023627417 -0.13122803 0.042342134 -0.16272701 0.06977116 -0.08878091 0.04716381
0.027765648 0.012420118 -0.08030418 0.07755281 -0.1499493 0.14376394 0.09197521 0.008051965
-0.098283164 0.11577624 -0.047202833 0.14609551 -0.09197913 0.14923292 -0.01219401 0.06490847
-0.10610393 0.15269104 -0.16004491 -0.18244188 0.02801513 0.039915424 0.11894082 -0.15968111
-0.10186551 -0.046000816 -0.03740202 -0.0848247 -0.19745424 -0.13722418 -0.10800655 0.045147296
-0.008419802 0.10897035 0.04161508 0.08307917 -0.10583302 -0.14976054 -0.16388391 -0.012665254
-0.04704417 -0.027262326 0.11173093 0.10166292 -0.033273354 0.11263659 0.060515586 -0.010222212
0.012283509 -0.15663609 0.09498587 0.012488496 -0.02179375 -0.06959391 -0.04119928 -0.12488374
0.09868565 0.115274854 0.0056017586 -0.027521344 0.08971967 0.11287924 0.16640508 -0.004342724
0.11243095 -0.012608292 0.037469618 -0.03289991 0.06244218 0.035059158 -0.14533506 0.12060683
00000000: a6f5 eabd ee6a fa3d cc99 64bd dac4 cb3d
00000010: 6272 013c b8e4 193e ab7d bb3d 7c80 d23d
00000020: 5203 28be ebab 1b3e 1796 bebc 87c6 f13d
00000030: 51d4 9abd d1f6 033d b210 033e 5282 183e
00000040: 5479 8bbd 631d 913d f8ab 0d3e 7ca5 f8bc
00000050: 939a c53d 50d3 40bd c0d3 59bd eb03 493d
00000060: 43d2 92bc bb72 01be 893e 11bd be3f c0bd
00000070: 9f0b c4bd fce7 9a3c 1297 4e3c ae70 fdbd
00000080: 6849 523d ef42 d43d 9327 033e 6a72 0b3e
00000090: 5dde 063e d818 313e fde7 f0bb 2d1d 2f3d
000000a0: e7c4 e9bd bcc6 8fbd f50f 0f3d ce47 2b3e
000000b0: 3f08 753e 6498 c4bd c096 8dbc 7cb2 333e
000000c0: 7a5d ca3d 44a8 4d3e 1354 533d af69 ae3c
000000d0: 557f d43d dcf6 b9bd eb0a 623e 2221 983d
000000e0: 0053 d2bd f5ff ca3d 793d 573d 7367 edbd
000000f0: 4b21 463e dfae 33bd 8e9e a43d 22ba 2bbd
00000100: 230b 8c3b 5a98 28bd 33de 263e 98ca 023e
00000110: eafb cfbd 3639 113e 0522 21be df84 e9bd
00000120: 6a00 19be f8d3 db3d 255c 6e3d efa9 c83c
00000130: e92a 0c3e c5e1 523d a4b7 253e 6fa9 c53d
00000140: f31f 233e cef9 82bc 4074 7d3d c2f1 b23d
00000150: 83e7 10be 431d 84bc 9598 eebd 39e9 ab3d
00000160: 4983 213e 7302 8dbd 4f89 a1bc 2e88 823d
00000170: 5516 bdbd 2319 6bbd f94e bcbd 6a9e db3c
00000180: 8776 b43d afaa 473e 68b7 093e 2fea a73c
00000190: 0c01 263e 08bc e03d 6860 3b3e 3d2a 2f3e
000001a0: 871f e0bc 1b7b c3bd e3fc 9ebd 4245 51bd
000001b0: 9da7 5d3e a1a4 92bd ddab e03d 745a dbbd
000001c0: e4f8 043e 951d cdbc 345c c53d d290 ec3d
000001d0: 7c36 673e ee91 f3bd 79e4 b4bd a873 1ebb
000001e0: 4706 dfbd 08a1 5a3e 2727 2a3e 0439 b0bd
000001f0: 28b7 633e 04b3 af3d 6d6f 743d 6eaa 36bd
00000200: fa6b 2cbd b3e2 783d fbb9 cbbd 530c 2b3e
00000210: ca53 60bc 5789 2d3d 852c 96bc cc23 323e
00000220: 6e5b 4e3e 4522 babd 2c39 bb3c cbf3 f43d
00000230: 613f db3c faa0 ccbc abc0 a63c 039e 34be
00000240: 20ea bb3d 66bc 913c ff60 483d 8732 7ebd
00000250: 54c6 a5bd ec6d 0d3a 2d8f fd3d 7da0 bcbd
00000260: 1313 1f3c b7c9 6c3e e802 6d3d 4ee5 d4bd
00000270: a199 463e 188d 463e 9bf9 febd 1da0 98bd
00000280: e875 0ebe d800 3abe 297f b63d 0f12 1b3e
00000290: c7f6 18be f206 e13d 9723 1c3d ef68 0fbe
000002a0: 9446 16be deb9 55bd c742 99bd dda3 933d
000002b0: 1d38 e6bb de56 73bc 3be0 213e 87be b8bd
000002c0: 1cad 543d 498e c13c a460 06be f26e 2d3d
000002d0: e9a1 26be 2fe4 8e3d c4d2 b5bd d72e 413d
000002e0: c974 e33c c07d 4b3c 8576 a4bd 02d4 9e3d
000002f0: 4f8c 19be db36 133e 805d bc3d 64ec 033c
00000300: af48 c9bd 181c ed3d c257 41bd 109a 153e
00000310: 8e5f bcbd 84d0 183e 63c9 47bc bbee 843d
00000320: 044d d9bd 0a5b 1c3e d0e2 23be 0bd2 3abe
00000330: fc7f e53c 5b7e 233d 3f97 f33d 7283 23be
00000340: dd9e d0bd 5a6b 3cbd dc32 19bd 93b8 adbd
00000350: 7231 4abe 7f84 0cbe 8a32 ddbd 5fec 383d
00000360: 36f3 09bc d92b df3d 9374 2a3d 6925 aa3d
00000370: fbbe d8bd d45a 19be 2fd1 27be ed81 4fbc
00000380: 63b1 40bd 3e55 dfbc 30d3 e43d a634 d03d
00000390: a449 08bd 03ae e63d 31df 773d 117b 27bc
000003a0: c540 493c 3665 20be f487 c23d 8c9c 4c3c
000003b0: ce88 b2bc 4087 8ebd 94c0 28bd 0cc3 ffbd
000003c0: b41b ca3d 3915 ec3d f58e b73b 7174 e1bc
000003d0: f2be b73d 3b2d e73d 1866 2a3e 694d 8ebb
000003e0: 3342 e63d 0293 4ebc be79 193d 0ec2 06bd
000003f0: 5fc3 7f3d 319a 0f3d b7d2 14be b700 f73d

hidden_layers.2.bias f4 [32]
-0.06924774 0.05065557 -0.092490844 0.06733768 0.17004164 0.011446591 0.13713424 -0.086369365
-0.16501708 -0.15688106 -0.15306997 0.2258429 -0.07639169 0.23763415 0.16013025 -0.12158971
-0.097038984 -0.061971143 0.10403157 0.014678219 0.1246912 0.019336235 0.045233 0.21037127
-0.017831141 0.186066 0.043872494 -0.093569934 -0.09111471 0.09461803 -0.10534121 0.040031034
00000000: c2d1 8dbd 377c 4f3d d76b bdbd 56e8 893d
00000010: 651f 2e3e 7b8a 3b3c eb6c 0c3e 6ce2 b0bd
00000020: 3dfa 28be 6ea5 20be 60be 1cbe 5c43 673e
00000030: 3f73 9cbd 5e56 733e 2ff9 233e 0704 f9bd
00000040: 60bc c6bd 74d5 7dbd 810e d53d ea7c 703c
00000050: 1a5e ff3d 0667 9e3c 3d46 393d 916b 573e
00000060: 9d12 92bc 1688 3e3e a5b3 333d 98a1 bfbd
00000070: 599a babd 19c7 c13d 22bd d7bd 95f7 233d

output_layer.weight f4 [2, 32]
-0.038851812 0.10651053 0.14317948 0.11818718 -0.013569784 -0.11382441 -0.13859625 0.01053442
0.1417185 0.019412374 0.003300941 0.12822145 -0.059218872 0.0860358 0.11393969 0.08025097
-0.13031176 0.04043345 0.22522224 -0.118854046 -0.10021056 0.004854216 0.1679536 0.12122812
0.108585574 0.22232866 -0.06510149 0.11188142 -0.16900441 0.21739133 0.005501503 0.16510272
0.10198463 -0.12684684 0.13097236 -0.19482675 -0.15302987 0.1573488 0.07979842 -0.07884312
-0.022167914 -0.03049257 0.073028244 -0.12058367 -0.039503336 -0.15278359 -0.24343012 0.11235749
0.1037718 0.026944775 -0.049612198 -0.0945812 -0.04570405 -0.2378233 -0.23324871 -0.12619954
0.15355021 -0.050112512 -0.067873836 -0.0095874965 -0.013152348 -0.097364716 0.11706004 -0.19448873
00000000: 1423 1fbd 3122 da3d a49d 123e 1f0c f23d
00000010: cd53 5ebc c61c e9bd 2dec 0dbe 8f98 2c3c
00000020: a81e 113e b306 9f3c 9a54 583b 7c4c 033e
00000030: 7d8f 72bd 8a33 b03d 3659 e93d 9f5a a43d
00000040: 7270 05be 8c9d 253d a9a0 663e c069 f3bd
00000050: 323b cdbd 1d10 9f3b 07fc 2b3e 7346 f83d
00000060: 1d62 de3d 20aa 633e ee53 85bd 1622 e53d
00000070: 7e0f 2dbe d59b 5e3e f445 b43b b010 293e
00000080: 51dd d03d 23e4 01be 9e1d 063e aa80 47be
00000090: ddb3 1cbe 0b20 213e 5b6d a33d 8078 a1bd
000000a0: 7c99 b5bc 8ecb f9bc d58f 953d 92f4 f6bd
000000b0: 40ce 21bd 4d73 1cbe bf45 79be af1b e63d
000000c0: 4f86 d43d 4abb dc3c 2936 4bbd cab3 c1bd
000000d0: 2c34 3bbd f387 73be c0d8 6ebe 743a 01be
000000e0: 443c 1d3e c742 4dbd 7001 8bbd e014 1dbc
000000f0: f27c 57bc 2767 c7bd 2dbd ef3d 0e28 47be

output_layer.bias f4 [2]
-0.10647874 0.07018083
00000000: 8711 dabd f8ba 8f3d
