synthetic_flows_raw/saved_models/phi_only_2.0.pt (torch, 16963 bytes, 10 tensors)

input_layer.weight f4 [32, 3]
-0.13174577 -0.13124633 -0.37392098 0.22107972 0.46285087 0.02225831 0.026241867 -0.012398842
0.011917611 0.38567555 -0.5272936 0.34966978 0.16415451 0.45770735 0.27377814 -0.032996316
0.08424067 -0.062420994 0.24092284 0.47744957 -0.23861322 0.2586196 -0.08086325 0.42349654
-0.48949257 -0.07405793 0.23212998 0.2141904 -0.091587156 0.36729807 -0.41529736 -0.3640091
-0.23061691 0.3174507 -0.058723353 -0.5133997 -0.12269775 -0.12814526 0.064794995 0.031147607
-0.36066583 0.5662211 -0.3638471 0.23663831 0.3764604 0.41551307 -0.22364107 -0.44497016
-0.11715481 0.19335264 -0.5654089 -0.31237024 -0.22150932 -0.28530872 -0.247116 0.325153
0.03410076 -0.27211326 -0.48944345 -0.50122035 0.057697326 -0.4638962 0.31790477 -0.12622146
-0.06089579 -0.3056275 -0.19791391 0.34944826 -0.11117506 -0.5247079 -0.45444202 -0.26656017
-0.32483155 -0.12881652 -0.13835838 -0.3139157 0.023287363 -0.4501821 -0.41160032 -0.036945377
0.122205265 0.13029584 0.13690697 0.48469013 0.46593317 0.01338285 -0.26370785 0.17949809
-0.4882843 -0.39225176 0.5415132 0.4712009 0.10342224 -0.10253113 0.022681987 -0.1416489
00000000: 5de8 06be 7065 06be 9272 bfbe b962 623e
00000010: cafa ec3e 0f57 b63c 2ff9 d63c 8324 4bbc
00000020: 1542 433c 4477 c53e b7fc 06bf eb07 b33e
00000030: 1f18 283e 9e58 ea3e a62c 8c3e 2527 07bd
00000040: 5f86 ac3d 28ad 7fbd 7ab4 763e 4574 f43e
00000050: 0657 74be ca69 843e a29b a5bd 8ad4 d83e
00000060: c59e fabe afab 97bd 7bb3 6d3e ba54 5b3e
00000070: 0c92 bbbd 7e0e bc3e dba1 d4be 675f babe
00000080: d726 6cbe e688 a23e e687 70bd 2a6e 03bf
00000090: f548 fbbd 8338 03be 3db3 843d 4429 ff3c
000000a0: 31a9 b8be def3 103f 2b4a babe 5051 723e
000000b0: 6bbf c03e 21be d43e 2a02 65be 21d3 e3be
000000c0: dcee efbd 3cfe 453e a3be 10bf feee 9fbe
000000d0: 57d3 62be fc13 92be fa0b 7dbe 747a a63e
000000e0: 3dad 0b3d 6e52 8bbe 5598 fabe fa4f 00bf
000000f0: 0854 6c3d cd83 edbe 6ac4 a23e 3340 01be
00000100: dd6d 79bd 357b 9cbe f2a9 4abe e2ea b23e
00000110: c0af e3bd 4253 06bf a0ac e8be 937a 88be
00000120: 5250 a6be 7ae8 03be d2ad 0dbe 8fb9 a0be
00000130: 24c5 be3c 457e e6be 47bd d2be 0954 17bd
00000140: c146 fa3d 466c 053e 5731 0c3e 4e29 f83e
00000150: cb8e ee3e be43 5b3c b704 87be 59ce 373e
00000160: 6600 fabe 39d5 c8be 9ca0 0a3f 3f41 f13e
00000170: 0acf d33d d7fb d1bd 93cf b93c 690c 11be

input_layer.bias f4 [32]
-0.33322895 0.54892236 0.21782847 -0.21637622 -0.32081306 0.22112574 -0.3132604 0.015738625
0.36506885 -0.2524066 -0.41488045 -0.540741 0.47218686 0.6510206 -0.09707393 0.1784048
0.5283364 0.09145313 -0.113202065 -0.17819376 0.33797213 0.44884306 0.053091347 0.17220105
0.42127362 0.18022533 -0.35063338 -0.18327871 0.27319992 -0.37416592 -0.17748238 0.24518779
00000000: fc9c aabe 2d86 0c3f 6d0e 5f3e ba91 5dbe
00000010: 9c41 a4be c96e 623e ab63 a0be 4aee 803c
00000020: 4eea ba3e 703b 81be 366b d4be 016e 0abf
00000030: 7ac2 f13e 49a9 263f b2ce c6bd bfaf 363e
00000040: 0e41 073f c74b bb3d 7cd6 e7bd 6d78 36be
00000050: af0a ad3e c2ce e53e 5076 593d 7955 303e
00000060: 2db1 d73e fd8c 383e 3886 b3be 6aad 3bbe
00000070: dce0 8b3e ad92 bfbe f1bd 35be 8212 7b3e

hidden_layers.0.weight f4 [32, 32]
0.11697385 -0.12951204 0.10702533 -0.09839963 0.12478224 -0.04456891 -0.068673804 0.13286214
-0.16214845 -0.123803586 0.13359089 0.0039374116 -0.013768325 0.116278745 -0.005334061 0.03364857
0.12004367 0.054901615 0.11873085 0.14959492 -0.04133668 -0.13135397 0.17320545 0.008211632
0.10335218 0.17164297 -0.026075264 -0.028272633 -0.15180865 -0.04153595 -0.13168192 -0.10617226
0.16918935 -0.005205576 -0.033129487 -0.16316037 -0.16237073 0.030512381 -0.0300077 0.123213485
-0.14875354 -0.105122074 -0.01008587 -0.15501724 -0.11265321 -0.100469105 0.14431179 0.1528335
-0.13497622 0.014702974 0.094307184 0.08884216 -0.12188196 0.07888694 -0.059820198 0.16581355
-0.15688154 0.14592037 -0.123051405 0.15029809 -0.104377195 0.05172455 0.09117381 0.071479924
-0.021504754 -0.06229612 0.019629747 0.1346549 -0.17334878 0.059202265 -0.1368423 -0.06547391
-0.14945841 -0.012964328 0.04715423 0.14770828 0.012640134 0.027252974 0.09520086 -0.12825786
-0.014393465 -0.16849075 -0.15425186 0.06728232 -0.14069723 -0.07807948 -0.008070785 0.097727224
-0.1391777 0.082251534 0.020433614 -0.029663583 0.002037526 0.14851771 -0.07167006 0.13306238
0.15047756 0.14915761 -0.07769441 -0.07962105 0.14800718 0.016194927 0.11049715 -0.10644062
0.059816007 0.14161688 -0.028586984 -0.11233106 -0.17468315 -0.1321494 -0.12269228 0.13994357
-0.10345477 0.1357219 -0.101208426 0.12650383 0.107997715 -0.1694374 -0.048730735 0.114189215
-0.027797954 0.034077518 -0.08851839 0.07405772 0.16501978 -0.106804095 -0.10250703 0.023139905
0.1594897 0.12060211 0.17621805 0.07725324 0.14384423 -0.11600478 0.11268584 0.030680051
0.13557355 0.037390664 0.01126159 -0.0770409 0.22669359 -0.053641543 -0.028189933 -0.08311382
0.20559499 0.10814289 0.0041587325 -0.07003424 -0.028567769 0.07173333 0.14976698 -0.0296793
0.0137952855 -0.01591107 -0.10054903 0.0702534 0.021558858 -0.13076717 -0.078768685 -0.013271548
0.0077655264 0.18542598 0.006600573 0.04300879 0.06766735 -0.008380606 0.1253753 0.14511639
-0.06965859 0.019497544 0.063873634 -0.13084649 0.21650082 0.02083372 0.1274562 -0.054633938
0.1972955 -0.10560128 -0.11387553 0.06684543 0.08233054 0.22666413 0.17639397 0.11527601
0.04586993 -0.08833186 0.08411951 -0.09954663 -0.0832528 0.14390908 -0.11864028 0.20788454
-0.041745294 -0.06298146 -0.06816799 0.12705243 -0.093681015 0.097954206 -0.038645986 0.19943304
0.22994849 -0.03238322 -0.12870957 -0.11560758 0.016339134 0.19294001 -0.1187555 -0.04830243
-0.009885894 0.03185383 -0.03807607 0.088924184 0.15813854 0.23009028 0.027972225 0.12876809
-0.06481758 0.15404785 -0.023488153 -0.017521868 0.1761606 -0.08230883 0.16660328 -0.0047422177
0.07972154 -0.114284 -0.11476616 -0.021339603 0.02174771 0.08588982 -0.14838272 0.07701308
-0.17397735 0.025679674 -0.05568408 -0.00457896 -0.105917074 -0.055605117 0.038932096 0.0030745282
-0.11411221 -0.10855397 -0.13747773 0.15391262 0.04534611 -0.031222407 0.09576503 -0.0097351
0.041889817 -0.027519258 0.12306627 0.010320878 -0.01699795 0.021368198 0.086807735 0.052779358
00000000: fc8f ef3d ce9e 04be 1930 db3d bf85 c9bd
00000010: d58d ff3d e48d 36bd daa4 8cbd 030d 083e
00000020: 3e0a 26be bc8c fdbd 0dcc 083e 6705 813b
00000030: 8a94 61bc 8d23 ee3d 59c9 aebb 15d3 093d
00000040: 75d9 f53d 84e0 603d 2929 f33d 692f 193e
00000050: a750 29bd a881 06be c55c 313e 158a 063c
00000060: 4faa d33d 2dc3 2f3e cb9b d5bc 029c e7bc
00000070: ba73 1bbe 9a21 2abd a0d7 06be d870 d9bd
00000080: f93f 2d3e 8993 aabb c9b2 07bd 8313 27be
00000090: 8344 26be 1af5 f93c b5d2 f5bc 5a57 fc3d
000000a0: d952 18be 3e4a d7bd 343f 25bc d7bc 1ebe
000000b0: bab6 e6bd bfc2 cdbd 78c6 133e 6380 1c3e
000000c0: 3537 0abe bee4 703c 2024 c13d e1f2 b53d
000000d0: 409d f9bd 7a8f a13d 0606 75bd 07cb 293e
000000e0: 8ea5 20be 266c 153e 6002 fcbd bee7 193e
000000f0: b6c3 d5bd 1fdd 533d 56b9 ba3d 1164 923d
00000100: bd2a b0bc 372a 7fbd 90ce a03c f9e2 093e
00000110: 5882 31be 137e 723d 6320 0cbe 2f17 86bd
00000120: a00b 19be 5568 54bc cb24 413d d740 173e
00000130: 9118 4f3c a141 df3c abf8 c23d 0756 03be
00000140: 91d2 6bbc d788 2cbe 33f4 1dbe 50cb 893d
00000150: ef12 10be 22e8 9fbd 533b 04bc 3625 c83d
00000160: 9984 0ebe 7e73 a83d 6564 a73c 0b01 f3bc
00000170: 0488 053b 0715 183e c1c7 92bd 8141 083e
00000180: ca16 1a3e c6bc 183e 3f1e 9fbd 5c10 a3bd
00000190: 328f 173e 39ab 843c 544c e23d 8afd d9bd
000001a0: a101 753d 0404 113e 402f eabc d40d e6bd
000001b0: 24e0 32be 2c52 07be 1746 fbbd 5e4d 0f3e
000001c0: 18e0 d3bd affa 0a3e 5d46 cfbd 388a 013e
000001d0: e82d dd3d ff80 2dbe e199 47bd 09dc e93d
000001e0: 89b8 e3bc de94 0b3d 2149 b5bd 93ab 973d
000001f0: f2fa 283e 1bbc dabd 35ef d1bd e68f bd3c
00000200: 4551 233e 3dfe f63d 8172 343e f236 9e3d
00000210: e74b 133e ea93 edbd d5c7 e63d bb54 fb3c
00000220: cbd3 0a3e f426 193d 8882 383c 9fc7 9dbd
00000230: 5d22 683e 3cb7 5bbd 93ee e6bc 9437 aabd
00000240: 7e87 523e 057a dd3d fa45 883b 1d6e 8fbd
00000250: f406 eabc ede8 923d 845c 193e 0122 f3bc
00000260: 9f05 623c ef57 82bc a6ec cdbd 04e1 8f3d
00000270: 349c b03c d4e7 05be 7a51 a1bd e870 59bc
00000280: f575 fe3b 4fe0 3d3e 9f49 d83b fc29 303d
00000290: 2e95 8a3d cf4e 09bc 6262 003e 6499 143e
000002a0: 2aa9 8ebd 50b9 9f3c 2ed0 823d 9ffc 05be
000002b0: 64b2 5d3e 7aab aa3c e183 023e d6c7 5fbd
000002c0: d507 4a3e 7c45 d8bd 9337 e9bd 42e6 883d
000002d0: ea9c a83d a41a 683e 9fa0 343e d415 ec3d
000002e0: 1ce2 3b3d 56e7 b4bd da46 ac3d 1bdf cbbd
000002f0: 7280 aabd e75c 133e adf9 f2bd afdf 543e
00000300: 1dfd 2abd 6cfc 80bd a99b 8bbd 081a 023e
00000310: d5db bfbd 379c c83d 414b 1ebd 2d38 4c3e
00000320: 9e77 6b3e 44a4 04bd 71cc 03be abc3 ecbd
00000330: a6d9 853c 1192 453e 1536 f3bd c5d8 45bd
00000340: 72f8 21bc 2979 023d a7f5 1bbd e21d b63d
00000350: 12ef 213e c99c 6b3e 0226 e53c c8db 033e
00000360: 14bf 84bd b8be 1d3e 3a6a c0bc 058a 8fbc
00000370: 7263 343e 8891 a8bd 0d9a 2a3e 9b64 9bbb
00000380: 0c45 a33d bb0d eabd 850a ebbd 64d0 aebc
00000390: 4128 b23c 00e7 af3d a4f1 17be 09b9 9d3d
000003a0: 1e27 32be 2e5e d23c fd14 64bd 1a0b 96bb
000003b0: 0deb d8bd 31c2 63bd 4377 1f3d 067e 493b
000003c0: aab3 e9bd 8b51 debd f6c6 0cbe 459b 1d3e
000003d0: d8bc 393d 22c6 ffbc 7520 c43d f87f 1fbc
000003e0: a894 2b3d 1170 e1bc 2b0a fc3d e618 293c
000003f0: 493f 8bbc 5c0c af3c 41c8 b13d 2b2f 583d

hidden_layers.0.bias f4 [32]
-0.16302867 -0.005609726 -0.13684751 -0.16634746 0.052267186 0.24324441 -0.051849324 0.039707135
-0.15235813 0.038611434 0.19470115 0.19086401 -0.07606758 0.24240704 -0.031116256 0.14176537
-0.07982539 -0.09724632 0.0090490775 -0.101660855 0.04003816 -0.07134025 0.014263359 0.044946447
0.25132245 0.053605117 0.049270105 -0.099090494 0.20434074 0.17695694 -0.04914142 0.04190557
00000000: fdf0 26be cbd1 b7bb c121 0cbe fd56 2abe
00000010: 1e16 563d 1015 793e f55f 54bd f3a3 223d
00000020: c503 1cbe 0627 1e3d bd5f 473e db71 433e
00000030: 52c9 9bbd 8d39 783e 85e7 febc f12a 113e
00000040: 7e7b a3bd 1429 c7bd 9542 143c 9133 d0bd
00000050: 0eff 233d d61a 92bd ddb0 693c c419 383d
00000060: 56ad 803e 0a91 5b3d 73cf 493d f5ef cabd
00000070: b33e 513e 3334 353e 8348 49bd 2da5 2b3d

hidden_layers.1.weight f4 [32, 32]
0.06309139 -0.06589789 0.11391062 0.070564784 -0.048262917 0.13438511 0.14627782 0.06955566
-0.013338178 0.02469637 0.031077432 -0.0653687 0.04620658 0.078555144 -0.004613514 0.04064781
0.08101578 -0.1471809 -0.023683304 -0.04422582 -0.1796772 0.08131613 0.1524793 -0.13194358
0.06065194 -0.148402 0.1015029 0.11366258 -0.1627809 -0.16363679 -0.069579534 -0.1460177
0.14437653 -0.0510364 -0.12653072 0.08337961 -0.13394052 -0.13941991 -0.008866671 -0.04208746
0.08934985 0.030178884 0.12970687 -0.098072164 0.034969725 0.17103505 0.12751187 0.04464236
0.10857337 0.054287 -0.025729392 -0.07630884 0.025499227 0.170205 0.12123381 0.014653131
0.20408183 0.11799887 0.14237306 0.15587312 0.06057709 0.009214857 -0.096759416 -0.094123244
-0.032046188 -0.06665996 -0.054085173 -0.05859023 -0.17296642 0.11730277 -0.15802719 0.10728385
-0.07770368 -0.08999151 -0.024826748 0.06939162 -0.042626794 -0.045960378 -0.047531065 -0.09499375
-0.042873163 -0.017168688 -0.114763066 0.10774237 -0.13900001 -0.023225779 0.05009201 0.059454452
0.028260853 0.095264375 -0.13928224 0.052946072 -0.10603399 0.12480099 0.17291541 -0.1546058
0.033233587 0.11568681 -0.1738908 0.030669756 0.11348989 -0.091119915 -0.11107452 -0.04035173
0.005048384 -0.0054170634 0.12178189 0.14724754 0.07475557 -0.026977457 0.07732421 0.04706415
-0.08055922 0.16771117 0.077923924 0.032044217 0.23635696 -0.12678121 0.09507743 0.122259654
0.13898054 -0.12486412 -0.06431778 0.20195116 0.08949896 0.039721176 0.102208465 0.18303043
0.14300966 0.10749165 0.07524245 0.012236684 0.04396522 0.014009063 -0.13134977 0.14994065
0.12951304 -0.093587324 -0.14412814 -0.173532 0.08455911 0.10718057 0.13842611 -0.16673592
-0.13480479 -0.09821284 -0.08344833 0.018468374 -0.13416584 0.14621341 0.027666068 0.10243527
-0.05862546 -0.111293465 -0.14963134 -0.11663393 0.14038467 -0.05898163 -0.12991275 0.024848608
0.07431385 -0.16974185 -0.033013605 0.094432876 0.11798129 -0.034819465 0.17772776 0.0005968415
-0.045963313 0.17500573 -0.09624884 0.21941084 -0.049718656 -0.027595785 0.06501069 0.23872447
-0.15597034 0.20242368 0.08330778 0.032662716 -0.052474197 0.14371239 0.024434606 0.10393561
0.2169292 0.046249542 0.09153786 0.07739271 0.21989796 0.18317388 -0.0784725 -0.048854437
0.14353229 0.0777996 -0.12002318 -0.10838313 0.119462706 -0.08754864 0.06871628 0.08300548
0.03344964 -0.016977457 -0.088475674 -0.15600033 -0.14121272 0.1075604 -0.08073246 0.071278535
-0.16603169 -0.10421688 -0.09166162 -0.14316207 -0.08753519 -0.06431322 0.054525238 -0.1308289
-0.042788032 0.16874799 0.054460578 0.17163734 -0.022989083 0.058862373 0.069284864 0.14577915
-0.10664475 -0.06420279 0.04506539 -0.101370186 0.14030392 0.089354925 -0.03686293 -0.035302494
-0.010287619 0.119347095 0.21882246 0.10366248 0.15918626 0.10883497 0.080845706 0.017463844
-0.0024652842 0.17580588 0.016745003 0.049563557 0.15772252 0.17378885 -0.16799012 0.09806467
0.11259726 0.03096083 -0.077988416 0.03657797 0.1281882 -0.049428184 -0.09514939 0.23289745
00000000: 0f36 813d 79f5 86bd f949 e93d 4584 903d
00000010: 56af 45bd 409c 093e dac9 153e 3373 8e3d
00000020: 6088 5abc 0b50 ca3c 1996 fe3c 06e0 85bd
00000030: 1c43 3d3d 85e1 a03d f62c 97bb 517e 263d
00000040: 9aeb a53d 97b6 16be 7d03 c2bc 2226 35bd
00000050: 4dfd 37be 1289 a63d 8923 1c3e 381c 07be
00000060: 2b6e 783d b2f6 17be c1e0 cf3d edc7 e83d
00000070: 09b0 26be 6790 27be b77f 8ebd aa85 15be
00000080: 71d7 133e 8b0b 51bd 4591 01be eec2 aa3d
00000090: b427 09be 18c4 0ebe 8345 11bc e763 2cbd
000000a0: 0efd b63d b539 f73c e1d1 043e 0fda c8bd
000000b0: 6a3c 0f3d d023 2f3e 7992 023e e8da 363d
000000c0: b75b de3d 0c5c 5e3d 72c6 d2bc cf47 9cbd
000000d0: c1e3 d03c 384a 2e3e 6f49 f83d b013 703c
000000e0: d4fa 503e 64a9 f13d 3eca 113e 349d 1f3e
000000f0: af1f 783d e9f9 163c cd29 c6bd b0c3 c0bd
00000100: dd42 03bd 0485 88bd 6a88 5dbd 4ffc 6fbd
00000110: 1c1e 31be 6f3c f03d e1d1 21be a3b7 db3d
00000120: 1b23 9fbd 784d b8bd 7761 cbbc 321d 8e3d
00000130: 6f99 2ebd f340 3cbd efaf 42bd 158c c2bd
00000140: c59b 2fbd 59a5 8cbc e608 ebbd 08a8 dc3d
00000150: 0556 0ebe fd43 bebc 482d 4d3d 8386 733d
00000160: 4e83 e73c f819 c33d 01a0 0ebe fbdd 583d
00000170: 5928 d9bd a997 ff3d bd10 313e fc50 1ebe
00000180: f11f 083d 35ed ec3d 6e10 32be 243f fb3c
00000190: 636d e83d 149d babd 0a7b e3bd db47 25bd
000001a0: ea6c a53b 9f81 b1bb c968 f93d 0fc8 163e
000001b0: 7319 993d d4ff dcbc 285c 9e3d 57c6 403d
000001c0: 3bfc a4bd 7abc 2b3e 9496 9f3d cc40 033d
000001d0: 8f07 723e efd2 01be f5b7 c23d 4563 fa3d
000001e0: ea50 0e3e c2b8 ffbd 0ab9 83bd 49cc 4e3e
000001f0: 3b4b b73d acb2 223d ac52 d13d 546c 3b3e
00000200: 2071 123e 9524 dc3d b718 9a3d 5f7c 483c
00000210: e014 343d 4586 653c 8e80 06be 0b8a 193e
00000220: 119f 043e b6aa bfbd 5496 13be 5fb2 31be
00000230: 542d ad3d 7d81 db3d 93bf 0d3e d2bc 2abe
00000240: 440a 0abe d023 c9bd f5e6 aabd fd4a 973c
00000250: c562 09be f8b8 153e f3a3 e23c 95c9 d13d
00000260: 4021 70bd d4ed e3bd f538 19be c5dd eebd
00000270: 00c1 0f3e b996 71bd d907 05be 4f8f cb3c
00000280: dc31 983d cfd0 2dbe 4639 07bd 0666 c13d
00000290: 2da0 f13d db9e 0ebd 44fe 353e 5b75 1c3a
000002a0: 0744 3cbd b434 333e 1d1e c5bd 3cad 603e
000002b0: caa5 4bbd 8e10 e2bc 5324 853d 3074 743e
000002c0: b0b6 1fbe 2748 4f3e 459d aa3d 57c9 053d
000002d0: 2fef 56bd 5729 133e 152b c83c 31dc d43d
000002e0: b022 5e3e 2970 3d3d 3478 bb3d 1280 9e3d
000002f0: ee2c 613e ef91 3b3e 31b6 a0bd 971b 48bd
00000300: 21fa 123e 6655 9f3d b7ce f5bd f9f7 ddbd
00000310: dda8 f43d b44c b3bd 1fbb 8c3d c7fe a93d
00000320: 7d02 093d 4f14 8bbc bc32 b5bd 8dbe 1fbe
00000330: 119a 10be a148 dc3d 0f57 a5bd 7bfa 913d
00000340: 3604 2abe a96f d5bd 16b9 bbbd 1499 12be
00000350: a645 b3bd a6b6 83bd db55 5f3d 03f8 05be
00000360: 8142 2fbd 46cc 2c3e 0e12 5f3d b3c1 2f3e
00000370: 9a53 bcbc ac19 713d 39e5 8d3d 2147 153e
00000380: 9068 dabd c17c 83bd 7d96 383d 2c9b cfbd
00000390: d5ab 0f3e b7ff b63d 95fd 16bd 5999 10bd
000003a0: 678d 28bc 406c f43d ff12 603e ff4c d43d
000003b0: b901 233e dee4 de3d 6f92 a53d 5610 8f3c
000003c0: 9b90 21bb 7506 343e d12c 893c 2803 4b3d
000003d0: 0382 213e b4f5 313e 9a05 2cbe 21d6 c83d
000003e0: 6499 e63d 91a1 fd3c 64b8 9fbd c8d2 153d
000003f0: c443 033e 3575 4abd afdd c2bd ab7c 6e3e

hidden_layers.1.bias f4 [32]
0.050775036 0.1928274 -0.032538738 0.08062087 0.016941262 -0.089027576 -0.103254125 -0.0071675447
0.22040734 -0.07598817 0.184015 -0.024463875 0.047765464 0.04968247 -0.12693901 -0.021298733
0.14824127 -0.097593494 0.20659122 0.2036173 0.20118311 0.12518792 -0.11760842 0.118645824
0.013614525 -0.058262557 0.2109777 -0.0593777 0.046300564 -0.06415519 0.17209895 -0.07260315
00000000: 7cf9 4f3d 8c74 453e 5747 05bd 8e1c a53d
00000010: 67c8 8a3c 1754 b6bd e676 d3bd b9dd eabb
00000020: 76b2 613e b09f 9bbd 6e6e 3c3e 7768 c8bc
00000030: b8a5 433d d87f 4b3d 4dfc 01be ae7a aebc
00000040: 8fcc 173e 19df c7bd a68c 533e 0e81 503e
00000050: f202 4e3e 4331 003e afdc f0bd 95fc f23d
00000060: 750f 5f3c b8a4 6ebd 8a0a 583e 0836 73bd
00000070: a9a5 3d3d cc63 83bd b53a 303e f6b0 94bd

hidden_layers.2.weight f4 [32, 32]
0.09617384 0.027186856 -0.12712215 -0.017800413 0.097412765 -0.037926964 -0.15622991 -0.031183211
-0.17391227 -0.09142317 0.0138661405 0.09820445 -0.02560754 -0.024062853 0.0071730143 -0.15828565
0.06849107 0.117547534 0.06415184 0.1066708 -0.06605008 0.14929661 0.1305798 0.06379206
-0.050594997 -0.14580818 -0.131109 0.030374523 0.078102626 -0.12353321 -0.017189598 0.12195532
-0.050376862 0.11898493 -0.014907361 0.12117418 0.17949937 0.020043794 0.041322295 0.17330612
0.012617441 -0.15826121 0.09475976 -0.11452619 0.13222975 0.020998811 0.07104566 0.10613246
0.08715216 -0.07846365 0.21922131 0.14552471 0.13780424 -0.10056674 -0.10564537 0.10579878
-0.13375366 0.15600942 0.12140113 -0.16112207 0.017915715 0.123507276 -0.015457146 -0.1666578
0.13762653 -0.0011814681 0.1282951 0.23798415 -0.16579054 0.17703424 -0.13301244 -0.09407025
0.07507529 0.15477608 -0.032694858 -0.12898263 0.22921246 0.16886139 -0.053827215 -0.16073303
-0.12690358 0.1968733 0.11821881 0.042657204 0.099177234 0.21593441 0.09902956 -0.047293164
0.015519195 0.15855306 0.015894799 -0.023894513 -0.011265649 -0.10112203 0.08556572 -0.1517938
-0.039612934 0.17532152 -0.04651404 0.115143195 -0.09147389 0.20954494 0.075353235 0.1677258
-0.032847196 0.031030806 0.2397507 -0.14092849 0.12284243 0.16143489 -0.03833985 0.022358265
0.051345635 0.07631809 -0.02328552 0.22031555 -0.09670277 -0.08628135 0.096012965 -0.16037896
-0.028651679 -0.038953155 0.16136217 0.109566934 -0.079939775 0.060795143 0.03256222 -0.036626432
-0.15022038 -0.14816657 0.14796896 0.03590451 -0.13945915 -0.060204677 0.06933325 0.11308622
0.012606887 -0.16240925 0.09613905 -0.08144546 0.035399027 -0.045172974 0.048817977 -0.062777795
-0.01836181 -0.12317213 0.04956914 0.017928261 0.114816174 -0.14960887 -0.021819402 0.0063570985
-0.117263585 0.07538954 0.016491335 0.10448206 -0.12623297 -0.09664381 0.113927886 0.01722628
-0.04713946 0.023509536 -0.08661767 -0.10661619 -0.010334765 -0.09115155 -0.1511056 0.084286265
-0.04176897 -0.13855426 0.23046903 0.08600301 0.186377 0.06479014 -0.14338441 -0.034933794
-0.098155566 -0.025540566 0.12554169 0.13068375 0.16319732 0.024923187 0.060837835 -0.03244002
0.16233195 0.019205159 0.12728375 0.15577492 0.106631316 0.07240114 0.045232404 -0.16892387
0.14042598 -0.08132052 -0.17459507 0.023203084 0.10248322 -0.12808937 -0.08588372 -0.15081868
0.117405385 -0.107778214 0.14311421 0.014493062 -0.17491107 0.050260603 0.011634953 0.06805955
-0.12497182 0.017965304 -0.10459609 -0.0057471963 -0.16218707 -0.048523787 0.07665599 0.03460664
-0.1278353 -0.10575936 -0.09061338 0.016289491 -0.16075435 -0.078650236 -0.07269556 -0.12729701
0.0096552735 -0.110103585 -0.15932634 -0.09853859 0.14319922 0.030968303 -0.13110745 -0.16495532
-0.1402589 -0.11529519 0.037333593 0.024849234 0.0810872 -0.100067705 -0.10391273 -0.09269154
-0.04803514 0.07174443 -0.087082215 -0.02543145 -0.10201864 0.088068575 0.10724931 -0.11978324
0.09334094 -0.09662818 0.027333854 0.014807895 -0.011401903 -0.095874846 -0.013051888 0.10329112
00000000: caf6 c43d f8b6 de3c 4f2c 02be 2cd2 91bc
00000010: 5880 c73d 4e59 1bbd bcfa 1fbe ef73 ffbc
00000020: 0f16 32be 123c bbbd cf2e 633c 6a1f c93d
00000030: e7c6 d1bc 761f c5bc 9b0b eb3b a215 22be
00000040: 0c45 8c3d c3bc f03d 0a62 833d 3876 da3d
00000050: 4445 87bd 36e1 183e b6b6 053e 69a5 823d
00000060: b33c 4fbd bd4e 15be 7041 06be fed3 f83c
00000070: 45f4 9f3d fbfe fcbd 33d1 8cbc b6c3 f93d
00000080: f857 4ebd 5fae f33d 013e 74bc 2b2a f83d
00000090: afce 373e e232 a43c 9141 293d 2977 313e
000000a0: 62b9 4e3c 3a0f 22be 6811 c23d b58c eabd
000000b0: 3c67 073e b305 ac3c 6380 913d fa5b d93d
000000c0: d57c b23d 8db1 a0bd 8d7b 603e 6e04 153e
000000d0: 8e1c 0d3e eff5 cdbd 9a5c d8bd 08ad d83d
000000e0: b8f6 08be efc0 1f3e 28a1 f83d 2ffd 24be
000000f0: fac3 923c 62f1 fc3d f83f 7dbc 58a8 2abe
00000100: f8ed 0c3e 7edb 9aba ca5f 033e 1eb2 733e
00000110: ffc4 29be 7748 353e 6a34 08be e7a7 c0bd
00000120: 13c1 993d 9f7d 1e3e 0beb 05bd 0614 04be
00000130: acb6 6a3e 00ea 2c3e ed79 5cbd 3397 24be
00000140: 03f3 01be 2899 493e b41c f23d 52b9 2e3d
00000150: 6f1d cb3d e91d 5d3e 03d0 ca3d 7ab6 41bd
00000160: 3944 7e3c bc5b 223e cf35 823c 6dbe c3bc
00000170: 8f93 38bc 1119 cfbd 153d af3d d56f 1bbe
00000180: 2c41 22bd 7c87 333e 8285 3ebd 32d0 eb3d
00000190: aa56 bbbd f392 563e cc52 9a3d 50c0 2b3e
000001a0: c88a 06bd 5134 fe3c 3581 753e 8f4f 10be
000001b0: d094 fb3d 304f 253e 3f0a 1dbd ae28 b73c
000001c0: cd4f 523d a94c 9c3d 46c1 bebc 669a 613e
000001d0: 1a0c c6bd 47b4 b0bd 72a2 c43d 623a 24be
000001e0: edb6 eabc 588d 1fbd 203c 253e a164 e03d
000001f0: 77b7 a3bd 5404 793d f65f 053d 9905 16bd
00000200: 5fd3 19be fab8 17be 2d85 173e 9c10 133d
00000210: 61ce 0ebe 2e99 76bd 97fe 8d3d c099 e73d
00000220: 1e8d 4e3c 9c4e 26be 8de4 c43d e1cc a6bd
00000230: 92fe 103d 4c07 39bd 5cf5 473d a591 80bd
00000240: 826b 96bc ab41 fcbd 0309 4b3d 4ade 923c
00000250: be24 eb3d 1133 19be 9abe b2bc 354f d03b
00000260: e427 f0bd d565 9a3d d618 873c b1fa d53d
00000270: 3743 01be 31ed c5bd 0653 e93d 211e 8d3c
00000280: 4e15 41bd 1297 c03c 9b64 b1bd 9759 dabd
00000290: 2553 29bc aaad babd 6dbb 1abe 479e ac3d
000002a0: f115 2bbd 2be1 0dbe 1300 6c3e 5922 b03d
000002b0: 9dd9 3e3e b1b0 843d 5dd3 12be bd16 0fbd
000002c0: c905 c9bd 733a d1bc 008e 003e f6d1 053e
000002d0: 331d 273e b62b cc3c 1831 793d d4df 04bd
000002e0: 593a 263e 2354 9d3c ac56 023e 7683 1f3e
000002f0: 8561 da3d 0d47 943d 9d45 393d 61fa 2cbe
00000300: d4cb 0f3e 5f8b a6bd 0dc9 32be 6514 be3c
00000310: b9e2 d13d dc29 03be cee3 afbd 3670 1abe
00000320: 3c72 f03d d3ba dcbd 888c 123e 4f74 6d3c
00000330: e31b 33be 10de 4d3d 88a0 3e3c ce62 8b3d
00000340: 3af1 ffbd f92b 933c 7a36 d6bd fa52 bcbb
00000350: 5e14 26be e1c0 46bd d1fd 9c3d b1bf 0d3d
00000360: 42e7 02be 5d98 d8bd 8293 b9bd 8a71 853c
00000370: ca9c 24be 6013 a1bd 69e1 94bd 265a 02be
00000380: 2731 1e3c fd7d e1bd 7226 23be 9ace c9bd
00000390: d1a2 123e 3db1 fd3c 0841 06be 0cea 28be
000003a0: 07a0 0fbe e21f ecbd 1ceb 183d 9f90 cb3c
000003b0: 0c11 a63d 4cf0 ccbd 33d0 d4bd 10d5 bdbd
000003c0: 7fc0 44bd beee 923d 2958 b2bd 9e55 d0bc
000003d0: 26ef d0bd 4c5d b43d 87a5 db3d ea50 f5bd
000003e0: 8929 bf3d ffe4 c5bd 3feb df3c d09c 723c
000003f0: 0ccf 3abc 085a c4bd 96d7 55bc 4b8a d33d

hidden_layers.2.bias f4 [32]
0.051389754 0.048827432 0.101192735 0.113088645 -0.14184275 -0.099831365 0.08082762 -0.102528974
-0.06911091 0.15785186 -0.16850187 -0.062510066 0.15237345 0.04485689 0.12254503 0.0568179
0.12652102 0.16816418 -0.11625542 0.0456881 -0.025679806 0.1621427 -0.17261477 -0.03900584
0.11188786 -0.11990369 -0.031464152 0.17151539 0.1818898 0.18502006 -0.1371782 0.04532229
00000000: 107e 523d 46ff 473d 233e cf3d 059b e73d
00000010: 3a3f 11be 6374 ccbd f488 a53d b6fa d1bd
00000020: 058a 8dbd eba3 213e c18b 2cbe 4705 80bd
00000030: c907 1c3e dcbb 373d e4f8 fa3d e3b9 683d
00000040: ba8e 013e 3b33 2c3e 5217 eebd 7223 3b3d
00000050: 755e d2bc bc08 263e edc1 30be 96c4 1fbd
00000060: 7625 e53d 1190 f5bd 8ee0 00bd bba1 2f3e
00000070: 5241 3a3e e675 3d3e 7178 0cbe dea3 393d

output_layer.weight f4 [2, 32]
-0.036106456 0.08726637 0.15007126 0.1216195 -0.12302042 0.021653844 -0.096343905 -0.04644909
0.022007022 0.20788448 0.16523014 -0.014704917 0.10215353 0.059075255 0.16417079 -0.09657061
0.110529765 0.18741332 0.026187817 -0.02919659 -0.07098592 0.20394765 -0.09369175 0.16154063
-0.13948926 -0.047423992 -0.053962994 0.18204306 0.076806195 0.22777867 0.17926288 -0.007842911
0.12517133 -0.1315267 -0.102364525 -0.08826829 0.03396437 -0.19267166 0.14014192 -0.049318343
0.08426257 -0.16840209 -0.13406788 -0.11422265 -0.1816304 0.043724045 -0.22861134 0.06726494
-0.14270927 0.09857355 0.012685087 -0.12416672 -0.13087963 0.07260297 0.057666473 -0.03427515
0.111589 0.1465054 0.11291802 -0.14111125 -0.24038282 -0.12840647 -0.07183209 -0.05618049
00000000: 5de4 13bd b6b8 b23d 48ac 193e a513 f93d
00000010: 21f2 fbbd 6763 b13c f44f c5bd 6741 3ebd
00000020: 1248 b43c abdf 543e 1732 293e e4ec 70bc
00000030: df35 d13d e5f8 713d 631c 283e d0c6 c5bd
00000040: 6e5d e23d 47e9 3f3e d587 d63c b02d efbc
00000050: 1161 91bd a7d7 503e 76e1 bfbd e86a 253e
00000060: 46d6 0ebe a93f 42bd 4d08 5dbd 7f69 3a3e
00000070: 914c 9d3d d03e 693e b090 373e 8e7f 00bc
00000080: ea2c 003e efae 06be 7ea4 d1bd 01c6 b4bd
00000090: 391e 0b3d b84b 45be 5d81 0f3e 0802 4abd
000000a0: db91 ac3d 9971 2cbe 1749 09be 91ed e9bd
000000b0: 52fd 39be fc17 333d 1719 6abe 33c2 893d
000000c0: 6122 12be eee0 c93d 1cd5 4f3c 1f4b febd
000000d0: 4f05 06be deb0 943d ae33 6c3d 1a64 0cbd
000000e0: c688 e43d 8305 163e 9041 e73d 787f 10be
000000f0: ea26 76be fc7c 03be b41c 93bd 831d 66bd

output_layer.bias f4 [2]
0.06756995 -0.20386685
00000000: 1d62 8a3d 79c2 50be
