synthetic_flows_raw/saved_models/phi_only_0.5.pt (torch, 16963 bytes, 10 tensors)

input_layer.weight f4 [32, 3]
000000 51 47 e8 3e aa e9 46 3c f4 9a 9d 3e 04 39 a8 be
       0.4536691 0.012140671 0.30782282 -0.32856
000010 0d 12 e3 be f7 25 53 be e4 da 10 bf 0e cd c7 3e
       -0.4434971 -0.20619951 -0.56584 0.39023632
000020 3a ed 14 bf 83 a0 55 be 84 e0 08 3e 3e 78 3c 3e
       -0.5817448 -0.20862012 0.13366896 0.18405244
000030 bc 90 6e be 32 50 0e 3f 08 03 9b 3e 90 92 87 be
       -0.232974 0.5559112 0.3027575 -0.26479006
000040 99 3a c1 3e 4a a8 6b be 1d 07 17 bf b9 07 b7 3e
       0.3774002 -0.23013416 -0.5899523 0.3574808
000050 62 13 f9 bd a8 bb 5b 3e 34 3e 0b bf e4 0b 5b 3d
       -0.121619 0.21458304 -0.5439179 0.053478137
000060 48 9a 7d be 15 fa 75 3d c1 12 ea be 80 ba 05 bf
       -0.24765885 0.06005295 -0.45717433 -0.522377
000070 13 e7 c7 be 3f f1 e8 3e 1b 28 c1 3e 49 9e ec 3e
       -0.39043483 0.45496556 0.3772591 0.46214512
000080 a9 4a f2 be cf 9d 3d be 78 05 1d bd f8 0a 04 3f
       -0.47322586 -0.1851723 -0.038335294 0.51579237
000090 2d 05 3f 3e ef 89 fb 3e 66 d5 42 be 42 6f 3c bc
       0.18654318 0.49128672 -0.19026718 -0.011501135
0000a0 a5 da d3 3e 4a 53 0c 3e 3e 48 ea bd 8c 8a 62 3d
       0.4137775 0.13703647 -0.1143956 0.05530791
0000b0 eb 94 f6 3e 7f 2a 2c 3d 08 24 05 bd cf be 1d be
       0.4816049 0.042032715 -0.032505065 -0.15404819
0000c0 cc cc a6 be ab 2c 00 bf 7b fb e2 3d 16 7f dc be
       -0.32578123 -0.5006816 0.11083122 -0.4306571
0000d0 d1 b7 3c 3d 3a 4a 70 be 33 6e 86 3e 48 d5 6e be
       0.04607374 -0.23465815 0.2625595 -0.23323548
0000e0 0a b0 ba 3e f4 c8 98 3e eb 4e 91 bc 07 e0 75 be
       0.36462432 0.29840815 -0.017737826 -0.24011241
0000f0 25 16 d9 3e 6f 2e bc be 05 d8 08 3f d0 d1 13 bb
       0.42399707 -0.36754176 0.5345462 -0.0022555478
000100 eb 24 25 be ff 6f 0f 3d e9 ca 01 3f d6 c9 22 3e
       -0.16127364 0.035018917 0.5070024 0.15897307
000110 33 9c 1f bd 4c 42 ec 3e b3 be 01 3f 1d df 07 3f
       -0.038967323 0.4614433 0.5068161 0.5307482
000120 f4 2d 55 be cf 69 31 3e f5 9a 76 3e c0 7b b1 3e
       -0.20818311 0.17325519 0.24082549 0.34664726
000130 1d 52 e0 bd c4 37 0d 3f 9d e9 a7 bc a9 07 84 3e
       -0.10953162 0.55163217 -0.020497138 0.25787094
000140 b8 cc 02 3f 0f d9 57 be b3 49 03 bf e1 a5 9b bd
       0.51093626 -0.21078895 -0.5128433 -0.07599998
000150 73 68 d2 3e c5 54 e6 be 30 a9 56 3e 25 f0 71 be
       0.41095313 -0.4498655 0.20962977 -0.23626764
000160 0a ee e4 3c 06 7e e5 be d0 d8 f1 bd dd 7a 89 be
       0.027945537 -0.4482271 -0.11808932 -0.2685155
000170 3b aa a3 be 0b ac 8b 3e 85 9a 1c 3d b4 c2 87 3e
       -0.31965813 0.27279696 0.0382333 0.26515734

input_layer.bias f4 [32]
000000 3b 34 7f be 20 84 1d bd 7d 8f 82 3e fc 9c 55 3e
       -0.24922268 -0.038456082 0.25500098 0.20860666
000010 22 81 81 3e ae 45 d8 be a6 d1 9a be e5 bc a2 3e
       0.25293833 -0.4224066 -0.30238074 0.3178474
000020 d2 7b c2 be 3c 97 15 3e 7b 29 09 3f 12 f1 39 be
       -0.37985092 0.14608473 0.5357892 -0.18158367
000030 15 68 e1 be f0 c0 a3 be 79 0c d8 3e 6b 0d b4 3e
       -0.4402472 -0.31983137 0.42197016 0.35166487
000040 4c 6d d9 be 24 61 2b be 19 16 19 3f a1 d7 d1 be
       -0.424662 -0.16736275 0.59799343 -0.40984824
000050 6b 7f 26 3f b3 d7 cf 3e 96 22 b0 be 2a 81 09 be
       0.65038174 0.40594253 -0.34401387 -0.13428178
000060 8d 02 64 3e 58 d8 01 3e 18 9e 84 be a8 c6 65 be
       0.22266598 0.12680185 -0.25901866 -0.22439063
000070 bb 29 11 bf 60 18 83 be 6f 45 07 3e 3a 67 f7 be
       -0.567043 -0.25604534 0.1321008 -0.48320943

hidden_layers.0.weight f4 [32, 32]
000000 6c 68 fa bd a1 b1 38 be 8f a9 6a 3d b9 f0 4b 3c
       -0.12226948 -0.1803651 0.05729061 0.0124475295
000010 3c 0b 8f bd df e0 a6 3d 7e f8 af 3d 4f 2f 4a 3d
       -0.06984565 0.081483595 0.08592318 0.049361523
000020 ad f7 8f 3d 99 12 36 be 99 3b be bd 35 f1 c4 bc
       0.07029662 -0.17780532 -0.09288711 -0.024040798
000030 52 1b 6b 3d 57 a7 3e bd ad c5 25 be 02 50 9c 3d
       0.0573991 -0.046546306 -0.16188689 0.07632448
000040 e5 d0 12 be a3 17 02 3e 71 40 96 bc 3d 0b 58 3d
       -0.143375 0.12704329 -0.018341275 0.052745093
000050 43 49 f0 3d 40 b1 d2 bd 93 66 e1 bd f1 08 6e bd
       0.117327236 -0.10287714 -0.110058926 -0.058113996
000060 95 f9 19 3c d6 59 50 3d 50 54 b9 3c 38 e4 fa bd
       0.009397884 0.050866924 0.022623211 -0.122505605
000070 69 f6 1f bd fd 06 2b 3d 12 10 3d be 34 9e 0e be
       -0.039053354 0.04175471 -0.18463162 -0.13927537
000080 dd 04 09 3d ef ed bb 3d 0d 77 eb bd 11 8a 6f 3d
       0.033451904 0.091762416 -0.114973165 0.05848128
000090 ef 19 03 be 1c c4 15 3e 0a 89 05 3e 75 ca 41 3e
       -0.12802862 0.14625591 0.13040558 0.18924887
0000a0 0e 17 84 3d 5e ba c3 bd b8 a8 a1 3d 44 78 cb 3d
       0.0644971 -0.09557031 0.07893509 0.09935048
0000b0 b1 8a 68 bd c2 f2 1f 3e 4f ef 35 3d 9e 73 e8 bd
       -0.05677289 0.15619949 0.044417676 -0.11350177
0000c0 dc 15 b7 bd d3 9d be 3d e6 f9 cd ba 72 3c 54 3d
       -0.08939716 0.09307446 -0.0015714734 0.051815458
0000d0 59 e2 32 3e 27 5f b2 3d 41 55 21 be 7d 93 23 3e
       0.17469157 0.08709555 -0.15755178 0.15974231
0000e0 b5 9b 48 3e d7 52 06 be d0 d1 b2 bd 3a cb cc 3d
       0.19590648 -0.13117538 -0.08731425 0.099997
0000f0 08 af 72 bd 67 c0 13 3e 6a ee 71 bd 8f 86 4b 3d
       -0.059248954 0.14428864 -0.05906526 0.049688872
000100 08 49 18 3e 9f a5 05 3e 18 7c b8 3d 25 07 3f be
       0.14871609 0.1305146 0.09008044 -0.18655069
000110 44 f0 64 3d 6b 2f 64 bd 2c 8c f6 bd 88 2d 08 3e
       0.055893198 -0.055709284 -0.120384544 0.13298619
000120 cb 00 da bd 7c 25 cf bd ac 01 42 bd e0 fe 03 3e
       -0.106446825 -0.101145715 -0.047364876 0.12890196
000130 77 0f 31 3e 97 52 92 bd bc db 86 bd 16 de 1a 3e
       0.17291056 -0.07144659 -0.0658488 0.15123782
000140 7e e6 d9 3d 0b 3d c0 bc f3 c1 5d 3d b8 44 1f be
       0.10639666 -0.023466608 0.054140043 -0.15553558
000150 ff 19 d8 bd 47 25 2b be 7c 03 8f 3d 0b d8 18 be
       -0.10551833 -0.16713439 0.069830865 -0.14926164
000160 c4 be 92 3d 76 8a 1f 3e 5b 64 6f 3c a1 0b a6 3d
       0.07165292 0.15580162 0.014611329 0.08107687
000170 39 db eb 3a a9 22 10 be 5b 0f ae bd 66 a6 f6 bd
       0.0017994411 -0.14075722 -0.084990226 -0.12043457
000180 74 fe ba bd 0e e6 65 bd 7a 3e 8b bc 29 21 0d be
       -0.09130564 -0.0561276 -0.016997565 -0.13782181
000190 39 d0 9d bc d8 51 eb 3d 64 25 94 bc 23 82 0b 3e
       -0.019264327 0.1149022 -0.018084235 0.13623862
0001a0 fa 03 47 3d 79 95 49 3c 96 3a db bd 87 7e a7 bc
       0.048587777 0.012303703 -0.10704534 -0.020446075
0001b0 62 f0 c8 3d 46 f7 a7 3d 31 14 a8 bd 07 ba 01 3e
       0.098114744 0.082014605 -0.08206976 0.1266862
0001c0 ee 6e f6 3d ac ae 35 3d 86 08 3e be 49 76 4d bb
       0.12032877 0.044356033 -0.18557939 -0.003135102
0001d0 8e 88 7e 3d 03 a9 b1 3d 76 df 16 3e 41 30 06 be
       0.062141947 0.086748146 0.14733681 -0.13104345
0001e0 f3 1a d4 bc b5 5e 02 3e 25 3c b8 bd ee da 06 3e
       -0.025891757 0.1273144 -0.08995847 0.13169453
0001f0 4c ed 09 3e f2 e4 29 3a 22 fb 9b bd 2e 23 22 3e
       0.13469428 0.0006480954 -0.07616259 0.15833732
000200 98 cd 26 3e 7f 33 6c bc 36 a8 a5 3d c7 e1 d8 3d
       0.16289365 -0.0144165745 0.08088724 0.105899386
000210 e2 8d 64 3d 21 cc 34 3d 14 f4 25 3e eb 3b ac 3d
       0.055799372 0.044139985 0.1620639 0.08409866
000220 f5 45 0e 3e 76 a2 38 be 8d 30 2e be 67 39 25 3d
       0.13893874 -0.18030724 -0.17010708 0.040337946
000230 d9 90 98 3d 4c a1 1d be 6b 6b 2d 3e 6a 45 93 3d
       0.074495025 -0.15393561 0.16935508 0.07190974
000240 90 d2 bc 3d e0 9e 01 3e 79 99 f0 3d 2a 9c 97 3d
       0.09219849 0.12658262 0.117480226 0.07402833
000250 ac 83 22 be f0 87 a5 3d cd 26 db 3d 36 a8 e9 bd
       -0.15870541 0.08082569 0.1070076 -0.11409037
000260 bf 18 02 be b9 f9 78 bd 6e bd 1b 3c b6 fb b9 3d
       -0.12704752 -0.06078503 0.009505613 0.09081213
000270 45 dc e2 bc 57 a3 0e be 2f 64 96 bd dc 5d 01 be
       -0.027692923 -0.13929497 -0.07343327 -0.12633461
000280 d0 75 9d bb 30 e1 e4 3d 05 3f 61 bd 6c ac 54 bd
       -0.004805304 0.111757636 -0.05499174 -0.051922247
000290 e6 89 c7 bc 60 48 f1 3d 81 34 a5 bd 16 f9 15 3e
       -0.024357747 0.117813826 -0.08066655 0.146458
0002a0 dc 92 96 bd 4f bf f8 bd d0 05 ce 3d 55 68 05 3e
       -0.0735223 -0.12145864 0.100597024 0.13028081
0002b0 02 1d 91 3d 39 05 92 3d b9 53 f0 3c df 69 08 3d
       0.07085611 0.071299024 0.029336797 0.03330409
0002c0 67 37 ff 3d c8 09 75 3c 42 a5 59 3e 2d c8 04 3e
       0.12461739 0.014955945 0.21254447 0.12966986
0002d0 59 f9 0f 3e e3 80 5d 3e 77 2e e5 3d de 82 09 be
       0.14059962 0.21631198 0.11190503 -0.13428828
0002e0 67 35 14 bb 8e 10 56 3d e5 66 d7 3d b4 1a d5 bd
       -0.0022614838 0.05226188 0.105176724 -0.10405484
0002f0 7f b6 67 3d a6 43 dc bc 6a 4c 09 3e 1f b8 41 bd
       0.056570526 -0.026887726 0.13408056 -0.047294732
000300 5a 31 a4 bd 6f 17 dd 3c b1 1e 64 3e b0 42 24 3e
       -0.080172256 0.026988713 0.22277333 0.16041064
000310 7c 86 00 3e c6 26 19 3e 3f 1e 02 be 4c bb 02 bd
       0.12551302 0.14956197 -0.1270685 -0.0319169
000320 ca 48 ee 3c b2 e0 49 bd 2e 27 0e bd 92 77 94 bd
       0.029087443 -0.04928655 -0.034705333 -0.07249369
000330 ee 94 1c 3e 4b 3a c2 bd 12 f1 ec 3d c8 28 da 3c
       0.15291187 -0.09483775 0.11569418 0.026630774
000340 57 b6 9c bd 27 a6 4c 3c 10 fa 16 3d df 0d ba bc
       -0.07651966 0.012490786 0.036859572 -0.022711692
000350 c4 ab 0c 3e 5f c1 46 3d 90 ba 8f bd 59 d2 e6 bd
       0.13737398 0.048524257 -0.07018006 -0.112705894
000360 e1 3e 12 3d 2c c4 27 bd 8f e9 be 3c 2b d2 d7 3c
       0.035704497 -0.04095857 0.023304729 0.026345333
000370 94 64 f8 3d 29 d5 1c 3e 37 f1 28 3d 83 99 53 3d
       0.12128559 0.15315689 0.041245665 0.051660072
000380 db 34 1e bd bd 2b 7a bd 97 7e 12 3c 8e 4e 4a 3e
       -0.038624626 -0.06107687 0.008941314 0.19756529
000390 9c b9 13 bd 19 d9 39 3c 95 ee e7 3b 1d c1 85 bd
       -0.036065683 0.011343264 0.0070780017 -0.06530974
0003a0 53 8c 93 bc 9f f9 35 3e ed 59 58 3e 0c db ed 3d
       -0.018011248 0.17771004 0.21128054 0.116140455
0003b0 98 cf ec bc f1 e9 08 be 1e 84 07 bc c9 ef 63 3d
       -0.028907582 -0.13370492 -0.008271245 0.0556486
0003c0 b0 80 d1 bd df 7a 4b bd 34 99 22 3e b1 a1 32 3d
       -0.10229623 -0.049677726 0.15878755 0.043611232
0003d0 cc 2f 4b 3e a9 a1 17 3e d6 01 a2 bb 54 1b 56 bd
       0.19842452 0.14807762 -0.0049440665 -0.052272156
0003e0 85 03 5e 3e e7 b2 aa bd cd f0 c9 bc d6 9a 19 be
       0.2168103 -0.08334904 -0.024650956 -0.15000471
0003f0 22 e0 f5 bd be d0 33 3e 5d cf 44 3e ae 59 12 be
       -0.120056406 0.17560098 0.19219728 -0.14292023

hidden_layers.0.bias f4 [32]
000000 2b df 47 bd 04 44 12 3e e7 47 82 3c 92 8c b3 bd
       -0.048796814 0.14283758 0.015903426 -0.08767046
000010 09 e4 fc bd 67 70 d7 3d d7 dd 25 3e f1 64 33 3e
       -0.12348182 0.10519486 0.16197906 0.17518975
000020 6a 6c 4a 3e 70 d2 12 bd 39 3e 8a bd 8a 0e 41 3e
       0.19767919 -0.03584522 -0.06750149 0.18853202
000030 6a b4 43 3e 83 1e 27 3e c6 00 2f 3e dd 99 6c 3e
       0.19111791 0.16320233 0.17090139 0.23105569
000040 4d c8 a4 bd 95 1e c5 3c 4e 7a 65 3d 71 3b 72 bc
       -0.08046017 0.024062434 0.056024842 -0.01478468
000050 a8 9d 08 be bb 51 24 3e 15 ce 92 bd bd ab 6a 3e
       -0.13341391 0.16046803 -0.07168213 0.22917075
000060 b7 37 f8 3c f8 01 6b bc 07 2c 8f bd f9 7e 2a bd
       0.030300004 -0.014343731 -0.069908194 -0.041624997
000070 bd 15 2b 3e f0 a6 e1 3d 62 18 9a 3d cf 60 35 3e
       0.16707511 0.11018169 0.07524182 0.17712711

hidden_layers.1.weight f4 [32, 32]
000000 70 bc c2 3d 4a 16 61 3d c0 73 1a be 0e 65 c5 3a
       0.09508598 0.054952897 -0.15083218 0.0015060024
000010 05 92 e8 3c 7e cd bb 3d 6f a9 73 bd 20 c1 12 3e
       0.02838994 0.09170054 -0.059487756 0.14331484
000020 9d cc 40 3e 96 20 04 3e 55 98 eb bb ac 5f c4 3d
       0.18828054 0.12903056 -0.0071897903 0.095885605
000030 4a f0 3b 3e 5c fe fa 3d a0 7d 5f bc e8 53 bd 3d
       0.18353382 0.122555465 -0.013640791 0.092445195
000040 00 68 a4 bd 9d ec 46 3e b4 d0 19 3e 31 c8 3d 3e
       -0.08027649 0.19426198 0.1502102 0.18533398
000050 b9 29 1e be 99 c4 cc 3d 77 cd c7 bd f0 b2 95 3d
       -0.15445603 0.099984355 -0.09755986 0.0730952
000060 19 78 b4 3d d3 ec 2f 3d c8 ab 31 bd f4 a8 03 3d
       0.08811969 0.042950463 -0.043376714 0.032143548
000070 ff 2b 1a 3d 4d 4f e7 bc 78 91 a6 3d 44 b2 50 3e
       0.037639614 -0.028236056 0.08133215 0.20380503
000080 bc 61 e3 3d c2 89 3f 3d a9 3e 09 be 52 bd b0 bd
       0.11102626 0.046762235 -0.13402809 -0.0862986
000090 eb e1 d6 3d 2d 61 32 3d e8 e2 55 3e e0 d0 57 bd
       0.10492309 0.043549705 0.20887339 -0.052689433
0000a0 dd 43 77 3e 63 2b c8 3d 35 28 37 3e 57 a6 a6 bc
       0.24146982 0.097739 0.17886432 -0.020342989
0000b0 5b 93 16 3e 9e 19 e0 bc fc 28 d7 3d fd 00 a9 bd
       0.14704649 -0.027355965 0.10505864 -0.082521416
0000c0 2d fa 22 3e f6 1e 77 3c f2 80 96 bd 7a 9d 4a bc
       0.15915747 0.015083065 -0.07348813 -0.012366647
0000d0 9f f6 ab bd fd 0f 4c 3e f3 15 99 bd fd 3a 1d 3e
       -0.083966486 0.19927974 -0.074748896 0.15354533
0000e0 be 41 65 3d 60 70 5d 3d cf 23 01 be 7b cf f1 3d
       0.0559709 0.054062247 -0.12611316 0.11807152
0000f0 0e 86 3f 3e 8f c1 34 3d 6f 30 d0 3d ed f5 4b 3e
       0.18703482 0.044129904 0.10165488 0.19918032
000100 7c 34 f7 3d 8a 4c cd 3d 01 47 3a 3d 27 6e 13 be
       0.120705575 0.10024364 0.04547787 -0.14397489
000110 b7 28 e6 3d 20 f6 cd bc a1 bc 21 bc dc 6b 06 be
       0.112382345 -0.025141776 -0.009871633 -0.13127083
000120 bb e7 fb bd 40 4c c1 bd 4d 2e 04 3e 3b 93 3f bd
       -0.123000585 -0.09438372 0.12908287 -0.04677127
000130 75 72 26 3e 35 b9 8d bd 08 33 ca 3d 98 5d 8a 3c
       0.162546 -0.06920091 0.09873015 0.016890332
000140 62 eb 32 be 92 97 4d bd f7 a7 21 be bd 66 9e 3d
       -0.17472604 -0.050193377 -0.1578673 0.077344395
000150 6a f4 81 3d f6 9f 9b 3c da b3 4b 3d ec 54 5b bd
       0.063454464 0.018997174 0.049732067 -0.053547785
000160 4d 5a e5 3d 28 fa 94 bb a8 8a 1c be 85 cf 4f 3d
       0.11198864 -0.0045464225 -0.15287268 0.050735015
000170 c5 3c 16 be 03 7c ac bd 4c 84 3e be 95 cb 11 be
       -0.14671619 -0.08422091 -0.18605155 -0.14237817
000180 0f c1 32 bc 2b da 48 3e dd 9b a6 bd d3 64 a2 bd
       -0.010910287 0.19614474 -0.08135197 -0.07929387
000190 36 df 06 3d c0 d6 60 3e 6e a3 34 3e 48 16 0c 3e
       0.032927714 0.2195692 0.17640468 0.13680375
0001a0 cf 90 99 3c 56 c3 34 3e cd 45 cc 3b 38 2e e5 bb
       0.018745808 0.1765264 0.006233907 -0.006994035
0001b0 ff 95 bc 3d da 9b f9 3d f2 4f e4 bb d3 81 4c 3e
       0.09208297 0.121879295 -0.006967538 0.19971399
0001c0 31 e0 d1 bd a5 60 b8 bd a7 16 c3 bb 86 e4 b3 3d
       -0.10247839 -0.090028085 -0.005953628 0.08783822
0001d0 93 70 bb bc fd e2 7f bd 22 ab 94 3d c1 3a 50 3e
       -0.022880828 -0.062472332 0.072592035 0.20334913
0001e0 69 31 d9 3d ac 10 a6 3d b5 ad 01 3e 3c 30 51 bd
       0.10605127 0.08108649 0.1266392 -0.05107139
0001f0 2a 24 f1 bc c5 a6 2b be de 58 e0 3d df 83 37 3e
       -0.02943619 -0.16762836 0.1095445 0.17921399
000200 78 62 06 be b6 8b ce 3d f8 3e 0c 3d 29 43 0e bd
       -0.131235 0.100852415 0.03423974 -0.034732018
000210 0c 53 16 3c 63 e8 32 3d de fc 0d 3d b7 1e b5 bc
       0.009175073 0.043678652 0.03466498 -0.022109373
000220 aa 41 da bd 3f 7d b1 3d 2b 6d 1f be 81 32 69 bd
       -0.10657056 0.08666467 -0.15568988 -0.05693293
000230 99 00 f2 3d be 2a 02 be e3 fe 14 bd 94 8f bf 3c
       0.1181652 -0.12711617 -0.03637589 0.023383893
000240 4f 99 ea bd ca 81 82 3d 30 f3 6a bd 57 54 be bc
       -0.114550225 0.063724115 -0.057360828 -0.023233576
000250 58 f9 89 bd e0 4c 1c 3d b4 e1 c9 bd d6 f3 79 3d
       -0.06737012 0.03815925 -0.098575026 0.061023556
000260 3a 07 f0 bd 3d 6e a1 3c 8f 3f b8 ba 6a af cd bd
       -0.11720128 0.019705886 -0.0014057028 -0.10043223
000270 bc b9 d1 3c da 94 ba 3d 0d 50 da bd 3a 3d 15 be
       0.02560126 0.091104224 -0.106598 -0.14574137
000280 79 56 8e 3c 96 ef 2d 3e 3a e5 30 3e 98 b7 17 3d
       0.017375218 0.16985926 0.17274943 0.037040323
000290 61 5a 8f bd 11 af d4 bd 2c 88 09 3d fb 6c 1d be
       -0.0699966 -0.10384954 0.03357713 -0.15373604
0002a0 00 39 c8 3d 7e 9d 51 bd 7c 87 e9 bd 88 95 fa bd
       0.09776497 -0.051175587 -0.11402795 -0.12235552
0002b0 ea 9f d6 3b 39 cf e7 bc 62 97 81 3d 95 0b 20 be
       0.006549825 -0.028297054 0.06327702 -0.15629418
0002c0 51 fe d6 bd 74 7c 2f 3e e1 de cc bd e3 77 5a bd
       -0.10497726 0.17137319 -0.10003448 -0.05333699
0002d0 52 ab 0d 3e a9 18 fd 3d 09 be b5 bb 11 84 1c be
       0.13834885 0.12358219 -0.0055463356 -0.15284754
0002e0 f7 52 f8 bd 3f 8d 8f bd 40 a7 57 bd 4e e7 bb bb
       -0.12125199 -0.070093624 -0.052649736 -0.005734361
0002f0 89 7b 1a be 86 4a 4c bd 97 ae 0a be d9 1f 1d bd
       -0.15086187 -0.04987576 -0.13543163 -0.03836045
000300 d1 59 a8 bd 95 f9 e6 3d 5b 3a 90 bd 98 d5 ac 3d
       -0.08220256 0.11278073 -0.070423804 0.08439177
000310 ab 2d 0c 3e e1 5e 1d bc 23 a2 13 be db 3a fe 3d
       0.13689296 -0.00960514 -0.14417319 0.124135695
000320 95 70 b4 bd dd 1d 91 bd 41 bb a1 3c e4 f3 b6 3d
       -0.08810536 -0.07085774 0.01974261 0.08933237
000330 ff 42 ca bc f5 01 b1 3d a6 e8 19 3e 7b b1 ea bd
       -0.02469015 0.086429514 0.15030155 -0.11459633
000340 97 b6 52 bd e0 68 05 bd ce 18 33 bd 8e 62 63 bd
       -0.051443662 -0.03257072 -0.043724827 -0.05551391
000350 86 51 9a bd 92 72 45 3c 90 76 33 bd 14 a3 25 bd
       -0.075350806 0.0120512415 -0.043814242 -0.040438727
000360 8c c5 11 3c e3 5b 23 3c 02 a7 83 3d b3 0d c4 bd
       0.0088971965 0.009970638 0.064283386 -0.095729254
000370 b9 fd b2 bd a5 b6 23 be c6 66 1a be 72 33 e7 bd
       -0.087398 -0.15987642 -0.15078267 -0.11289109
000380 13 55 01 3e 51 0c 41 3e 73 13 20 be f3 68 9a bd
       0.1263011 0.18852355 -0.1563242 -0.07539549
000390 62 ba e3 3d ef 81 07 bd 0e c5 c3 3b 70 18 3f 3e
       0.11119534 -0.0330829 0.0059744185 0.18661666
0003a0 85 e2 53 bd cd 99 1a be 00 e0 ca 3b 38 25 55 bd
       -0.051729698 -0.15097733 0.0061912537 -0.052037448
0003b0 0d dd ff 3d f5 8a 53 3e 2f e6 78 3e 4b d8 37 3e
       0.12493334 0.20658477 0.24306558 0.17953603
0003c0 0b af a2 bc 7e 47 6c 3e 34 31 ef bd 92 fc 03 bd
       -0.019858858 0.23074147 -0.116793066 -0.03222329
0003d0 5d 3a da 3d 06 b2 d6 3d b8 c5 1a be 47 97 41 3e
       0.10655663 0.10483174 -0.15114486 0.18905364
0003e0 0b c9 1c 3e fe 72 1e 3e 68 36 28 be 5f 71 2e 3e
       0.15311067 0.15473554 -0.16427004 0.17035435
0003f0 86 eb e0 3d 1b b8 df 3d f5 24 49 3e fa e3 55 3e
       0.109824225 0.10923787 0.19643004 0.20887747

hidden_layers.1.bias f4 [32]
000000 1d 5c 38 3e b7 79 56 3c 8b 26 7f 3c d8 08 70 3e
       0.18003888 0.0130905425 0.015573154 0.23440874
000010 d3 cd 16 be 58 3f 90 bd 43 8d 54 bd 7b bd 1e 3e
       -0.14726953 -0.07043332 -0.05189253 0.15501969
000020 34 98 4f 3e 74 6a a9 3d 0a e4 31 3e e4 ad 0f 3e
       0.20272905 0.082722574 0.17372146 0.14031178
000030 78 6a 75 3e 05 66 0d 3e 01 2f 49 3e c9 88 49 3e
       0.23966396 0.13808449 0.19646837 0.19681086
000040 f2 d7 0d be 19 e7 45 3e a3 7c 0b 3e b8 b6 33 3d
       -0.13851908 0.19326438 0.13621764 0.043875426
000050 ec 75 fa bc 19 ee 21 3e ec 86 32 be 04 73 66 3e
       -0.030573808 0.15813483 -0.17434281 0.22504812
000060 6e 9d f6 bc b9 82 33 be 3c de 06 be d6 a4 43 3e
       -0.030104365 -0.17530335 -0.13170713 0.19105849
000070 ff 51 6a 3e 61 1c 23 be 93 dd 85 bd 06 24 1e be
       0.22882842 -0.15928794 -0.065364026 -0.1544343

hidden_layers.2.weight f4 [32, 32]
000000 4a af 64 3e af 70 50 3e af fd 10 bd 83 ad 43 bc
       0.22332492 0.20355485 -0.03539818 -0.011943224
000010 ef 42 22 be 61 c0 25 3e 6f 6f 5c bd c9 bb 2b 3e
       -0.15845846 0.16186668 -0.05381721 0.16770853
000020 62 ae 32 3e 3e be 07 3e 35 9c e2 3d 65 dd e8 3d
       0.17449334 0.13256165 0.110649504 0.11370353
000030 6f ca c0 3d d2 1b 50 3e ee 3f 34 3e 47 c6 8b 3d
       0.09413611 0.20323113 0.17602512 0.06824928
000040 4a df d2 bd b4 2d c3 3d 81 95 09 3e 2c fd ca 3d
       -0.10296495 0.095302016 0.13435937 0.0991157
000050 6e 7c bf 3d ba 3c ec 3c 37 10 93 bd 3a 64 bd 3d
       0.09349905 0.02883755 -0.07180827 0.09247632
000060 fd 5d 59 3e fd b8 2f 3e 43 4e b8 bd ad 53 fb 3c
       0.2122726 0.17160411 -0.08999302 0.030679548
000070 15 99 36 3e b4 68 19 be 76 be f3 bb 3c 15 30 3e
       0.17831834 -0.14981347 -0.007438476 0.171956
000080 ea 1e 9c 3d f4 66 18 be c8 ad b2 b8 ef 7a d9 3d
       0.07623084 -0.14883024 -8.520071e-05 0.10619151
000090 1d ee cb bd 7f 38 1c be 43 18 ad 3d 58 69 08 be
       -0.09957526 -0.15255927 0.08451893 -0.13321435
0000a0 b6 9c 8d 3d 72 55 e1 bd 6d 95 0e 3e fc c4 9b bd
       0.06914656 -0.110026255 0.13924189 -0.07605931
0000b0 c5 b8 03 3e 9d 35 da 3a ae 8e c7 3b 2c a7 9a bc
       0.12863453 0.0016648058 0.006090007 -0.018878542
0000c0 af 7e 16 3e d3 a1 1a be a5 c5 f2 bd 3a fe c5 bd
       0.14696763 -0.15100794 -0.11854104 -0.096676305
0000d0 33 e2 7e bd 8a d9 88 3d 8e 53 34 3e 70 70 ec bd
       -0.06222744 0.06682117 0.17609999 -0.11544883
0000e0 fa f7 00 be ad 0a 1f 3c 53 24 07 3d fb af f7 3d
       -0.12594596 0.009707135 0.032993626 0.120941125
0000f0 55 13 01 be 28 2c 7b bd cf 1f b3 3d d4 22 e7 bd
       -0.12605031 -0.061321408 0.087463014 -0.1128594
000100 8b e0 4d 3d fa e4 b5 bd f3 67 f9 bd 30 6d e4 bd
       0.05026297 -0.088815644 -0.1217803 -0.11153638
000110 b3 0a 8e 3d a2 7a 21 be 34 36 06 be 9d fb 98 bd
       0.069356345 -0.15769437 -0.13106614 -0.074698664
000120 8f 71 03 3e f2 a9 c1 bc 1e 1b ee bd 19 01 d5 3d
       0.12836288 -0.023640607 -0.11626266 0.104006
000130 c8 6e ae 3d ca ef 13 3e cd c0 e3 3c 90 0f b3 bd
       0.085172236 0.14446941 0.027801896 -0.08743203
000140 4c 38 8c bd 5e f5 5d 3b db fb ca bd 2d ca 2c 3c
       -0.06846675 0.0033868174 -0.09911319 0.010546249
000150 07 ff 1e 3e 54 3d 5e bd 3a 1b c5 3d 4b b7 87 bd
       0.15526973 -0.054257706 0.09624334 -0.06626757
000160 fc b6 25 3e 0a e3 97 bd e2 72 fa bd 2c 8c 05 bd
       0.16183084 -0.07416351 -0.122289434 -0.03260438
000170 76 ff 3c be 94 ae 66 3d a9 7e df bc 74 7e 99 bd
       -0.18456826 0.056318834 -0.027282076 -0.07494822
000180 93 9a c5 3c cc 04 23 3e 37 a9 04 be 11 75 a1 3d
       0.024121558 0.15919799 -0.12955175 0.07883657
000190 7b cb d9 3d f6 17 4a bd 4c 1b 32 bd 13 5f 6e 3e
       0.10634514 -0.049339257 -0.043483064 0.23278455
0001a0 a6 5a a6 bd 39 e9 e6 3c de d0 73 3e ac d5 3f 3e
       -0.081227586 0.028187381 0.23810145 0.18733853
0001b0 eb 91 63 3e 10 57 26 3e b7 85 fe 3d 0a 05 c7 3d
       0.22223632 0.16244149 0.12427848 0.09717758
0001c0 57 fb 28 be ea ff 16 3e 6b 96 71 3e 26 67 79 bd
       -0.16502129 0.14746061 0.23592536 -0.060889386
0001d0 30 73 03 be d3 00 84 3e 10 d1 22 3e 02 f4 0c bc
       -0.1283691 0.2578188 0.15900064 -0.008603098
0001e0 47 32 9b bd d4 7a 55 bd 78 46 c7 3d b7 7a c1 3d
       -0.07577949 -0.05211909 0.09730238 0.09447234
0001f0 93 77 44 3e 96 ae c5 bc dc b9 0a be 90 02 5f 3c
       0.19186239 -0.0241311 -0.13547462 0.013611451
000200 73 4b 23 be 1f 39 1c bd 6f 8e 68 bd 50 03 07 be
       -0.1594675 -0.038140412 -0.05677646 -0.13184857
000210 39 98 90 bd 4c 90 27 3e 8c e7 7a bd d0 81 18 be
       -0.07060284 0.16363639 -0.061255977 -0.1489327
000220 c1 9a 1e be c2 9a f0 bd 0e 71 09 be f1 7e 8e 3d
       -0.15488721 -0.11748268 -0.13422033 0.06957806
000230 d8 46 bf bd 2a 23 7b bd 52 77 92 3d bc 60 ac bd
       -0.09339684 -0.061312832 0.07151665 -0.08416888
000240 d8 bf 3a bd 5d d0 37 bd 48 3b 26 3e 95 5d 82 3c
       -0.045593113 -0.044876445 0.16233552 0.015913764
000250 56 6f 1e 3e dd ed 24 3e ae 1c ad bc 7a 35 bd bd
       0.15472159 0.16106363 -0.02113184 -0.092387155
000260 f9 08 e3 bd 85 ec e9 3d 51 39 2b 3e 63 fd 57 3d
       -0.11085696 0.11422066 0.16721083 0.052731883
000270 b6 11 e1 3b 77 9e 85 bc 65 ba fb bd 17 28 33 be
       0.0068685664 -0.016310913 -0.12291411 -0.17495762
000280 90 5c 2f 3e ff a0 29 be 7f 28 ba 3d 35 79 90 3c
       0.17125154 -0.16565321 0.09089755 0.017635921
000290 b6 bb d7 bd 17 83 ca bd 4b 9b a3 3d 63 b1 9c 3d
       -0.1053385 -0.09888285 0.07988604 0.07651021
0002a0 ba 14 fa 3d 1b 7c 5a bd 6a ae 11 3e fa 5b f4 bd
       0.122109845 -0.053341012 0.1422669 -0.11931606
0002b0 ff df 6f 3d 22 83 d2 3d 85 da 7b 3d 11 c8 20 3e
       0.05856323 0.10278918 0.061487693 0.1570132
0002c0 d4 ce c4 bd 39 2b d8 3d ab 61 5f 3d 83 54 05 be
       -0.09609762 0.10555119 0.054536503 -0.1302052
0002d0 69 14 20 3e ec 1c e8 bd f5 6a 13 3d bd 7c c5 bd
       0.15632786 -0.113336414 0.035990674 -0.096429326
0002e0 c4 cf 18 3e b5 30 8d bd 06 c2 11 3c b8 1a ee 3d
       0.14923006 -0.06894056 0.008896356 0.1162619
0002f0 cd 3f 0f be f3 6a 12 be c7 59 d7 bd 70 9c 29 be
       -0.13989182 -0.1429861 -0.105151705 -0.16563582
000300 49 5e ed 3d 21 8d c9 3d 63 fc c7 3d 83 6e e0 3d
       0.11590249 0.09841371 0.09764936 0.109585784
000310 66 00 35 be cb 25 40 bc c1 f4 03 3e c7 b7 8c 3d
       -0.17675933 -0.011727761 0.12886335 0.0687099
000320 80 24 8d 3d 3a 71 2c be 48 cd 0b be 93 56 b8 bc
       0.068917274 -0.16840068 -0.13652527 -0.02250222
000330 78 cc 0b be af 64 39 bd 21 6e d9 bd b0 e7 00 3e
       -0.13652217 -0.045262035 -0.106167085 0.12588382
000340 64 78 1b be 24 a4 0a 3e 87 30 33 3d ca 00 0b be
       -0.15182644 0.13539177 0.04374745 -0.1357452
000350 2b b1 19 3d fa a8 cf bd a5 06 23 be 33 04 97 bd
       0.037522476 -0.101396516 -0.15920503 -0.07373848
000360 1c 99 02 3e d0 d8 7a 3d 93 3c 96 bd 94 92 d1 3c
       0.12753719 0.061241925 -0.07335772 0.02558259
000370 f4 a7 c6 3d f1 c4 02 be d0 bb c4 bd 4b b2 58 bc
       0.09700003 -0.1277044 -0.09606135 -0.013226102
000380 15 f2 01 bd 73 8e e3 bd 08 cb 48 3d 8c fd cc 3c
       -0.031725008 -0.111111544 0.04902175 0.025023244
000390 72 dc 08 3e c2 6e 04 3e aa de 8c 3c 0c 39 35 3e
       0.13365343 0.12932876 0.017196018 0.17697543
0003a0 3a b5 03 be f1 db 90 bd 19 8f a3 bd c8 0a e1 bc
       -0.12862101 -0.070732005 -0.07986278 -0.027470961
0003b0 17 39 d5 bb a2 df 57 3e 14 df b6 3d 63 e9 41 bd
       -0.00650705 0.21081403 0.089292675 -0.047341716
0003c0 44 4d 87 bc 21 2b f8 3b 08 d3 a3 3d b7 e4 1e 3e
       -0.016516335 0.0075735007 0.079992354 0.15516935
0003d0 15 0c 14 be a7 74 49 3e 21 95 05 be 30 03 7a bc
       -0.14457734 0.19673406 -0.1304517 -0.015259549
0003e0 24 61 10 3d 68 02 d2 bd 24 77 0d 3e 59 28 36 3e
       0.03524889 -0.10254365 0.1381498 0.17788829
0003f0 e4 81 4e 3e e5 58 11 3e af 0d 0c 3e ef 54 f3 bd
       0.20166737 0.14194067 0.13677095 -0.11881434

hidden_layers.2.bias f4 [32]
000000 e7 5a dd 3c 03 03 98 3c 7f 99 68 3d 9f a9 39 3e
       0.027020885 0.018556124 0.05678701 0.18131112
000010 e5 70 80 3d fd 83 f7 bd b8 d8 2d be 4b 5a 12 3e
       0.06271533 -0.12085722 -0.16977203 0.14292257
000020 e6 c1 81 bd 40 42 05 3d 59 49 1d 3d 46 9e a3 3d
       -0.06335811 0.032533884 0.038400028 0.07989173
000030 00 ce fb 3d 6b 9c 0d be ae f4 8d 3d e4 eb 6a 3d
       0.12295151 -0.138292 0.069314346 0.05735387
000040 19 e3 c9 3d a9 53 f3 3d 02 20 33 be 66 56 84 3d
       0.098577686 0.11881191 -0.17492679 0.06461792
000050 ec 48 27 be 4f 0e 69 bc ba ef bf bd 13 12 f9 3d
       -0.16336411 -0.014224603 -0.09371896 0.121616505
000060 d5 c8 7a bd 01 89 30 be 8c ab c4 3d 1d 65 25 bb
       -0.061226685 -0.17239763 0.096030325 -0.002523727
000070 24 b5 bd bd a6 57 07 3b ce 68 85 bc 85 48 06 be
       -0.092630655 0.0020651608 -0.016285326 -0.13113602

output_layer.weight f4 [2, 32]
000000 4b e4 33 3e 55 0f 46 bc 63 81 06 be f6 fa 4f 3d
       0.17567556 -0.012088616 -0.13135295 0.050776444
000010 c5 cc 64 3d e7 dc 1c 3e 4e 04 e2 bc 41 52 45 3e
       0.055859346 0.15318643 -0.027589943 0.19269659
000020 c8 ba 80 3d 84 1a 6e 3e 6d c8 f2 3d fc 3d 7a 3c
       0.06285626 0.23252302 0.118546344 0.015273567
000030 66 1f 46 3c c3 d5 0d be fb ef fa bd bb 18 c1 3d
       0.012092447 -0.13851075 -0.12252804 0.09428545
000040 24 e6 3e 3e 78 1a 94 ba 9b a2 90 bd 50 6c 6a bd
       0.18642479 -0.0011299392 -0.070622645 -0.0572322
000050 ed a7 ce bd b6 e2 cf 3c 77 0c 39 3e 38 87 cd bd
       -0.10090623 0.025376659 0.18071161 -0.100355566
000060 cc b0 01 3e 0a 6c 2b bd 7b fe f9 3c 6c 37 08 be
       0.12665099 -0.04185108 0.030516854 -0.13302392
000070 43 b6 73 bc ee 70 86 3d 86 b6 06 be 10 02 a9 3d
       -0.014874998 0.065645084 -0.13155565 0.082523465
000080 90 99 13 be 9f 81 09 bb a9 01 05 3d e1 74 53 be
       -0.14414048 -0.0020981801 0.032472286 -0.20650055
000090 a9 91 cd 3d a3 cf da bd 30 f9 15 bd 30 3d 6c 3d
       0.10037548 -0.10684135 -0.036614597 0.05767554
0000a0 be 52 0e 3e db 66 49 3d ba b2 34 be 6c b7 38 be
       0.13898751 0.049170356 -0.17646304 -0.1803872
0000b0 f6 89 d8 3d 5a 3f 31 3d 3f ff 52 bd c7 81 a3 3c
       0.10573189 0.043273307 -0.051512953 0.019959344
0000c0 99 99 03 3d b9 2f 11 be c8 7d 0c be 74 57 e2 3c
       0.032128904 -0.14178361 -0.13719857 0.027629592
0000d0 a7 ee 9d 3d 56 dc ba 3d 9e b3 29 be 32 e4 37 bd
       0.07711535 0.09124057 -0.16572425 -0.04489536
0000e0 b1 2e 5f bd f4 32 c2 3c 1f 2a 64 be 3c 29 54 3d
       -0.054487888 0.023705937 -0.22281693 0.051797137
0000f0 3a ea f0 3d 8a ee 03 be 2f 11 28 be 31 a2 35 bc
       0.11763425 -0.12883964 -0.16412805 -0.011086033

output_layer.bias f4 [2]
000000 a2 e3 9d 3d e2 2f eb bd
       0.07709433 -0.11483742
